model1/best_model.pth (torch, 258018 bytes, 22 tensors)

conv1.weight f4 [6, 3, 5, 5]
00000000: 81b4 0b3e d532 0f3e 081f 123e 23f2 1abc
00000010: 8adc c7bd e33b f6bb a4f4 db3c 41a7 8e3d
00000020: 1912 ab3c d6fd 233e 1d48 8bbd 64c1 03bd
00000030: b550 8ebc cc50 23be e9f9 d73d 5e0a d8bd
00000040: bf14 2f3e 46e9 6a3d 6419 ed3d e7b9 29bd
00000050: 6a85 dd3d 8af0 033f ed85 853e c646 9e3d
00000060: 572b c1bd 3fc8 e6bd b7fd 10be 325b af3d
00000070: 3dfe 33bd 148c ea3d 28fb 15bc cf5c a3bd
00000080: 61c7 873d 9a99 a43d c477 fe3d f1eb a93d
00000090: 33ed 2abe 5ed8 503c ebdb 2dbe 7db3 a73d
000000a0: 2f6a f83d 1143 6c3e 05d1 bb3d 7647 a9bc
000000b0: 6954 85be 4252 0f3e 5b8b a63e 1148 713e
000000c0: e538 d13d ff29 01bd 9d5e 39bd 6e9d e4bd
000000d0: ad2a 9d3d 3453 11be d9f8 bb3d 34be 5bbd
000000e0: 0b57 13be fa69 18be 61e8 0e3e 7b6a 67bd
000000f0: 9212 223c 98de f7bc c795 0fbe 8850 b9bb
00000100: 6f63 d83d 01cd 1fbd 3583 ba3d 0812 823c
00000110: 20b6 893c fb18 45be 244e 92bd 417c a53e
00000120: f4ed 22bd 62b9 3d3d 2273 43be c17a 833d
00000130: 5c6a aebd 3f26 1bbe 8cd1 643d e78d 873c
00000140: 945b 37bd fbd0 1b3e 895a 8f3d fefb c6bd
00000150: e57b babd 23d0 513e e2cb 583e e157 06be
00000160: d899 7e3b 5253 22be eb47 5b3d 7305 3f3e
00000170: ad4e b13d fa15 e8bc 601e 93bd 1068 0c3e
00000180: 6feb e33d ab6c d1bd 8497 7cbe 6758 dbbd
00000190: 44d4 0b3e ab30 d0bd e446 8bbd 6806 88bd
000001a0: 3bc8 07bd 3bf2 323e 953b 813d f5ff cc3c
000001b0: 14cc ebbd 5aed 983d cc94 883d 6591 5b3e
000001c0: d28a 08bd 18f5 65be 2fca b33c fa79 6f3e
000001d0: df8d 103e dbbf d5bd 402c a8bc 3df9 3dbe
000001e0: 2789 4c3e 259f e3bc 0031 1fbd f44e d0bd
000001f0: 676f 0fbe 2f9a 9bbc 69cc 863c 1bc1 993c
00000200: b170 033d 017e cdbd eaad 793d 5c8e dc3d
00000210: c24c 853a 133a 533d 8d54 22bd 918e c3bc
00000220: fe1f 35bd d39c aabd 35d1 d2bd a4dd 4ebd
00000230: 2fa4 653d d3f4 813e e9b7 1abe 19ce 27be
00000240: abfa dabc 9519 2d3e 3295 b43d d684 9d3c
00000250: 7a45 34be 3676 80bd 0e1c 1bbe 312f 183e
00000260: 910e b43d e80d 1ebe f0ed 84be 050a cd3d
00000270: 4fe0 183d 327d 9f3d 3c8c 893e 8fe2 683c
00000280: ea71 acbd 8499 7cbd 12b0 003d df52 86bd
00000290: ab7c 083e ded9 f63c fbdf e93c ceab 9bbd
000002a0: a885 163d b7a1 47bc 8dc8 b3bd 1329 c0bc
000002b0: fe31 b7bd 2e45 063e d5df 9fbc d98e 073e
000002c0: 56d0 d4bd 2f93 a7bd f777 003e 74c1 053e
000002d0: cb64 593c 3086 b33d 4249 dc3e a94c 4b3e
000002e0: d72b 1a3e 7d5d 433d 1e71 8a3d 8240 d0bd
000002f0: 983d 8b3e a39e 4b3e 14f7 11be 72f1 683c
00000300: 44ad 403d 1620 14be 04aa a9bd 18cb 323d
00000310: 71d6 01be a2b0 cfbd a3ae ac3d 8a7f 043c
00000320: 7260 f73d 4e3c c9bd 31b3 60bd d31d 113e
00000330: 15ab d3bd 995f d13d 348d 713e 27f5 b43e
00000340: 6ada 5e3e dd48 6b3e 9d4f 9c3b 7f18 46be
00000350: ac81 50bd 9bda 4f3e cd4d 8abc 41b8 363d
00000360: 3dd6 5cbe b345 573d 8382 8a3d a787 85bc
00000370: e779 21be 48b3 b2bd 033b 4e3c 038c f2bd
00000380: d217 81bd 348d ad3c 8bbe a43d 6608 f4bd
00000390: 64cd 04be a5a1 163d 35cf f2bd 0386 bf3d
000003a0: a82c 21be ad15 08be 8574 c5bc 922d 213d
000003b0: 3e7f 2ebd 6d67 7e3d 2250 1ebe 2836 a13c
000003c0: 194b 8fbc b8a3 f23d 15e8 b33d 0bb1 473e
000003d0: 8055 bbbd 251e 5cbd 6693 6fbd baba 763e
000003e0: dc97 d13c 8d2b bd3c 091a 50bc 6e73 69bd
000003f0: 062f d9bd 83fe c4bd 4570 503d 0875 91bd
0.13643076 0.13984235 0.1426965 -0.009457144 -0.09758861 -0.0075144633 0.026850052 0.06965495
0.020882653 0.160148 -0.06800864 -0.032166854 -0.017372468 -0.1594879 0.105457135 -0.105488524
0.17097758 0.057351373 0.115771085 -0.041437056 0.10816462 0.5153891 0.2607874 0.07728343
-0.094320945 -0.11268663 -0.14159285 0.08562316 -0.043943632 0.11452499 -0.009154119 -0.07976686
0.066298254 0.0803711 0.12425187 0.082969554 -0.16692047 0.012746898 -0.16978423 0.081885315
0.12129628 0.23072459 0.09170727 -0.020663958 -0.26040962 0.13996223 0.32528195 0.23562647
0.1021593 -0.03153419 -0.045256246 -0.1116284 0.076741554 -0.14191896 0.09178323 -0.05364819
-0.14388673 -0.14884177 0.13955833 -0.056498032 0.009892123 -0.030257508 -0.1402198 -0.005655352
0.105658405 -0.039013866 0.09107057 0.015877739 0.016810477 -0.1924781 -0.071438104 0.3232136
-0.03977771 0.046319373 -0.19086888 0.06419898 -0.0851638 -0.15151308 0.055863902 0.016547156
-0.04476507 0.15216438 0.0699969 -0.097160324 -0.09105662 0.20489554 0.21171525 -0.1311946
0.0038849022 -0.15852097 0.053535383 0.18654422 0.08657584 -0.028330792 -0.07183528 0.13711572
0.1112889 -0.10225805 -0.24667174 -0.10710221 0.13655192 -0.10165533 -0.06800631 -0.06641847
-0.03314994 0.17475216 0.063101925 0.025024394 -0.11513534 0.07467146 0.06669006 0.21442182
-0.033335514 -0.22456777 0.021946995 0.23386374 0.1411662 -0.10436984 -0.020528913 -0.18552108
0.19974194 -0.027785847 -0.03886509 -0.10171309 -0.1400734 -0.018994419 0.016454892 0.018768838
0.032089893 -0.10033799 0.060956873 0.107693404 0.001016997 0.051569056 -0.039631415 -0.023871692
-0.044219963 -0.08330693 -0.10293809 -0.05050434 0.05606478 0.253821 -0.15109219 -0.16387214
-0.026730856 0.1690429 0.08817519 0.01922838 -0.17604628 -0.06272547 -0.15147421 0.14861752
0.08791841 -0.15434992 -0.25962782 0.10011677 0.037323292 0.07787551 0.26864803 0.014214172
-0.08420165 -0.06166984 0.031417914 -0.06558775 0.13328807 0.030133184 0.028549185 -0.076011285
0.03674856 -0.012184552 -0.087784864 -0.023457086 -0.08945082 0.13112327 -0.019515911 0.13238086
-0.103912994 -0.0818237 0.12545763 0.13062078 0.01326866 0.087658286 0.4302464 0.19853462
0.15055786 0.04769658 0.06759857 -0.10168554 0.2719543 0.19884734 -0.14254409 0.014217721
0.04704024 -0.14465365 -0.08284381 0.043650717 -0.12679459 -0.10141112 0.08431747 0.008087048
0.12078942 -0.09825955 -0.05485839 0.14171533 -0.10335366 0.10223312 0.23589021 0.35343286
0.21763006 0.22977014 0.004770233 -0.19345282 -0.050904915 0.20298235 -0.016882801 0.044609312
-0.215661 0.052556705 0.067631744 -0.016300036 -0.15769158 -0.087256014 0.012587312 -0.11843111
-0.063033715 0.021185495 0.08044156 -0.119156644 -0.12968975 0.03677525 -0.11855928 0.093517326
-0.15739691 -0.13289519 -0.024103412 0.0393501 -0.042601816 0.062110353 -0.15460256 0.019679144
-0.017491864 0.11847633 0.087845005 0.1950113 -0.09147167 -0.053739686 -0.05849018 0.24094668
0.025585108 0.023092056 -0.01270152 -0.056994848 -0.10604672 -0.09618857 0.05088832 -0.071024

conv1.bias f4 [6]
00000000: 14ad a73c 0a62 45ba b529 19bd a457 fcbb
00000010: e514 80bd ee58 c2bc
0.020468272 -0.00075295626 -0.03739329 -0.0077008773 -0.06253985 -0.023724046

bn1.weight f4 [6]
00000000: c668 783f 3845 3c3f eec6 803f d250 533f
00000010: eb9b 843f 0c35 843f
0.9703487 0.7354312 1.0060709 0.82545197 1.0360082 1.0328689

bn1.bias f4 [6]
00000000: 80a4 debe 4d84 e83c 1189 c0be 572a 84bc
00000010: adbe bbbe 0baa debd
-0.4348488 0.028383398 -0.37604573 -0.01613347 -0.36668912 -0.10872277

bn1.running_mean f4 [6]
00000000: 3e2f 5a3f 35b2 95bc 18d6 3d3f 63cb ca3d
00000010: ed59 ee3e d7db f7bc
0.85228336 -0.018273452 0.74154806 0.09902074 0.46552983 -0.030256195

bn1.running_var f4 [6]
00000000: 0437 c83f 47f9 963f 619b db3f 800d 083f
00000010: b521 6a3f 3459 8b3e
1.564179 1.1794823 1.7156793 0.531456 0.9145768 0.27216494

conv2.weight f4 [16, 6, 5, 5]
00000000: b6de 0ebd 1d07 e83d 90e8 9cbc 93b7 72bd
00000010: 4dfa d0bd 7d62 453d 35c2 5e3d 0b0e c2bc
00000020: 0f66 2d3d 82d7 babd 7eec 0e3e d92b a43d
00000030: 12c6 fbbb f511 5a3d 6b26 a1bd 072b f33d
00000040: 61a3 e83c 0565 a63d 7994 aebd b97c b8bd
00000050: 017d bc3d b45d dabc 63c1 a5bc 62a1 fabd
00000060: 86a9 eebd 9aa6 a53d e313 cebb 75c4 d5bd
00000070: 4de4 f5bd 1979 983d c7dd 913d caa4 39be
00000080: 74d2 76be 4075 afbe 9574 f7bd 6117 03bd
00000090: 86e5 a5bd fc81 89be c640 9dbe eb24 48bd
000000a0: 614a 823d d796 22bd 888c 2abe c724 cbbe
000000b0: c686 54be 850d 223d 3b0b 53bd c7b8 13be
000000c0: f38f 31be e56b fabb 2902 063d 3571 b83d
000000d0: 1317 f03d 4bd5 f13c 3085 f73d 7d5a f33b
000000e0: ade1 163e 0b2c 35bd 716e 833a d51a 7bbb
000000f0: 6c3e bd3c 31ed e239 eacf 673c 78b3 bbbd
00000100: 1bd5 96bd caf7 a23d f731 8e3d 4336 6dbd
00000110: bce1 4fbd ad43 6c3d 36d7 af3c e4e8 8bbc
00000120: f98c 1dbc e30a 40bd 818b 4d3d 0667 2fbd
00000130: 9593 373a 0a3e 8bbd 9eca 3f3d 662c d53d
00000140: 9b0e 12be d2bb ceb9 5ffc d63d c09a 003e
00000150: 4158 0d3c 4ce6 1fbd 1d5a 123c 2396 f0bc
00000160: 2cd2 c5bd 6fef 593a b4be 9e3c 5894 b4bd
00000170: 7c2f 9ebd 8c8e 30ba f48a 28bd afef 663c
00000180: 0af9 c6ba c52a a8bd abb3 5f3d 6f62 873d
00000190: bf57 4c3d 3f49 cfbd 1d4a 8ebc df76 12bd
000001a0: 4fa8 7e3d aadc a9bd 63af 76bd 6b00 163d
000001b0: c3fd 0fbe 83da ca3c 340c fb3a 378f 37bd
000001c0: 0f5b 24bd 5a50 abbd 9883 11bc caf4 69bd
000001d0: eb67 28bc a6fd e4bd 1aa0 dcbd 450a 12bd
000001e0: a101 30bd aeeb 1b3d 0197 abbd d4aa 713c
000001f0: 50e7 30bd cdb5 863d de6c a5bd 342d ba3c
00000200: 7862 003e d865 f73c 02b1 883d 80b4 b33d
00000210: 0a86 edbb 8c85 693d 64b5 b73c 7528 c53d
00000220: 301b 823c f9a5 07bd dc23 19be 0e1a 5bbd
00000230: be87 72bc 662c 9ebc 4546 51be 5b82 20be
00000240: b14d 983d d100 dd3d 6840 cf3d 598e e43c
00000250: d27d b4bd c29d 01bd 5b68 3abe b9b9 14bd
00000260: 03a8 dc3d a014 b8bd 0a2d 6a3d 0845 d6bd
00000270: 60d3 253c 33b3 80bd 5203 e5bd 8ddd 38bc
00000280: 09d7 023d 3d07 70bd 6a60 45bd 4da9 81bd
00000290: 0e3f b03d b9e2 963d 8bec c8bc 3bcd 573d
000002a0: ff5b f23d eefc d13d e1b7 55bd 1a91 bc3d
000002b0: b79a 923d ea36 1b3e 6157 e13d 622b 98bd
000002c0: 3126 b1bd 7d12 973d c9f6 c83b b5eb c73d
000002d0: 929a c63c 9241 a2bd 95e6 ff3c f203 d93d
000002e0: 2ba6 09bd cd11 1ebb d605 eabd eba2 81bd
000002f0: 2ff0 3bbd 4cf3 91bd 9b2b a9bd cb30 843d
00000300: c779 bebd e934 6bbd c850 073d ce5d dd3a
00000310: d99a d7bb 9a71 59be 5efb 1abe 4b9f 1cbe
00000320: 5e44 66be 620d 7dbc 4ba9 17bd dc1b bb3d
00000330: f2f5 3a3e adc6 debd 50b6 83bd 9afa 463c
00000340: 6d01 82bd 0768 a83c 853c d7bd 7a16 973d
00000350: 55be 30bc 6f42 39bd 5e9e a33d 1124 c63d
00000360: e96d bfbd f12c 24bd a78b 873c 336e ea3d
00000370: 9a79 c23c b300 afbb 02c4 393e bf53 243e
00000380: 91eb 723e a3c3 6e3d 5bd9 bebd 1d94 0abe
00000390: 8448 723d 3d58 a539 b901 19bd f18b 833d
000003a0: a924 a9bd 38e7 1abc d4c6 843d 412c d93c
000003b0: 0d9a 27bd 038a b8bb 93ca c0bd c828 0b3d
000003c0: c790 90bb 6d4f 67bd 2790 f7bd 9439 0cbd
000003d0: f425 bc3d e5cb 10bd 9a86 09bc 3b9f 653b
000003e0: 2698 a63d d429 f53d c489 4abe f661 29bd
000003f0: e5c3 513d f963 52bd 66e9 1e3e 48cc b0bd
-0.034880362 0.11329482 -0.019153863 -0.0592571 -0.10203991 0.04818963 0.05438443 -0.023688337
0.04233366 -0.09123136 0.13957402 0.08016176 -0.007683524 0.05323978 -0.07868656 0.11873441
0.028398218 0.08124737 -0.08524413 -0.09008164 0.0920353 -0.02665601 -0.020233816 -0.122378126
-0.11653428 0.08088417 -0.006288992 -0.10437862 -0.120064355 0.074449725 0.07122379 -0.18129268
-0.24103719 -0.34269142 -0.12082783 -0.032004718 -0.08100419 -0.26856983 -0.3071348 -0.048863333
0.06361843 -0.039694633 -0.16655171 -0.39676496 -0.20754537 0.039563674 -0.051524382 -0.14425956
-0.17340069 -0.0076422566 0.032716904 0.090059675 0.11723151 0.029520651 0.120859504 0.0074265585
0.14734526 -0.044231456 0.0010027421 -0.0038315554 0.023101054 0.000432828 0.014148692 -0.0916509
-0.073648654 0.07957418 0.06943124 -0.057913076 -0.050752386 0.05768173 0.021464925 -0.017078824
-0.00961613 -0.046885382 0.05018187 -0.04282286 0.00070028874 -0.067989424 0.04682409 0.10408859
-0.14263384 -0.0003943132 0.10497355 0.12559032 0.008626998 -0.039037988 0.0089326175 -0.029368466
-0.09659228 0.00083135715 0.019378044 -0.08817357 -0.07723901 -0.00067351083 -0.04114814 0.014095231
-0.0015180421 -0.08211283 0.054614704 0.066105716 0.04988837 -0.101213925 -0.017369324 -0.035757896
0.06217223 -0.082940415 -0.060225856 0.036621492 -0.14061646 0.024762398 0.0019153417 -0.044814315
-0.040125903 -0.08364935 -0.008881472 -0.057118215 -0.010278682 -0.11181192 -0.107727244 -0.035654325
-0.042970303 0.03806656 -0.08378411 0.014750201 -0.043189347 0.065776445 -0.080774054 0.022726633
0.12537563 0.03019993 0.066743866 0.08774662 -0.0072486447 0.057012126 0.022425361 0.09626857
0.015882105 -0.03311727 -0.14955086 -0.053491645 -0.014802871 -0.01930828 -0.20436962 -0.15674727
0.074366935 0.10791171 0.101197064 0.027899908 -0.08813061 -0.03164459 -0.18203871 -0.03630993
0.10774233 -0.08988309 0.05717186 -0.104623854 0.0101211965 -0.062841795 -0.11182274 -0.011283291
0.031943355 -0.058600653 -0.04818765 -0.0633112 0.08605777 0.07367463 -0.024526855 0.052685957
0.11833953 0.10253321 -0.052177314 0.092073634 0.07158416 0.15157667 0.11002994 -0.074301496
-0.086498626 0.07376573 0.0061329347 0.097617544 0.024243627 -0.07922663 0.03123788 0.10596456
-0.033605736 -0.0024119497 -0.11426894 -0.06329902 -0.045883354 -0.07126483 -0.0826027 0.06454619
-0.09300571 -0.057423506 0.033036023 0.0016888918 -0.0065797386 -0.21234742 -0.15134951 -0.1529514
-0.22487018 -0.015445085 -0.037026685 0.09136173 0.18257883 -0.10877738 -0.06431258 0.012144709
-0.06347928 0.020557417 -0.1050959 0.07377334 -0.010787566 -0.04522937 0.079891905 0.09674848
-0.093471356 -0.040081922 0.016546084 0.114468 0.023739625 -0.0053406595 0.18141177 0.16047572
0.23722674 0.058292042 -0.09318801 -0.13533063 0.059151188 0.00031536995 -0.03735516 0.06423176
-0.082589455 -0.009454541 0.06483236 0.02651036 -0.0409184 -0.0056316867 -0.09413638 0.03397444
-0.00441179 -0.05647223 -0.12088042 -0.0342346 0.091869265 -0.0353507 -0.008393908 0.0035037536
0.08134489 0.11970869 -0.19779116 -0.04135319 0.05121221 -0.051364873 0.15518722 -0.086327136

conv2.bias f4 [16]
00000000: cabd 62ba c979 323d a22f 9b3c db91 203d
00000010: dbad 19bc 8b59 993c b8e1 4bbd b040 a5bd
00000020: 7803 11bd ce55 883c fe08 e3bb 9422 75bc
00000030: 9eb3 74bc a179 a8bd 0144 83bd 3cb7 3dbc
-0.00086494966 0.043573175 0.018943612 0.0392016 -0.009379829 0.018719455 -0.04977581 -0.08068979
-0.0354037 0.016642477 -0.006928562 -0.014961857 -0.014935402 -0.08226324 -0.06409455 -0.011579331

bn2.weight f4 [16]
00000000: 9965 793f 5adb 843f 93e1 6c3f c4ef 6a3f
00000010: f558 803f e959 8e3f 913a 603f 7c8a 4e3f
00000020: 7882 6e3f 4e45 6d3f 960f 7c3f fbed 753f
00000030: 038d 8a3f ec0b 8d3f 850c 893f aae3 833f
0.9742065 1.0379441 0.925317 0.91772103 1.0027148 1.1121188 0.87589365 0.8068006
0.9316783 0.92683876 0.9846128 0.96066254 1.0824283 1.1019263 1.0706946 1.0303853

bn2.bias f4 [16]
00000000: d69b a6bd 7704 10be 4de8 59be 3cbe a7be
00000010: 06e5 04be b692 46be 99f1 36be 1bd4 9bbe
00000020: c19d e9bd f8e1 47be 48b2 56be 070a 94be
00000030: 7777 36be 5914 34be 9bc7 5dbe 0507 6dbe
-0.08135192 -0.14064203 -0.21280022 -0.32762325 -0.1297799 -0.19391903 -0.178656 -0.3043526
-0.11407042 -0.19519794 -0.20966446 -0.289139 -0.1781901 -0.17585887 -0.21658175 -0.23147209

bn2.running_mean f4 [16]
00000000: 538b 0fbf 6700 30be f228 15be 7c7c bf3e
00000010: db5c b0be 2a11 09be 482a bcbe 6a1c 69be
00000020: 5b57 70be 8f6e b4be f8fd 2ebe 9671 1bbe
00000030: 2585 89be 115d e1be da8f d2be 8f51 d8bd
-0.56071967 -0.17187653 -0.145664 0.37399662 -0.34445843 -0.13385454 -0.36751008 -0.22764745
-0.23470823 -0.352406 -0.17089069 -0.15180048 -0.26859394 -0.44016317 -0.41125375 -0.10562431

bn2.running_var f4 [16]
00000000: 5bcd 483f 0b3f 933e 8307 273e 8d7e aa3e
00000010: ff2c bc3e 8c39 093e c69b 883e 1149 ed3d
00000020: 3c48 ac3e 59f5 d63e d927 b53d 91ba 4c3e
00000030: d5d9 473e 8eca 4a3e d9fd 893e db30 ff3d
0.7843835 0.28759035 0.16311459 0.33299676 0.3675308 0.13400859 0.26681346 0.11586202
0.3364886 0.4198406 0.08845491 0.19993044 0.1951669 0.19803831 0.26951483 0.1246049

conv3.weight f4 [120, 16, 5, 5]
00000000: da02 6cbb 439d acbc 2d34 05bd 0229 4e3d
00000010: a711 00be f8ec 85bc f0b1 b2bc affe a5bd
00000020: 474c 77bd 182f b1bc 0046 003c 0f2a 1fbc
00000030: f3aa a13c 4fd5 da3c c0ce 1bbd 4ce0 bf3d
00000040: 431b 4f3d 76c6 443c 48cb 3dbd 8c83 1dbc
00000050: eb16 093e d800 a4bc 595b 92bd 3ef2 7a3c
00000060: 7292 8abd 3594 d63c 8113 9abc 8141 44bd
00000070: ee8d de3d 2fb7 243d 86d3 a9bd 26f1 b9bb
00000080: 87ce 7bbb 074f 973c c06b f33d 8ca6 cabd
00000090: 0f6c a6bc 75a1 bf3d 020d 523d 8b41 443d
000000a0: 0310 05be 4d2d 303d ab65 1cbd 3639 a7bd
000000b0: 932b 7e3c 5a04 de3c 09c9 233d 3678 5fbb
000000c0: 04f3 44bd 71be 1dbd a5e1 673c 82ca 6c3d
000000d0: 7b30 f93d 98fd 9bbc c148 fb3c 667a 23bc
000000e0: a5b4 c63d d105 8d3c 06b6 41bd 1ab2 88bd
000000f0: 5dce 673d a05d ba3d c95e c7bc a4cd fc3c
00000100: 9702 21be 8560 e03c a243 ddbd 26d9 a1bc
00000110: fdf3 6b3d 6d02 c5bd 1f2b 06bd 0587 8ebd
00000120: 7f36 96bb 92d2 c9bb bbc0 8bbc acd4 8a3c
00000130: 45d1 883c 522d a73b 3e2d 35bd e292 223c
00000140: fa12 ad3d baeb ea3d 51fc 69bc 0ec1 ef3d
00000150: 44ea 903d c7a6 743d 07b6 bb3d 24de aebd
00000160: 7a4f b13d 44a7 173d 522d bf3d c0da 953d
00000170: acf8 06be 7e52 003e cf7a 623d 75b1 2dbd
00000180: 2181 13bd d615 a7bd fb09 18bd fcbf 6b3d
00000190: d5f0 c03d 4a13 573c 2c0c 30bd 7a63 ce3d
000001a0: bace 243e ee02 24bd e519 ea3c 772a 463d
000001b0: 7a05 e93d 7fce f83b 4c57 1ebe 82dd 9e3c
000001c0: ac30 f93d 525d 913d 86ae efbd eb66 a4bd
000001d0: 8fc5 453c 1f5a 4d3d 85a6 4bbd af33 0abe
000001e0: f459 e7bc b06b 5c3d a265 173d c324 c7bd
000001f0: 5560 fdbd 0f90 233e d325 913d 59f3 84bd
00000200: 81d7 9dbd 8f0e ce3d 51b7 a53b 57df c33c
00000210: f0ec fe3c 1a83 78bd 7bf9 533d 40b1 013d
00000220: b2b7 37be 0783 213e bc0d d9ba 5b46 003c
00000230: 000b 4d3d 1136 e3bd a4c4 e03d 0259 f13c
00000240: cfb1 f1bc 57c6 ecbd 0887 953c c002 293e
00000250: 2cd8 8c3d 935a 91bd 2a13 ccbd f0cc ed3c
00000260: 02bc 2cbc 8d3d 28be 7522 15be c73e 5fbc
00000270: e6bb 1c3c 40c6 3d3d 9e68 99bd 15b0 debd
00000280: 2f06 92bd 354c 98bc fdf2 453c a640 193c
00000290: 9f20 973b ad6d ac3c aef5 ce3d eb73 973d
000002a0: 91d1 363c f7b2 26bd 7f4a 9ebc e4bb 983d
000002b0: 2d94 b3bb 9158 de3c 9613 55bb cb75 8e3b
000002c0: b191 c83c d7ac 83bd 273d 253d c7c6 cbbb
000002d0: cadf 87bd 330b 423d c454 0fbd 62f1 b0bc
000002e0: b99d a6bc 2db6 0bbc fb45 a2bb 774b 8fbd
000002f0: 37db b6bc 22be debb 9840 babc 9e0d 58bd
00000300: d547 6abd 5914 4b3c efda 2cbd 68c5 e13b
00000310: 8de6 9cbc c4c1 b03c 37a2 7c3c aaac a93b
00000320: 6402 fb3d 33f8 dd3c a410 913c f076 473c
00000330: 09b0 7a3d 2c12 01bd 9dab 583d 125f 423d
00000340: 2b5e 5bbc f0f5 813d e037 f6bd dcd6 283d
00000350: 1d51 3c3d 1b6e 54bb 55b3 c1bc 82f1 cebd
00000360: fd18 193d 29f2 7ebc cd7b 8d3c ae2b c6bd
00000370: d8e8 aa3d 35a5 9eba 329f 94bb 749a 56bd
00000380: bf59 28bd e514 b23c 9d48 15bd 2ef0 08bd
00000390: 339b 48bd 29e8 9bbc 3bc2 76bc e605 6f3d
000003a0: 964a 8dbd 349d 853d 83b6 98bd 5ef7 523c
000003b0: 829e 593d cafa 5ebd 0385 cc3d 271a 08be
000003c0: 21e5 a53b 789d 81bc 3d21 433d d6fb a93b
000003d0: 2d53 88bc fb3b 343d 7fb8 133c f0eb 833c
000003e0: a9b9 2abd 70f2 673d 4f95 a3bc 7eeb 023d
000003f0: 737b bb3d 1bfb d63c 9a7c 6fbc cbac d33b
-0.0036012442 -0.021071082 -0.03252046 0.050332077 -0.12506734 -0.016348347 -0.021813363 -0.08105218
-0.060375478 -0.021628901 0.007829189 -0.009714617 0.019734835 0.026713042 -0.03803897 0.09368953
0.05056311 0.012010207 -0.046336442 -0.009613883 0.13387649 -0.020019934 -0.071463294 0.015316544
-0.067662135 0.026193717 -0.018808128 -0.047914032 0.10866915 0.04021376 -0.08292298 -0.005674499
-0.003842266 0.0184703 0.11885786 -0.098950475 -0.020315198 0.09356967 0.051281936 0.04791407
-0.12994389 0.043011952 -0.038182896 -0.08165209 0.015513319 0.027101684 0.039986644 -0.003409875
-0.04808332 -0.038511697 0.014152919 0.057810314 0.1216745 -0.019041821 0.03067434 -0.0099779125
0.09702424 0.017214688 -0.04729273 -0.06674595 0.056593288 0.09099889 -0.02433719 0.030859776
-0.15723644 0.027389774 -0.108039156 -0.019756865 0.057605732 -0.09619603 -0.032755967 -0.06959347
-0.004584133 -0.006159135 -0.017059674 0.016947113 0.01670135 0.005101838 -0.0442326 0.009922715
0.08450885 0.114707425 -0.014281348 0.11706744 0.070759326 0.059729364 0.09165578 -0.08538464
0.08657737 0.03702475 0.09334816 0.07317114 -0.13180798 0.12531468 0.0552929 -0.042405564
-0.03601182 -0.08158462 -0.037118893 0.057556137 0.09420935 0.013127157 -0.042980358 0.100775674
0.16094485 -0.040041856 0.0285768 0.04838034 0.11377998 0.0075929756 -0.15462989 0.019392733
0.121674865 0.070978776 -0.117032096 -0.080274425 0.012071027 0.050134774 -0.049719352 -0.13496278
-0.028241135 0.053813636 0.03696216 -0.097238086 -0.123718895 0.15972923 0.070872925 -0.064917274
-0.0770712 0.100613706 0.0050572534 0.023910208 0.03111884 -0.060671903 0.051751595 0.03166318
-0.17941168 0.15772639 -0.0016559879 0.007829274 0.05005932 -0.11094297 0.10975006 0.029461388
-0.029503731 -0.11561268 0.018252864 0.16504955 0.06877169 -0.07097354 -0.09964593 0.029028386
-0.010542871 -0.1642973 -0.14563926 -0.013625807 0.009566283 0.046331644 -0.07490657 -0.10873429
-0.07130086 -0.018591026 0.012081859 0.009353792 0.004612043 0.021048391 0.101054534 0.073951565
0.011158363 -0.040698018 -0.019322632 0.07457712 -0.0054803104 0.027141841 -0.0032512895 0.004347538
0.024483534 -0.06429451 0.040341523 -0.0062187645 -0.06634481 0.04737396 -0.03499295 -0.021599475
-0.02033888 -0.008527321 -0.00495219 -0.06996816 -0.022321327 -0.006797568 -0.022735879 -0.05274736
-0.05719741 0.012394988 -0.04220098 0.0068899877 -0.019152904 0.02157677 0.015419534 0.005178054
0.12256315 0.02709589 0.01770813 0.012174353 0.061203036 -0.03151147 0.05289804 0.047453947
-0.013389151 0.06345737 -0.12022376 0.04122053 0.045975793 -0.003241426 -0.023645082 -0.10104658
0.037377346 -0.015560665 0.017270947 -0.096763 0.08345193 -0.0012103679 -0.004535579 -0.05239339
-0.041101214 0.021738479 -0.036446203 -0.03343218 -0.048976135 -0.019031601 -0.015060957 0.058355235
-0.06898992 0.06524125 -0.07456686 0.01287636 0.05312968 -0.05443839 0.099863075 -0.13291226
0.0050627147 -0.015822157 0.04763912 0.005187492 -0.016641224 0.044002514 0.009016155 0.016103715
-0.041680966 0.05662769 -0.019968657 0.031962864 0.091544054 0.026242783 -0.01461711 0.0064598075

conv3.bias f4 [120]
00000000: 206c fabc bac6 ccbb 2aee 3139 9e0e 8b3c
00000010: fd97 8c3b fb68 4a3c aa71 993c 25fe 273c
00000020: 9e88 d6bb ed8c 96bc fe01 003b de0a f6bb
00000030: bce9 a5bb 0cb0 33ba 3f42 a9bc 851b d7bb
00000040: 0db1 7fbb b48d c43c e04d b83b 62fe 473a
00000050: 1885 303c cd4a 573c 9c3e a539 3a3f e73a
00000060: c82a 78bc 6a1e 313c 2290 313b 40e3 cf3b
00000070: 5197 6cbc 85d6 c8bb e56d 97bc 4336 613c
00000080: 3d1f e8bb bd82 dcbc 7a36 f93b 63e1 4abb
00000090: f501 cebc da05 16bc f0ac 303c 4027 1cbc
000000a0: 848a 7a3b 05ba 1c3b 72d2 d63b f63a e0bb
000000b0: 563e 21bc 6f5c a8bb 47b7 b93c 2589 ee3c
000000c0: 53f1 473b c00d 083c 12d7 ff3c 0ecb e4bc
000000d0: 4f54 0cbc 5334 733c 2221 20bc 2971 51bc
000000e0: 9f8d c63b 4a5d f93b 6205 ddbb 93db 79bb
000000f0: 8d09 53bc e918 1fbb d62f ddbb efea 2a3c
00000100: 4cf9 803a 5c2e 4e3b 80be ce3c a79b cfbc
00000110: 8d7d 9d3c fd69 f8ba 5ebb 243c f9a7 e2ba
00000120: d5f1 1fbc 2364 93bc f32a 7b3c 9bb2 383c
00000130: 733e 903a 7928 c63a 4e07 7cbb 07e8 59b9
00000140: 47df 03bd d837 ee3a fab0 953c af37 32bb
00000150: 22a5 70bb 8fc6 a13c ca57 8dbb c5cc 733c
00000160: 9e33 dd3c b4ea f639 5d6e 4eba f3e9 21bb
00000170: 105b 12bc 4d28 6339 a43c dcbb c23a c9bb
00000180: 2ee3 1abc 887d 32bc b1a2 92ba 1857 873b
00000190: 3616 fa3b 76f3 cc3a c96f 9abb 4a55 7abc
000001a0: af96 693c 3160 c43c c56b 3abc ae1e 89bc
000001b0: aa6b 7b3c 7457 44b9 89d3 183c 19b2 b1bc
000001c0: 7c98 45bc 0bea b5bb 90af e9bb 6136 a33b
000001d0: a6e6 0d3c ab84 81bc fdf3 8dbb d4a5 233c
-0.030569136 -0.006249276 0.00016968758 0.016974743 0.0042905794 0.012354131 0.018730957 0.010253464
-0.0065470478 -0.018377746 0.0019532437 -0.0075086197 -0.0050632637 -0.0006854541 -0.020661471 -0.00656456
-0.0039015443 0.02399335 0.005624518 0.00076291536 0.0107739195 0.0131403925 0.000315179 0.0017642744
-0.015146919 0.010810474 0.0027093966 0.006344229 -0.0144403735 -0.0061290883 -0.018485019 0.013745847
-0.007083802 -0.02691781 0.007605371 -0.0030957095 -0.025147418 -0.009156669 0.010783419 -0.009530842
0.0038229534 0.0023914587 0.0065558488 -0.006842966 -0.009841522 -0.005137972 0.022670401 0.02911813
0.003050883 0.0083040595 0.031230483 -0.027928855 -0.008565023 0.014844018 -0.0097735245 -0.012783327
0.006059363 0.007609998 -0.0067450264 -0.0038125261 -0.012880695 -0.0024276322 -0.0067500873 0.010431989
0.0009839921 0.0031460738 0.025237322 -0.025342776 0.019224906 -0.0018952485 0.010054437 -0.0017292491
-0.009762247 -0.017992085 0.015330064 0.011273052 0.001100494 0.0015118263 -0.0038456502 -0.0002078117
-0.032195356 0.0018174602 0.018272866 -0.0027193835 -0.003671952 0.019748 -0.004313444 0.014880364
0.027002152 0.00047095644 -0.0007874722 -0.0024706095 -0.008932844 0.0002166342 -0.006721096 -0.0061410377
-0.009453578 -0.010894187 -0.0011187402 0.0041302554 0.0076320423 0.0015636522 -0.004713033 -0.015279124
0.014257117 0.023971649 -0.011378233 -0.016738262 0.015345493 -0.00018724595 0.009327778 -0.021691369
-0.012060281 -0.0055515817 -0.0071315244 0.0049808477 0.008660948 -0.015810331 -0.004332064 0.009988267

bn3.weight f4 [120]
00000000: bf70 9c3f 04f5 8b3f 45d6 8e3f 754a 943f
00000010: ca3d 8b3f 63e6 8d3f 7764 883f 4b62 973f
00000020: d067 983f 924c 943f 36df 923f 7cbe 8d3f
00000030: 746f 873f 4aeb 8b3f 1e24 8f3f c8ba 933f
00000040: 7aba 813f ff77 8c3f 4366 8d3f a194 943f
00000050: ddc9 923f 7d54 923f aaee 833f 93a3 863f
00000060: 6133 933f 652d 8f3f b133 8d3f 95af 983f
00000070: 662f 8b3f 43b9 8f3f 7d06 8d3f 6738 833f
00000080: 5c6a 8b3f c171 883f e08b 863f 6282 7f3f
00000090: 2de9 943f a86c 913f 6473 8e3f f641 903f
000000a0: 3935 933f 3ff7 8e3f 738a 8d3f 0b8a 923f
000000b0: 2586 8b3f 332d 8a3f ad03 853f 440f 8e3f
000000c0: ede1 8d3f 572c 8e3f 18f8 863f deff 8e3f
000000d0: eafc 963f c668 853f 1e50 923f 5e33 953f
000000e0: 000b 923f 7b50 8f3f 5252 953f 5607 8b3f
000000f0: 7d56 893f 733c 883f c773 873f f698 8f3f
00000100: 83a3 8d3f 1316 8d3f 1b75 833f 20a9 983f
00000110: e394 923f 29a9 843f b01b 973f 994f 843f
00000120: ff9b a23f f7b7 903f ce0e 923f 2346 8d3f
00000130: 5aa6 8f3f 462b 853f 3bb2 853f 29cd 8b3f
00000140: d7b3 8d3f e823 8f3f fbb7 8b3f 653c 843f
00000150: eec3 943f e181 923f 1026 983f 6933 8b3f
00000160: 8be0 883f cb0b 8d3f 9a27 893f 77d0 963f
00000170: b785 8a3f 9ab4 8b3f a14a 913f 4b01 8d3f
00000180: 5cce 893f 9993 8f3f 5e55 9d3f 9355 8d3f
00000190: a19d 873f ee48 973f b369 913f 93e3 8d3f
000001a0: 1af2 8f3f f0a0 8e3f ecf0 863f 3179 903f
000001b0: cdfd 8f3f 2fd8 933f 2a93 933f fae5 9b3f
000001c0: 00cb 883f e188 883f 25e1 893f 3c22 8a3f
000001d0: 291c 853f fda1 8e3f dfb5 8b3f b9a6 8b3f
1.2221907 1.0934148 1.115914 1.1585222 1.0878232 1.1085933 1.065566 1.1826872
1.1906681 1.1585867 1.1474369 1.1073756 1.0580888 1.093118 1.1182897 1.1541376
1.0135033 1.097412 1.1046833 1.1607858 1.1467854 1.1432034 1.030721 1.0518669
1.1500055 1.1185728 1.10314 1.1928583 1.087384 1.1228412 1.1017605 1.0251588
1.0891833 1.0659715 1.0511436 0.99808323 1.163366 1.1361284 1.1128964 1.127013
1.1500617 1.1169204 1.1057876 1.1448377 1.0900313 1.0795044 1.0391747 1.1098409
1.1084572 1.1107281 1.0544462 1.1171834 1.1795933 1.0422599 1.14307 1.1656301
1.1409607 1.1196436 1.1665747 1.0861614 1.0729519 1.0643448 1.0582207 1.1218555
1.1065525 1.1022362 1.0270113 1.1926613 1.1451687 1.0364124 1.1805325 1.0336791
1.2703856 1.1306142 1.1410768 1.1037029 1.1222641 1.0403831 1.0445017 1.0921985
1.1070508 1.1182833 1.0915521 1.0330931 1.1622293 1.1445886 1.1886616 1.0875064
1.0693525 1.1019224 1.071521 1.1782368 1.0822057 1.091449 1.13509 1.101602
1.0766101 1.1216918 1.2291677 1.104174 1.059498 1.1819131 1.1360382 1.1085075
1.1245759 1.1142864 1.0542274 1.1286985 1.1249329 1.1550349 1.1529286 1.2179558
1.0686951 1.0666772 1.0771834 1.0791698 1.0399219 1.1143185 1.0914878 1.0910255

bn3.bias f4 [120]
00000000: 650c cebc f681 28bc 29d5 a7bc af83 7ebc
00000010: 3ade 41bc 4b18 91bb df39 11bd 8604 1c3d
00000020: ec57 f23c 650d 543d 79ff c63d 189d a7bc
00000030: b7f3 e33b ce15 4c3c 2445 8f3d 6363 1e3d
00000040: 8bdb 1bbc 4004 03bd fee0 0bbd 8c2b 80bc
00000050: a55d 973c dae2 113d 7ff7 13be fab9 bfbb
00000060: 21a9 b23c b61b 9b3d 4bfa d13d 8f26 8a3d
00000070: ef0e 06bc 0ed0 4c3d 1340 02bc dad3 54bd
00000080: a9f0 aabc a034 fe3b 3789 2d3d 72ba d8bc
00000090: 39d2 3dbd 8ccf b03c 5c5f 0cbd 7236 b63d
000000a0: 7fa9 9d3c e79a 88bd 27c4 58bc a6b1 0a3d
000000b0: a484 84bc 160f 9dbd 4160 7abd 753d 123d
000000c0: 774e b4bd 4ce2 d93b ba7c eb3c ab84 083d
000000d0: 8f65 f93c 09ec 37bd 8236 193c 108f 6e3d
000000e0: 4367 d23d 87e7 5d3d 8c98 6a3b 834d 4ebb
000000f0: 5acc 84bd 6979 86bc bf46 44bd 2cb2 1e3c
00000100: e4f3 d43c 9b83 9d3c f352 5ebd 9ba1 503d
00000110: e143 9cbc d846 fa3c e4a9 a5bd cb30 9ebc
00000120: 45bd f43c 4760 e43c e5e4 1dbd 5ebb 69bd
00000130: 6763 303d 2785 cf3b 1124 1cbd 12f0 243d
00000140: ca24 efbb aeab 5f3c cf6a babc 81c6 e63c
00000150: 7d22 173c a21a 33bd 36c3 aa3d e2bb 3bbd
00000160: f89d 43bd 5ce5 393d 8d26 fc3b 91e0 913b
00000170: b268 5f3c ff42 82bd 1d0e 20bd 25b0 25bd
00000180: 2c45 b6bd 252e 7d3c b7e3 233d e388 5cbd
00000190: ce9d 883c a356 1f3d 3745 f13a b808 313d
000001a0: c999 bebb d283 383d 5125 873d 238a 9b3d
000001b0: 9c4f 04bc 10f4 343d 23cf 9a3c 1a7f 253d
000001c0: 830f 0c3b 9bd1 8dbc ed24 86bc c2ff 063c
000001d0: 0c05 6ebd 6979 bbb9 0710 b8bb 96c0 0bbb
-0.025152395 -0.010284891 -0.020487385 -0.0155343255 -0.011832768 -0.004427945 -0.03545558 0.03809025
0.02958294 0.051770587 0.09716696 -0.02046065 0.0069565433 0.0124563705 0.069956094 0.038669
-0.009512792 -0.031986475 -0.034150116 -0.015645765 0.01847727 0.035616733 -0.14449881 -0.0058510276
0.021809163 0.07573645 0.10252818 0.06745636 -0.008182271 0.050003104 -0.007949847 -0.05195985
-0.020866709 0.007757738 0.042367186 -0.026456092 -0.046343062 0.021583341 -0.03427063 0.08897103
0.019245861 -0.0667017 -0.01323036 0.033860825 -0.01617653 -0.07668893 -0.06112695 0.03570314
-0.088040285 0.006649291 0.028745998 0.033329647 0.030443935 -0.044902835 0.009351375 0.058241904
0.10273602 0.05417588 0.0035796491 -0.0031479306 -0.064842895 -0.016415315 -0.04791903 0.009686034
0.025995202 0.019227793 -0.054278325 0.05093537 -0.019075336 0.030551359 -0.08089045 -0.019310376
0.029875407 0.02787794 -0.03854837 -0.057063453 0.043063547 0.0063330117 -0.038120333 0.04026801
-0.007298087 0.0136517715 -0.022756008 0.028170826 0.009224531 -0.04372657 0.08338015 -0.045833476
-0.047758073 0.04538475 0.0076950253 0.004451819 0.013635801 -0.06360435 -0.03907596 -0.040451188
-0.08899912 0.015452896 0.040012088 -0.053841483 0.01667681 0.038900983 0.0018407468 0.043221205
-0.0058166725 0.04504759 0.065989144 0.07594707 -0.008075621 0.04417807 0.018897599 0.040404417
0.002137155 -0.017311862 -0.01637503 0.008239688 -0.05811028 -0.00035757877 -0.005617145 -0.0021324507

bn3.running_mean f4 [120]
00000000: fbb7 943e c589 003f 97d9 e3be db17 233e
00000010: 63f3 993f 566e 0dbf 83b3 6f3e dee9 d93e
00000020: 488a 6b3d 3197 15bf 2ffc afbf ac13 17bf
00000030: 9478 5b3e 18be 07c0 1fae 60bf 7938 5e3c
00000040: 3804 bd3e 5ee9 b93c 728b 51be 1d97 64bf
00000050: 5f1a ac3e ba2f 7d3e a009 0d3e 5ff5 92be
00000060: 9bcb 36bf dad4 083f 8114 a13e e012 99bd
00000070: ab2d b5be 55fc c03c 0436 2fbf 300c f7be
00000080: beee b5be 17fd 8d3e 5925 acbf 357e 5fbf
00000090: 511f 07bd 8c74 3c3f d2cb ac3e 5c21 30bf
000000a0: c858 663e d3a8 a23f d334 06bf 9c63 3bbf
000000b0: fbb6 70bd e488 993e 60bb 8f3d 97c0 ccbf
000000c0: 9605 50be 9b1d be3f 8e8b fabc c978 ebbe
000000d0: b54a dcbe 5baf 00bf d3f5 66be 2d6a fcbe
000000e0: 7cee 083f 8e1b 9b3e c9a3 703e 0500 24bf
000000f0: 61ae f13d 6fa0 5fbe bd8b 8a3f 68f7 15bf
00000100: 2c74 a0bf 1f68 bf3e 324a 0d3f f64d 5dbf
00000110: bb3c ee3d d516 c73f d31d 84bd 9a04 2abf
00000120: 4a3a 043f 1eae 82be d318 eabe 2c5f 89bd
00000130: 8380 d0bf b6ee 09bf 086d 40be cf80 263d
00000140: d2ad f8bd 90d9 38bf b25b 14bc 3730 1e3f
00000150: aa59 d73d a847 5ebf 659f e1be 5841 38be
00000160: 7eac 2ebf 1f87 b93d 8f9a d53e f715 973e
00000170: 79c0 c63e 68c0 babd 14e8 c9be c575 20bf
00000180: c0a5 71bb 50b1 bbbf 93ca b7be bf8e a73e
00000190: 3e9e 343f 1114 5a3f 56ac 33bf 519a 8bbe
000001a0: 00da dd3e 0e2b 753e ca14 1cbf 0588 dd3c
000001b0: e0e0 09be 2d91 dabe cb34 2c3e 80fe b6bd
000001c0: 8a74 b43e 8c46 663c bc99 3cbe 4d85 92bf
000001d0: 1646 c1be 1db1 9fbe 4d88 24bf 0045 1abe
0.29046616 0.5021022 -0.44501945 0.15927069 1.2027401 -0.55246484 0.23408322 0.4256124
0.057504922 -0.58433825 -1.3748835 -0.5901439 0.21432716 -2.1209774 -0.8776569 0.013563269
0.3691728 0.022694286 -0.2046335 -0.8929308 0.3361387 0.24725237 0.13773203 -0.28702828
-0.7140443 0.53449786 0.31460956 -0.07474303 -0.35386404 0.023557821 -0.68441796 -0.48251486
-0.35533708 0.27732155 -1.3448898 -0.8730195 -0.03298885 0.73615336 0.33749253 -0.688009
0.22494805 1.2707771 -0.52424353 -0.73198867 -0.058768254 0.29987252 0.07018161 -1.5996274
-0.20314631 1.4852785 -0.030584123 -0.4599059 -0.43025747 -0.5026757 -0.22554712 -0.49299756
0.534889 0.3029446 0.23499979 -0.6406253 0.11800838 -0.21838544 1.0823895 -0.58580637
-1.2535453 0.37384126 0.5519134 -0.86447084 0.11632677 1.5553843 -0.06451001 -0.6641327
0.5165144 -0.25523466 -0.45722064 -0.06707606 -1.6289219 -0.5387987 -0.18791592 0.040650185
-0.121425286 -0.72206974 -0.009055065 0.6179232 0.10515149 -0.8682809 -0.4406692 -0.17993677
-0.6823195 0.090589754 0.4171948 0.29508945 0.3881872 -0.0911873 -0.39434874 -0.626797
-0.0036872476 -1.4663486 -0.3589674 0.32726094 0.7055396 0.8518687 -0.7018484 -0.27266172
0.43330383 0.23942205 -0.6096922 0.027042398 -0.13464689 -0.42688885 0.16817014 -0.08935261
0.35245162 0.014054906 -0.1841802 -1.144693 -0.37748784 -0.31189814 -0.6427048 -0.15065384

bn3.running_var f4 [120]
00000000: b4d4 ba3e 1046 883e f4de 953e f2e5 cb3e
00000010: 0bf0 993e 3bce b83e cd7f b03e 6b23 493f
00000020: 0a09 9c3e 71dc bc3e 7b11 e03e 52de 883e
00000030: 7b2b d83e b075 1d3f c6c2 d93e aaab ac3e
00000040: e326 a33e b3dd c13e aa53 b73e 9e1b 9c3e
00000050: 10ec c03e 5f91 ce3e 9daa d63e a14f a03e
00000060: 579c 9d3e 4476 483f 13b5 e53e 40d6 933e
00000070: 077b 8e3e 7f87 8b3e b2a2 173f af44 913e
00000080: 7c26 8e3e 9b24 893e 1dfe fe3e 9378 c23e
00000090: 667c 813e ef86 da3e b9e1 9e3e 7e20 a13e
000000a0: cfbc 893e 8001 f03e e70d b83e 89a9 c03e
000000b0: cf30 b33e b623 8a3e 74d3 a03e 4c99 b93e
000000c0: 9fda ad3e 9da3 db3e efe3 ae3e c62c 9d3e
000000d0: f78f b63e 4725 9f3e 429d cc3e c756 da3e
000000e0: 4532 8a3e d620 d33e 819b 0c3f e37c 873e
000000f0: 55b0 a33e 7b1f 9e3e dae0 c23e 17ca c23e
00000100: 00b4 913e 3ac3 273f dc4d 863e 7547 c33e
00000110: a495 b33e 3547 2b3f 95f8 a83e cfe5 d83e
00000120: 48ba 193f 07be b13e d7b2 c03e ee0c a03e
00000130: 5943 e23e 3e81 fb3e 8cd1 bb3e 89fb bf3e
00000140: f9fc 833e 520e f53e be97 913e a6a2 423f
00000150: 45c9 c03e 4e24 c63e 8d96 f03e 7162 b53e
00000160: 19dd af3e e1c7 c43e 8483 c73e 2e68 013f
00000170: 35c7 6a3e 6826 973e 7dd1 063f 89a8 b83e
00000180: 7c0a 763e 7899 953e 1c21 d73e 77f7 a63e
00000190: 40c3 7c3e 7e02 113f c83b ac3e abd5 dc3e
000001a0: 8768 c43e eb45 8e3e 59fe be3e 7af1 0a3f
000001b0: a4da b33e dea0 0c3f 6853 2b3f 4169 c13e
000001c0: 58f9 bb3e cb7f bb3e a9ce a53e 8f3c c93e
000001d0: e7d2 593e c9d3 963e 9a0a 953e ad81 e23e
0.36490405 0.26615953 0.29271662 0.39823872 0.3006595 0.3609484 0.34472504 0.7856967
0.30475646 0.36886933 0.43763337 0.26732117 0.42220673 0.615077 0.42531413 0.3372472
0.31865606 0.37864456 0.35806018 0.3048982 0.376801 0.40345284 0.41927043 0.31310752
0.3078334 0.7830546 0.4486471 0.28874397 0.27828237 0.27251813 0.5923263 0.28372714
0.27763736 0.2678574 0.49803248 0.37982616 0.2529022 0.4268107 0.31031588 0.31470102
0.26901862 0.46876144 0.35948107 0.37629345 0.34998176 0.2698037 0.31411326 0.3624977
0.33955857 0.42898265 0.34158275 0.30698222 0.3565671 0.31083128 0.39963728 0.4264433
0.26991478 0.4123599 0.5492478 0.26462469 0.31970468 0.30883393 0.38062173 0.38044807
0.28457642 0.6553227 0.26231277 0.38140455 0.35075104 0.6690553 0.33002153 0.4236283
0.6004987 0.34715292 0.37636444 0.31259865 0.44192007 0.4912204 0.3668331 0.37496594
0.2577894 0.47862488 0.28436083 0.7602943 0.37653556 0.38699573 0.4698986 0.35426667
0.34348372 0.38433746 0.38967526 0.5054959 0.22927554 0.2952149 0.52663404 0.36066082
0.24027437 0.2921865 0.42017448 0.32610676 0.24683857 0.5664443 0.3363936 0.43131766
0.38360998 0.27787718 0.37303427 0.54274714 0.35127747 0.54932964 0.6692414 0.37775615
0.36713672 0.36620936 0.32384232 0.39304015 0.21271859 0.29458454 0.2910965 0.4423956

fc1.weight f4 [84, 120]
00000000: 8355 973d 604e 943e 3ff3 46bd 7403 1c3e
00000010: eeba 663e f3db 31be 670e 2abe b765 53bd
00000020: baed 05be ba67 b23c 8267 6b3e a3ee 603e
00000030: c4cb ec3c 4917 3d3e 263d 4abe e6a1 2b3e
00000040: fd7d 2cbd df4c 94bd a665 0e3d 9f3e 5abd
00000050: b2ef 8b3b ed30 883d fff3 aabd 42a3 f03d
00000060: 0b6b 063e 02cc 09be 72c8 3ebe be23 78be
00000070: efc3 f03d c5eb 763e b523 96bd fb73 4d3d
00000080: f3bd 363e 57ec 573e 30a9 46be 4824 01bd
00000090: 0eea b93d 935f fc3d 37d5 a0bc ceb4 c33d
000000a0: 7cb3 7bbd efb2 9bbe e11d 41be 6d9b de3b
000000b0: ec30 c8b9 a838 3fbe 5e0d dfbb 0738 b23d
000000c0: 8220 893b 11ce 12be e00d 503e b8dc b23d
000000d0: 7556 ac3d 7627 37bd 4994 9fbd 0505 bf3c
000000e0: a2b4 ddbd d28a 9b3d 31ca 41be 7747 c63d
000000f0: 45e7 24be dec8 85bd 7f41 83bd 49ce 16be
00000100: 154f 00be 564b 293e 40fa d1bb 13e3 033e
00000110: 0544 85be 2139 2fbe 7648 1b3e a153 ca3d
00000120: 7bb1 c8be c504 dabd 109d 79be d215 9cbd
00000130: 2b51 2a3e 8d32 e9bb 890a e5bd 56c6 d0bc
00000140: ba0e 0dbe c07b 35bc 69e5 a4bd 31b3 a2be
00000150: b924 cb3c ca06 683e f2d8 143b c54b d3bd
00000160: 8e02 363e 8968 943d 4529 0cbe 22df 053c
00000170: a359 113e b217 47bd b0bc c13d e206 88be
00000180: 3e16 473d 3820 7abe 25de 6d3e c3bd f33d
00000190: f78b a43d bb87 15bd 9a2c aabd 9968 fbbd
000001a0: 4d20 b4bd 2c1f 093d 7f6f 9b3d 4840 00be
000001b0: 0890 1fbd 22b3 f83d 98c7 bcbb 1926 1fbe
000001c0: 43d7 4d3e 6d72 dcbd 0560 39be 290c 643e
000001d0: 4690 a5bd 97dc 243d 1c80 483e f6cc 89bd
000001e0: 78b6 9fbe 5b12 eebd 4920 a83d 97f4 d2bd
000001f0: 88d8 0cbe ea35 1dbe 20ed 023d 8c79 dfbc
00000200: 5cae d63c 2330 04be 7200 bd3d 5ecf e73d
00000210: 7332 043e 2226 7b3d 2a2d 98bd 3a7c f93b
00000220: 2b79 2dbe 8ccc d33d 6fa5 803d 1c8c 603e
00000230: 1daa 07be 1a48 d5bd 6c23 f93b 6181 213e
00000240: ace8 f53d 54ef bcbd c4ad 5a3b 8765 11be
00000250: 9dc6 2bbe 7dcd 98bd 2bcb 113e 10e1 903c
00000260: 67a7 823c 3d83 b2bd 10be 063d 902e a13d
00000270: 8ab1 13be eb2f 0b3d c4e8 74be c866 df3d
00000280: 3444 21be 8643 07be 8cf9 32be beed 89be
00000290: 0444 fd3d d142 de3d a30e 183e e1ba 1f3e
000002a0: ff42 d6bd 6fb2 3b3e 8475 0fbd 7b3b 3b3e
000002b0: d241 fd3d 52e8 c63d 7f0d d93d 6652 003e
000002c0: 1eba babd ad3e ce3d 0787 2dbd e286 133e
000002d0: d064 2f3d 004b 61be 6b01 00be 221c 11be
000002e0: 4847 273c f88e 5fbe f048 4b3e 7f47 f93d
000002f0: 6e17 89bc 8739 96bd 2469 3ebd 1708 cc3c
00000300: 68bb d93c 2185 3f3d 020d 113e b3ae 07be
00000310: 3351 65bc 2cd4 50be 9ba4 4a3d c56d eb3d
00000320: 69ca 36be 4a26 8ebc ab52 443e d158 6e3d
00000330: b42e 2cbe 2ac6 2b3e 1eb4 813d 54f8 313e
00000340: e1a6 163e 0f74 083e ff60 edbd 941e 08be
00000350: ba7d 083e 1ade e3bd 99ca 1a3e b0c8 70bd
00000360: 8864 74bd c19e 50be 98c7 42bd 5c7f babd
00000370: 2cd9 193e ace7 a5bd d01a 5cbb 92df b4bd
00000380: 4c69 57bd 7bca 61be 8546 bbbd 12ec 8abd
00000390: eaf5 113e 538d a93d ed32 193e c9f3 fc3d
000003a0: 2b61 49be e3f8 60bd 10c9 d63d 45e4 4b3e
000003b0: 2c83 1a3e b2dc 4fbd 154c 58bd 2312 573e
000003c0: 00af e3bd 4bc5 04be 7bcc a53d 758e 23be
000003d0: 4484 87be c6cf c0bd f694 3cbe 8442 4b3c
000003e0: b3e2 f0bb f893 8a3d 5786 f1bd 137a 8fbd
000003f0: d5d7 77bd 85a0 89bd a643 23bd 26bb 2c3e
0.07389357 0.28966045 -0.04857182 0.15235692 0.22532246 -0.1736906 -0.16607057 -0.051610675
-0.13078967 0.021777976 0.22988704 0.21966033 0.028905757 0.18465914 -0.19749889 0.16760978
-0.04211234 -0.072412245 0.03476491 -0.053282376 0.0042705173 0.06649957 -0.0834732 0.11749889
0.13126771 -0.13456729 -0.18631151 -0.24232385 0.11756121 0.24113376 -0.07331029 0.050159436
0.17845897 0.2108625 -0.19400477 -0.03152874 0.090778455 0.12322917 -0.019632919 0.0955597
-0.061450467 -0.30409953 -0.18859054 0.0067934305 -0.00038183422 -0.18673956 -0.0068070134 0.087020926
0.0041847834 -0.1433642 0.20317793 0.08733505 0.08414928 -0.044715367 -0.07791955 0.023317823
-0.108254686 0.07594837 -0.18924786 0.096815996 -0.16103847 -0.06532453 -0.06408977 -0.14727129
-0.12530167 0.16532645 -0.006408006 0.1287959 -0.26028457 -0.17111637 0.1516436 0.09879232
-0.39197907 -0.10645441 -0.24376321 -0.076213494 0.16632526 -0.007116622 -0.1118365 -0.025485199
-0.13775149 -0.011076868 -0.08051569 -0.31777337 0.024797784 0.2265884 0.0022712317 -0.10317186
0.17774412 0.07246501 -0.13687618 0.008170875 0.1419435 -0.048606582 0.094598174 -0.2656775
0.048605196 -0.24426353 0.23229273 0.119014286 0.08034509 -0.036506396 -0.08309288 -0.1227581
-0.087952234 0.033476993 0.075896256 -0.12524521 -0.03895572 0.12143542 -0.005761098 -0.15541877
0.20101647 -0.107640125 -0.18103035 0.22270264 -0.080841586 0.040249433 0.1958012 -0.06728546
-0.311939 -0.11624595 0.08209283 -0.10300558 -0.13754475 -0.15352598 0.03196442 -0.027279638
0.026206188 -0.12908988 0.092286006 0.11318849 0.1290987 0.061315663 -0.07430489 0.007613686
-0.16940753 0.103417486 0.06281554 0.21928447 -0.13248487 -0.10414143 0.0076030996 0.1577201
0.12007269 -0.09225336 0.0033367733 -0.14198886 -0.16774984 -0.07461069 0.14237659 0.017685443
0.015948964 -0.08716438 0.0328961 0.07870209 -0.14423195 0.033981245 -0.23916918 0.10908276
-0.15748674 -0.13209352 -0.17478007 -0.26939195 0.123664886 0.10852588 0.14849333 0.15598632
-0.10461997 0.18329786 -0.03502418 0.18284409 0.1236607 0.0971228 0.10598277 0.12531433
-0.0911753 0.10070548 -0.0423651 0.14406922 0.04282075 -0.22001266 -0.12500541 -0.14170888
0.010209866 -0.21831882 0.19852042 0.1217184 -0.016734805 -0.07335191 -0.04648699 0.024906201
0.02657862 0.04675782 0.14165118 -0.13250236 -0.01399641 -0.20393437 0.049473386 0.11495546
-0.17850651 -0.017352242 0.1917216 0.05819017 -0.16814691 0.16774812 0.06333183 0.17379886
0.14712097 0.13325523 -0.11590766 -0.13292915 0.13329211 -0.11126347 0.15116347 -0.05878514
-0.059666187 -0.2037306 -0.04755363 -0.09106323 0.15024251 -0.081008285 -0.0033585317 -0.08831705
-0.052590653 -0.22049896 -0.0914431 -0.06783308 0.14253965 0.082789086 0.14960833 0.12351186
-0.19665973 -0.054924857 0.104875684 0.19911297 0.150891 -0.05074758 -0.052806932 0.21003012
-0.11117363 -0.12965886 0.08095642 -0.15972312 -0.26468098 -0.0941463 -0.18416199 0.012405995
-0.0073512434 0.06766504 -0.117932014 -0.07005706 -0.060508568 -0.0672007 -0.039859436 0.16868266

fc1.bias f4 [84]
00000000: 524a 5c3d 6663 503c dd2f 99bc b7a2 43bc
00000010: 971f c23c 6024 923d 5dbc df3c 1f37 983d
00000020: 3138 033d 5d84 223d b5b1 8b3b fd99 ddbc
00000030: 16d8 dc3c 9533 cc3c 3a40 943c d748 a93c
00000040: b97b ee3b 2e0d 893d 9fb1 ba3b 133d 623d
00000050: a2a2 593c 9a06 1b3d 2c03 1e3d a8fd 5d3a
00000060: ca1d 2c3d a2ec e53c 3e55 a03c 9882 ed3c
00000070: 049a 1a3d bd9b 0d3d afa3 993d 7416 f93c
00000080: a18a a4bc 8592 f93c aadf 253d 628a 2d3c
00000090: c50f ec3d a380 f6ba 50a2 153d 8e90 2d3d
000000a0: 43ad 70bd f71b ccbc b75a f23b f4b3 c0bb
000000b0: c343 fa3c dfa3 10bc 422e 103d f691 3b3b
000000c0: 937e 61ba 4b1b ac3c 3cc8 e4bc 2725 3fbc
000000d0: a3e5 4c3d 86f8 473d cbf7 3e3d 77c1 153d
000000e0: f0af 263d 5e0c 5a3d 7c60 573d 3974 233d
000000f0: aae2 353d bbd3 a13c 1cc7 2b3c 122f 7d3c
00000100: 3d7c adbb c109 9c3c 53b4 febc 90c0 433d
00000110: 1598 733d 7e4a cb3c 9e51 4d3c d98c eb3c
00000120: 1b64 163d fd89 273d 4be2 363c 5c88 ba3d
00000130: e038 f63a bf51 cd3c 123a 7bbb 40b5 5f3d
00000140: 17bb b5bc 3048 803d 53f5 13bd 2093 1d3c
0.053781815 0.012719011 -0.01869958 -0.01194065 0.023696704 0.07135844 0.027311498 0.074323885
0.03203601 0.039677013 0.0042631277 -0.027050966 0.026958507 0.02492694 0.018097032 0.020664616
0.0072779325 0.06691967 0.0056974436 0.055234026 0.013283404 0.037848093 0.038577244 0.00084682787
0.042020597 0.028066937 0.019571897 0.028992936 0.037744537 0.03457235 0.07501923 0.030406214
-0.020085635 0.030465374 0.040496506 0.010592075 0.11526445 -0.0018806647 0.036531746 0.042374186
-0.058758985 -0.024915678 0.007396068 -0.005880827 0.03054989 -0.008828132 0.035200365 0.0028620935
-0.000860193 0.021009108 -0.02792751 -0.011666573 0.050023686 0.048820995 0.046623033 0.036561456
0.04069513 0.05323445 0.05258225 0.03990576 0.044405617 0.019754281 0.010484483 0.015453117
-0.0052943514 0.01904762 -0.031091845 0.047791064 0.05947121 0.024815794 0.012531666 0.028753685
0.03671656 0.04090308 0.011162351 0.0910804 0.0018785261 0.025063394 -0.0038334173 0.054616213
-0.022183938 0.06263769 -0.03612263 0.009617597
