model1/best_model(89.99).pth (torch, 258722 bytes, 22 tensors)

conv1.weight f4 [6, 3, 5, 5]
0	0x3e1ecbc9	0.15507425
1	0x3e8d72eb	0.27626738
2	0x3d915503	0.07096293
3	0x3cf160de	0.029465135
4	0xbe24be57	-0.16088234
5	0xbd1a0c28	-0.03760925
6	0x3e0400a8	0.12890875
7	0x3da43846	0.08018546
8	0x3dfb524b	0.122715555
9	0xbe4b9284	-0.1988011
10	0x3c9e6d15	0.019339124
11	0xbe1b688b	-0.15176599
12	0x3dea3a2b	0.11436876
13	0xbdb6ef2f	-0.089323394
14	0x3de4d806	0.11174016
15	0xbd2b530b	-0.041827243
16	0xbe0388cf	-0.12845157
17	0x3d0961ee	0.03354066
18	0xbe2d3e1a	-0.16918221
19	0x3e11a5ec	0.1422345
20	0xbc989946	-0.018627774
21	0xbdbcbc88	-0.09215647
22	0x3dec5477	0.11539548
23	0x3c96a210	0.018387824
24	0xbdd21c43	-0.10259297
25	0x3ec4fd28	0.38474393
26	0x3e99b871	0.3002353
27	0x3d0fe69e	0.035132043
28	0x3dad05dc	0.08448383
29	0x3d273383	0.04082061
30	0x3e427527	0.18990003
31	0xbdafc981	-0.08583356
32	0xbdd5b7d2	-0.104354516
33	0xbe0c9cf3	-0.13731746
34	0xbe23dc62	-0.16002038
35	0x3d850f9b	0.06497117
36	0x3dc5f058	0.096649826
37	0xbd0a5157	-0.033768978
38	0x3d7d5959	0.061852787
39	0xbda39046	-0.07986502
40	0xbdadefbf	-0.084929936
41	0xbe021c7a	-0.12706175
42	0x3d324486	0.04352238
43	0xbd79d4c9	-0.060993943
44	0xbd792a93	-0.060831618
45	0xbda6ede0	-0.0815084
46	0xbdc32c72	-0.09529962
47	0xbe068c3c	-0.13139433
48	0x3d9f83ea	0.077888325
49	0x3d99dee9	0.0751322
50	0x3e9fc524	0.31205094
51	0x3e6cac17	0.23112522
52	0x3d82d867	0.06388932
53	0x3d9e7400	0.07736969
54	0xbc035e71	-0.008018122
55	0x3d8b0cc9	0.06789548
56	0x3deeee52	0.1166655
57	0x3d900117	0.07031458
58	0x3c9cce78	0.01914142
59	0xbdc7b93f	-0.0975213
60	0x3d3b3f84	0.04571487
61	0xbd163ac2	-0.03667713
62	0xbe52071d	-0.20510526
63	0xbd012996	-0.0315338
64	0x3b279ff4	0.0025577517
65	0x3cd539d1	0.026028546
66	0xbd67cf81	-0.056594376
67	0xbe493eec	-0.19652909
68	0xbd954f2d	-0.07290492
69	0xbd9f2f80	-0.07772732
70	0xbd4e7abd	-0.05041002
71	0x3d89703b	0.067108594
72	0x3d91b530	0.07114637
73	0x3baa5407	0.005198005
74	0xbd45017a	-0.04809711
75	0x3c4e0fe8	0.0125770345
76	0xbc841a7b	-0.016125908
77	0x3e1fa4a4	0.15590149
78	0x3e9d3613	0.30705318
79	0xbdcf789c	-0.10130426
80	0x3d7994ed	0.060933042
81	0x3e3d1ed3	0.1846879
82	0x3e1927da	0.14956608
83	0x3df9454f	0.12171423
84	0x3e54f04b	0.2079479
85	0x3d9c40a5	0.076295175
86	0x3d3f40cf	0.046692666
87	0x3c794c80	0.015215993
88	0x3debba71	0.1151017
89	0x3c3cba60	0.011519045
90	0x3d688f12	0.056777067
91	0x3ddf2a52	0.10896744
92	0x3e12c941	0.14334585
93	0xbdc83ddd	-0.097774245
94	0x3d8d7d77	0.06908696
95	0x3bc0ca8c	0.0058835205
96	0x3e4298c4	0.19003588
97	0xbd786174	-0.060639814
98	0xbca23a19	-0.019803094
99	0x3d5dffb3	0.054198932
100	0xbcdf2c44	-0.027242787
101	0xbd6c3d11	-0.057675425
102	0x3eb5df9d	0.35522166
103	0x3f1dd132	0.6164733
104	0x3e67bef4	0.22631437
105	0x3d42a233	0.047517966
106	0xbd4dc507	-0.050236728
107	0x3e0cd57c	0.13753313
108	0x3eeb38b1	0.4594169
109	0x3e812142	0.25220686
110	0xbe237d2b	-0.15965717
111	0x3d995d2b	0.074884735
112	0x3e2335be	0.1593847
113	0x3c9c7931	0.019100757
114	0x3d94da8d	0.07268248
115	0x3c9830ce	0.01857796
116	0x3d39af58	0.045333236
117	0x3d804594	0.06263271
118	0xbdb7f7d6	-0.08982818
119	0xbe2b8048	-0.16748154
120	0x3d4bdf04	0.04977323
121	0xbd407eba	-0.046995856
122	0x3d5db6e7	0.054129507
123	0xbdad4201	-0.08459855
124	0x3d1d31d6	0.038377605
125	0xbe0d0dd0	-0.137748
126	0xbded81e2	-0.11597039
127	0x3d260431	0.04053134
128	0x3e2db892	0.16964939
129	0x3db3df42	0.087828174
130	0x3df0b318	0.117529094
131	0x3e1062a5	0.1410013
132	0x3e1f1cb4	0.15538293
133	0x3de2ac69	0.11068041
134	0x3dbfa079	0.093567796
135	0xbe2a08e9	-0.16604961
136	0xbd4df2cb	-0.050280374
137	0xbca0618f	-0.01957777
138	0xbd28bfb9	-0.041198466
139	0x3deb35c8	0.11484867
140	0xbe3941cc	-0.18091506
141	0xbdcbc4f3	-0.099496745
142	0x3d1a71cd	0.037706185
143	0xbddf1b56	-0.10893886
144	0xbd47193e	-0.048608057
145	0xbe204b27	-0.15653668
146	0x3c086f71	0.008327351
147	0xbde6b932	-0.11265792
148	0xbd924e07	-0.07143789
149	0xbd8c7d0d	-0.06859789
150	0x3dabad6e	0.083826885
151	0x3e24a95a	0.16080227
152	0x3d744297	0.059633818
153	0x3e2be59e	0.16786811
154	0x3e56b5dd	0.20967813
155	0xbdeb20e1	-0.114808805
156	0xbdd5ed8b	-0.10445698
157	0xbda3d837	-0.08000224
158	0x3d8e5d53	0.06951394
159	0xbd97ac3a	-0.074058965
160	0xbd90505f	-0.070465796
161	0x3cedef15	0.029044667
162	0xbe24c0bf	-0.16089152
163	0x3d64f38e	0.055896334
164	0xbdd39126	-0.10330419
165	0xbda5f914	-0.081041485
166	0x3d275d24	0.04086031
167	0xbbf90917	-0.0075999605
168	0xbdbd06de	-0.092298254
169	0xbdc63457	-0.09677952
170	0xbdabd850	-0.08390868
171	0x3cacf89a	0.021114636
172	0xbc97c49c	-0.018526368
173	0x3e541be9	0.20713772
174	0x3c3cc1ba	0.011520797
175	0xbdb6cc44	-0.08925679
176	0x3e1ba8c8	0.15201104
177	0x3aaee2be	0.0013342721
178	0x3e056098	0.13025129
179	0x3e82c8a3	0.255437
180	0xbdeb69c8	-0.114947855
181	0xbddb9f18	-0.10723704
182	0xbe1bc731	-0.15212704
183	0x3d4cb654	0.04997857
184	0xbd203b85	-0.039119262
185	0xbe2f4b0f	-0.17118476
186	0xbd045025	-0.032302994
187	0x3cdc6fbf	0.026908753
188	0x3dc00302	0.09375574
189	0xbd39d708	-0.045371085
190	0x3deb42fc	0.11487386
191	0xbdcf35da	-0.10117693
192	0xbe1af9d9	-0.15134372
193	0x3d8a0bfc	0.06740567
194	0xbdba8f8d	-0.091094114
195	0x3d39c0cf	0.045349892
196	0xbe10a4f3	-0.14125423
197	0xbd95116e	-0.07278715
198	0x3bf18412	0.0073704803
199	0x3e4cbf1c	0.19994777
200	0xbe0c5764	-0.13705212
201	0x3c90f40c	0.017694496
202	0x3e5d1daf	0.21593355
203	0x3e089469	0.13337864
204	0x3e459bc8	0.19297707
205	0xbb11fc77	-0.0022275725
206	0xbd4228b4	-0.0474021
207	0xbdd96cfe	-0.10616492
208	0xbdd4760b	-0.103740774
209	0xbe09e11b	-0.13464777
210	0xbd8475b8	-0.064677656
211	0xbe0e4a0c	-0.13895434
212	0xbe75642c	-0.23963994
213	0xbde02997	-0.10945433
214	0x3dd384a7	0.10328036
215	0x3acceace	0.0015633942
216	0xbe3e046d	-0.18556376
217	0x3de751e9	0.1129492
218	0x3d6f5eb1	0.058439914
219	0x3d61beef	0.05511373
220	0x3da9d94f	0.082934014
221	0x3c0bbc07	0.008528716
222	0xbdc75f62	-0.0973499
223	0x3e3665c2	0.17812255
224	0x3e3dbae2	0.18528321
225	0xbd81741c	-0.06320974
226	0xbd6e0013	-0.05810554
227	0x3d672b77	0.056437936
228	0x3c0d05f6	0.008607378
229	0x3e17dcd1	0.14830329
230	0xbd7862ce	-0.060641102
231	0x3e120f3f	0.14263628
232	0xbb84c74b	-0.004052078
233	0x3dbc25c4	0.09186891
234	0xbd438785	-0.047736663
235	0xbdbe5c9f	-0.0929501
236	0xbdb0991a	-0.08622952
237	0x3dabec1a	0.08394642
238	0xbe00a362	-0.12562326
239	0xbe2c363e	-0.16817567
240	0x3d89d122	0.06729342
241	0x3e0160be	0.1263456
242	0x3e48c6f8	0.1960715
243	0xbe01fa7b	-0.12693207
244	0x3d79cc28	0.060985714
245	0xbcb144e3	-0.021639293
246	0x3dd5cdb6	0.10439627
247	0x3cc2d19b	0.023781588
248	0x3e059256	0.13044104
249	0xbdc91072	-0.0981759
250	0x3e06fe17	0.13182865
251	0xbdebf868	-0.11521989
252	0x3e085f34	0.13317567
253	0xbc4b3147	-0.012401885
254	0xbe14e388	-0.14539921
255	0xbddf496d	-0.10902677

conv1.bias f4 [6]
0	0x37b061c1	2.1026355e-05
1	0x3d05423c	0.03253387
2	0xbdd01bdf	-0.10161566
3	0xbdaa6fdd	-0.083221175
4	0xbce30577	-0.027712567
5	0x3dffd388	0.12491518

bn1.weight f4 [6]
0	0x3f7bd581	0.98372656
1	0x3f764105	0.9619296
2	0x3f498a13	0.7872631
3	0x3f7ca255	0.986852
4	0x3f827238	1.0191107
5	0x3f69ec9a	0.9137665

bn1.bias f4 [6]
0	0xbe6f26fd	-0.23354717
1	0xbf02875a	-0.5098778
2	0x3e472ff7	0.19451891
3	0xbe0ff368	-0.14057696
4	0xbecc55e5	-0.39909282
5	0xbc7119fd	-0.014715669

bn1.running_mean f4 [6]
0	0x3ea5210c	0.32251775
1	0x3fd3e0f8	1.655303
2	0xbe46aaca	-0.19401088
3	0x3e39f10d	0.1815836
4	0x3f8494e6	1.035794
5	0x3e325068	0.17413485

bn1.running_var f4 [6]
0	0x3f61c3bf	0.8818931
1	0x409c418b	4.883001
2	0x3f0052ff	0.5012664
3	0x3ec92055	0.3928248
4	0x401c33d7	2.440664
5	0x3ee8ee2e	0.45494217

conv2.weight f4 [16, 6, 5, 5]
0	0x3bdad630	0.006678365
1	0xbd7c1d71	-0.061551515
2	0x3e0da82f	0.13833688
3	0x3e366481	0.17811777
4	0x3e250aa4	0.1611734
5	0xbcc5195d	-0.024059946
6	0xbdddd9ef	-0.10832583
7	0x3d51572b	0.05110852
8	0x3da1425d	0.07873986
9	0x3dd2b86c	0.10289082
10	0xbd2d9d8d	-0.04238658
11	0xbd6e45e1	-0.05817211
12	0xbd8bbf10	-0.06823552
13	0x3e01091b	0.1260113
14	0x3d868d2a	0.06569894
15	0x3de2ef79	0.11080832
16	0xbd755a6e	-0.059900694
17	0x3c9b1326	0.01893003
18	0x3e1368d1	0.14395453
19	0x3e2eabc2	0.17057708
20	0xbb0899fe	-0.002084374
21	0xbb4fd4ad	-0.0031712458
22	0xbe7ea9a8	-0.24869406
23	0xbde9d2da	-0.1141717
24	0xbcba8285	-0.022767315
25	0xbb9238a6	-0.0044623194
26	0xbd4e82a5	-0.05041756
27	0x3cc87279	0.024468647
28	0x3dc087f0	0.09400928
29	0x3d28e090	0.041229784
30	0x3cafcd70	0.021460265
31	0xbdebbda5	-0.11510781
32	0xbe09b0b7	-0.13446318
33	0xbd124910	-0.03571421
34	0xbb6165b5	-0.0034392898
35	0xbd227d78	-0.039670438
36	0x3d7d20db	0.06179891
37	0x3d99d6e5	0.07511691
38	0x3d35b64c	0.044363305
39	0x3bfb319b	0.0076658255
40	0xbddb81bd	-0.10718105
41	0xbd95b89b	-0.07310601
42	0x3dd736c7	0.10508495
43	0xba133308	-0.0005615209
44	0xbd3ee97a	-0.04660938
45	0xbd38be22	-0.0451032
46	0x3c0ae85d	0.008478251
47	0x3c3c08b5	0.011476685
48	0x3e111e1c	0.14171642
49	0x3da17427	0.078834824
50	0xbd1f904f	-0.038955983
51	0x3e070254	0.13184482
52	0x3d6ccd4d	0.057812978
53	0xbc7df79d	-0.01550093
54	0xbdd04d9c	-0.10171053
55	0x3debd8ac	0.11515936
56	0x3c5869ee	0.013208849
57	0x3d2aa858	0.04166445
58	0x3d56ac4d	0.052410413
59	0x3bb9a52e	0.005665443
60	0x3d906656	0.07050769
61	0x3e08e3e9	0.13368191
62	0xbcd5c0f7	-0.02609299
63	0x3d0beb2a	0.034159817
64	0xbd8a6edc	-0.06759426
65	0x3c803975	0.015652398
66	0x3d66dc8c	0.056362674
67	0x3df85209	0.12125022
68	0x3decd4c8	0.11564022
69	0x3d939636	0.07206385
70	0x3e0ce8fc	0.13760751
71	0x3daa6487	0.08319955
72	0x3d8660c0	0.06561422
73	0x3e09c254	0.13453037
74	0x3cc9cc43	0.024633532
75	0xbda863fa	-0.08222194
76	0xbe18eecd	-0.14934845
77	0xbe429c10	-0.19004846
78	0xbd9b4199	-0.07580871
79	0xbdc53cf1	-0.09630764
80	0xbdf84315	-0.1212217
81	0xbe630bc4	-0.22172457
82	0xbe841b82	-0.25802237
83	0xbe072c1e	-0.13200423
84	0xbe76d17b	-0.24103348
85	0x3d781bfc	0.060573563
86	0xbdb1324d	-0.08652172
87	0xbd269725	-0.040671486
88	0xbe3d97ed	-0.18514986
89	0xbe25bcae	-0.16185257
90	0x3db3de63	0.08782651
91	0x3c2efd45	0.010680501
92	0xbd7de849	-0.061989103
93	0xbdc00a62	-0.0937698
94	0xbe3c479c	-0.18386692
95	0xbd4108d7	-0.04712757
96	0x3d5b894c	0.053597733
97	0xbd56b416	-0.052417837
98	0xbd8cf62a	-0.068828896
99	0x3db568f0	0.08857906
100	0x3cda1dcb	0.026625535
101	0x3da6d982	0.08146955
102	0x3d2e072d	0.042487312
103	0x3ccf3f0b	0.025298616
104	0xbdaf24c7	-0.085519366
105	0x3cd1e937	0.0256239
106	0xbcb2b7a9	-0.021816092
107	0xbd926ef2	-0.071500674
108	0x3ddaf029	0.10690338
109	0xbd9c8337	-0.07642215
110	0xbda8d6b9	-0.0824408
111	0xbd824985	-0.06361679
112	0x3c147ff4	0.0090637095
113	0x3de1c1f6	0.11023323
114	0xbda3bbb3	-0.07994785
115	0xbc52df6c	-0.012870651
116	0xbda6d0a2	-0.08145262
117	0x3db17e1d	0.08666632
118	0x3d890245	0.06689886
119	0xbd64aa18	-0.055826277
120	0xbe23587a	-0.1595172
121	0xbb997413	-0.0046830266
122	0x3d069865	0.03286018
123	0x3dc465cb	0.09589728
124	0xbdab1975	-0.08354465
125	0x3cdd0526	0.026979994
126	0xbd810f28	-0.06301719
127	0xbca1738e	-0.019708421
128	0x3e4c093d	0.19925399
129	0x3e12dde7	0.14342462
130	0xbd16a83a	-0.036781527
131	0xbd5ca49a	-0.053867914
132	0x3d68f92b	0.05687825
133	0xbcd03460	-0.0254156
134	0xbd399a3d	-0.04531311
135	0xbd0d67da	-0.03452287
136	0x3d35157c	0.044209942
137	0x3a28f366	0.00064449606
138	0xbcc9e22f	-0.024643986
139	0xbe375ee2	-0.17907289
140	0x3cb40b44	0.021978028
141	0x3c8638e9	0.016384559
142	0x3af4f0a4	0.0018687439
143	0xbd31d802	-0.04341889
144	0xbd79521d	-0.060869325
145	0xbc8f57d5	-0.017497936
146	0xbbec9d5c	-0.007220907
147	0xbe634273	-0.22193317
148	0xbe8e1528	-0.27750516
149	0xbe2248ff	-0.15848158
150	0xbe5dbd6e	-0.21654293
151	0xbe655099	-0.22394027
152	0xbd48df3b	-0.049041014
153	0xbdb4c395	-0.08826367
154	0xbd8d258f	-0.06891929
155	0xbe969c46	-0.29416102
156	0xbdbc8e5e	-0.09206842
157	0x3d029d13	0.03188808
158	0xbd152a55	-0.036417324
159	0xbe37d759	-0.17953242
160	0xbda8aec6	-0.082364604
161	0x3df4f166	0.119601056
162	0xbb615a98	-0.0034386273
163	0xbd461699	-0.048361395
164	0xbdedccd9	-0.11611337
165	0x3e47786f	0.19479536
166	0x3debfbcb	0.11522635
167	0xbc30f25c	-0.0107999705
168	0xbcb79c34	-0.02241335
169	0xbd6879d7	-0.05675682
170	0xbe0a9e97	-0.1353706
171	0x3d149d7c	0.036283
172	0x3d1f06d4	0.03882487
173	0xbbfec5fe	-0.0077750674
174	0x3daefc80	0.08544254
175	0xbe10a3bb	-0.14124958
176	0x3d23f085	0.0400243
177	0xbe1a63d5	-0.15077145
178	0xbc33679f	-0.010949998
179	0x3d37eb2e	0.04490202
180	0x3d299f1d	0.041411508
181	0x3cd93bc2	0.026517753
182	0x3d14bff4	0.036315873
183	0xbb148483	-0.002266199
184	0x3df09f9e	0.117491946
185	0x3e0439ad	0.12912627
186	0x3d019733	0.031638335
187	0xbdb212e7	-0.086950116
188	0xbd2c99d5	-0.042138893
189	0x3e05bbff	0.13059996
190	0x3e40afa2	0.18816999
191	0xbab86067	-0.0014066816
192	0x3d0fe1d2	0.03512747
193	0xbd5e272d	-0.05423658
194	0x3daf890f	0.08571064
195	0x3d2d58c3	0.042320978
196	0xbc9c34a1	-0.019068064
197	0x3d5afe09	0.053464923
198	0x3da64605	0.08118824
199	0xbca22021	-0.01979071
200	0xbd5e6cde	-0.054303043
201	0xbdd809ca	-0.10548742
202	0x3ce6bff3	0.0281677
203	0x3dca50dc	0.09878704
204	0x3dab95da	0.08378191
205	0x3dc8b8a4	0.098008424
206	0xbd9871a8	-0.07443553
207	0x3d420907	0.04737189
208	0xbd62ac39	-0.055340026
209	0x3c377fb0	0.011199877
210	0xbc803c8b	-0.01565387
211	0xbe4d0b1f	-0.20023774
212	0x3d90c198	0.07068175
213	0xbcc0baea	-0.023526628
214	0xbc2606e7	-0.010133482
215	0xbb654fb2	-0.003499013
216	0xbe36878f	-0.17825149
217	0xbd115349	-0.035479818
218	0x3cad96a3	0.021189993
219	0x3cfe2bb3	0.031026697
220	0xba31b24d	-0.0006778583
221	0xbc169ee7	-0.009193159
222	0x3dc514be	0.09623097
223	0xbd51304b	-0.051071446
224	0x3db3b3ed	0.087745525
225	0xbd24b1eb	-0.04020874
226	0x3bb331eb	0.005468597
227	0xbaf31ac1	-0.0018547402
228	0xbd887f71	-0.066649325
229	0x3dcd61d5	0.100284256
230	0x3e27e478	0.16395748
231	0x3d5d5a87	0.05404141
232	0xbd49e3c4	-0.04928948
233	0xbdc99466	-0.09842758
234	0xbded11c7	-0.115756564
235	0x3c274cd6	0.01021119
236	0xbd1ce3eb	-0.038303297
237	0xbd9e44bb	-0.07727953
238	0x3d9bb095	0.0760204
239	0x3caff295	0.021477977
240	0xbdcea682	-0.100903526
241	0xbe0ef403	-0.1396027
242	0xbe089dde	-0.13341472
243	0x3de38111	0.11108602
244	0xbc554f81	-0.0130194435
245	0x3dd6f19e	0.104953036
246	0x3dab1f0b	0.0835553
247	0x3e0be74e	0.13662454
248	0x3e02d4b5	0.12776454
249	0x3ca8daed	0.020612204
250	0xbc9cab8a	-0.019124765
251	0xb9db883e	-0.00041872443
252	0xbe2d7cdc	-0.16942161
253	0xbdcd6249	-0.10028512
254	0x3d04b11f	0.03239548
255	0x3e20cf39	0.15704049

conv2.bias f4 [16]
0	0xbd5c2eca	-0.05375556
1	0xbcd10b4d	-0.025518084
2	0x3d9623ed	0.07331071
3	0xbd48da09	-0.04903606
4	0x3d49db7e	0.04928159
5	0xbd183477	-0.03715941
6	0x3c32ddb0	0.010917112
7	0xbc8b88bf	-0.017032979
8	0xbd831ca5	-0.06401948
9	0xbd9792a2	-0.07401015
10	0x3d87aafd	0.0662441
11	0xbd4fadd5	-0.05070289
12	0xbc0498a9	-0.008093038
13	0x3e135f42	0.14391807
14	0xbd4fc5ef	-0.050725874
15	0xbd9f76b5	-0.077863134

bn2.weight f4 [16]
0	0x3f4f0eab	0.80881757
1	0x3f96a091	1.1767751
2	0x3f779409	0.9671026
3	0x3f981504	1.1881413
4	0x3f87454c	1.0568023
5	0x3f7bb71b	0.9832627
6	0x3f6e8e05	0.93185455
7	0x3f822ba3	1.0169567
8	0x3f5a4098	0.8525481
9	0x3f801586	1.0006568
10	0x3f73c1a3	0.9521734
11	0x3f6e8d3e	0.9318427
12	0x3f85c2a2	1.0450022
13	0x3f5e9817	0.8695082
14	0x3f70ce48	0.9406476
15	0x3f8737dc	1.0563922

bn2.bias f4 [16]
0	0xbea3f6ef	-0.32024333
1	0xbdcbe712	-0.099561825
2	0xbe138064	-0.14404446
3	0xbe7cbd8a	-0.24681678
4	0xbe26592e	-0.16244957
5	0xbe4b3da5	-0.19847734
6	0xbe88d34a	-0.267237
7	0xbe6dd073	-0.23224048
8	0xbe9f65cd	-0.31132355
9	0xbd009ae2	-0.031397708
10	0xbe88d118	-0.26722026
11	0xbe42a82e	-0.19009468
12	0xbeb729b6	-0.3577401
13	0xbe239152	-0.15973404
14	0xbe4b3fd7	-0.19848572
15	0xbe129899	-0.14316024

bn2.running_mean f4 [16]
0	0xbe0000fe	-0.12500378
1	0xbe9f197a	-0.31074125
2	0x3c1f3348	0.009716816
3	0xbe9a8fb8	-0.30187774
4	0xbea1892e	-0.31549972
5	0xbe7ff574	-0.24995977
6	0xbed2cb04	-0.41170514
7	0xbe6b5b54	-0.22984058
8	0x3ec535f1	0.38517717
9	0xbeaecc1a	-0.34140092
10	0xbe23ef09	-0.16009153
11	0xbe939241	-0.2882252
12	0xbe40e067	-0.18835603
13	0xbe7792e3	-0.24177127
14	0xbe65f937	-0.22458349
15	0xbf1ed6aa	-0.620463

bn2.running_var f4 [16]
0	0x3ea7d271	0.32777742
1	0x3e90648f	0.2820172
2	0x3e45484a	0.19265857
3	0x3e473a82	0.19455913
4	0x3e99d71e	0.30046934
5	0x3e2c8e54	0.16851169
6	0x3ee8def5	0.45482603
7	0x3e8b0e1d	0.27159205
8	0x3eb1f19f	0.34754655
9	0x3e9f65c2	0.31132323
10	0x3ec14509	0.37747982
11	0x3e8448b4	0.25836718
12	0x3dbd498e	0.09242545
13	0x3e9a333c	0.30117214
14	0x3e25c9da	0.16190282
15	0x3f07e873	0.53089064

conv3.weight f4 [120, 16, 5, 5]
0	0x3d154f32	0.03645248
1	0x3dc1ca29	0.09462387
2	0x3d23e050	0.040008843
3	0xbca84735	-0.020541767
4	0x3d0d5fa1	0.034515027
5	0xbd5ffd0b	-0.05468468
6	0x3c1fc252	0.009750919
7	0x3d3f2dde	0.0466746
8	0x3b69bd2d	0.0035665736
9	0x3c355326	0.011067187
10	0x3d78ac52	0.060711212
11	0x3dcbd1ce	0.099521264
12	0x3dbb73ed	0.091529705
13	0xbc895fd1	-0.016769322
14	0x3dbb971c	0.09159681
15	0x3e043bea	0.1291348
16	0x3d45b6a1	0.04826987
17	0x3d448f69	0.04798833
18	0x3d00c558	0.0314382
19	0x3d8d3bc7	0.06896167
20	0x3e14eb08	0.14542782
21	0x3dee4095	0.11633412
22	0xbcfbe634	-0.030749418
23	0x3d06bfc1	0.032897715
24	0xbbbfca7e	-0.0058529964
25	0xbe8b0673	-0.27153358
26	0x3dd982e0	0.106206656
27	0xbc00d4b5	-0.007863213
28	0x3d1b0af0	0.037852228
29	0x3d6dd74a	0.058066644
30	0xbc99883a	-0.018741716
31	0x3dbe7091	0.09298814
32	0xbc8685e7	-0.016421271
33	0xbd188e2d	-0.037244964
34	0xbc0bd468	-0.008534528
35	0xbd44a560	-0.048009276
36	0xbd81960f	-0.063274495
37	0xbe025b0e	-0.12730047
38	0xbd9d8c42	-0.07692768
39	0xbd1d29d8	-0.038369983
40	0xbd3d174f	-0.046164807
41	0xbdd1014a	-0.10205324
42	0x3d3a7b1f	0.045527574
43	0xbdfbb8c5	-0.12291101
44	0xbd190cae	-0.037365608
45	0xbe300b05	-0.17191704
46	0xbdb315d9	-0.087444015
47	0xbc264a68	-0.010149576
48	0xbd5bef50	-0.053695023
49	0x3dcd55a9	0.10026104
50	0x3dc8d0c0	0.09805441
51	0xbd692690	-0.05692154
52	0x3b2af7a6	0.0026087551
53	0x3dcc6819	0.099807926
54	0x3e13d196	0.1443542
55	0xbc4edd8c	-0.012626063
56	0x3c8c1344	0.01709903
57	0x3cb3778e	0.021907594
58	0x3ce64a39	0.028111564
59	0x3c944482	0.018099073
60	0xbd190127	-0.037354615
61	0xbd47ee80	-0.048811436
62	0xbd6ce5f6	-0.057836495
63	0xbd8eaa15	-0.06966034
64	0xbc1ed1de	-0.009693591
65	0xbe0d4639	-0.13796319
66	0x3cd6e5a6	0.026232552
67	0x3c8abea6	0.016936611
68	0xbd90d2ac	-0.070714325
69	0xbe3574fa	-0.17720404
70	0xbda78593	-0.08179774
71	0xbd6a9cb6	-0.057278357
72	0xbd6b910e	-0.05751138
73	0xbd6a1d2c	-0.057156727
74	0xbd252846	-0.04032161
75	0xbddb7757	-0.10716122
76	0xbd566192	-0.052339144
77	0x3c203e7a	0.009780521
78	0xbc5e3d38	-0.0135644
79	0xbd17893d	-0.036996115
80	0x3cbf8b55	0.023381868
81	0x3d565dc9	0.052335534
82	0x3cc180ff	0.02362108
83	0x3b705c1c	0.0036675995
84	0x3d0e503c	0.034744486
85	0x3d345986	0.04403069
86	0x3c9f1bd7	0.019422455
87	0x3d381b73	0.044948053
88	0xbbf12c96	-0.0073600514
89	0x3e054eca	0.13018337
90	0xbd01b254	-0.031664208
91	0xbdce34bf	-0.10068654
92	0xbb5e3fe5	-0.0033912596
93	0x3ddc6c23	0.10762813
94	0xbd93a398	-0.072089374
95	0xbd92e96a	-0.071734264
96	0xbd5e0f7c	-0.054213986
97	0xbdadbd47	-0.084833674
98	0x3d2f71d0	0.04283315
99	0xbd693276	-0.05693289
100	0xbdd0c227	-0.101932816
101	0x3be2de1d	0.0069234506
102	0xbddd6151	-0.10809577
103	0x3c99422e	0.018708315
104	0xbd89af9d	-0.06722949
105	0x3b652b2b	0.0034968357
106	0xbd6a9577	-0.057271447
107	0xba0ae6d5	-0.0005298679
108	0x3dcc1972	0.09965791
109	0xbdd323f5	-0.10309593
110	0x3ce4f529	0.027948933
111	0x3d4ad5fb	0.049520474
112	0x3df0fb78	0.11766714
113	0x3e162173	0.14661197
114	0xbd87a931	-0.066240676
115	0xbcb2c062	-0.02182025
116	0x3d7b8349	0.0614045
117	0x3de0e804	0.109817535
118	0x3d2d50d6	0.04231342
119	0x3dc04dbf	0.09389829
120	0xb9c0a02a	-0.00036740425
121	0x3cb968bd	0.02263295
122	0xbdb0e896	-0.08638112
123	0xbc282b3e	-0.010264216
124	0x3da92b0d	0.082601644
125	0x3e028ae6	0.12748298
126	0x3de7cea6	0.11318712
127	0xbdbae175	-0.09125034
128	0xbcfca4ae	-0.030840244
129	0x3d98e79f	0.07466053
130	0xbcf7be80	-0.030242205
131	0xbd4c6e24	-0.049909726
132	0xbc935b18	-0.017987773
133	0x3d1b1472	0.037861295
134	0xbc4499d4	-0.011999566
135	0xbc95d5e4	-0.018290468
136	0xbd87cfe0	-0.06631446
137	0x3d1f120c	0.03883557
138	0xbd8309fa	-0.06398387
139	0x3cfc2808	0.030780807
140	0xbd6965e0	-0.05698192
141	0xbc5e2b62	-0.013560148
142	0x3dbf31d5	0.093356766
143	0xbded9c95	-0.11602131
144	0x3d7b931b	0.061419588
145	0xbe3d4376	-0.18482766
146	0x3d8f6342	0.07001354
147	0x3e036261	0.12830497
148	0xbde53067	-0.11190873
149	0x3c806a25	0.015675614
150	0x3d014c97	0.031567182
151	0xbc9b5c4b	-0.018964907
152	0x3c441da8	0.011969961
153	0xbbc6de4d	-0.006068981
154	0xbafa6ea9	-0.0019106466
155	0x3d286ab0	0.04111737
156	0x3cc37023	0.023857182
157	0x3db861d8	0.09003037
158	0x3d0e4e7a	0.03474281
159	0xbb89c982	-0.00420493
160	0xbcdec125	-0.027191708
161	0xbd3ec5d8	-0.046575397
162	0x3c93289b	0.017963698
163	0xbd1fd576	-0.03902193
164	0x3ab17c2f	0.0013541038
165	0x3c2bdda0	0.010489851
166	0x3dc23946	0.0948358
167	0x3d999b6a	0.07500346
168	0x3d80083f	0.06251573
169	0xbdb0c60a	-0.08631523
170	0x3dad3a34	0.08458367
171	0x3dde2761	0.10847355
172	0x3d0f043a	0.03491614
173	0x3d9a4c79	0.07534117
174	0xbd105301	-0.03523541
175	0xbe62129f	-0.22077416
176	0xbd1c8874	-0.03821607
177	0x3de7349c	0.11289331
178	0x3dc69014	0.096954495
179	0x3d9994bf	0.07499074
180	0xbd8071b7	-0.062716894
181	0x3d1fed7b	0.03904484
182	0xbd7d9314	-0.061907843
183	0x3c2a8326	0.010407245
184	0x3dad7bac	0.08470854
185	0x3e03db57	0.1287664
186	0x3cd83734	0.02639351
187	0xbc6e5e0c	-0.01454879
188	0xbdc86a5f	-0.09785914
189	0x3d938a79	0.07204146
190	0x3d964493	0.07337298
191	0xbdadf682	-0.08494283
192	0xbc1a2f54	-0.009410698
193	0xbdf55d90	-0.11980736
194	0x3d68680d	0.056739856
195	0x3c933095	0.017967502
196	0x3d0c90c4	0.034317747
197	0xbd60446e	-0.05475276
198	0x3dac49e6	0.084125325
199	0xbd15f449	-0.03660992
200	0xbdadf669	-0.08494265
201	0xbda3035d	-0.07959626
202	0xbc8db1d9	-0.017296718
203	0xbddc3ee3	-0.10754182
204	0x3caabef7	0.020843012
205	0x3d2ec266	0.04266586
206	0xbcb8caf4	-0.022557713
207	0x3d5ea8a4	0.054360047
208	0x3d4feee8	0.050764948
209	0x3d831851	0.06401122
210	0x3baadaad	0.0052140565
211	0xbcaca143	-0.02107299
212	0x3d65fe56	0.056150757
213	0x3db6deda	0.08929224
214	0xbb911ff0	-0.004428856
215	0x3dda004b	0.10644587
216	0xbbeb1828	-0.0071745105
217	0x3d43e847	0.04782894
218	0xbb1dbdab	-0.002406935
219	0x3da42f56	0.08016841
220	0x3d81e84a	0.06343134
221	0x3d009b6b	0.031398218
222	0xbd559006	-0.052139305
223	0x3d12393d	0.035699118
224	0x3d561b32	0.05227203
225	0x3d3d4137	0.04620477
226	0x3c7c8ea8	0.015414871
227	0xbcda20a5	-0.026626894
228	0x3c438a70	0.011934862
229	0xbda26247	-0.07928901
230	0x3d7b82d3	0.06140406
231	0xbd07c8ef	-0.03315061
232	0xbd5d2d5a	-0.05399833
233	0xbd3981da	-0.04528985
234	0x3d304232	0.04303188
235	0x3ce68dbf	0.028143762
236	0xbd35e232	-0.04440517
237	0x3c863f32	0.016387556
238	0xbdb1ae8a	-0.08675869
239	0x3da10e34	0.07864037
240	0xbd5851c6	-0.05281236
241	0xbb36df82	-0.0027904217
242	0x3ce0cec1	0.027442338
243	0x3db61df2	0.0889243
244	0x3dda338a	0.106543615
245	0xbccd14c7	-0.025034321
246	0xbe2278e8	-0.15866435
247	0xbc8f905e	-0.017524894
248	0x3cc94562	0.024569217
249	0xbc8fb831	-0.017543884
250	0xbab9afc6	-0.0014166764
251	0xbc2447dd	-0.010026899
252	0xbd190fdc	-0.03736864
253	0xbc7bd6da	-0.015371049
254	0xbd3057fc	-0.04305266
255	0x3ce6a2f3	0.028153872

conv3.bias f4 [120]
0	0xbcdd5d67	-0.027022077
1	0x3c2b6857	0.010461888
2	0xbc18ee87	-0.009334213
3	0xbc27bd95	-0.010238071
4	0xbbfe4541	-0.0077597206
5	0x3b732c60	0.0037105307
6	0x3c7fb587	0.015607244
7	0xbd00b443	-0.03142191
8	0x3b804adf	0.0039151753
9	0x3bf7de44	0.007564338
10	0x3b064ed3	0.002049376
11	0xbc6e50b4	-0.014545608
12	0x3bf19a77	0.00737315
13	0x3c923325	0.017846653
14	0xbc6008f2	-0.013674008
15	0x3cdb6684	0.026782282
16	0x3bcfd49e	0.0063424846
17	0x3d34019a	0.04394684
18	0x3c9bfab5	0.019040445
19	0xbb86d1ef	-0.0041143815
20	0x3bbbc873	0.0057306825
21	0x3c5f56c8	0.01363153
22	0x3c4dd4fe	0.012562988
23	0xbd1b8d25	-0.037976403
24	0xbc49e103	-0.012321713
25	0xbbe78839	-0.0070657996
26	0x3d459de0	0.048246264
27	0xbb4de3f3	-0.0031416386
28	0x3ad13812	0.0015962145
29	0xbccaab31	-0.024739834
30	0x3c3486f1	0.011018501
31	0x3c477805	0.012174611
32	0x3c429449	0.011876174
33	0x3c38456b	0.011247019
34	0x3cb179e5	0.02166457
35	0x3c5d3905	0.013502364
36	0x3b34e6d1	0.0027603398
37	0x3c792300	0.015206099
38	0xbbf3cd32	-0.0074402327
39	0xbc312f1c	-0.010814454
40	0x3cb164ba	0.021654475
41	0xbce3199f	-0.027722178
42	0x3cb25c8e	0.02177265
43	0xbb942443	-0.0045209243
44	0x3c9fce72	0.01950762
45	0xbc74aaf9	-0.014933341
46	0x3bc0dc5e	0.005885645
47	0x3c6653b9	0.014058047
48	0xbc2b069d	-0.010438588
49	0xbcabb7fe	-0.020961758
50	0xbc1082e0	-0.0088202655
51	0xbc29b64a	-0.0103584025
52	0x3c19abba	0.009379322
53	0x3cef5ab5	0.029218057
54	0xbc0579ae	-0.0081466865
55	0x3cd4ccd4	0.025976576
56	0xbc84bda8	-0.016203716
57	0xbca7e58c	-0.020495199
58	0x3cf989d8	0.030461237
59	0x3ca9da34	0.02073393
60	0x3c3b5893	0.011434692
61	0xbc16461a	-0.009171987
62	0x3c295e39	0.010337406
63	0x3b069223	0.0020533882
64	0x3b94def0	0.004543178
65	0x3a94621a	0.001132074
66	0xbc1c6371	-0.009545193
67	0xba1a15e0	-0.00058778934
68	0xbc0c63fa	-0.008568758
69	0xbc1f349c	-0.009717133
70	0x3c1fc1e5	0.009750818
71	0x3c8ba6ba	0.017047275
72	0x3d12aad3	0.035807442
73	0x398bb686	0.00026648137
74	0xbc90f15c	-0.017693214
75	0xbc807c67	-0.01568432
76	0x3b879a34	0.0041382555
77	0xba918989	-0.0011103611
78	0x3cab54b1	0.020914407
79	0x3cd89fdc	0.026443414
80	0x3bdfae06	0.006826165
81	0x3c66a012	0.01407625
82	0xbc04c373	-0.008103239
83	0x3c24f85f	0.010068982
84	0x3ad7e217	0.0016470578
85	0x3b6a0c4d	0.0035712898
86	0xba5227d3	-0.00080167985
87	0xbc0222a0	-0.007942826
88	0xbc97ca87	-0.01852919
89	0xbc701d5e	-0.014655439
90	0x3c332f6c	0.010936599
91	0xbb902d70	-0.004399948
92	0xbbf0e68a	-0.007351701
93	0x3c680cb8	0.014163189
94	0xbc8d3653	-0.017237818
95	0xbad42397	-0.0016184923
96	0x3c7396bd	0.014867482
97	0xbb2f3cdf	-0.0026739163
98	0x3b80126a	0.003908445
99	0xbc0b416f	-0.008499487
100	0xbb1169cf	-0.002218831
101	0x3c2e41c0	0.010635793
102	0xbb45330d	-0.0030090243
103	0x3b8c9d74	0.004291231
104	0x3d12678c	0.03574328
105	0xbc049c2a	-0.008093873
106	0x3b8cf168	0.004301239
107	0xbcd17a7c	-0.0255711
108	0xbc7967de	-0.015222518
109	0xbc3b1ff7	-0.011421195
110	0x3c0095c3	0.007848206
111	0xb9eb01bb	-0.00044823982
112	0x3cbbef38	0.022941217
113	0x3c157ed9	0.009124481
114	0xb962b074	-0.00021618773
115	0x3c37e900	0.011224985
116	0xbc91c1fc	-0.017792694
117	0x3a8f68b0	0.0010941233
118	0x3b0ec1f2	0.002178308
119	0x3d203d19	0.039120767

bn3.weight f4 [120]
0	0x3f91798f	1.1365222
1	0x3f91db70	1.1395092
2	0x3f93fe35	1.1561953
3	0x3f8b6544	1.0890279
4	0x3f8fbc55	1.1229349
5	0x3f8e575c	1.112041
6	0x3f921656	1.1413066
7	0x3f8e6872	1.1125624
8	0x3f9610f7	1.1723927
9	0x3f931bc9	1.1492854
10	0x3f90d01d	1.1313511
11	0x3f985bde	1.1903036
12	0x3f97e89f	1.1867865
13	0x3f9f0527	1.2423447
14	0x3f9855d0	1.1901188
15	0x3f889896	1.0671566
16	0x3f958441	1.1680986
17	0x3f958715	1.1681849
18	0x3f8ed366	1.1158264
19	0x3f916e2f	1.136175
20	0x3f82ac5f	1.0208853
21	0x3f8d49bd	1.1038128
22	0x3f8cdbda	1.1004593
23	0x3f91fdb1	1.1405545
24	0x3f85d611	1.0455953
25	0x3f8a6708	1.0812693
26	0x3f90aecb	1.1303343
27	0x3f8ade9e	1.0849187
28	0x3f9c8766	1.222882
29	0x3f8b199e	1.0867193
30	0x3f8c07ab	1.093984
31	0x3f8c5daa	1.0966084
32	0x3f8eee46	1.1166465
33	0x3f8425b6	1.0324008
34	0x3f99b07c	1.2006984
35	0x3f91e8ca	1.1399167
36	0x3f9c9d5a	1.223552
37	0x3f9ff627	1.2496995
38	0x3f837fe9	1.027341
39	0x3f8ed804	1.1159673
40	0x3f86391c	1.0486178
41	0x3f8bbfd9	1.0917922
42	0x3f979d0a	1.18448
43	0x3f957ab3	1.167807
44	0x3f8f4de0	1.119564
45	0x3f87d540	1.0611954
46	0x3f843a44	1.0330281
47	0x3f897b5c	1.0740771
48	0x3f9ba1e7	1.2158784
49	0x3f976875	1.1828753
50	0x3f913df4	1.1347032
51	0x3f89286f	1.0715464
52	0x3fa184aa	1.2618611
53	0x3f90db87	1.1316994
54	0x3f94235d	1.1573292
55	0x3f8c6b63	1.0970272
56	0x3f90866b	1.1291021
57	0x3f8d614b	1.1045316
58	0x3f925c6e	1.1434457
59	0x3f922790	1.1418324
60	0x3f998701	1.1994325
61	0x3f916caa	1.1361287
62	0x3f8c80b9	1.0976783
63	0x3f896717	1.0734586
64	0x3f84af8c	1.0366073
65	0x3f968adc	1.1761127
66	0x3f917629	1.1364185
67	0x3f8c0583	1.0939182
68	0x3f9949dd	1.1975666
69	0x3f8b300c	1.0874038
70	0x3f9750ca	1.182153
71	0x3f831a8e	1.0242479
72	0x3f889c9a	1.0672791
73	0x3f8dd12b	1.1079458
74	0x3f92fc34	1.1483216
75	0x3f93ac2f	1.1536921
76	0x3f8aa719	1.0832244
77	0x3f8e663a	1.1124947
78	0x3f9984b4	1.1993623
79	0x3f8c04c0	1.093895
80	0x3f8ca256	1.0987041
81	0x3f922725	1.1418196
82	0x3f97156f	1.1803416
83	0x3f856cfc	1.0423884
84	0x3f8ffdd7	1.1249341
85	0x3f927d6e	1.1444528
86	0x3f90d3e6	1.1314666
87	0x3f890ac8	1.0706415
88	0x3f8c7bc3	1.0975269
89	0x3f8d3f30	1.1034908
90	0x3f86dcdf	1.0536155
91	0x3f7ec843	0.99524325
92	0x3f8a0920	1.0784035
93	0x3f934097	1.1504086
94	0x3f865262	1.0493891
95	0x3f8e0a5a	1.1096909
96	0x3f8eed2b	1.1166128
97	0x3f908cfa	1.1293023
98	0x3f976571	1.1827832
99	0x3f916a86	1.1360633
100	0x3f927494	1.1441827
101	0x3f9087bc	1.1291423
102	0x3f966cf7	1.1752003
103	0x3f8fa5c5	1.1222464
104	0x3f815a6a	1.0105717
105	0x3f8b55b6	1.0885532
106	0x3f9585b8	1.1681433
107	0x3f8d5cc5	1.1043936
108	0x3f9a2cc6	1.2044914
109	0x3f912bd9	1.1341506
110	0x3f93e473	1.1554092
111	0x3f91d9e3	1.1394619
112	0x3f90958d	1.1295639
113	0x3f88e036	1.0693424
114	0x3f93adf3	1.153746
115	0x3f95bf67	1.1699036
116	0x3f8dd7d7	1.1081494
117	0x3f8bafe7	1.0913056
118	0x3f8e6f1a	1.1127656
119	0x3f99e248	1.202218

bn3.bias f4 [120]
0	0xbd36488e	-0.044502787
1	0x3c476e45	0.012172286
2	0xbc895600	-0.01676464
3	0xbd199801	-0.037498478
4	0x3caebfd7	0.02133171
5	0xbd9ecb29	-0.077535935
6	0x3d736c79	0.05942962
7	0xbdef2423	-0.116768144
8	0x3d7c20fc	0.061554894
9	0xbda503a3	-0.08057334
10	0x3c2b546b	0.0104571385
11	0xbcc3f535	-0.023920635
12	0x3bca3fdf	0.006172165
13	0x3cc08718	0.023501918
14	0xbdce9f54	-0.10088983
15	0x3d243fe4	0.040099993
16	0xbc7231e7	-0.014782405
17	0x3c5fee2b	0.0136676235
18	0x3d94b4ee	0.07261072
19	0xbdf0b623	-0.1175349
20	0xbdcb9fdb	-0.099425994
21	0x3c355870	0.011068448
22	0xbc25a2d0	-0.010109618
23	0x3d59e6a0	0.053198457
24	0xbdac5558	-0.084147155
25	0xbb98abea	-0.0046591656
26	0x3d9c03ee	0.07617937
27	0xbb738f5c	-0.0037164306
28	0x3da43486	0.080178306
29	0xbb9e4751	-0.004830279
30	0x3d59d27f	0.05317926
31	0x3d67ccab	0.05659167
32	0x3b000d19	0.0019539057
33	0x3bb21643	0.0054347827
34	0x3d992ccb	0.07479247
35	0x3d2859a7	0.041101124
36	0x3cb6ea94	0.022328652
37	0x3d5d8663	0.05408324
38	0xbc465979	-0.012106293
39	0xbd9afde8	-0.0756796
40	0xbbcbb21d	-0.006216301
41	0xbc1fad57	-0.009745917
42	0xbd383419	-0.04497156
43	0xbcce2b0c	-0.02516701
44	0x3c460f36	0.0120885875
45	0xbdbcc9e5	-0.09218196
46	0xbca1b891	-0.019741328
47	0x3d9ef37e	0.07761286
48	0x3d094876	0.03351637
49	0x3dcb01d5	0.09912459
50	0xbde82705	-0.113355674
51	0x3db84960	0.0899837
52	0x3d821a45	0.06352667
53	0xbc337f18	-0.0109555945
54	0xbd2a5370	-0.04158348
55	0xbdaee146	-0.08539061
56	0x3aa20c22	0.0012363235
57	0x3d9bef23	0.07613971
58	0xbddf6f2b	-0.109098755
59	0xbbdc33be	-0.0067200353
60	0x3d442e6a	0.047895826
61	0x3c8e4815	0.017368356
62	0xbdad3bbf	-0.08458661
63	0xbc831a5b	-0.016003778
64	0xbd9f5a9b	-0.077809535
65	0xbdf2f675	-0.11863414
66	0xbc1b62aa	-0.009483973
67	0xbcbedeac	-0.023299538
68	0x3da1b5ef	0.07896029
69	0xbd57a8cc	-0.05265121
70	0x3cda6854	0.026661076
71	0x3b92f72b	0.004485031
72	0xbd08d599	-0.033406828
73	0xbcf3500c	-0.029701255
74	0x3d0a656f	0.03378814
75	0xbc7f5bcd	-0.015585852
76	0x3daa5494	0.08316913
77	0xbcc9571f	-0.024577675
78	0x3dabe32f	0.08392941
79	0x3dbbbcf8	0.09166902
80	0xbd83c1ff	-0.06433486
81	0x3abe2aaf	0.001450857
82	0x3dc99316	0.098425075
83	0x3d15ce15	0.03657349
84	0x3c16e760	0.009210438
85	0x3c9e4352	0.01931921
86	0x3c9c3680	0.019068956
87	0xbc10abcc	-0.008830022
88	0xbdaf6eac	-0.08566031
89	0xbbd80c90	-0.0065932944
90	0xbd1b5bd8	-0.037929386
91	0xbdb38d31	-0.087671645
92	0x3c53e989	0.012934097
93	0xbc6b2c77	-0.014353863
94	0xbcca6e32	-0.024710748
95	0x3dd51388	0.10404116
96	0xbd3ea0cf	-0.046540078
97	0xbdd0f839	-0.10203595
98	0x3d81adc8	0.06331974
99	0xbd530009	-0.051513705
100	0x3dcd18fc	0.10014531
101	0x3d8b195f	0.067919485
102	0x3db7bd22	0.08971621
103	0xbd1a387d	-0.037651528
104	0xbd612277	-0.05496451
105	0xbd92c4a9	-0.07166416
106	0x3df1e39f	0.118109934
107	0xbd1ce596	-0.038304888
108	0x3c175b12	0.009238021
109	0x3c4d8c79	0.012545698
110	0xbd84f4ce	-0.06492005
111	0x3c8b849f	0.017031012
112	0x3cff124a	0.03113665
113	0x3c159574	0.009129871
114	0x3d318f2f	0.04334944
115	0x3d0b4e96	0.034010492
116	0x3ceaca6c	0.028660975
117	0xbd74a577	-0.059728112
118	0xbced9b3b	-0.029004684
119	0x3d6b8521	0.05750001

bn3.running_mean f4 [120]
0	0xbecf5052	-0.40490967
1	0xbedbf964	-0.42963707
2	0xbf62e8dd	-0.8863657
3	0x3e482215	0.19544251
4	0xbecec82c	-0.40387094
5	0x3bba9cf0	0.005694978
6	0x3e1cb388	0.1530286
7	0xbe8907c6	-0.26763743
8	0x3efd77c8	0.49505448
9	0xbf0aebc8	-0.54266024
10	0xbf8ea6b8	-1.1144629
11	0xbf130007	-0.57421917
12	0x3e460676	0.19338402
13	0xbeda25c4	-0.42606938
14	0x3dbc72d4	0.09201589
15	0xbf329f05	-0.69773895
16	0xbda3aff2	-0.07992543
17	0xbd80a583	-0.06281569
18	0x3ec5ddb0	0.38645697
19	0xbcc1857a	-0.023623217
20	0xbeea193b	-0.45722374
21	0xbec6256b	-0.38700423
22	0x3dc7a995	0.09749142
23	0xbf4bc5fc	-0.79598975
24	0x3b8ef4ae	0.004362664
25	0xbead3113	-0.33826503
26	0xbe59416a	-0.2121636
27	0x3fb0f9e5	1.3826262
28	0xbe1f5eef	-0.15563558
29	0xbe2441b5	-0.1604069
30	0x3eb701e3	0.35743627
31	0x3f11b521	0.56917006
32	0xbe04a272	-0.12952593
33	0x3f08a61c	0.5337846
34	0x3d56a5d3	0.052404236
35	0xbf867ffe	-1.050781
36	0xbcc6100a	-0.02417757
37	0x3f7dec49	0.9918867
38	0x3ee7de54	0.4528681
39	0x3e498818	0.19680822
40	0xbf0375d6	-0.5135168
41	0xbf00a78f	-0.50255674
42	0xbe9a4c4b	-0.30136332
43	0xbee11969	-0.439647
44	0xbcc33e5d	-0.023833448
45	0xbeda37ef	-0.426208
46	0xbfa5874f	-1.2931918
47	0x3efca369	0.49343422
48	0x3fe4e490	1.7882252
49	0x3f811a64	1.0086179
50	0xbf806685	-1.0031286
51	0xbf9f1215	-1.2427393
52	0x3dead3b8	0.114661634
53	0xbced3074	-0.028953768
54	0xbf87c7d1	-1.0607854
55	0xbdf6f6b4	-0.12058774
56	0xbdd9ded7	-0.106382065
57	0xbeb0e763	-0.34551534
58	0xbe9077fd	-0.28216544
59	0x3f8351f8	1.025939
60	0x3e8b570a	0.27214843
61	0xbf6a7e77	-0.9159922
62	0xbf91cbb2	-1.1390288
63	0x3e7db627	0.24776517
64	0x3e9d8dc3	0.30772218
65	0x3e918275	0.28419843
66	0xbe6e6186	-0.2327939
67	0xbe399be0	-0.18125868
68	0xbf68c667	-0.9092774
69	0xbca222d1	-0.019791992
70	0xbe6f0e4a	-0.23345295
71	0xbf17b10a	-0.59254515
72	0xbe021a5c	-0.12705368
73	0xbf2e72b6	-0.68143785
74	0xbfa50410	-1.2891865
75	0x3e3a9e8c	0.18224543
76	0xbdeb7a42	-0.11497928
77	0x3ed7c039	0.42138842
78	0x3e784ee0	0.24248838
79	0xbf6b0cff	-0.91816705
80	0xbe963139	-0.2933443
81	0xbec099a4	-0.37617218
82	0x3c785170	0.015156135
83	0x3f26ddeb	0.6518237
84	0xbc9120c4	-0.01771582
85	0xbf94a99d	-1.1614262
86	0x3eedee86	0.4647104
87	0x3dd4de67	0.103939824
88	0xbf059360	-0.52178
89	0xbe0d4e0a	-0.13799301
90	0xbfcca0b2	-1.598654
91	0x3ee6c10f	0.45069167
92	0xbecca811	-0.39971974
93	0x3de788c4	0.11305383
94	0xbdfc1ce8	-0.12310201
95	0xbfa4fb38	-1.2889166
96	0xbd8a8b98	-0.06764907
97	0x3ebe4c00	0.37167358
98	0x3ebb29cb	0.36555323
99	0xbf67e97e	-0.90590656
100	0xbeb15ee2	-0.34642702
101	0xbea82cd3	-0.32846698
102	0xbd9760f2	-0.07391538
103	0xbe228f39	-0.15874948
104	0x3e0cf1f2	0.1376417
105	0x3f58055a	0.84383166
106	0xbf29ed74	-0.6637795
107	0xbf8b98c8	-1.0906
108	0xbcc3ed86	-0.023916971
109	0x3f1efa71	0.62100893
110	0x3f1e94f1	0.61946017
111	0xbef4c505	-0.47806564
112	0xbe3da3a8	-0.18519461
113	0xbfaad4ab	-1.3346151
114	0xbf030902	-0.5118562
115	0x3c1eae68	0.009685136
116	0xbeb2b64a	-0.349047
117	0xbd2e8649	-0.042608533
118	0xbe78ecc1	-0.24309064
119	0xbec9c70d	-0.39409676

bn3.running_var f4 [120]
0	0x3eeb5a1e	0.4596719
1	0x3eedcf0b	0.46447024
2	0x3edb59c2	0.42841917
3	0x3f1e45c7	0.6182522
4	0x3eda80ee	0.4267649
5	0x3ecf4eeb	0.40489897
6	0x3e9c2379	0.30495813
7	0x3ec85360	0.3912611
8	0x3edb197a	0.42792875
9	0x3f11dc1a	0.56976473
10	0x3f08336e	0.53203475
11	0x3ed01c30	0.40646505
12	0x3ebd5ad1	0.3698335
13	0x3ec6a553	0.38798007
14	0x3ec4740a	0.3836978
15	0x3e9a1cb8	0.30100036
16	0x3ed380b3	0.41309127
17	0x3ebd5afe	0.36983484
18	0x3ef459fe	0.4772491
19	0x3ee73192	0.45155007
20	0x3e961c04	0.2931825
21	0x3f1eb47e	0.6199416
22	0x3eb66948	0.35627198
23	0x3eddb40d	0.4330143
24	0x3ec582d2	0.3857637
25	0x3ed5a86e	0.41730064
26	0x3ea99bb6	0.3312661
27	0x3f1f06cf	0.62119764
28	0x3ef3d9f4	0.47627223
29	0x3ec44130	0.38330984
30	0x3edfce28	0.43711972
31	0x3ebda460	0.3703947
32	0x3f122f04	0.5710299
33	0x3eb9ad69	0.36265114
34	0x3f00d9f9	0.503326
35	0x3ee6514d	0.44983903
36	0x3e9ea6a4	0.30986512
37	0x3f8ee7a6	1.1164443
38	0x3f0ecb3a	0.5577885
39	0x3ef6edff	0.48228452
40	0x3f34735b	0.7048852
41	0x3eaf34d0	0.3421998
42	0x3ee96b4e	0.4558968
43	0x3ed452e9	0.41469505
44	0x3ec4c0a0	0.3842821
45	0x3ed9053e	0.42386812
46	0x3ed825c6	0.4221632
47	0x3ea57611	0.3231664
48	0x3ef35dd6	0.4753253
49	0x3ef60372	0.48049504
50	0x3ea2053b	0.31644616
51	0x3f1a6c09	0.603211
52	0x3f352b3b	0.7076909
53	0x3edf37b2	0.4359718
54	0x3f097b43	0.5370371
55	0x3ec364ab	0.3816274
56	0x3ebb554c	0.36588514
57	0x3f04c66b	0.5186526
58	0x3ed9ed71	0.42563966
59	0x3f07b0a5	0.53003913
60	0x3ecc8da9	0.39951828
61	0x3ebbce78	0.3668096
62	0x3eae7810	0.34075975
63	0x3f0b85cf	0.5450105
64	0x3e8c38f6	0.27387208
65	0x3ea93daa	0.33054858
66	0x3eda6d35	0.42661443
67	0x3f031c72	0.5121528
68	0x3f080b2c	0.53142047
69	0x3ed25463	0.41080007
70	0x3f0bcb6c	0.5460727
71	0x3ea00d02	0.31259924
72	0x3e9b5ac7	0.30342695
73	0x3ed6cb0b	0.41951784
74	0x3ed7bac5	0.4213468
75	0x3eb54505	0.3540422
76	0x3eb3895e	0.3506574
77	0x3ead129b	0.33803257
78	0x3f1a040a	0.60162413
79	0x3ef2dfdc	0.47436416
80	0x3e962503	0.29325113
81	0x3e6bc272	0.23023394
82	0x3edd1429	0.43179443
83	0x3f1062cb	0.56400746
84	0x3eb3f293	0.35146007
85	0x3ede2409	0.43386868
86	0x3f175db3	0.5912735
87	0x3edf73fb	0.43643174
88	0x3f034a94	0.5128567
89	0x3ed5bd24	0.41745865
90	0x3ee22e90	0.4417615
91	0x3f0459f3	0.5169975
92	0x3eb9794f	0.36225364
93	0x3ed490a3	0.415166
94	0x3eac9711	0.33709005
95	0x3ee098ab	0.43866476
96	0x3f0e2e76	0.55539644
97	0x3f220706	0.63291967
98	0x3e9f3673	0.3109623
99	0x3ecd0800	0.40045166
100	0x3ef5aa81	0.47981647
101	0x3eabc934	0.33551943
102	0x3ed7f855	0.4218165
103	0x3e7c1a11	0.24619319
104	0x3eb82826	0.3596813
105	0x3eca3061	0.39490035
106	0x3f0bb0d1	0.54566675
107	0x3eec9237	0.46205303
108	0x3e91af5d	0.28454104
109	0x3f22b2d5	0.63554126
110	0x3edb567b	0.42839417
111	0x3ee719e5	0.45136943
112	0x3ec54d60	0.38535595
113	0x3eda6d90	0.42661715
114	0x3ea88320	0.3291254
115	0x3eb4d24e	0.353167
116	0x3ed981fe	0.4248199
117	0x3f013f45	0.50487167
118	0x3ed61a74	0.41817057
119	0x3ea6318e	0.32459682

fc1.weight f4 [84, 120]
0	0x3e8451d8	0.25843692
1	0x3cded90f	0.027203111
2	0xbb6d0f72	-0.0036172536
3	0xbe88e72a	-0.26738864
4	0xbdd419af	-0.10356461
5	0xbdb06bbf	-0.08614301
6	0xbe11e40e	-0.14247152
7	0x3e871d5a	0.2638958
8	0xbc94b40b	-0.018152257
9	0x3dcf18b9	0.10112137
10	0x3dbbfe61	0.09179378
11	0xbd7b13c5	-0.06129815
12	0x3df4ab77	0.11946767
13	0x3d75e0c8	0.06002882
14	0xbe816510	-0.25272417
15	0xbdef6d40	-0.1169076
16	0x3e2ff51d	0.17183347
17	0x3d651a38	0.055933207
18	0x3e8a347b	0.26993164
19	0x3e1d4cc5	0.15361317
20	0x3d5c6660	0.05380857
21	0x3e2ccdd6	0.16875395
22	0xbe285b16	-0.16440997
23	0x3dd91ce1	0.10601211
24	0x3e5437a1	0.20724346
25	0xbd0977ba	-0.033561446
26	0xbe468774	-0.19387609
27	0x3e810b57	0.25203964
28	0x3e5c19e0	0.21494246
29	0xbd06f4a5	-0.032948155
30	0xbdc4aa83	-0.09602835
31	0xbd63110c	-0.05543618
32	0xbe5932a3	-0.21210723
33	0xbc3f5cf4	-0.011679877
34	0x3d34a889	0.04410604
35	0x3e21b20d	0.15790577
36	0xbe8520f1	-0.26001695
37	0xbe94c156	-0.29053754
38	0x3e333cf7	0.17503725
39	0xbd4c3dc8	-0.049863607
40	0x3d8f7751	0.0700518
41	0xbd911f7a	-0.07086082
42	0xbdf211dc	-0.11819813
43	0x3b95fe1f	0.0045774127
44	0x3e6e3b87	0.23264895
45	0x3e2c2efd	0.168148
46	0x3e28ce20	0.1648488
47	0x3e3a5b07	0.18198787
48	0xbdb714ac	-0.0893949
49	0xbe4da3d9	-0.20082034
50	0xbc76c9a9	-0.015062728
51	0x3e2dda10	0.16977715
52	0x3b6f96b2	0.0036558327
53	0xbe06ed02	-0.13176349
54	0xbd1bc892	-0.038033076
55	0x3e49b0fb	0.19696419
56	0x3e13eaf2	0.14445093
57	0x3d69b581	0.05705786
58	0x3d2fb3e5	0.04289617
59	0xbdbe16de	-0.09281705
60	0x3de1e7b4	0.11030522
61	0x3e28e1ce	0.16492388
62	0x3def0a52	0.1167189
63	0x3cda9adf	0.026685176
64	0x3e6c8f44	0.23101526
65	0x3d855e21	0.06512094
66	0xbe19c088	-0.15014851
67	0xbcb85b26	-0.0225044
68	0x3e134574	0.14381963
69	0x3d3e94f3	0.046528768
70	0x3d79e7c1	0.061012033
71	0xbcdeac66	-0.027181815
72	0xbc8da87d	-0.017292256
73	0xbe1ba853	-0.1520093
74	0xbdc315e1	-0.095256574
75	0xbe005e5b	-0.12535994
76	0xbdb70625	-0.08936719
77	0xbe4b6218	-0.19861639
78	0xbe1d5ced	-0.1536748
79	0xbd3ffb0c	-0.046870276
80	0xbe47a5ec	-0.19496888
81	0xbccde3dd	-0.025133068
82	0x3d11c19a	0.035585023
83	0xbd6f826f	-0.058474
84	0xbdba2e55	-0.090908684
85	0x3e060394	0.13087302
86	0xbeeb2d81	-0.45933154
87	0xbe4f224e	-0.2022793
88	0xbd5db927	-0.054131653
89	0x3e850173	0.25977668
90	0xbd457311	-0.04820544
91	0xbd0ce40c	-0.03439717
92	0x3df68d4a	0.120386675
93	0xbd6506c1	-0.055914644
94	0xbd49b9b9	-0.049249385
95	0x3cb44490	0.02200535
96	0x3e1bce0f	0.15215324
97	0x3e1359b5	0.1438969
98	0xbe872bed	-0.264007
99	0xbe0aa23a	-0.13538447
100	0x3c8ab092	0.016929898
101	0xbd9de318	-0.0770933
102	0xbd9d6bb5	-0.07686559
103	0x3e085ff5	0.13317855
104	0xbe149dba	-0.14513293
105	0xbdf713b3	-0.12064304
106	0xbd9c8b21	-0.07643724
107	0x3d270243	0.04077364
108	0x3d46b198	0.04850921
109	0xbe6d3f17	-0.23168598
110	0x3d8f1888	0.06987101
111	0x3e829623	0.2550517
112	0x3e31a140	0.17346668
113	0xbd770085	-0.06030323
114	0x3ded4462	0.115853086
115	0xbdbd47de	-0.09242223
116	0x3e7cad53	0.24675493
117	0xbcc090cb	-0.023506543
118	0x3ddb113a	0.10696645
119	0xbebbb302	-0.3666001
120	0xbe013bf4	-0.12620527
121	0xbea40055	-0.32031503
122	0x3e50131c	0.2031979
123	0xbddedade	-0.10881589
124	0xbd133d0a	-0.035946883
125	0x3ba2c413	0.0049672215
126	0x3dfc5779	0.123213716
127	0x3e1ada2d	0.1512229
128	0xbd8cd138	-0.06875843
129	0x3e407a6e	0.18796703
130	0xbdb9f72c	-0.090803474
131	0x3ded3a6e	0.1158341
132	0xbe3b3795	-0.18282922
133	0xbdd1c012	-0.10241713
134	0xbe360c61	-0.1777816
135	0x3d8f6fa0	0.07003713
136	0xbe2721cf	-0.1632149
137	0x3d3e2e06	0.04643061
138	0xbe4ade82	-0.19811442
139	0xbe4948a9	-0.19656624
140	0x3e235517	0.15950428
141	0xbe1d3922	-0.15353826
142	0xbe0b0bcb	-0.13578717
143	0xbe547257	-0.20746742
144	0xbceb1ee5	-0.028701255
145	0x3dc8148b	0.09769543
146	0x3e6f1601	0.23348238
147	0x3d10c34f	0.03534251
148	0xbe1ca7ed	-0.15298434
149	0x3e10ba2c	0.14133519
150	0xbbea2214	-0.0071451757
151	0xbdf42f40	-0.11923075
152	0x3e9bb936	0.30414742
153	0x3d1c5d6b	0.038175028
154	0x3d8c4a85	0.06850151
155	0x3e480e4e	0.19536707
156	0xbd99560a	-0.07487114
157	0x3e113a95	0.14182504
158	0xbe44595a	-0.1917471
159	0xbe7a0f4f	-0.24419902
160	0x3d869414	0.065712124
161	0xbc2ed835	-0.010671665
162	0xbc599c8f	-0.013281955
163	0x3d953dd2	0.07287182
164	0x3c8efc84	0.017454393
165	0xbe026b4f	-0.12736247
166	0x3e673c8c	0.2258169
167	0xbdc63f09	-0.09679992
168	0x3e429cfe	0.190052
169	0xbe529295	-0.20563729
170	0xbe08c5f7	-0.13356768
171	0xbdc13a98	-0.09435004
172	0xbe2a4d46	-0.1663104
173	0xbd839dbb	-0.06426569
174	0x3e4201ab	0.18945949
175	0xbdb3f523	-0.087869905
176	0xbc524bd2	-0.01283546
177	0x3e4135df	0.18868206
178	0x3db3090d	0.08741961
179	0xbda7fcfc	-0.0820255
180	0x3eabec99	0.33578947
181	0x3ead51b2	0.3385139
182	0xbd90af4c	-0.07064685
183	0x3ddddb61	0.10832859
184	0xbdf79dca	-0.12090643
185	0x3d46a023	0.048492562
186	0xbda075f5	-0.078349985
187	0x3c0d4271	0.008621798
188	0xbe1473b9	-0.1449727
189	0xbe5f6a28	-0.21817839
190	0xbe33f51f	-0.17573975
191	0x3e35823e	0.17725465
192	0xbd70a978	-0.058755368
193	0x3cbed425	0.023294518
194	0x3e9483f8	0.29006934
195	0x3dae7e7c	0.08520219
196	0xbde2f24c	-0.11081371
197	0x3dec3ed4	0.11535421
198	0x3d653dab	0.055967014
199	0xbe37e8e4	-0.17959934
200	0x3db1a14e	0.086733446
201	0x3d310262	0.043215163
202	0x3e8ecd72	0.27891117
203	0xbdfd5c6f	-0.12371146
204	0x3bb9785f	0.0056601013
205	0x3dd33614	0.10313049
206	0x3e2f3513	0.1711009
207	0xbe6c2f9e	-0.2306504
208	0x3e2ca8b2	0.16861227
209	0xbe02cdaf	-0.12773775
210	0x3cad1032	0.021125887
211	0xbdc96dd5	-0.09835402
212	0xbc601525	-0.013676916
213	0xbd8abd40	-0.06774378
214	0xbe07bdff	-0.13256072
215	0x3d43aa48	0.047769815
216	0xbc3d3611	-0.011548535
217	0xbb687b8c	-0.003547403
218	0x3d34441d	0.04401027
219	0x3d2df372	0.042468496
220	0x3daf8ee0	0.08572173
221	0x3dab1bd9	0.08354921
222	0x3e46d060	0.19415426
223	0xbd1afe76	-0.03784033
224	0xbdfa29b4	-0.122149855
225	0xbe2c471c	-0.16824001
226	0x3dc2d190	0.09512627
227	0x3dfc377e	0.12315272
228	0x3e9148ac	0.28375757
229	0xbc63ac0c	-0.013896
230	0x3d7489ae	0.059701614
231	0x3e1af961	0.15134193
232	0x3e4585e2	0.19289353
233	0x3c235b8f	0.00997056
234	0x3dd049d5	0.10170332
235	0x3d8bd872	0.06828393
236	0xbcaf4687	-0.021395935
237	0xbe246ad8	-0.16056383
238	0xbae7bb58	-0.0017679734
239	0xbdeac5b9	-0.11463494
240	0xbd031cc6	-0.032009862
241	0xbe297a0b	-0.16550462
242	0xbe26ce3a	-0.16289607
243	0x3e15fe4c	0.14647788
244	0x3e36fd94	0.1787017
245	0x3e5ebfc8	0.21752846
246	0xbc090d70	-0.00836502
247	0xbd8852a1	-0.06656385
248	0x3d213e59	0.0393661
249	0xbdaa87d2	-0.08326687
250	0x3e68c913	0.22732954
251	0xbae6c63e	-0.0017606688
252	0x3e052fc4	0.13006502
253	0xbd838703	-0.06422236
254	0xbccf23e6	-0.025285672
255	0x3e253f1d	0.16137357

fc1.bias f4 [84]
0	0x3cd872c1	0.026421906
1	0x3d89ae7c	0.067227334
2	0xbb3a7d94	-0.0028456198
3	0x3c22bc56	0.009932598
4	0xbc2ff524	-0.010739598
5	0x3cfe4897	0.031040473
6	0x3d2ea44d	0.04263716
7	0xbca16e7f	-0.019706009
8	0xbcb7af38	-0.022422418
9	0xbc461969	-0.012091019
10	0x3dcf918a	0.10135181
11	0x3ce56c23	0.028005665
12	0x3d74a85e	0.05973088
13	0x3c2e84ac	0.010651749
14	0x3d787cc9	0.06066588
15	0xbce61590	-0.028086454
16	0xbbcd0cd6	-0.0062576337
17	0x3d110544	0.035405412
18	0xbc65e247	-0.0140309995
19	0x3da4fc93	0.08055987
20	0x3d84ef18	0.06490916
21	0x3d3bfd5b	0.045895915
22	0x3d07f130	0.033189
23	0x3d72b8dd	0.05925833
24	0x3ce8872a	0.028384764
25	0x3d51ec43	0.051250707
26	0x3d566b14	0.05234821
27	0xbc2b9d2c	-0.010474484
28	0x3c601538	0.013676934
29	0xbc8ff5df	-0.017573295
30	0x3d928dd8	0.07155961
31	0x3d33fc38	0.043941706
32	0x3d35f4b1	0.04442281
33	0x3cc59741	0.024119975
34	0x3d97c8b3	0.07411327
35	0x3930b8d9	0.00016853529
36	0x3d7d9fb0	0.061919868
37	0x3d921366	0.07132606
38	0x3cf275b7	0.029597146
39	0x3d038002	0.0321045
40	0xbbc549dc	-0.0060207676
41	0x3cbe22f1	0.02321002
42	0xbc89d800	-0.01682663
43	0x3c7554c5	0.014973824
44	0x3c7e3d1f	0.015517502
45	0x3cf3ca08	0.029759422
46	0x3cfc9902	0.030834679
47	0x3d9a62d9	0.07538385
48	0x3d90802d	0.070556976
49	0x3ac98655	0.0015375117
50	0x3ccc463d	0.024935836
51	0x3d0461d7	0.03231987
52	0x3b742669	0.003725434
53	0x3d3f940e	0.046772055
54	0xbbfcffd9	-0.007720929
55	0x3d0ef581	0.0349021
56	0x3d72f728	0.059317738
57	0x3c2dab7b	0.010599966
58	0x3a9c6d49	0.0011934425
59	0xbb8bc86d	-0.004265836
60	0x3d25903b	0.040420752
61	0x3d984076	0.0743417
62	0xbc472430	-0.012154624
63	0x3cf7f3ae	0.030267563
64	0x3d673d34	0.056454852
65	0xbb7c7b03	-0.003852547
66	0x3d5626ed	0.052283216
67	0x3d69bd8c	0.05706553
68	0x3c0a2e86	0.008433944
69	0x3cd6b3e7	0.026208831
70	0x3d17e36a	0.037082113
71	0x3db2f40d	0.08737955
72	0x3cde02cd	0.027100945
73	0xbd8fc3cd	-0.07019768
74	0xbc4f27dd	-0.0126437815
75	0x3d6a10d4	0.057144955
76	0x3c21e835	0.009882023
77	0x3da1a94c	0.07893619
78	0x3c1933e5	0.0093507515
79	0x3c218c46	0.009860104
80	0x3c844bd2	0.016149435
81	0x3d03b1e1	0.03215206
82	0x3c8f51de	0.017495092
83	0x3d490906	0.04908087
