model1/model/big_category(97.18).pt (torch, 278018 bytes, 22 tensors)

weight f4 [6, 3, 5, 5]
0	0xbe2c6928	-0.16836989
1	0x3dd98b2f	0.1062225
2	0x3ddb167e	0.106976494
3	0xbd15f57e	-0.036611073
4	0xbcb491a8	-0.02204211
5	0x3cf9b60e	0.030482318
6	0xbca3cc0f	-0.019994764
7	0xbe277a67	-0.16355287
8	0xbe1196b6	-0.14217648
9	0x3c1bbd72	0.0095056165
10	0x3dde720a	0.10861595
11	0xbe1f2112	-0.15539959
12	0xbe12c79e	-0.1433396
13	0x3dd0d44a	0.10196741
14	0xbda92c0d	-0.08260355
15	0x3ddf960a	0.109172896
16	0x3e1394ff	0.14412306
17	0x3e081b32	0.13291624
18	0x3d24e5d7	0.040258255
19	0x3ca6ca71	0.020360203
20	0xbdd6ee34	-0.104946524
21	0x3e41bfa7	0.18920766
22	0x3dfdd818	0.12394732
23	0x3dc84d0d	0.09780321
24	0xbe0a440f	-0.13502525
25	0xbd45224e	-0.04812842
26	0xbe19f8f0	-0.15036368
27	0xbda50cfb	-0.080591165
28	0xbe23e819	-0.16006507
29	0x3c9c3fa1	0.01907331
30	0x3e011079	0.1260394
31	0xbe029b7a	-0.12754622
32	0xbe039c3a	-0.12852564
33	0xbdb84269	-0.08997042
34	0xbde2e145	-0.11078123
35	0x3e3aba9f	0.18235253
36	0x3e008bf5	0.1255339
37	0xbdb05ac8	-0.08611065
38	0xbdbd8e6f	-0.09255683
39	0x3dc70068	0.09716874
40	0x3a54712c	0.0008104022
41	0x3e7bebb2	0.2460163
42	0xbb6ed8be	-0.0036445106
43	0xbd35e9b7	-0.04441234
44	0x3e00f450	0.12593198
45	0x3e4f0cf4	0.20219785
46	0x3e891580	0.26774216
47	0xbdb06994	-0.086138874
48	0x3d7777cf	0.060416993
49	0xbc31ece0	-0.010859698
50	0xbd458c5a	-0.048229553
51	0xbce53a73	-0.027981972
52	0x3c09b5c3	0.008405152
53	0x3dc73969	0.09727747
54	0xbd9aafda	-0.07553072
55	0x3c8048bd	0.015659684
56	0xbe47495d	-0.1946158
57	0xbd0e94a7	-0.034809735
58	0x3c9ad30e	0.018899467
59	0xbe2c4554	-0.16823322
60	0x3cb79042	0.022407655
61	0x3d1ec551	0.038762394
62	0xbdbffb31	-0.09374083
63	0xbe058c7d	-0.13041873
64	0x3df8e67b	0.12153336
65	0xbd072616	-0.032995306
66	0x3c91419a	0.017731477
67	0xbd3a765a	-0.045523025
68	0x3e0b65e6	0.1361309
69	0xbdb3aa1c	-0.0877268
70	0x3d90f70a	0.07078369
71	0x3ea7c0e6	0.32764357
72	0x3e5fde7e	0.21862218
73	0xbdac106b	-0.08401569
74	0xbdab1f7e	-0.08355616
75	0xbd21bcc3	-0.039486658
76	0x3e8673e9	0.26260307
77	0x3e55e0d0	0.2088654
78	0x3e280d2a	0.16411272
79	0x3b93ea30	0.0045140013
80	0xbe0cadc5	-0.13738163
81	0xbdb554aa	-0.08854039
82	0x3e2b5f5b	0.16735594
83	0xbda69cfd	-0.08135412
84	0x3dabc960	0.083880186
85	0xbe258634	-0.16164476
86	0xbd5cc72e	-0.05390089
87	0xbc890189	-0.016724365
88	0xbdf4b510	-0.119485974
89	0xbd932511	-0.07184804
90	0xbc2a06d2	-0.010377603
91	0xbd07842a	-0.033085026
92	0x3ceb528f	0.02872589
93	0xbc24f461	-0.01006803
94	0x3dac0011	0.0839845
95	0xbda00f0a	-0.078153685
96	0xbd526073	-0.051361512
97	0x3d83ebe4	0.06441477
98	0xbd8b4da0	-0.06801915
99	0xbdfd28f7	-0.12361329
100	0x3dfb5272	0.122715846
101	0x3e2a2cc2	0.16618636
102	0x3db75a3c	0.08952758
103	0x3e296626	0.16542873
104	0x3dc475de	0.09592794
105	0xbd8b0c8e	-0.06789504
106	0x3e173169	0.14764942
107	0x3c9aca39	0.018895255
108	0xbd4022cd	-0.04690819
109	0x3d67d101	0.056595806
110	0xbdfbf2d8	-0.12302178
111	0xbd1b1993	-0.037866186
112	0x3cc6d1a7	0.024269892
113	0xbe209f87	-0.15685855
114	0xbd4c7331	-0.049914543
115	0xbe29af45	-0.16570766
116	0xbe122cb6	-0.14274868
117	0xbdae9385	-0.08524231
118	0xbd251886	-0.04030659
119	0xbd8a3c58	-0.06749791
120	0xbdbd224b	-0.092350565
121	0x3dbab178	0.09115881
122	0x3dec8138	0.11548084
123	0xbd4d50a9	-0.05012575
124	0x3e175bc6	0.14781103
125	0xbd87ae21	-0.06625009
126	0x3d25ed5e	0.040509574
127	0x3cf80111	0.030273946
128	0x3e83b8ba	0.25726873
129	0xbcae216e	-0.021256175
130	0x3b22fa8e	0.002486858
131	0xbbd95ba7	-0.0066332403
132	0x3e2c032c	0.16798085
133	0x3c84ea4e	0.016225006
134	0x3e5f37be	0.21798608
135	0xbe2fd26b	-0.17170112
136	0xbe409a1c	-0.18808788
137	0xbd984d07	-0.07436567
138	0xbd27ca52	-0.040964432
139	0xbd06bb58	-0.03289351
140	0xbe4d8f31	-0.20074154
141	0xbe4364d9	-0.19081439
142	0xbde672f5	-0.11252395
143	0x3d44a460	0.048008323
144	0x3d26279b	0.040565114
145	0x3b2442c3	0.0025064207
146	0x3d9ad249	0.0755964
147	0xbe0c702f	-0.1371467
148	0xbd8dabb6	-0.06917517
149	0xbd8ab726	-0.06773214
150	0x3ce52516	0.027971786
151	0xbe394281	-0.18091775
152	0xbdd63583	-0.10459425
153	0x3d9aa8fe	0.07551764
154	0x3e84d90c	0.25946844
155	0xbdd5840b	-0.10425576
156	0xbe09deaa	-0.13463846
157	0xbd3c5a93	-0.045984816
158	0x3dfb3821	0.12266565
159	0x3d60169c	0.054709062
160	0xbe6925dc	-0.22768348
161	0xba85258f	-0.0010158288
162	0x3e171229	0.14753021
163	0x3c93d3c9	0.018045323
164	0x3c96bf85	0.01840187
165	0xbcd7ff89	-0.026366966
166	0xbdcbb992	-0.09947504
167	0x3b3cd4d6	0.0028813384
168	0x3e168464	0.1469894
169	0xbd81c47d	-0.06336305
170	0xbe0669d7	-0.13126312
171	0x3d97ba8d	0.074086286
172	0x3e5e821f	0.21729325
173	0x3bb9a11f	0.005664959
174	0x3c67ff90	0.014160052
175	0xbdff35f8	-0.124614656
176	0xbcbac0c1	-0.02279699
177	0xbd7222c8	-0.0591152
178	0x3e35e68c	0.17763728
179	0xbcdb3719	-0.026759671
180	0xbd8dff17	-0.0693342
181	0xbc2e8648	-0.010652132
182	0xbd719eda	-0.058989383
183	0xbd1a08da	-0.037606098
184	0x3e2f1fe5	0.1710201
185	0xbd87ba27	-0.066273026
186	0xbe42e2aa	-0.19031778
187	0x3d91cb29	0.07118828
188	0x3e436530	0.19081569
189	0x3e3b362c	0.18282384
190	0xbe41aebf	-0.18914317
191	0xbd740a7f	-0.059580322
192	0x3d8999d5	0.06718794
193	0xbc3c66bf	-0.011499106
194	0xbc458b33	-0.012057113
195	0x3d7487ed	0.05969994
196	0xbd185707	-0.03719237
197	0x3de0cf68	0.109770596
198	0xbddca8bd	-0.10774372
199	0xbd581847	-0.052757528
200	0xbe1b7e66	-0.15184936
201	0xbbc0c60c	-0.005882984
202	0x3d3df04c	0.046371743
203	0x3df6baa3	0.12047317
204	0x3de5a4f3	0.11213102
205	0xbe05a4c6	-0.13051137
206	0xbe11e867	-0.1424881
207	0xbe22f0db	-0.15912192
208	0x3e11e10d	0.14246006
209	0x3e01c6f4	0.12673551
210	0xbe02ecf9	-0.1278571
211	0x3a802efe	0.000977963
212	0x3d91bed0	0.07116473
213	0x3df4eac0	0.119588375
214	0x3c9dd55e	0.01926678
215	0xbdfa65e7	-0.122264676
216	0xbdb31fcd	-0.087463
217	0xbdb41634	-0.087932974
218	0x3e17eb4d	0.14835854
219	0x3d5927a3	0.053016316
220	0xbd71a26b	-0.058992784
221	0x3dd27b85	0.10277466
222	0xbd94436c	-0.07239422
223	0x3dee9572	0.11649598
224	0xbc0ee83e	-0.008722363
225	0x3d01c827	0.03168502
226	0x3c5c816f	0.013458594
227	0x3def5e5d	0.1168792
228	0xbe202278	-0.15638149
229	0xbda98566	-0.08277397
230	0x3c31fb84	0.010863189
231	0xbd739e30	-0.05947703
232	0x3e4fe7ff	0.20303343
233	0x3e8e5649	0.27800205
234	0x3daf410a	0.08557327
235	0xbd7a039f	-0.06103861
236	0x3dc32d31	0.09530104
237	0x3d8bb06e	0.06820761
238	0xbcd811a5	-0.026375601
239	0x3c9ec77e	0.019382235
240	0xb98a6838	-0.0002639906
241	0x3d238118	0.039918035
242	0xbd97f39e	-0.07419513
243	0x3e23156f	0.15926145
244	0xbd8bbc11	-0.0682298
245	0x3d91cc25	0.071190156
246	0xbe31d8dc	-0.17367882
247	0x3d8a809e	0.06762813
248	0x3db7a450	0.08966887
249	0xbdf95142	-0.12173702
250	0xbe491c3b	-0.19639675
251	0x3cbb1645	0.022837767
252	0xbdb9aad5	-0.09065787
253	0x3ddc78fb	0.10765263
254	0xbddf406e	-0.10900961
255	0xbdd375a3	-0.10325172

bias f4 [6]
0	0xbcf54000	-0.029937744
1	0xbbda0252	-0.0066531086
2	0x3c4749a7	0.012163556
3	0xbcc62da1	-0.02419168
4	0x3dc3b46c	0.09555897
5	0xbca824c8	-0.020525351

weight f4 [6]
0	0x3f86bf21	1.0527078
1	0x3f2bf08e	0.6716393
2	0x3f5023ae	0.8130444
3	0x3f8f102f	1.1176814
4	0x3f879d67	1.059491
5	0x3f4e8024	0.8066428

bias f4 [6]
0	0xbdbeb020	-0.09310937
1	0xbdfaf7b0	-0.12254274
2	0x3c9430d7	0.018089695
3	0xbf16fc02	-0.58978283
4	0xbe020a8a	-0.12699333
5	0x3d2badd5	0.041913826

running_mean f4 [6]
0	0x3d98ea76	0.07466595
1	0xbe0e9255	-0.13923009
2	0x3c4b7e5d	0.012420264
3	0x3f5664a5	0.8374732
4	0x3e61c83c	0.2204904
5	0xbc36a792	-0.01114835

running_var f4 [6]
0	0x3f1b04e0	0.60554314
1	0x3f33e285	0.70267516
2	0x3f8438f4	1.0329881
3	0x4054c9d5	3.3248188
4	0x3eb22c3a	0.34799367
5	0x3f32ac9a	0.6979462

weight f4 [16, 6, 5, 5]
0	0xbd0ddc6d	-0.034634043
1	0xbc72c49b	-0.014817382
2	0xbc8fadd9	-0.017538952
3	0x3db285ee	0.08716951
4	0xbe0bb475	-0.13643058
5	0x3b8ac159	0.0042344746
6	0xbe2fc747	-0.17165862
7	0x3d107abf	0.03527331
8	0xbce680b9	-0.028137552
9	0xbdab95d6	-0.08378188
10	0xbd01b1bd	-0.031663645
11	0xbe102b0b	-0.1407892
12	0x3ce6005d	0.028076345
13	0xbd54fcb2	-0.0519988
14	0xbe0e264c	-0.13881797
15	0x3deb4892	0.11488451
16	0xbde21d7a	-0.110407785
17	0x3cbb26ae	0.022845592
18	0x3d3efc81	0.046627525
19	0x3cd04d37	0.025427444
20	0x3c879217	0.016549153
21	0xbd8bda82	-0.068287864
22	0xbd243dbe	-0.040097944
23	0x3d9b1217	0.0757181
24	0xbd9a7a09	-0.075428076
25	0xbdfb6350	-0.12274802
26	0xbdae5e50	-0.085140824
27	0xbdbc06af	-0.09180962
28	0xbd2a7bf7	-0.04162213
29	0x3c016933	0.007898617
30	0xbe336e45	-0.17522533
31	0xbe10caa4	-0.14139801
32	0xbd1a950f	-0.03773981
33	0x3be1cd0d	0.006890899
34	0xbbb29fc2	-0.0054511735
35	0xbddb826f	-0.107182376
36	0xbd4b5043	-0.04963709
37	0x3ddffb0a	0.10936554
38	0x3dbc6934	0.091997534
39	0x3d1c7892	0.038200922
40	0xbd5ed94a	-0.05440644
41	0x3cea9c4a	0.028638978
42	0x3c1f444a	0.009720871
43	0x3cff364d	0.031153822
44	0x3d8adc3e	0.06780289
45	0x3d2fc75e	0.04291474
46	0xbd7291a8	-0.05922094
47	0xbd55ebc6	-0.052226804
48	0x3def9a26	0.11699323
49	0xbdb07892	-0.08616747
50	0xbdb72487	-0.08942514
51	0xbc31685e	-0.010828106
52	0xbdb60459	-0.08887548
53	0x3cb3a96c	0.021931373
54	0x3df14313	0.117803715
55	0xbda829c7	-0.082110934
56	0x3b9818a2	0.0046416083
57	0xbc98ee6e	-0.01866838
58	0xbdf76669	-0.1208008
59	0xbd134adf	-0.035960075
60	0xbde8334e	-0.113379106
61	0xbd69d565	-0.057088275
62	0x3da3e3d1	0.08002437
63	0xbd9c2e57	-0.07626026
64	0x3c4f5210	0.012653843
65	0x3d2a35f1	0.04155535
66	0x3dd217e5	0.10258464
67	0x3e25f352	0.162061
68	0xbd4b97b0	-0.049705207
69	0x3cde711c	0.027153544
70	0x3cf1aaa0	0.029500306
71	0x3d645469	0.055744562
72	0x3da3f2da	0.08005305
73	0x3aa05870	0.0012233388
74	0x3e08da84	0.13364607
75	0x3d6b203f	0.0574038
76	0x3dd3f565	0.1034954
77	0xbd304e82	-0.04304362
78	0xbdfc3518	-0.12314814
79	0xbc1233df	-0.0089235
80	0x3ae8a242	0.0017748552
81	0x3e11ca48	0.1423732
82	0xbd424f66	-0.047439
83	0xbe01411d	-0.12622495
84	0xbc521e3d	-0.012824592
85	0x3d55bdde	0.052183025
86	0x3debb040	0.115082264
87	0x3d7d6a12	0.061868735
88	0x3d7f8642	0.062383898
89	0xbdca43d9	-0.09876222
90	0xbb17f9a8	-0.0023189578
91	0x3de4b521	0.1116736
92	0xbd86f72e	-0.065901145
93	0x3d3367cf	0.04380017
94	0xbe3c0d9c	-0.18364567
95	0xbbbeb74d	-0.005820191
96	0xbcbabb9b	-0.022794535
97	0xbd9665f6	-0.07343666
98	0x3c8a838c	0.01690843
99	0xbe00809d	-0.12549062
100	0xbdceb245	-0.10092596
101	0xbd160960	-0.036630034
102	0xbe5b9e84	-0.21447188
103	0xbe014814	-0.12625152
104	0x3e111126	0.14166698
105	0xbdd0a12f	-0.10186993
106	0x3b7aa0e5	0.0038242873
107	0xbd81200e	-0.06304942
108	0xbdce05b1	-0.10059679
109	0x3e34cf75	0.17657264
110	0xbd51113d	-0.05104183
111	0xbdd63624	-0.10459545
112	0xbe14bc8d	-0.14525051
113	0xbe278ca9	-0.16362251
114	0x3d64d986	0.05587151
115	0x3cb0efd2	0.02159873
116	0xbd0122a3	-0.031527173
117	0xbc863ff5	-0.016387919
118	0xbe21c3c6	-0.15797338
119	0xbd6e7328	-0.05821529
120	0x3d0b2fe7	0.03398123
121	0x3dbaf635	0.091289915
122	0x3d0aa2a4	0.033846512
123	0x3d0a83de	0.033817165
124	0xbdadcff4	-0.084869295
125	0xbd76bab9	-0.060236666
126	0x3d1089ed	0.035287786
127	0xbb0bd66d	-0.0021337525
128	0x3dad7a03	0.084705375
129	0x3ce70cd5	0.028204361
130	0xbdedda97	-0.11613958
131	0xbc40bcb0	-0.011763737
132	0xbb5c4c0b	-0.003361466
133	0x3e068741	0.13137533
134	0xbd44bc4c	-0.048031136
135	0xbe1692c5	-0.14704426
136	0x3dc59532	0.096475974
137	0xbd9fd5c6	-0.07804446
138	0x3e1819c5	0.1485358
139	0x3ad0f0ea	0.0015940939
140	0xbd91a030	-0.071106315
141	0x3d4fc80e	0.050727896
142	0x3dc1f99a	0.09471436
143	0x3dd48131	0.10376204
144	0x3cc88d8a	0.024481554
145	0xbdf9c52b	-0.1219581
146	0xbd5c2a18	-0.05375108
147	0xbd9c881d	-0.07643149
148	0x3b6aabb1	0.0035807902
149	0xbd16f298	-0.03685245
150	0xbb2b77e7	-0.0026163997
151	0xbe2c46f5	-0.16823943
152	0x3d01462c	0.03156106
153	0xbc0af8a9	-0.008482137
154	0x3d291732	0.041281886
155	0xbc46f082	-0.0121423025
156	0xbe79c724	-0.24392372
157	0x3d0e3d01	0.034726147
158	0x3cb7aee8	0.022422269
159	0xbdb4ba6a	-0.08824618
160	0xbda95b64	-0.082693845
161	0xbe6b32c8	-0.2296859
162	0x3c6e2f5c	0.014537659
163	0x3e0990fb	0.13434212
164	0x3cc4179f	0.023937045
165	0xbdf4825d	-0.11938927
166	0xbe2d752c	-0.16939229
167	0x3d51d921	0.05123246
168	0x3dd8459b	0.10560151
169	0x3db785cb	0.08961066
170	0xbd2c2a81	-0.042032722
171	0xbe9a835f	-0.30178353
172	0x3c068fc5	0.008212988
173	0x3e106996	0.14102778
174	0x3e0f75ae	0.14009735
175	0x3d518ea8	0.05116144
176	0x3d7e0b7d	0.062022675
177	0x3cb185ed	0.021670306
178	0xbbdcf854	-0.00674347
179	0x3d0ccb9f	0.034373876
180	0xbd94083d	-0.07228134
181	0x3da48430	0.08033025
182	0xbdaeae0f	-0.08529293
183	0xbc87d5cb	-0.016581437
184	0xbd89f8f9	-0.06736941
185	0x3d7e28c7	0.062050607
186	0x3d04a8d4	0.03238757
187	0xbd9a9a54	-0.07548967
188	0xbe039693	-0.12850408
189	0x3bb3197c	0.0054656845
190	0x3c52e8d8	0.012872897
191	0x3c1956a2	0.009359034
192	0xbd59b7f7	-0.05315396
193	0xbd167e6f	-0.03674167
194	0xbd161728	-0.036643177
195	0xbd8fd61d	-0.07023261
196	0xbdc2f2dc	-0.09518978
197	0xbd806190	-0.062686086
198	0xbde162fe	-0.110052094
199	0x3dc80432	0.09766425
200	0x3db41f27	0.08795004
201	0xbdbf2f9c	-0.09335253
202	0xbd1402ca	-0.036135472
203	0x3db48f77	0.08816426
204	0xbd91decc	-0.07122573
205	0xbd447c94	-0.04797037
206	0x3d8ea951	0.06965888
207	0xbc0263b3	-0.00795834
208	0x3d662039	0.056183074
209	0xbd8a8526	-0.06763677
210	0xbd48cb39	-0.049021933
211	0xbc1c4af7	-0.009539357
212	0xbc0b5c94	-0.008505959
213	0xbdbfedb8	-0.09371513
214	0xbe1fa33c	-0.15589613
215	0xbdcd81bc	-0.100345105
216	0x3e348db1	0.17632176
217	0xbbce449a	-0.006294799
218	0xbde1a707	-0.11018186
219	0x3c1ee6e4	0.009698603
220	0x3d771a71	0.06032795
221	0x3d5e0c78	0.05421111
222	0x3da9c6cb	0.0828987
223	0xbc760764	-0.0150164105
224	0x3dd43193	0.10361018
225	0x3ceba944	0.028767236
226	0x3cc99642	0.024607781
227	0x3dc4a3f8	0.09601587
228	0x3d9a0beb	0.075218044
229	0xbd0a7d14	-0.03381069
230	0xbe0b562e	-0.13607094
231	0xbd96b3ea	-0.07358535
232	0x3d0682de	0.03283965
233	0x3d99f96e	0.07518278
234	0x3cf057b8	0.029338703
235	0xbd8b8fd5	-0.06814543
236	0xbdb87738	-0.09007114
237	0x3dc0456c	0.09388241
238	0x3dbfe352	0.0936953
239	0x3db00122	0.08593966
240	0xbd0587f3	-0.032600354
241	0x3dcfa36c	0.10138592
242	0x3d2ef0c7	0.042710092
243	0xbda587ab	-0.08082517
244	0x3ddd0483	0.10791876
245	0xbe575f45	-0.21032436
246	0x3d907d42	0.07055141
247	0xbd03687d	-0.03208207
248	0x3d5ac979	0.053414796
249	0xbc495170	-0.012287483
250	0x3e0cb773	0.13741855
251	0xbc215670	-0.009847268
252	0xbe2d18c0	-0.16903973
253	0xbe0fdb54	-0.14048511
254	0xbe2c51ac	-0.1682803
255	0x3d62fc06	0.05541613

bias f4 [16]
0	0xbd348f88	-0.044082195
1	0x3c2bc1d5	0.010483225
2	0x3c99de35	0.018782714
3	0xbc4f37cc	-0.01264758
4	0x3cdb12b7	0.026742322
5	0xbcbed536	-0.023295026
6	0x3ce7d416	0.028299373
7	0x3a8a99fd	0.0010574457
8	0x3c5b3034	0.013378192
9	0xbd6c1d01	-0.057644848
10	0x3bae469c	0.005318476
11	0xbd53a8dd	-0.051674712
12	0xbd8d6128	-0.06903297
13	0x3d0caa74	0.034342244
14	0x3ce7bbaa	0.028287727
15	0x3bdede35	0.0068013915

weight f4 [16]
0	0x3f5c1f2c	0.85985065
1	0x3f66da83	0.9017717
2	0x3f628374	0.8848183
3	0x3f8f01b8	1.11724
4	0x3f5fde72	0.874488
5	0x3f677f2f	0.9042844
6	0x3f7e973b	0.9944951
7	0x3f81f2ed	1.015226
8	0x3f6a5eb5	0.9155076
9	0x3f820d7e	1.0160367
10	0x3f73d47d	0.95246106
11	0x3f59443b	0.84869736
12	0x3f9c78a1	1.2224313
13	0x3f7353c6	0.95049703
14	0x3f8f2841	1.118416
15	0x3f84f9f7	1.0388783

bias f4 [16]
0	0xbe35081d	-0.17678876
1	0xbe354cf6	-0.1770514
2	0xbd5202af	-0.05127209
3	0xbe0c3e78	-0.13695705
4	0xbd4cf17b	-0.05003498
5	0xbeb96ac8	-0.3621428
6	0xbd8b8f76	-0.068144724
7	0xbdd43504	-0.103616744
8	0xbdb8e5af	-0.09028184
9	0xbe2b1e53	-0.16710787
10	0xbe1e51b3	-0.15460853
11	0xbe13982e	-0.1441352
12	0xbe39e947	-0.18155394
13	0xbe23090a	-0.15921417
14	0xbe951a9d	-0.29121867
15	0xbe79a9b0	-0.24381137

running_mean f4 [16]
0	0xbf129149	-0.5725294
1	0xbee60974	-0.44929087
2	0xbecf362b	-0.40471014
3	0xbe4c51bf	-0.19953059
4	0xbee1b4a9	-0.44083145
5	0x3ec8b5a4	0.3920108
6	0xbe3df82e	-0.18551704
7	0xbead30e0	-0.3382635
8	0xbe82366f	-0.25432155
9	0xbe9d30cc	-0.30701292
10	0xbe63ea0e	-0.22257254
11	0xbe9d9c81	-0.30783466
12	0xbf2623dd	-0.64898473
13	0xbed9ee8d	-0.42564812
14	0xbe48133b	-0.19538586
15	0xbdc8c16c	-0.09802517

running_var f4 [16]
0	0x3ece9bbd	0.40353194
1	0x3ee939df	0.45551965
2	0x3ecad630	0.39616537
3	0x3e08266f	0.13295911
4	0x3f2533a5	0.6453193
5	0x3ef85ee6	0.48509902
6	0x3e4771e0	0.19477034
7	0x3eae4482	0.34036642
8	0x3ea40e05	0.32041946
9	0x3e3b2e23	0.18279319
10	0x3e5cd8bb	0.21567051
11	0x3ec13879	0.37738398
12	0x3f03ead3	0.5153019
13	0x3ed8ccbe	0.42343706
14	0x3e9ded31	0.30845025
15	0x3e315d94	0.17320853

weight f4 [120, 16, 5, 5]
0	0xbd277aa7	-0.040888455
1	0xbcf73643	-0.030177241
2	0xbd3c97e0	-0.046043277
3	0xbdab593b	-0.08366629
4	0xbd439a33	-0.047754478
5	0xbd3845df	-0.04498851
6	0x3cfc24b2	0.030779216
7	0xbd34cab3	-0.04413862
8	0xbd0ed121	-0.03486741
9	0xbd66f30b	-0.056384128
10	0xbd09c222	-0.033632405
11	0xbd724fa1	-0.05915797
12	0x3d9ff682	0.078106895
13	0x3c7d8e48	0.015475817
14	0xbcca7ede	-0.024718698
15	0x3d4175eb	0.047231596
16	0xbd485a6f	-0.04891437
17	0x3d1cd328	0.03828731
18	0xbd8d790a	-0.06907852
19	0x3cddc4aa	0.027071316
20	0xbb078021	-0.0020675736
21	0xbda8bdd8	-0.08239335
22	0x3d07e390	0.033176005
23	0xbd038ae8	-0.032114893
24	0xbcb23b64	-0.021756835
25	0xbdcff138	-0.10153431
26	0xbd892b52	-0.06697716
27	0x3d56fc50	0.052486718
28	0xba9307ac	-0.0011217496
29	0x3d41b362	0.047290213
30	0xbd229e25	-0.0397016
31	0x3d24a4f4	0.040196374
32	0x3d00d6cc	0.031454846
33	0x3ae69e44	0.0017594774
34	0xbce8958a	-0.028391618
35	0xbc2d29df	-0.010569065
36	0xbd5d86d7	-0.05408367
37	0x3da8566b	0.08219608
38	0x3b685ada	0.0035454542
39	0x3d214fba	0.039382674
40	0xbd081ea8	-0.03323236
41	0xbb9b5b20	-0.0047410876
42	0xbc4c059a	-0.012452507
43	0xbd82bf60	-0.06384158
44	0xb8f23141	-0.000115486335
45	0xbddb4aa3	-0.10707595
46	0xbe2d3d59	-0.16917934
47	0xbd0aed69	-0.03391782
48	0x3c9b9ea8	0.018996552
49	0x3c597c89	0.01327432
50	0x3d0da566	0.034581564
51	0xbd4c7067	-0.049911883
52	0xbdf9d2a2	-0.12198378
53	0x3b11ce23	0.0022248111
54	0x3dc439d7	0.095813446
55	0x3d6b4498	0.057438463
56	0xbcbf902a	-0.023384172
57	0xbbe65db3	-0.007030213
58	0x3d9c5a5f	0.076344244
59	0x3d0bf621	0.034170274
60	0x3d3ec637	0.04657575
61	0xbb67ad56	-0.003535112
62	0x3c7bcd75	0.015368809
63	0x3e19c6a3	0.1501718
64	0x3d8a81c0	0.06763029
65	0x3cb501d7	0.022095604
66	0x3cb533b7	0.022119386
67	0x3e0a66a5	0.13515718
68	0x3cc9a5ed	0.024615252
69	0x3d4d3608	0.050100356
70	0xbc7c954d	-0.015416455
71	0x3c83042f	0.015993206
72	0x3cf75044	0.03018964
73	0xbd9c7707	-0.0763989
74	0x3ac6cf74	0.0015168027
75	0x3b8674c4	0.004103275
76	0x3e2e19fc	0.170021
77	0x3c92855d	0.017885858
78	0x3d7e1711	0.062033717
79	0xbd5ca2e5	-0.053866286
80	0xbd920edd	-0.07131741
81	0xbc936769	-0.017993646
82	0x3dffac4f	0.12484037
83	0xbce75322	-0.028237883
84	0xbe0480ab	-0.12939708
85	0xbcde57b6	-0.027141433
86	0x3da52f04	0.08065608
87	0x3db59435	0.08866159
88	0xbd3049b6	-0.043039046
89	0xbd5102e8	-0.051028162
90	0xbdbd7420	-0.09250665
91	0xb90bab2d	-0.00013319841
92	0xbdd9e2a1	-0.10638929
93	0xbb00b90b	-0.0019641544
94	0x3cd699df	0.026196418
95	0x3cd0a0eb	0.025467357
96	0xbd159ec9	-0.036528382
97	0xbe0a817b	-0.13525955
98	0xbdecf414	-0.11569992
99	0xbadd47e3	-0.0016882386
100	0x3d933c7a	0.07189269
101	0x3dfefbb1	0.1245035
102	0x3d96776e	0.07346998
103	0xbc64879b	-0.0139483465
104	0xbd85c032	-0.06530799
105	0x3b1f0b84	0.0024268338
106	0xbc5f9cd5	-0.0136482315
107	0xbc239482	-0.0099841375
108	0xbd7d851c	-0.06189452
109	0xbc0ba3a6	-0.008522904
110	0xbd9602c5	-0.07324747
111	0xbd508cef	-0.050915655
112	0x3d2694da	0.0406693
113	0x3cb64976	0.022251826
114	0xbd115bfa	-0.035488106
115	0xbd8f86bc	-0.070081204
116	0xbdab12ac	-0.08353171
117	0xbd7f6d2e	-0.06235998
118	0xbcaf313c	-0.021385781
119	0x3d3ba369	0.045810137
120	0xbe100728	-0.1406523
121	0xbd993e46	-0.07482581
122	0xbbd57e0f	-0.0065152715
123	0x3d91f6b9	0.07127137
124	0x3da62ea7	0.08114367
125	0xbdcbe9f2	-0.09956731
126	0xbd4a9004	-0.04945375
127	0x3d755adb	0.0599011
128	0x3dd03183	0.101656936
129	0x3cc65e8f	0.02421501
130	0xbd2b4705	-0.041815776
131	0x3c16e270	0.00920926
132	0x3d810ec4	0.063016444
133	0x3deb3b76	0.11485951
134	0x3c04691f	0.008081703
135	0x3d134e91	0.0359636
136	0xbc8b1ad1	-0.01698056
137	0x3d59636e	0.05307334
138	0x3ce662e0	0.02812332
139	0x3c20c121	0.0098116705
140	0x3cd8ff53	0.026488936
141	0xbc9ae554	-0.01890818
142	0x3d36d9c5	0.044641275
143	0xbc87c906	-0.016575348
144	0xbac09648	-0.0014693225
145	0xbd638f4f	-0.05555659
146	0xbda93081	-0.082612045
147	0xbd329ee4	-0.04360856
148	0xbe2fd571	-0.17171265
149	0xbd61a9b4	-0.055093482
150	0x3c37b0cb	0.011211584
151	0x3b1136b9	0.0022157861
152	0xbd0ee0a7	-0.034882214
153	0xbc0e4dd4	-0.008685548
154	0xbd3c87d8	-0.04602799
155	0x3da0ea70	0.078572154
156	0xbccaf7fe	-0.024776455
157	0x3d08c2d9	0.033388946
158	0xbd912ce5	-0.07088641
159	0xbd796924	-0.060891286
160	0x3db222b1	0.08698023
161	0x3d54dcd6	0.051968418
162	0xbd4c076f	-0.049811777
163	0x3bde0d8d	0.0067765177
164	0xbb9c293d	-0.004765658
165	0x3c9abf14	0.018889941
166	0x3b258882	0.0025258367
167	0xbd97d297	-0.07413214
168	0xbd469bc8	-0.04848841
169	0xbd9a1d41	-0.07525111
170	0x3bea6af2	0.007153862
171	0xbd28244c	-0.04105024
172	0xbe142c13	-0.14469938
173	0xbcc2485d	-0.023716146
174	0xbc843740	-0.016139627
175	0x3dbf546d	0.09342275
176	0x3c3aa3ad	0.011391562
177	0xbdfb3a65	-0.12266997
178	0xbd9d43f3	-0.07678976
179	0x3cc683fc	0.024232857
180	0x3d4b7433	0.049671363
181	0x3d208378	0.03918788
182	0xbce0b064	-0.02742786
183	0x3c9242b3	0.01785407
184	0x3bb93357	0.005651872
185	0x3d15dc76	0.0365872
186	0x3db08b2f	0.08620297
187	0x3d412f0a	0.047164
188	0x3cac509a	0.021034528
189	0x3da628d0	0.08113253
190	0x3d6a8021	0.0572511
191	0xbaa05358	-0.001223187
192	0x3c27c591	0.010239975
193	0xbbe44a7c	-0.006966887
194	0x3df6651a	0.12031002
195	0x3cf14328	0.029450968
196	0xbd7b2846	-0.061317705
197	0xbcb7904b	-0.022407671
198	0xbc25679b	-0.010095502
199	0x3d85efd0	0.06539881
200	0xbe3c2160	-0.18372107
201	0xbe245c84	-0.16050917
202	0x3bd4ec56	0.0064979
203	0xbc690fef	-0.01422499
204	0xbd27fb69	-0.041011248
205	0xbdd2c562	-0.10291554
206	0xbdc43fa4	-0.09582451
207	0xbcaa4d7c	-0.0207889
208	0x3ddea489	0.10871226
209	0x3c195e15	0.00936081
210	0x3c9801f1	0.018555613
211	0x3cf4fb82	0.029905085
212	0x3d253f1e	0.040343396
213	0xbc458553	-0.012055713
214	0xbd1084d6	-0.035282932
215	0x3d83d9ee	0.06438051
216	0xbca5795f	-0.020199476
217	0xbc6e49e4	-0.014543984
218	0x3c80cb80	0.015722036
219	0x3d58ab00	0.052897453
220	0xbad97be5	-0.001659271
221	0x3d8893a6	0.06668787
222	0x3d3133dc	0.043262348
223	0xbc8d5c5a	-0.01725595
224	0xbdb2e907	-0.08735853
225	0xbce30f5f	-0.02771729
226	0x3d99a7b5	0.07502691
227	0x3bd6b7c8	0.00655267
228	0xbd443479	-0.047901604
229	0x3a37f430	0.0007017283
230	0x3c27265f	0.0102020195
231	0x3cff4e61	0.031165304
232	0x3cd6ba05	0.026211748
233	0x3dee03c7	0.11621814
234	0xbc9bae1d	-0.019003922
235	0xbb52c50f	-0.0032160913
236	0x3d698617	0.057012644
237	0xbd3df080	-0.046371937
238	0xbce8c0dc	-0.028412275
239	0x3d5337b2	0.051566787
240	0x3be3ea66	0.0069554327
241	0xbce3bfe1	-0.027801456
242	0xbdd908b6	-0.105973646
243	0xbc5e723b	-0.013577039
244	0x3e14ebc1	0.14543058
245	0x3d10439c	0.035220727
246	0xbca90317	-0.020631356
247	0xbdbfeaad	-0.09370933
248	0xbd8217df	-0.06352209
249	0xbcace62e	-0.021105852
250	0x3dcf95b0	0.101359725
251	0xbc4a9709	-0.012365111
252	0xbc312709	-0.010812529
253	0x3d47cfd8	0.0487822
254	0xbdc5fef0	-0.09667766
255	0x3990d8a4	0.0002762723

bias f4 [120]
0	0xba35d6ce	-0.00069366104
1	0x3b667198	0.0035162922
2	0xb96a6331	-0.0002235293
3	0xbaa6ad07	-0.0012716361
4	0x3c659454	0.014012415
5	0x3c348133	0.011017132
6	0x3a0f3b1e	0.0005463826
7	0x3b4880f9	0.0030594452
8	0x3c397b65	0.011320923
9	0x3cef8cb0	0.02924189
10	0x3b577cf6	0.003288088
11	0xbba88e1a	-0.005143893
12	0xbab3980b	-0.0013701929
13	0x3c01de3a	0.007926518
14	0xbc14603a	-0.009056145
15	0x3c4c1e52	0.012458401
16	0x3bdf3333	0.0068115233
17	0x3bc5ad28	0.0060326047
18	0xbb8104b3	-0.003937328
19	0x3b102ccc	0.0021999357
20	0xbaa4b8d6	-0.0012567292
21	0x3bb2cea0	0.0054567605
22	0x394e4aee	0.00019673604
23	0xbb5670c2	-0.0032721017
24	0xbb9927d8	-0.004673939
25	0xb989f76c	-0.0002631502
26	0xbc2ff80c	-0.010740291
27	0x3cb9bffb	0.022674551
28	0xbc15461a	-0.009110952
29	0x3caaa9ee	0.020832982
30	0xbb931870	-0.004488997
31	0xbaa7195d	-0.0012748648
32	0x3995c51a	0.00028566347
33	0xba146342	-0.00056605425
34	0x3a70daef	0.0009187897
35	0x3ac55bd9	0.001505728
36	0x3b4df207	0.0031424777
37	0xbca2b5ee	-0.019862141
38	0xbbc357c9	-0.0059613925
39	0xbb480568	-0.00305208
40	0xbc1c1e70	-0.009528741
41	0xb998dce5	-0.00029156278
42	0x3c4ba320	0.012429029
43	0x3af6d6e5	0.0018832354
44	0xbb5542ab	-0.0032540958
45	0x3bb63f94	0.0055617783
46	0x3b9c684e	0.0047731763
47	0x3bc407a3	0.0059823557
48	0x3a8a367e	0.0010544804
49	0xbbc88517	-0.006119381
50	0xbb9b5c17	-0.0047412026
51	0x3b24d541	0.0025151523
52	0x3b71e363	0.0036909215
53	0x3bfac608	0.0076530017
54	0x3bad6f92	0.0052928412
55	0xbc3d1049	-0.011539527
56	0x39d7be73	0.0004114989
57	0xbc0fb04c	-0.00877006
58	0x3b3d6781	0.0028900804
59	0x3c04790c	0.0080855
60	0x3b7cd066	0.0038576364
61	0x3a14aa27	0.00056711066
62	0x39b5c677	0.00034670878
63	0xba51ed60	-0.0008008089
64	0x3b84613c	0.0040399116
65	0xbb9fe479	-0.004879531
66	0xbc06f67a	-0.0082374755
67	0x3baaa86a	0.005208065
68	0xbb14faa3	-0.00227324
69	0x3ba8dc15	0.005153189
70	0xbafbcd57	-0.0019210976
71	0x3a22151d	0.00061829557
72	0x3c34e2b3	0.011040377
73	0xbaf32740	-0.0018551126
74	0xbbacf53a	-0.0052782567
75	0x3c6f7e9e	0.01461759
76	0x3bd8134c	0.0065940972
77	0x3bf2842b	0.0074010096
78	0xbc828160	-0.015930831
79	0x3be533af	0.0069946866
80	0xbc243676	-0.01002275
81	0x3c7cd3fd	0.015431401
82	0xbb8e05ae	-0.004334173
83	0x3b806828	0.0039186664
84	0xbc171c00	-0.009222984
85	0xbb9c9c80	-0.0047793984
86	0x3b73d67a	0.0037206695
87	0x3baea079	0.0053291884
88	0xbbe05407	-0.0068459543
89	0x3ac1d263	0.0014787432
90	0x3abbecc7	0.0014337533
91	0xbbd204cb	-0.006409263
92	0x39e44eb1	0.00043546178
93	0x3b954398	0.004555177
94	0xbb80fc91	-0.0039363583
95	0x3b06d6bb	0.0020574767
96	0x3bdcc532	0.0067373747
97	0xb96ea073	-0.0002275722
98	0xbb3bc74d	-0.0028652728
99	0x3cc539d8	0.024075434
100	0x3ac3d8ca	0.0014941928
101	0xbbedf0dc	-0.0072613787
102	0xbc3046ad	-0.010759038
103	0xbae90125	-0.001777683
104	0xbc2b0b7e	-0.010439752
105	0xbbbb929e	-0.0057242652
106	0x3b846aa1	0.0040410315
107	0xbb6b242f	-0.0035879721
108	0xbb849fb4	-0.0040473584
109	0xbba9f0a7	-0.0051861587
110	0xbcc5b34a	-0.024133343
111	0x3b22bcaf	0.0024831702
112	0x3b335cea	0.0027368614
113	0xbc25f390	-0.010128871
114	0x3b6aa0ad	0.0035801337
115	0xbc3b01a2	-0.0114139635
116	0xbc07825d	-0.008270827
117	0x3b02db01	0.0019966962
118	0x398b994b	0.00026626358
119	0x3ac40f42	0.001495816

weight f4 [120]
0	0x3f8d0d8b	1.1019758
1	0x3f8ed6b9	1.1159278
2	0x3f897aee	1.074064
3	0x3f8381b8	1.0273962
4	0x3f7aae3d	0.97922117
5	0x3f8c7556	1.0973308
6	0x3f86b67f	1.0524443
7	0x3f8fb6c7	1.1227654
8	0x3f84d40d	1.0377213
9	0x3f8dfaaa	1.1092122
10	0x3f892216	1.0713527
11	0x3f84ffab	1.0390524
12	0x3f80dccb	1.0067381
13	0x3f92585f	1.1433219
14	0x3f857baf	1.042837
15	0x3f7cb1b2	0.9870864
16	0x3f854e6e	1.041456
17	0x3f92b572	1.1461623
18	0x3f967ff3	1.1757797
19	0x3f817159	1.0112716
20	0x3f7fd082	0.9992753
21	0x3f8b2c1e	1.0872838
22	0x3f7eef79	0.99584156
23	0x3f82c354	1.021586
24	0x3f89bbce	1.0760438
25	0x3f8772e4	1.0581937
26	0x3f84b43d	1.0367504
27	0x3f8ad9fc	1.0847774
28	0x3f668aaa	0.90055335
29	0x3f875be0	1.0574913
30	0x3f877e08	1.0585337
31	0x3f8165c3	1.010918
32	0x3f86beba	1.0526955
33	0x3f8794e4	1.0592313
34	0x3f8776b6	1.0583103
35	0x3f83f193	1.0308098
36	0x3f760225	0.9609702
37	0x3f83e571	1.0304395
38	0x3f85c1a9	1.0449725
39	0x3f7c4d53	0.9855549
40	0x3f812b84	1.0091405
41	0x3f8f949e	1.1217229
42	0x3f918ddc	1.1371417
43	0x3f879750	1.0593052
44	0x3f8512f7	1.0396413
45	0x3f922a4a	1.1419156
46	0x3f82f4ec	1.0230994
47	0x3f83efc7	1.0307549
48	0x3f904e40	1.127388
49	0x3f898d68	1.0746279
50	0x3f89944a	1.0748379
51	0x3f8b64c3	1.0890125
52	0x3f84bda6	1.0370376
53	0x3f79e29a	0.9761139
54	0x3f80b0db	1.0053972
55	0x3f8c6fd1	1.0971624
56	0x3f8519ec	1.0398536
57	0x3f86dcaf	1.0536097
58	0x3f8c58a0	1.0964546
59	0x3f872eb1	1.0561124
60	0x3f8fbc64	1.1229367
61	0x3f8a5c1a	1.0809357
62	0x3f834d0c	1.0257888
63	0x3f832d79	1.0248252
64	0x3f8779ca	1.0584042
65	0x3f864b8a	1.0491803
66	0x3f8abe12	1.0839255
67	0x3f8b60c3	1.0888904
68	0x3f807d14	1.0038171
69	0x3f896aae	1.0735681
70	0x3f825017	1.0180691
71	0x3f872536	1.0558231
72	0x3f83c7ad	1.0295311
73	0x3f868f78	1.0512533
74	0x3f9705a4	1.1798596
75	0x3f7b63e0	0.9819927
76	0x3f89f68b	1.0778364
77	0x3f8a4537	1.0802373
78	0x3f8f8e4f	1.1215304
79	0x3f7a6734	0.97813725
80	0x3f8775e5	1.0582854
81	0x3f89f64e	1.0778291
82	0x3f845b9a	1.0340455
83	0x3f8511fa	1.0396111
84	0x3f822a99	1.016925
85	0x3f8d5da2	1.10442
86	0x3f903f53	1.1269325
87	0x3f8d6ebc	1.1049418
88	0x3f8b8572	1.0900099
89	0x3f8926fe	1.0715024
90	0x3f84a4f2	1.0362837
91	0x3f8cd918	1.1003752
92	0x3f85d1a6	1.0454605
93	0x3f7d769a	0.99009097
94	0x3f93bd55	1.1542155
95	0x3f88ab3d	1.0677258
96	0x3f8d7023	1.1049846
97	0x3f8ba614	1.0910058
98	0x3f8eceea	1.1156895
99	0x3f8db4c6	1.1070793
100	0x3f71e346	0.94487417
101	0x3f8f4f29	1.1196033
102	0x3f8c1713	1.0944542
103	0x3f85fb8e	1.0467393
104	0x3f8c979a	1.0983765
105	0x3f7ae634	0.9800751
106	0x3f8017cf	1.0007266
107	0x3f901efa	1.1259453
108	0x3f7dd5ca	0.9915434
109	0x3f87584e	1.0573823
110	0x3f8353d5	1.0259959
111	0x3f82cc03	1.021851
112	0x3f809b5b	1.0047411
113	0x3f8304cb	1.0235838
114	0x3f82e594	1.0226312
115	0x3f8000c7	1.0000237
116	0x3f84c434	1.0372376
117	0x3f8be830	1.0930233
118	0x3f8ba20a	1.0908825
119	0x3f817cf7	1.0116261

bias f4 [120]
0	0xbc4e645b	-0.012597169
1	0xbc53ea38	-0.01293426
2	0xbcc42fae	-0.023948517
3	0x3cca82b0	0.02472052
4	0xbd18db61	-0.03731859
5	0x3be75bfc	0.007060526
6	0x3d40575c	0.046958312
7	0x3d7aadc7	0.061200883
8	0xbb91b2ea	-0.004446377
9	0xbcabcbea	-0.020971257
10	0x3c0d56d9	0.008626663
11	0xbd008915	-0.03138073
12	0xbd5e4fb4	-0.05427523
13	0x3d159888	0.03652242
14	0xbd28b77b	-0.041190606
15	0x3bf7c578	0.007561382
16	0xbce5f1b8	-0.028069362
17	0xbd1d0672	-0.038336225
18	0x3c36e516	0.011163017
19	0x3ca4a23f	0.020096896
20	0xbd03712c	-0.03209035
21	0x3d3207e3	0.043464553
22	0x3be1a2f3	0.00688588
23	0x3ca6af9d	0.02034741
24	0x3bba7d2c	0.005691191
25	0x3bc07d6d	0.005874327
26	0xbd8376eb	-0.06419166
27	0xbbc27564	-0.005934404
28	0xbdc43ff6	-0.09582512
29	0x3bd7afec	0.006582251
30	0xbcd9106b	-0.026497087
31	0xbccc7c11	-0.024961503
32	0x3b34fc9b	0.0027616385
33	0xbc8b8d5a	-0.017035175
34	0x3be1e7d1	0.0068940897
35	0xbc826288	-0.015916124
36	0xbe005758	-0.12533319
37	0xbdaa479b	-0.08314439
38	0xbda8bd10	-0.08239186
39	0xbb8e106c	-0.0043354537
40	0xbcbc8dfa	-0.023016918
41	0x3ceb984e	0.028759148
42	0xbd0041a0	-0.031312585
43	0xbd8c64cc	-0.06855163
44	0x3cc064c5	0.02348555
45	0x3c0e83c4	0.008698408
46	0x3ce5c164	0.028046317
47	0xbd3a9706	-0.045554183
48	0xbceb62fb	-0.028733721
49	0xbbb511e5	-0.005525815
50	0xba8af048	-0.0010600174
51	0xbca6623e	-0.020310517
52	0xbd82918f	-0.06375419
53	0xbd24338a	-0.040088214
54	0xbd54d752	-0.051963158
55	0xbba0c226	-0.004905957
56	0xbd1bffee	-0.03808587
57	0x3ce6419e	0.02810746
58	0x3d338e21	0.043836717
59	0x3ba9be35	0.005180145
60	0x3cb8444c	0.022493504
61	0x3b917919	0.004439485
62	0xbd32b7b5	-0.043632228
63	0xbd3c66b4	-0.045996383
64	0x3ca25df1	0.019820185
65	0x3d2b7c60	0.04186666
66	0xbcbe3754	-0.023219742
67	0x3ce167f9	0.027515398
68	0x3c14c400	0.009079933
69	0xbd087f67	-0.033324625
70	0xbde3a7eb	-0.11116012
71	0xbdaaa9f8	-0.083332
72	0xbcb9285c	-0.022602253
73	0x3c808618	0.01568894
74	0xbcd984f4	-0.026552655
75	0xbc8fb50a	-0.01754238
76	0x3ceae390	0.028672963
77	0xb75e693f	-1.3256736e-05
78	0xbd040aa4	-0.03223671
79	0xbcd9af5c	-0.026572876
80	0xbd072eec	-0.033003733
81	0xbd632a2e	-0.055460148
82	0xbcec64ff	-0.028856752
83	0xbd859e73	-0.065243624
84	0xbb736377	-0.0037138143
85	0xbc048f43	-0.008090797
86	0x3c98a26c	0.018632136
87	0xbcaa6827	-0.020801617
88	0x3c05cfe3	0.00816724
89	0xbd14866c	-0.036261007
90	0xbdccd2e3	-0.10001161
91	0xbda354b1	-0.07975138
92	0xbbe03d2f	-0.006843231
93	0xbd107863	-0.03527106
94	0x3c13ed57	0.009028754
95	0xbcb9306c	-0.022606097
96	0x3d0e8bbf	0.03480124
97	0x3c80fb76	0.015744906
98	0x3d5d693a	0.05405543
99	0x3c019112	0.007908123
100	0xbd9ababe	-0.075551495
101	0xbd01c011	-0.03167731
102	0xbb8c1883	-0.004275383
103	0xbd3f9758	-0.046775192
104	0xbd361df8	-0.044462174
105	0xbc94dfb6	-0.01817308
106	0xbd0d7e52	-0.034544297
107	0x3d1328a0	0.035927415
108	0xbda9f742	-0.08299114
109	0x3c375fcb	0.011192272
110	0xbd2814b4	-0.04103537
111	0xbd4c8da9	-0.049939785
112	0xbd42eb0a	-0.047587432
113	0x3d132166	0.035920523
114	0xbaf5c7e9	-0.0018751594
115	0xbd2f9f2a	-0.0428764
116	0x3c61ed92	0.013789551
117	0x3d82fc9d	0.063958384
118	0x3b9531b9	0.0045530465
119	0x3c995983	0.01871944

running_mean f4 [120]
0	0x3eb8109f	0.3595018
1	0xbd152491	-0.036411826
2	0x3d7bc1d8	0.06146416
3	0x3f23efaf	0.64037603
4	0xbf53130a	-0.82450926
5	0xbea97d2c	-0.3310331
6	0x3eda3453	0.42618045
7	0xbf358164	-0.7090056
8	0xbe0f2156	-0.1397756
9	0xbfa07222	-1.253483
10	0x3f5cbc14	0.86224484
11	0x3e25b8f7	0.1618384
12	0xbef88bab	-0.48544058
13	0x3f3303ac	0.6992748
14	0xbf1fbe82	-0.62400067
15	0xbe3694a4	-0.1783014
16	0xbf2354da	-0.6380135
17	0xbf1d1fd1	-0.61376673
18	0xbe1dabfb	-0.15397637
19	0xbde2168e	-0.11039458
20	0xbf88c2af	-1.0684413
21	0xbe8ac77a	-0.27105314
22	0x3e59c89c	0.21267933
23	0xbe2bed35	-0.16789706
24	0xbf2f24e1	-0.6841565
25	0x3ebb37e8	0.3656609
26	0xbe632a29	-0.22184052
27	0xbec2807e	-0.37988657
28	0x3e51f2d7	0.20502792
29	0xbeba65a2	-0.36405665
30	0x3ec3fdaf	0.38279483
31	0xbf99f3ff	-1.2027587
32	0x3ea9fd56	0.33201092
33	0x3e0ce407	0.1375886
34	0xbef781a4	-0.48341095
35	0x3b3f26b8	0.0029167365
36	0xbe5ca1e6	-0.21546134
37	0xbec11a87	-0.3771555
38	0x3e545fb0	0.20739627
39	0xbe27c20f	-0.16382621
40	0x3d3c1f11	0.045928065
41	0xbe9a7a76	-0.30171555
42	0x3fc8214c	1.5635161
43	0xbf647acf	-0.8924989
44	0xbf129655	-0.5726064
45	0xbdf10ceb	-0.11770042
46	0xbf4aac01	-0.7916871
47	0xbe35c976	-0.17752632
48	0xbd8495db	-0.06473895
49	0xbe9a80da	-0.3017643
50	0xbf6e03d2	-0.9297458
51	0x3f047626	0.5174278
52	0xbf90dcfb	-1.1317438
53	0x3f5a533c	0.85283256
54	0x3df1baa9	0.11803181
55	0xbf468a1b	-0.7755448
56	0xbf46aa15	-0.77603275
57	0x3f82e552	1.0226233
58	0x3ec0a61c	0.3762673
59	0x3fcacf9b	1.5844606
60	0xbe405fd5	-0.18786557
61	0x3d5e292d	0.054238487
62	0x3f8aa91b	1.0832857
63	0xbf7aa638	-0.9790988
64	0xbd5d5001	-0.054031376
65	0x3f2b7b53	0.6698505
66	0x3ecec3ee	0.40383857
67	0x3e7527a0	0.23940897
68	0x40065fea	2.0996041
69	0xbf24236e	-0.6411656
70	0xbf7afc05	-0.980408
71	0x3e86a449	0.26297215
72	0xbfa56455	-1.2921244
73	0xbe816adf	-0.2527685
74	0x3e8a2174	0.26978648
75	0xbfa309b1	-1.2737333
76	0x3f8619bc	1.0476604
77	0xbef1aad3	-0.4720064
78	0xbf04f802	-0.5194093
79	0xbf11edf6	-0.57003725
80	0xbeb1e6d6	-0.34746426
81	0x3d1bc04f	0.038025197
82	0xbdce4c79	-0.1007318
83	0xbf5875fa	-0.8455502
84	0xbf81365f	-1.0094718
85	0xbdc6faed	-0.09715829
86	0x3e7ca0d8	0.24670732
87	0x3da791da	0.08182116
88	0xbf62bf13	-0.88572806
89	0xbf7dfa19	-0.99209744
90	0xbf53249f	-0.82477754
91	0x3eb8e370	0.3611102
92	0xbe0ad7cc	-0.13558882
93	0x3e98404c	0.29736555
94	0x3f2fc755	0.6866353
95	0xbdc63712	-0.096784726
96	0x3e71c811	0.23611476
97	0x3d39fd17	0.04540738
98	0x3db7d76c	0.08976635
99	0xbf20f169	-0.6286836
100	0x3f7e8add	0.9943064
101	0x3f21af0c	0.63157725
102	0xbe621594	-0.22078544
103	0x3e9c4ca2	0.30527216
104	0xbf8e4b18	-1.1116667
105	0xbe9686e3	-0.29399785
106	0xbe744bfd	-0.23857112
107	0xbe8fea47	-0.28108427
108	0xbecc650d	-0.39920846
109	0x3e638c44	0.22221476
110	0xbf264909	-0.6495519
111	0x3f866450	1.0499363
112	0xbf8e203c	-1.1103587
113	0x3e51011e	0.20410582
114	0xbf6adb2f	-0.917407
115	0xbf122a2a	-0.5709559
116	0x3f7c768d	0.98618394
117	0xbdaf0b2b	-0.08547052
118	0xbf40d943	-0.75331515
119	0xbd7af983	-0.06127311

running_var f4 [120]
0	0x3f02a803	0.51037616
1	0x3f245b4a	0.64201796
2	0x3f3f13ee	0.74639785
3	0x3f08bad3	0.5341007
4	0x3ee25138	0.4420259
5	0x3e9f248d	0.31082574
6	0x3f7b60c6	0.9819454
7	0x3f90c4d2	1.1310065
8	0x3f200343	0.62504977
9	0x3f134220	0.57522774
10	0x3f2d099a	0.67592776
11	0x3eefa965	0.46808925
12	0x3ee1f86a	0.44134837
13	0x3f0d0103	0.5507967
14	0x3f02eab2	0.51139367
15	0x3ee16721	0.44023994
16	0x3f11412d	0.56740075
17	0x3ee9fbac	0.45699823
18	0x3f00d91b	0.50331277
19	0x3f4be78d	0.79650193
20	0x3f2567a8	0.6461129
21	0x3eda620b	0.42652926
22	0x3f208599	0.62703854
23	0x3f000522	0.5000783
24	0x3f253d48	0.6454663
25	0x3f09623e	0.5366553
26	0x3ef4feba	0.4785059
27	0x3eb1edc4	0.34751713
28	0x3f130d04	0.57441735
29	0x3f169423	0.5881979
30	0x3ef55bad	0.47921506
31	0x3f11ac1e	0.56903255
32	0x3efcfd27	0.4941189
33	0x3ecbe495	0.39822832
34	0x3efa9190	0.4893918
35	0x3f0e9f98	0.5571227
36	0x3ebf80ef	0.37403056
37	0x3efdfa92	0.49605232
38	0x3efcc256	0.49367017
39	0x3ee9ca84	0.4566232
40	0x3ec4e939	0.38459185
41	0x3f054d04	0.5207064
42	0x3f38ccae	0.72187316
43	0x3eb24ca4	0.34824097
44	0x3f22c07b	0.6357495
45	0x3f15eb55	0.58562213
46	0x3ef700d1	0.4824281
47	0x3ef164ef	0.4714732
48	0x3efa6762	0.48907
49	0x3efb162e	0.4904036
50	0x3f164622	0.58700764
51	0x3f2d4b38	0.676929
52	0x3edb65f9	0.42851236
53	0x3f13d494	0.57746243
54	0x3ed6e197	0.41968986
55	0x3eef10d6	0.46692532
56	0x3f250040	0.64453506
57	0x3f62ba68	0.88565683
58	0x3f2fd601	0.6868592
59	0x3f7b69c0	0.98208237
60	0x3f584e5b	0.8449456
61	0x3f231158	0.6369834
62	0x3f8ccbc1	1.0999681
63	0x3f293afa	0.66105616
64	0x3ef204c4	0.4726926
65	0x3f2d16ab	0.67612714
66	0x3ed0449a	0.4067734
67	0x3f03177a	0.512077
68	0x3f44a208	0.7680974
69	0x3eba3a70	0.3637271
70	0x3f0f0b73	0.55876845
71	0x3f03e05e	0.5151423
72	0x3f122eae	0.5710248
73	0x3f0c656f	0.54842275
74	0x3f1e239d	0.6177309
75	0x3f5a7a33	0.8534271
76	0x3eefa790	0.46807528
77	0x3ef4fb4e	0.4784798
78	0x3f332de6	0.6999191
79	0x3f463fc4	0.7744105
80	0x3f03cae9	0.5148149
81	0x3f029f8c	0.510247
82	0x3f0cd4b1	0.5501204
83	0x3ee09a30	0.43867636
84	0x3f224986	0.6339344
85	0x3f323cc6	0.6962398
86	0x3f2d91d7	0.6780066
87	0x3f249636	0.64291704
88	0x3eb7aad4	0.3587252
89	0x3f48a31e	0.783739
90	0x3ef7c59f	0.4839296
91	0x3f24186b	0.6409976
92	0x3f5c717e	0.86110675
93	0x3f299e6e	0.6625737
94	0x3ecef09a	0.4041794
95	0x3f06a657	0.52597564
96	0x3f04e857	0.5191702
97	0x3edf82fc	0.4365462
98	0x3fa364c2	1.2765124
99	0x3efb5c4b	0.4909385
100	0x3f06efb9	0.5270954
101	0x3ee6ef1c	0.451043
102	0x3f31fdae	0.6952771
103	0x3f0dd350	0.5540056
104	0x3ef677b6	0.48138207
105	0x3e8cf506	0.27530688
106	0x3f382b4d	0.7194107
107	0x3f1154e4	0.5677016
108	0x3f038e8d	0.5138939
109	0x3f222297	0.6333403
110	0x3f0046aa	0.50107825
111	0x3f0f1ffe	0.5590819
112	0x3f12a9dc	0.57290435
113	0x3f341451	0.703435
114	0x3f551fe0	0.8325176
115	0x3f1327a5	0.5748237
116	0x3f11ed24	0.5700247
117	0x3ef090a8	0.46985364
118	0x3f1237e5	0.5711654
119	0x3f1184bb	0.56843156

weight f4 [84, 120]
0	0x3d03cf1b	0.032179933
1	0x3dda00a4	0.106446534
2	0x3c4180cc	0.011810493
3	0xbe0e4a3e	-0.13895509
4	0x3e4774e4	0.19478184
5	0xbe3e6780	-0.1859417
6	0xbe44e7ff	-0.19229124
7	0x3d2a6416	0.041599356
8	0x3c9a7766	0.018855762
9	0x3dc18b58	0.09450406
10	0x3c6948a2	0.014238508
11	0x3c8339b2	0.016018722
12	0xbdf1c5fa	-0.11805339
13	0x3c134e34	0.008990813
14	0x3d88f822	0.066879526
15	0xbc73231a	-0.014839912
16	0x3de947e2	0.11390664
17	0xbe6098db	-0.2193331
18	0xbd0f1b64	-0.03493823
19	0x3c9f9b2a	0.019483168
20	0xbe342b60	-0.17594671
21	0xbcddefb1	-0.027091833
22	0x3e524dde	0.20537516
23	0xbdcbdc00	-0.09954071
24	0x3dd9a348	0.106268466
25	0x3d983540	0.07432032
26	0xbcfe3936	-0.03103314
27	0x3e17c76e	0.1482217
28	0x3d0604d8	0.032719463
29	0x3e25f625	0.16207178
30	0xbd91d855	-0.0712134
31	0x3db11427	0.08646422
32	0xbdb7cc8e	-0.089745626
33	0xbe77a641	-0.24184515
34	0x3d7b45db	0.061345916
35	0x3dfaf3e3	0.12253549
36	0xbdd3f49f	-0.10349392
37	0x3db0efdf	0.08639502
38	0xbd926b12	-0.07149328
39	0xbce2e71f	-0.027698098
40	0xbdbdbbf2	-0.09264363
41	0xbd28e465	-0.04123344
42	0xbc8b0089	-0.016968029
43	0x3a349ce6	0.0006889835
44	0x3e1728fc	0.14761728
45	0x3e2643b8	0.1623677
46	0xbdf1132a	-0.117712334
47	0x3e47b485	0.19502456
48	0x3cd651c1	0.02616203
49	0x3dd700a4	0.10498169
50	0xbe64eda4	-0.22356278
51	0x3e234d47	0.15947448
52	0xbc83f5c5	-0.016108403
53	0xbe360eb6	-0.1777905
54	0x3dae7a87	0.08519464
55	0x3dd3ee5b	0.10348197
56	0xbde07071	-0.109589465
57	0x3d40123e	0.046892397
58	0x3d3242a6	0.043520592
59	0xbe228851	-0.15872313
60	0x3ddeddc3	0.108821414
61	0xbdbc0ebe	-0.09182499
62	0x3db59faa	0.08868344
63	0xbe155511	-0.14583232
64	0x3dbe16c5	0.09281687
65	0xbe42348e	-0.1896536
66	0x3c964a9c	0.018346123
67	0xbe0c8341	-0.13721944
68	0xbdb4635a	-0.08808012
69	0xbd6848a1	-0.05670989
70	0x3e031fdd	0.12805124
71	0xbe5c278a	-0.21499458
72	0xbe66c2c3	-0.22535233
73	0x3e1872c3	0.14887528
74	0x3d5a62c1	0.053316835
75	0xbe8942c9	-0.26808766
76	0xbc9cf5d6	-0.019160192
77	0xbe8b5347	-0.27211973
78	0x3e09e230	0.1346519
79	0x3d595999	0.053063963
80	0x3bc3033f	0.0059513147
81	0xbe3e53e6	-0.18586692
82	0xbd23cc0c	-0.039989516
83	0xbdf8fa09	-0.121570654
84	0xbda2fb4f	-0.079580896
85	0x3e028bde	0.12748668
86	0xbe177f19	-0.14794578
87	0xbdd677a4	-0.104720384
88	0xbe025a73	-0.12729816
89	0xbd87cd22	-0.06630923
90	0xbe01cc7a	-0.12675658
91	0xbe3b0299	-0.1826271
92	0x3cc4b12d	0.024010265
93	0xbd412c88	-0.04716161
94	0x3e073a94	0.1320594
95	0x3d8c9f5e	0.068663344
96	0x3e37ec47	0.17961226
97	0xbe006be6	-0.1254116
98	0x3c2684b4	0.010163475
99	0xbdcfb9d8	-0.10142869
100	0xbb967e21	-0.0045926725
101	0xbe78df0c	-0.24303836
102	0xbdaa0877	-0.08302396
103	0x3c10978b	0.008825193
104	0x3d88b3cf	0.06674921
105	0xbd24e5f8	-0.040258378
106	0x3d6aefb1	0.057357494
107	0x3dd8be0d	0.10583124
108	0xbe425c6b	-0.18980567
109	0xbd659f9b	-0.056060415
110	0xbda9c8d5	-0.08290259
111	0x3cdbfb5d	0.026853258
112	0xbc71f355	-0.0147674875
113	0x3da25c4c	0.079277605
114	0x3e308481	0.17238046
115	0x3d76742c	0.060169384
116	0xbe022bc4	-0.12712008
117	0x3dc27285	0.09494499
118	0x3e62260b	0.22084825
119	0xbe0e44b6	-0.13893399
120	0x3db60469	0.0888756
121	0x3e3612ee	0.17780659
122	0x3d7e6785	0.062110443
123	0xbe300ec7	-0.17193137
124	0xbdb47633	-0.08811607
125	0x3d9b1dd0	0.07574046
126	0xbdcd843e	-0.10034989
127	0xbdb11381	-0.08646298
128	0xbdf3f779	-0.11912436
129	0x3d5cb339	0.053881858
130	0x3d552dec	0.052045748
131	0xbe1aa783	-0.15102963
132	0x3dc6154f	0.09672033
133	0x3e874900	0.26422882
134	0xbe40158f	-0.18758224
135	0xbd53650d	-0.05161004
136	0x3e5f7bcb	0.21824567
137	0x3d835b41	0.0641389
138	0xbcaa8f26	-0.020820212
139	0xbe70c339	-0.23511972
140	0xbe0dd3db	-0.13850348
141	0x3e1413da	0.14460698
142	0xbcb46512	-0.02202085
143	0xbe24d65e	-0.160974
144	0x3e57afbe	0.21063134
145	0x3e072bbd	0.13200279
146	0xbd384db5	-0.044995982
147	0x3db765e6	0.089549825
148	0xbe552495	-0.20814736
149	0xbd15a07c	-0.036530003
150	0x3d9c1f59	0.076231666
151	0x3ddc58b8	0.10759109
152	0x3d3ba9fa	0.0458164
153	0x3df624a9	0.12018711
154	0x3e0cfed0	0.13769078
155	0xbd6866d8	-0.056738704
156	0xbd9de0ac	-0.077088684
157	0xbcdef5f3	-0.027216887
158	0x3d93c625	0.072155274
159	0x3d3c9083	0.046036255
160	0x3d9791b2	0.07400836
161	0xbdd6210c	-0.10455522
162	0xbc69ed5f	-0.014277785
163	0xbe3aab36	-0.18229374
164	0x3d550afd	0.052012432
165	0xbdbdd6af	-0.09269463
166	0xbd07e8cd	-0.033181
167	0xbd677f8e	-0.05651813
168	0x3d6c2851	0.057655636
169	0x3d2ed246	0.042681
170	0xbe227b10	-0.15867257
171	0xbc02840c	-0.007966053
172	0xbd072faa	-0.03300444
173	0x3cacaf9c	0.02107983
174	0xbd57b0bc	-0.05265878
175	0x3dac6f3e	0.08419655
176	0xbd34e597	-0.044164266
177	0xbe339f0f	-0.17541145
178	0x3da53c3c	0.080681294
179	0xbe3b8fc5	-0.18316562
180	0x3d26ef27	0.040755417
181	0x3e2c16b8	0.16805542
182	0xbe1b2a4e	-0.15152857
183	0xbe41feda	-0.18944874
184	0x3d94c70e	0.07264529
185	0x3df13acd	0.117787935
186	0x3e48b7e7	0.19601403
187	0x3e39c75c	0.18142456
188	0xbe117dec	-0.14208192
189	0x3cbbc0ce	0.022919085
190	0xbe2cf806	-0.16891488
191	0x3e536fc9	0.20648111
192	0x3d6e5eaf	0.058195766
193	0x3cbfd7ef	0.023418395
194	0xbd483ddd	-0.048887122
195	0xbdee7be0	-0.11644721
196	0x3e51cc1d	0.2048802
197	0xbcb081b0	-0.021546215
198	0xbd41e8f4	-0.047341302
199	0xbe13d71b	-0.14437525
200	0x3e21390c	0.15744418
201	0xbd01068f	-0.031500395
202	0x3e11ddc0	0.14244747
203	0xbe829531	-0.2550445
204	0xbe028bf8	-0.12748706
205	0x3e008bcb	0.12553327
206	0x3e380926	0.1797224
207	0x3dceab4b	0.10091265
208	0x3de90c3c	0.11379287
209	0xbdd075fa	-0.10178752
210	0x3d5c0b31	0.05372161
211	0x3e0685af	0.13136934
212	0xbe02caae	-0.12772629
213	0x3e3393cd	0.1753685
214	0x3c857594	0.016291417
215	0xbe0929b9	-0.13394822
216	0x3c5456fc	0.012960192
217	0x3e59615e	0.21228549
218	0xbc64abc2	-0.013956966
219	0x3d54c60d	0.05194669
220	0xbe4ea1fb	-0.20178978
221	0x3e335bac	0.17515439
222	0xbe033a55	-0.1281522
223	0x3e3ff518	0.1874584
224	0xbe31c6f0	-0.17361045
225	0x3d62af14	0.05534275
226	0x3d683c86	0.056698345
227	0x3d76b7f4	0.060234025
228	0xbdcb9070	-0.09939659
229	0x3e406521	0.18788578
230	0xbd6525da	-0.0559443
231	0x3d1c42a1	0.03814948
232	0x3dd72514	0.10505119
233	0xbe183dde	-0.1486735
234	0xbe0ef8a2	-0.13962033
235	0xbd969182	-0.07351972
236	0x3bee4883	0.0072718277
237	0x3e15d43d	0.14631744
238	0x3cb0dfac	0.02159103
239	0xbce77126	-0.028252196
240	0xbaddf08e	-0.0016932653
241	0x3d946eba	0.07247682
242	0x3c9ea94a	0.019367833
243	0x3e01c5d0	0.12673116
244	0xbe18866f	-0.14895032
245	0x3d8cca51	0.06874526
246	0xbe366c10	-0.1781466
247	0x3e256fc8	0.16155922
248	0xbce724aa	-0.028215725
249	0xbdfef68d	-0.124493696
250	0x3db64d75	0.089014925
251	0x3cc04648	0.023471013
252	0x3d036772	0.032081075
253	0xbd02b7fc	-0.031913742
254	0x3dcb4e0a	0.09926994
255	0xbdec3ffd	-0.11535642

bias f4 [84]
0	0x3b96d31c	0.004602803
1	0x3c44a3d2	0.012001948
2	0x3c21e197	0.009880445
3	0xbd5ee042	-0.054413088
4	0x3cf819cd	0.03028574
5	0x3d0b48b2	0.034004875
6	0x3d592dcf	0.053022202
7	0x3d2189cb	0.03943805
8	0x3d4cefc1	0.050033335
9	0xbc0045fe	-0.007829187
10	0x3c4f90cb	0.012668799
11	0x3cdb35d4	0.026759066
12	0xbc7e08fd	-0.015505073
13	0x3d34b2a3	0.044115674
14	0x3cfebca0	0.031095803
15	0x3cfee401	0.03111458
16	0xbcacb5ec	-0.02108284
17	0x3d32ae10	0.04362303
18	0xbb7449f3	-0.0037275522
19	0x3d3cb0d0	0.04606706
20	0x3d3b111c	0.045670614
21	0xbc4beb55	-0.012446244
22	0xbac90a1a	-0.0015338094
23	0x3ce09593	0.027415073
24	0x3c2448b6	0.010027101
25	0x3cb541b3	0.022126054
26	0xbce834e9	-0.028345542
27	0xbb2d153d	-0.0026410364
28	0x3bd8d682	0.006617368
29	0x3d2d840f	0.04236227
30	0xbc3d110c	-0.011539709
31	0x3c529810	0.012853637
32	0x3d6c45e5	0.057683844
33	0xbb6ffbda	-0.003661862
34	0xbd0d26af	-0.03446072
35	0x3b752ba3	0.0037410043
36	0xbbb8f054	-0.0056438837
37	0x3ca390eb	0.019966563
38	0x3c4dfe50	0.01257284
39	0xbbf46831	-0.0074587096
40	0x3c3d9085	0.011570101
41	0xbd03bebe	-0.032164328
42	0xbc382f3e	-0.011241732
43	0x3d2d6478	0.042332143
44	0x3cc106ff	0.023562906
45	0xbb4ff00b	-0.003172877
46	0x3cab4f8c	0.020911954
47	0x3b1202b8	0.0022279453
48	0xbb48f069	-0.0030660874
49	0x3cbaa957	0.022785826
50	0x3d1a127c	0.037615284
51	0x3d1ee332	0.03879089
52	0x3d5855cb	0.052816194
53	0xbc8fdd28	-0.01756151
54	0x3bcbd5e6	0.006220567
55	0x3d08462f	0.033270057
56	0x3b6e3eb0	0.0036353283
57	0xba749adf	-0.0009330939
58	0x3d87ce14	0.06631103
59	0xbd0cfb96	-0.03441962
60	0x3ce41849	0.027843611
61	0x3c314a74	0.010820974
62	0x3d389ed4	0.045073345
63	0x3d3e0bf7	0.04639813
64	0xbcc085e2	-0.02350134
65	0x3cd9706f	0.02654287
66	0x3cc965bd	0.024584645
67	0x3d1123e3	0.035434615
68	0x3d962067	0.07330399
69	0xbae8e6a0	-0.0017768927
70	0xbc5a8adb	-0.01333877
71	0xbb0d5c3b	-0.0021569866
72	0xbcc4988b	-0.02399852
73	0x3cec3851	0.028835448
74	0xbc82fb53	-0.015988981
75	0x3d2690bb	0.04066537
76	0x3d20d025	0.039261002
77	0x3d1b2b67	0.03788319
78	0xbbcdcae9	-0.0062802923
79	0xbc261656	-0.010137161
80	0x3c2dbf6f	0.010604723
81	0xbc55c8aa	-0.01304833
82	0xbc9d817a	-0.019226778
83	0x3cfb146c	0.030649386
