model1/model/big_category.pt (torch, 277255 bytes, 22 tensors)

weight f4 [6, 3, 5, 5]
00000000: 21d2 d6bc ec7e 54bd 4b51 95ba 87b2 77be
00000010: 2c65 8abe 9863 e7bb 7391 84bc c37f debd
00000020: 39d3 463d f4d0 a5bc b98c 2f3d ad64 f03d
00000030: 7c1b 173e 4880 38be 68ec 55bd 7ee6 a43d
00000040: c8c5 143e eb5e a13c 4f37 103e 6aa2 943d
00000050: f179 343d 8f19 d8bd 2829 8bbd 00b3 1abc
00000060: ce85 2fbb 438a 9f3d a7f9 ebbc f450 65be
00000070: 0b24 b4be c315 0dbe 9a07 573e 00d6 cd3d
00000080: 60a0 1fbe 0d8a 11be 7bf9 65be 2b06 18bd
00000090: e3ba 903d 822f b33d ac78 efbc 04c7 023e
000000a0: 93fc f0bd e299 59bd 25f8 103e 6eef 09be
000000b0: 11f1 c03d f432 6ebd 604b 4f3c 4c72 a13d
000000c0: c1ed 67bc 14ea 96bd aaeb e3bb b902 dfbd
000000d0: e0df 47be 5028 27be 1295 93be d261 7d3d
000000e0: 19ca 693e 43ab 8cbd 93a1 6cbe 202e 8abe
000000f0: 185c 2a3e ba5c a23d 3b30 36bb 5e07 483d
00000100: a1cf 81bd 2b45 e4bd aad2 5bbd 6ece 483e
00000110: cd37 013e f683 bfbd 982f c5bd 69cf 0c3e
00000120: 7060 433d ffa9 0cbd 22d5 9a3d 8432 f63d
00000130: d815 193d 05a0 863e 5dbc 003e b606 3fbd
00000140: a92a 31bd 9e91 3a3c 229e 313e fe7a 49be
00000150: 883f 9fbd ff02 8f3d 47a4 753d 0040 94bd
00000160: 49a9 17be 4159 10be 31fd 0cbe 4c1d f63c
00000170: 03d0 af3d a46e 09bd 4365 4fbc 255e a73c
00000180: 30a2 1bbe 4f45 b9bb 7d9c 9f3d 5b6a 82be
00000190: 7552 dbbc 9990 1d3e 3fcb 913d 7817 df3c
000001a0: 9174 2dbe 202f 183e 0906 c03d 6166 723d
000001b0: 1bb1 1a3d a4f9 88be b330 55bb 2527 4d3d
000001c0: 3904 9b3d 32a7 2abe 73be eebc 7b52 a53d
000001d0: 57ac 78bd 7d47 16be 34e7 6d3d 32d5 643c
000001e0: 94f0 efbd bc5a bebd d7a2 b13b ef69 7a3d
000001f0: 95f2 60bd 9d32 923e 37fd 683d 3f27 9f3d
00000200: 0a6f d1bc 9d0b 81bd 2746 a1bd 3f90 3c3c
00000210: e08c dd3d 48de c5bd 608f 9d3c 91c7 e73b
00000220: 144f 7d3d 9dc5 85bb c7f2 21be a4be 5ebe
00000230: 2845 dc3c 020d 553e 43e8 a43d b4bf 8b3d
00000240: 3df9 24bd c265 7e3d 32db 723e 4970 2e3e
00000250: a9af 853b 21aa 34bd 7c00 fdbd fd04 1fbe
00000260: 8371 df3d b948 e0bd 6c95 623c 3f32 06be
00000270: 454d 1f3e a6f3 583e 4dfc 633e 3743 98bd
00000280: 29e5 c4bd 96fa 173d 7fc3 5d3e 7fbc e6bc
00000290: ff9e 2b3e b882 2e3e 3cf4 eb3d 19a7 26bd
000002a0: 0e5f a4bd 4ffa 87bd beaf 1cbe dccd e3bc
000002b0: 7bb3 36bc 583f 183d b612 9b3d 6704 a8bd
000002c0: 2ffd 85be cb1e 49be 9d68 be3b 4db3 30be
000002d0: b1a7 183e 5c7c 01bd 2f32 533e 6da4 ca3d
000002e0: 2c55 a93d 2750 193e 9087 1d3e 5393 c13c
000002f0: 5472 003e f1b1 943d 505d 453d 254d b7bd
00000300: 9c93 b1bd 9bc0 e83d 7b57 073e 6f5b 29bd
00000310: f90e 6fbe db3d 863c 12ff ddbd 41b7 d2bd
00000320: d09d 0dbe c6d5 6fbd 32d3 fcbd ddc8 c83c
00000330: 7b64 b93d a5b0 edbd 3bba babc ba35 fcbc
00000340: a516 c83d 50f7 bebd 1f29 2f3e 608c 383e
00000350: f4e9 21bd 7938 0c3e 388a e83d 03e0 0abe
00000360: 06e8 e33d d967 4e3e f423 a53c 9788 c33d
00000370: 9b8b c23d 6f49 06be 50ce 39be a35c dc3d
00000380: 93d8 c73d 2624 003e d3ae 21bd 806a 85be
00000390: c265 ae3b e2e3 1d3e dff9 95bd 3d50 79ba
000003a0: 5262 91be e0bb 0ebe 971a 9c3d 390a e7bd
000003b0: ad43 86bc 48ee 5f3d 5d45 a23d 3e77 d43d
000003c0: 466d 173d a477 6abd 7bfb 9d3c fef3 803d
000003d0: 33dc dfbd 5cb5 ccbd 749a 623d b0ce 0e3e
000003e0: 4325 67bd 47d1 003c 240a cabb c85e 23be
000003f0: 8f21 97be 1e24 a63c c825 0a3e ac8a 963d
-0.026223244 -0.051878855 -0.0011392025 -0.24189197 -0.27030313 -0.007061433 -0.016182637 -0.10864212
0.04854128 -0.020241238 0.042858813 0.117379524 0.14756578 -0.18017685 -0.052227408 0.080517754
0.14528573 0.01969858 0.14083599 0.072575405 0.044061605 -0.1055175 -0.06794959 -0.009442091
-0.0026782635 0.07790043 -0.028805567 -0.22394162 -0.3518375 -0.13777833 0.20998994 0.10050583
-0.15588522 -0.14212818 -0.2245845 -0.037115257 0.07066896 0.08749296 -0.029232346 0.12771231
-0.11766925 -0.05312527 0.1415716 -0.13470241 0.0942098 -0.05815406 0.012652248 0.078831285
-0.014155806 -0.073688656 -0.0069555836 -0.10889191 -0.19518995 -0.16323972 -0.2882467 0.061860867
0.22831 -0.06868603 -0.2310851 -0.26988316 0.16636693 0.079278424 -0.0027799744 0.04883515
-0.0633843 -0.11146005 -0.0536677 0.19609997 0.12618943 -0.093513414 -0.096282184 0.13750996
0.04769939 -0.03434181 0.07560183 0.12021354 0.037374347 0.2629396 0.12571855 -0.04663726
-0.043253575 0.011387257 0.17345479 -0.19675824 -0.077757895 0.06982993 0.05997112 -0.072387695
-0.14810671 -0.14096548 -0.1376846 0.030043267 0.08584597 -0.03355278 -0.01265842 0.020430634
-0.15198588 -0.005654014 0.0779352 -0.25471768 -0.026772717 0.15387191 0.07118844 0.02723287
-0.16938998 0.14861727 0.09376151 0.059179667 0.037766557 -0.2675296 -0.0032530248 0.05008616
0.07569165 -0.16665342 -0.029143548 0.080723725 -0.06071123 -0.14675708 0.05808182 0.013966845
-0.117158085 -0.0929465 0.0054210234 0.061136182 -0.054918844 0.2855424 0.05688211 0.077711575
-0.025565643 -0.06301043 -0.078747086 0.011509 0.108178854 -0.096615374 0.019233406 0.0070733507
0.061842993 -0.004082395 -0.15815268 -0.21752411 0.026888445 0.20805743 0.08052113 0.06823674
-0.040276755 0.062108763 0.23716429 0.17035021 0.004079778 -0.04410756 -0.12353608 -0.15529247
0.109103225 -0.10951371 0.01382957 -0.13105105 0.1555682 0.21186695 0.22264214 -0.07434695
-0.09614021 0.03710421 0.21656607 -0.028166054 0.16759871 0.17042053 0.115211934 -0.0406867
-0.08025943 -0.066395395 -0.15301415 -0.027808122 -0.01115119 0.037169784 0.07571928 -0.08203965
-0.26169726 -0.19640653 0.0058108107 -0.17255898 0.14907719 -0.03161274 0.20624612 0.09894643
0.08268198 0.14971982 0.15383744 0.02362982 0.12543613 0.07260502 0.048184693 -0.08950261
-0.086707324 0.113648616 0.13216965 -0.041346963 -0.23345555 0.016386917 -0.108396664 -0.10288859
-0.13829732 -0.05855348 -0.1234497 0.024509842 0.09052368 -0.11605958 -0.02279388 -0.030787338
0.09769944 -0.09324515 0.1710553 0.18022299 -0.039529756 0.13693418 0.11354488 -0.13562016
0.11128239 0.20156802 0.020158745 0.09547537 0.09499284 -0.1311395 -0.18145108 0.107598566
0.09758105 0.1251379 -0.039473366 -0.26057816 0.005322189 0.15418962 -0.0732305 -0.00095105526
-0.28395325 -0.13938856 0.07622259 -0.11281247 -0.016389692 0.054670602 0.07923386 0.10374306
0.036969446 -0.057243004 0.019284954 0.06296538 -0.109306715 -0.09995529 0.05532308 0.13946033
-0.05643202 0.007862396 -0.0061657596 -0.15954125 -0.2951779 0.020280894 0.13490975 0.07350668

bias f4 [6]
00000000: 17c0 4dbd 4ee7 18bd f1ab 31bd cba8 8cbc
00000010: 1ebe f83c 46ac 32bd
-0.05023202 -0.037329964 -0.043376867 -0.01717033 0.030364092 -0.043621324

weight f4 [6]
00000000: ad13 a03f 8a0b fd3e da51 df3e 8c3c 9e3f
00000010: 9a17 843f d719 373f
1.2506005 0.49422866 0.43617135 1.2362227 1.0319703 0.71523803

bias f4 [6]
00000000: 0481 e9be 28bd 84be 625d 69be 6567 f4be
00000010: fa94 7fbe b0f8 2ebe
-0.45606244 -0.25925565 -0.22789529 -0.47735134 -0.24959174 -0.17087054

running_mean f4 [6]
00000000: 671e 4c3f 1d9a 4abe bb0d ddbe fbbc 813f
00000010: 0ed2 0e3e 48a8 ca3e
0.7973389 -0.19785352 -0.43174538 1.0135797 0.13947317 0.39581513

running_var f4 [6]
00000000: 62d2 b63f 2ec7 d43e 1785 f83e 02d5 e73f
00000010: 5fe7 2d3e ff79 213f
1.4282954 0.41558212 0.4853904 1.811188 0.16982792 0.63076776

weight f4 [16, 6, 5, 5]
00000000: 6d20 08be 18ea 71bd e4ae a2bd 82cb afbd
00000010: 2369 bdbc 3f4c 7a3d 00ca 673d 5a4c 9e3c
00000020: 0fd9 5dbd 268a f5b9 27da dcbd aac5 14bb
00000030: 91b3 b8bd 6314 ee3d d280 3c3c b0f4 0fbe
00000040: f21e e73b fd1a a33a 4fdd 8d3d 7875 f63d
00000050: b095 30be 1bde acbd 1fbe 23bc f702 ab3d
00000060: df24 13bd eb1c 63bd 3c04 1b3d 029d 45bc
00000070: 7c40 e2bd 35e7 863d 6fbd ab3d fc40 903d
00000080: f251 733d 9ae5 dcbd f0ce 1cbd 3f50 773d
00000090: e91b c1bc 5197 40bd be59 733d d533 59bc
000000a0: cbc0 fabb 298e e63c 8804 ee3c be29 523d
000000b0: 027e 77bd 7cda 3e3d 44c2 4d3d 9c04 31bd
000000c0: c850 9a3d 1342 f5bd b6a1 1ebd 77ad 893d
000000d0: 1357 87bd 2b2c d43c d12c 91bd fafe 143b
000000e0: b23a 853b 1c80 103d aa27 b5bc fc9c 52bd
000000f0: 41a7 4a3c 1e89 e43c 8140 0fbd ba28 f5bd
00000100: f1ba a93d 3baf f73c bfdd ff3b c7de bd3b
00000110: 2d97 0bbe 2930 663d 5403 3d3b b942 703b
00000120: bd08 443d b3d3 babc b815 123d bcb8 da3d
00000130: 451e 42bd 7b21 cf3b 7c55 a13d 5285 15bd
00000140: 4397 893d b2e6 e5bd db1d d5bd 8d1c 323e
00000150: 2f9f ca3d e7c2 243b ecfb 11be e92a c2bd
00000160: edd7 463e d77e 033e e6f5 fe3c a4bb 21bd
00000170: dc72 05be a5ab f93d 44a6 603e 4471 14bd
00000180: 2266 41be 3db7 93be 3bb6 833d 6815 703e
00000190: 6489 7cbd 061a 00bb 3b1e 853c 5ee0 c63d
000001a0: 0f44 38bd 00d0 96bd daf0 e53c deef f2bd
000001b0: bda3 ec3d 334f 9fbc 69db 943c 8620 ec3c
000001c0: 08bb 17be 3d29 263e 8966 143d 951d 7ebd
000001d0: 8e16 043d 020e 20be d33b 143e 8600 313c
000001e0: 7191 f5bc 6c1f 38be ba4f 13bd 543b 663e
000001f0: 77ff 88bd b9c7 d8bc 9532 523a 86d5 70bd
00000200: b1e0 023b 30f1 79bd d6fc 953d 0ca5 783d
00000210: 5fb2 f7bc 23b6 713d d390 12bd f1c7 90bc
00000220: c4b8 d13a d5fa 803d 4e90 91bd 3baa cdbd
00000230: 06c0 393d 3d5d 44bd 792a 89bc b50c c5bc
00000240: ffcc 82bd fc49 123d 4a62 e43d c42f 92bc
00000250: dc2e 2cbd 24e0 acbc 3f12 61be 40af 87be
00000260: f05f 91be c316 00be c1af bebd aae4 8d3d
00000270: ee6d 16be cdbd e3bd 12e7 0c3e 2edd 3cbb
00000280: 2bd5 023e a319 d0bd 591a 67be a08b f83d
00000290: fdc4 4d3e c93b f73d 6f91 c03b 26a0 2fbe
000002a0: 2f24 d83c f210 223e e5f4 8c3c 4b18 0b3d
000002b0: c83b 07be 0819 a6bc f7cd 223e 048c 5ebd
000002c0: 2ff8 82bc 84d3 933d 1f61 cb3c b2e5 963d
000002d0: bfcf ba3c 9802 0d3c e358 8c3d 8fcf 52bb
000002e0: adb1 823d 6e60 563d 8009 16bd 99f8 79bb
000002f0: fe2f 8cbd 9ed2 8bbd 92b1 903d fce1 e9bd
00000300: 1a7e e33c 9118 4a3b 7b7d 543d 6e05 50bc
00000310: 6dc2 c3bd a88e 6fbd 8cc9 c2bd 37fa 0d3c
00000320: d69c 62bc 6b16 543d 7546 5dbd afd0 1a3d
00000330: 7f55 0dbd c647 ebbc 0952 b83c b608 c43d
00000340: fc74 babc e7ef f03c 3265 95bc 9072 233d
00000350: a339 a83d 0917 a3bd 3b8f 1dbd 0922 83bc
00000360: f6b6 98bc 2618 2d3d 8ae7 e43b 396a cf3c
00000370: 53dc ffb9 94de 27bd b3b9 523d b281 adbd
00000380: 7e7b 423b 3d7a a3bb 4804 113d 3e3f d5bd
00000390: 21d4 babd b456 c43c d25a b73d 94f8 b73d
000003a0: 2391 8fbd 6e2e 01be cb74 fc3d e39e 103e
000003b0: 8535 383e e6d6 eebd d592 16bc 819b 163e
000003c0: 0c1c 133e cfff a03d 2a40 8bbc 41bd 89bd
000003d0: 92c5 c73d 53fa 86bd 821c debd 3fd0 babd
000003e0: 46c7 30be 485a c9bc 4b91 533a 6897 663d
000003f0: b353 dcbc 105e 533d 38fe 143d 5369 353d
-0.1329362 -0.05906114 -0.07943514 -0.08583738 -0.023121422 0.06110787 0.056589127 0.019323517
-0.05416208 -0.0004683297 -0.10783797 -0.0022700825 -0.090186246 0.11624982 0.0115053225 -0.14058185
0.0070532495 0.0012443956 0.06926977 0.12034124 -0.17244601 -0.08440801 -0.009994059 0.08350175
-0.035923835 -0.0554475 0.037845835 -0.012061359 -0.11047456 0.06587068 0.08385741 0.07043645
0.05940432 -0.107859805 -0.03828329 0.060379263 -0.023572879 -0.047019307 0.059411757 -0.013256987
-0.0076523772 0.02814396 0.029054895 0.05130934 -0.060422905 0.04659508 0.050234094 -0.043217286
0.07534939 -0.11975493 -0.03872844 0.06722539 -0.06608405 0.025899967 -0.07088626 0.0022734986
0.004065835 0.035278425 -0.02211364 -0.051419243 0.012368978 0.027897414 -0.034973625 -0.119706586
0.08287609 0.030234924 0.0078084166 0.0057943794 -0.13631888 0.056198273 0.0028841095 0.0036660864
0.047859896 -0.022806024 0.035665244 0.106797665 -0.04739215 0.00632113 0.07877633 -0.036504097
0.06718304 -0.11225642 -0.10406085 0.17393704 0.09893643 0.0025140585 -0.14256257 -0.09480841
0.19418307 0.12841354 0.031123113 -0.03948559 -0.13032097 0.12190942 0.21938425 -0.03624083
-0.18886617 -0.28850737 0.06431242 0.23445666 -0.061654463 -0.0019546761 0.016249767 0.097107634
-0.04498678 -0.073638916 0.028068949 -0.11862157 0.11554668 -0.019446945 0.01817103 0.028824102
-0.1481744 0.16226669 0.036230598 -0.06203993 0.032248072 -0.15630344 0.14475946 0.010803347
-0.029976578 -0.17980736 -0.035964705 0.2248357 -0.06689351 -0.026462423 0.00080184016 -0.05879738
0.0019970352 -0.06102103 0.07323615 0.060704276 -0.030236421 0.05901159 -0.035782646 -0.017673464
0.0016000499 0.062978424 -0.07107602 -0.100422345 0.045349143 -0.04794048 -0.016743885 -0.02405391
-0.06386756 0.03571509 0.1115156 -0.017845042 -0.042036876 -0.021102972 -0.21979617 -0.26500893
-0.28393507 -0.12508683 -0.09310866 0.0692838 -0.14690372 -0.11120186 0.13760021 -0.0028818357
0.1277663 -0.1016114 -0.22568645 0.12136006 0.20094676 0.1207195 0.005876712 -0.17150936
0.026384441 0.15826777 0.017206619 0.033958714 -0.13206398 -0.020275608 0.15898882 -0.054332748
-0.015987484 0.07218078 0.024826584 0.0736803 0.02280414 0.008606575 0.06852891 -0.0032167172
0.06381545 0.052338056 -0.036630154 -0.003814256 -0.06845091 -0.068272814 0.07065119 -0.11420056
0.02777009 0.0030837397 0.05187748 -0.012696607 -0.09558568 -0.058485657 -0.09511098 0.008665613
-0.013831338 0.051779192 -0.05402227 0.037796672 -0.034505364 -0.028720748 0.022500055 0.09571974
-0.02276086 0.02941127 -0.01823673 0.039904177 0.08214118 -0.07963378 -0.038466673 -0.01600744
-0.01864193 0.042259358 0.0069856094 0.025319206 -0.00048801544 -0.04098375 0.051446628 -0.08472003
0.0029675658 -0.004988937 0.035404474 -0.10412453 -0.09122492 0.023967125 0.089528695 0.089829594
-0.070101045 -0.12615368 0.12326964 0.1412311 0.17989166 -0.116620824 -0.009190281 0.14707758
0.14366168 0.078612916 -0.01699837 -0.067255504 0.097544804 -0.06590714 -0.10845281 -0.09121751
-0.17263517 -0.024579182 0.00080706616 0.056296736 -0.02689538 0.051603377 0.036375254 0.044289898

bias f4 [16]
00000000: ead6 0c3d 7e8a 983b 2e60 c83c eef9 56bc
00000010: 1ebd 77bb 64cb 14bc c6f8 b0bc 87bd 52bb
00000020: 6f3d a93c b481 88bc 9e6c ea3b dfd6 f6bc
00000030: 6001 67bc 0d05 a1bd 416e 3ebc 1e8e 86bd
0.034384646 0.0046551814 0.024459925 -0.013121111 -0.0037801932 -0.009081695 -0.021603 -0.0032156424
0.020659177 -0.01666341 0.0071540615 -0.030131755 -0.014099449 -0.078622915 -0.011622966 -0.065700755

weight f4 [16]
00000000: c7f2 943f ed1e 943f 64e0 5b3f 8173 6f3f
00000010: 9834 773f c0e4 883f 9eae 813f 8cb1 563f
00000020: 8085 803f b6cb 703f e652 703f ead3 703f
00000030: 19e1 7c3f 9390 643f 19eb 663f 8380 893f
1.163659 1.1571938 0.8588927 0.9353562 0.96564627 1.0694809 1.0131414 0.83864665
1.0040741 0.9406084 0.9387649 0.94073355 0.9878097 0.892831 0.9020248 1.0742344

bias f4 [16]
00000000: da2d aabd 48aa 1b3e 56e1 58be e126 89be
00000010: 48fe 6fbe 3bea 8bbd c611 c1bd 3c36 45be
00000020: 8036 91bd 797d 4ebe 6077 7f3d 293a c3be
00000030: 6ae5 37be f405 d0be b2f2 3fbe 8370 cdbd
-0.08309527 0.15201676 -0.21179709 -0.26787475 -0.23436844 -0.06831785 -0.09427218 -0.1925897
-0.07090473 -0.20165052 0.062369704 -0.3813031 -0.17958608 -0.40629542 -0.18744925 -0.100312255

running_mean f4 [16]
00000000: 5d55 8cbd 832b 90be a992 81be 30c1 ffbd
00000010: 577d 55bd 76ad 8ebd 0d07 3abe 47b9 32bd
00000020: 65cb 0fbe 4544 e0bd eced 0dbe 9ecb 103d
00000030: f642 34be 2edb 083e de2a eabe 44f2 89be
-0.06852219 -0.28158197 -0.25307205 -0.124880195 -0.052121487 -0.06966679 -0.18166752 -0.043633725
-0.14042433 -0.109505214 -0.13860291 0.035350434 -0.17603669 0.1336486 -0.4573583 -0.26942647

running_var f4 [16]
00000000: 24f9 1c3e c684 7c3e a585 433e 534b e13d
00000010: e6c7 373e 9a5b 073e 6dfb 1f3e a26f ed3d
00000020: 29f1 4a3e 8199 fa3d 4dd4 423e 147c a63e
00000030: 61eb 193e 8d8d 483e 0c84 c43e 3d45 5a3e
0.15329415 0.24660024 0.1909395 0.11000695 0.17947349 0.13218537 0.15623255 0.11593558
0.19818558 0.1223631 0.19026299 0.3251654 0.15031196 0.19585247 0.38381994 0.21315475

weight f4 [120, 16, 5, 5]
00000000: c38d 3fbd cdef 7fbd 1e3d 18be 1932 5dbd
00000010: 50c8 323d 8070 ca3c 3a4e 003d 1429 c1bd
00000020: f98d 68bd cd27 723d 6035 8c3c 1168 26bc
00000030: eeab 42bb 5b62 b1bd 486a ae3c 8bc8 9ebd
00000040: 4f32 d4bc cf4f b43d 0cc8 cabd 1623 4cbd
00000050: d634 fcbd 34c3 bfbc 1af4 803e 9dae a33c
00000060: 0c48 14be 0583 863d c7f9 20be c800 d0bd
00000070: 47bc 833d 0c09 c13d 298f 943d 4e5b 2d3c
00000080: ed27 843d 8700 1cbc 76ae c1bb 3fd1 403d
00000090: e316 e6bc d88c 4abc ff80 8c3d 489e a0bb
000000a0: 38bc f8b7 e844 2cbd 0dce a0bd 108d 9e3d
000000b0: c1d2 d8bd e722 20bc 2e49 d73d 7571 98bd
000000c0: f1d1 e2bc 2dd0 fbbc 6e89 d53d 19cd 1bbd
000000d0: c40e 9ebd 8c13 d8bd 2541 15bc 9b24 323c
000000e0: ee61 0e3d 7d5f 7dbc 2e6c 1dbd 5e5a 8ebc
000000f0: 901b 983b 58a7 b33c 3762 6bbd b6cd 4dbd
00000100: 70cf 613d 80c0 a7bb aa1e c33c d649 3fbd
00000110: 1512 9dbd be33 0d3e b43d 1ebd 9ed3 283c
00000120: 99fe 7bbc ae29 d0bb 63b7 2e3e e4e7 b3bd
00000130: 33c9 4d3d 9125 373d 29a7 1dbd 8b58 12be
00000140: 5674 0dbd 99eb 013c 3d1f 873d e823 9b3b
00000150: a7ef ebbc 9978 823c 44be 2fba 24c8 4b3c
00000160: 8f52 ccbd ddd5 37bd e975 cd3c 6dc4 09bd
00000170: 995d 6e3c a79c 3cbd 0d6d 943d ba19 86bc
00000180: 8f8d 42bd 84db cd3c 556d 063d 4a58 bd3c
00000190: e2d3 c9bd 49e9 083d 6acd 8b3d 6d10 00be
000001a0: 2791 5cbc f51c b9bd a2ac 29bd 2bcf e23d
000001b0: 2dac bf3c 37e5 0a3d 517c 34ba 036a 1abd
000001c0: 2d0f b53d 237b 543d e67a 8b3d 7f3f 943c
000001d0: 77dc 6dbd 5a3f ab3c 9f32 74bc 243a e53c
000001e0: e9c9 7d3b c458 cd3b 3ee8 3c3c bf05 6a3d
000001f0: fa55 aebc f52c 023e 7379 303e 2adf be3c
00000200: 296e cbbd 9939 353c 38f2 82bd 022f 823d
00000210: bf8d edbc 8de0 5fbd 3e4f 9a3d 853e d43c
00000220: 074d b33c e881 eebd a20c b7bd 2ddc 513d
00000230: f1fa 12bd 4bfe 443d 70d3 a93c c17f 5bbd
00000240: d74d 02bc 77c4 8fbd 189f 4f3d 8f3e a13d
00000250: 93b5 3f3c 5c44 f43c 9fce e53d 37c5 7a3d
00000260: 6649 93bb 71da b4bc b503 db3c de39 273d
00000270: 1373 e83c f62a bd3d 8cc4 4f3d eeff 6ebc
00000280: 0dab ec3c 9539 2ebc 5d2e 35bd cedf 68bd
00000290: 5948 b6bb 2489 43ba 6fd8 b63c c4be 39bd
000002a0: 0cce 09bc 9102 dcbc bd21 2cbc 9842 243d
000002b0: e26d 58bd d33d babb dbca 443d a45e 0e3e
000002c0: 9774 94bb edb2 2f3d a8c1 3abd 968a 40bd
000002d0: 2924 c1bc ffee 5dbd 85e1 96b9 784e 0ebd
000002e0: 2ed7 2dbd a7e2 1ebc 6335 8bbd ff4f 44bd
000002f0: 6fdd 5ebd 25c6 cabc 5acb b13d e379 033d
00000300: 5e46 0abd 55e5 d1bd 08d1 e43d b1d1 a03c
00000310: cc86 623c 956e fe3c 7b4e 41bd 973a e03d
00000320: 52d6 edbb 4aab 59bc 4801 a3bd b1f0 2f3d
00000330: 50dd fbbc ebf6 933c 6d18 09bd f643 bd3c
00000340: b0db 643c 9aa4 a1bc da05 253d f073 8cbc
00000350: 915f cfbc 2f99 d8bb 9379 8a3d eadb 04bc
00000360: 48bb 9ebd 827e 63bd ab22 ad3c bc60 0b3e
00000370: 24b9 01bd 0de8 a93c 6d89 b9bc 5e27 7ebb
00000380: 6a14 553e 53e1 893d c4f6 843c a38b eabb
00000390: 1ca0 debd b902 fbbd 0e10 fcbb a4c5 b2bd
000003a0: 562f 07bc 5dab a0bd c766 fbbd 73aa 04bd
000003b0: c865 f7bc 1501 2cbd 91a6 a0bc 37cc 8c3d
000003c0: 8d43 cc3d 9301 113d e03a 4dbd f99d 97bc
000003d0: 937a 873c bcd1 993d d15d 9c3c b0eb 9b3c
000003e0: 25b6 dc3c eece 01bd 4ba6 a4bd fb70 d13c
000003f0: 9385 2d3d 9fef 2abd 6aa9 a6bb 748a b2bc
-0.046766054 -0.06248455 -0.14867064 -0.054002855 0.043648064 0.024711847 0.031324603 -0.09431663
-0.05677602 0.05911999 0.017115295 -0.010156647 -0.002970453 -0.08661338 0.021290913 -0.07753094
-0.025902895 0.08804285 -0.09901437 -0.049838148 -0.12314765 -0.02340851 0.25186235 0.019980723
-0.14480609 0.06567959 -0.15720282 -0.10156399 0.064323954 0.09425554 0.07253868 0.010580851
0.06452928 -0.00952161 -0.00591069 0.047074553 -0.028087085 -0.012362681 0.068605416 -0.004901681
-2.965155e-05 -0.0420579 -0.07851801 0.07741749 -0.10587073 -0.009773946 0.10512005 -0.07443515
-0.027687998 -0.030738914 0.10426603 -0.038037393 -0.0771766 -0.10550603 -0.00910977 0.010872985
0.03476136 -0.015464661 -0.038433246 -0.017377075 0.0046419576 0.021930382 -0.05746671 -0.05024501
0.05512947 -0.0051193833 0.023818333 -0.046701275 -0.076694645 0.1378927 -0.038633063 0.01030436
-0.015380525 -0.006352625 0.17062144 -0.08784464 0.050240707 0.04471356 -0.038489494 -0.14291589
-0.034534775 0.007929706 0.06597755 0.004734505 -0.028800799 0.015926646 -0.0006704072 0.012437854
-0.09976684 -0.04488169 0.025080638 -0.03363459 0.014548683 -0.046047833 0.07247362 -0.01636969
-0.047498282 0.025129087 0.03281911 0.023113389 -0.098548666 0.033425603 0.06826289 -0.12506266
-0.013462341 -0.09038726 -0.0414244 0.110746704 0.02339753 0.033910003 -0.00068849797 -0.037698757
0.08840785 0.051875245 0.068105504 0.018096684 -0.05807158 0.020904232 -0.014904647 0.027981825
0.0038725084 0.006266685 0.01152998 0.057134386 -0.021281231 0.12712462 0.17233829 0.023299772
-0.09933121 0.011061096 -0.06393856 0.06356622 -0.028998254 -0.054657508 0.075346455 0.025908718
0.021887315 -0.116458714 -0.089379564 0.051235367 -0.035883848 0.048094075 0.020730704 -0.053588632
-0.007953129 -0.070198946 0.050688833 0.0787326 0.0117010055 0.029817753 0.112210505 0.061223235
-0.0044948338 -0.022076817 0.026735166 0.04082667 0.028375184 0.0923671 0.05072455 -0.014587386
0.028890157 -0.010633846 -0.04423367 -0.05685406 -0.0055628237 -0.0007459095 0.02232 -0.045347944
-0.008410942 -0.026856693 -0.010506091 0.04010257 -0.052839167 -0.0056836396 0.04804502 0.1390329
-0.0045305 0.042895246 -0.04559484 -0.047007166 -0.023576813 -0.054183003 -0.00028778255 -0.034742802
-0.04244154 -0.009697593 -0.06797292 -0.047927853 -0.054410394 -0.024752686 0.08681364 0.032098662
-0.033758514 -0.1024882 0.11172682 0.019631239 0.013826083 0.031058589 -0.047193985 0.10948675
-0.007258215 -0.013285467 -0.07959229 0.04295415 -0.030745178 0.018062076 -0.03347056 0.023103695
0.013968393 -0.019731808 0.040288784 -0.017145127 -0.025314124 -0.006610058 0.0676147 -0.008109072
-0.07750565 -0.05554057 0.021134695 0.1361112 -0.031670704 0.020740533 -0.022648538 -0.003878079
0.20808569 0.0673243 0.016230948 -0.0071577593 -0.10870382 -0.12256379 -0.0076923436 -0.08729103
-0.008251032 -0.07845185 -0.122754626 -0.032389116 -0.0301999 -0.04199322 -0.019610675 0.068748884
0.09973822 0.035401892 -0.050104976 -0.018507944 0.01653794 0.07510707 0.019087704 0.019033283
0.026942322 -0.031691484 -0.0803953 0.025566569 0.042363714 -0.041732427 -0.0050861137 -0.021794535

bias f4 [120]
00000000: ed6f 5d3c ac1a 3bbc ebf8 0c3a aa09 1abb
00000010: 59e2 753c 10cc a5ba 9910 0c3b 6b9b 30bc
00000020: 8c5f 423c 4f67 153a ac25 99bb a885 47bc
00000030: 90c2 4f3a e912 a43b ba72 1c3a 56a5 003a
00000040: b8b6 8fbb 4647 1cbb 7613 36bc f629 be3b
00000050: 8ff6 7f3c f274 03bc 5d15 343b 81e0 ee3b
00000060: eb0d 27bc 688b 6538 1e1b e5bb 1f8d a63a
00000070: 985e 82bb 9f20 c0bb 5cc3 7f3b d8c2 90ba
00000080: 411b c63b a1dc b8ba f49e f9ba 5ce2 61bb
00000090: c45b 173b ba4e a0bb ab7f 27bb cc82 1d3c
000000a0: 3038 cdb8 6722 85bb 06c1 c63b de32 da3a
000000b0: 1ca5 12ba 7b7c c63b 8d70 43bb 4f26 013b
000000c0: 17fd ed3b fcb8 ce3b f72a 6f3c 4b7f 513c
000000d0: b5aa d13b 0e55 db3b d7c2 683c 99e0 10bc
000000e0: 11ba 7d39 3630 b53a 8215 b63b f664 4dbb
000000f0: 0c79 74ba 530b 18bb a403 b43b 8d70 c8bb
00000100: 4eab 7dba 008d 01bc 278c a2bb b7d5 93bb
00000110: 8b2a cc3b 922a 4aba 7903 bebb 39a4 34bc
00000120: b0bd 00bc 2425 f23b bf5f 493b 0018 ba3a
00000130: 541c 89bb d94c 993b 6dc3 743b 604c 99bb
00000140: c2f4 18bb d74d 5b3b 3dac 8c3a 329a 053b
00000150: 916e 133b 33db e1ba 0f9f d8bb ada5 67bb
00000160: f415 61bb 4408 5a3c 6e07 3ebc 452d bcbb
00000170: 0b5b 7ebb 0c9d b03a 1dbd 49bb d2fc 673b
00000180: e838 903c 1dd0 ab3b d4a5 5cba 5a4b e43b
00000190: e170 8a3c fe37 6e3c dd05 fbba fae0 8cba
000001a0: 3437 86bb fa0f cabb 2f5d 393a 7787 123b
000001b0: 79df 37bb 0f27 143c 81ac 883b d23f f5b8
000001c0: db39 c6bb ced8 ad3a fc56 d239 42bd a038
000001d0: 08b4 b8bc d82c 063c ec8d 023b 4d10 b0bb
0.013515455 -0.011419933 0.0005377668 -0.0023504295 0.015007579 -0.0012649316 0.0021372198 -0.010779242
0.0118636 0.0005699293 -0.0046736803 -0.012177862 0.00079254154 0.005007137 0.00059680233 0.00049074495
-0.0043857954 -0.0023846193 -0.011113038 0.005803342 0.015622749 -0.008023487 0.0027478554 0.0072899465
-0.010196189 5.4727687e-05 -0.006991758 0.0012706852 -0.0039785616 -0.0058632637 0.0039026355 -0.0011044396
0.0060457294 -0.0014103838 -0.0019044564 -0.0034467196 0.0023095468 -0.0048921974 -0.0025558274 0.009613704
-9.7856275e-05 -0.004062939 0.0060654907 0.001664724 -0.0005594061 0.0060573197 -0.0029821724 0.0019706672
0.0072628367 0.006308673 0.014597646 0.012786697 0.0063985237 0.006693489 0.01420661 -0.008842611
0.00024197275 0.0013823572 0.005556763 -0.0031340695 -0.0009325899 -0.002320011 0.005493598 -0.0061169327
-0.00096767105 -0.007907152 -0.004960555 -0.004511561 0.0062306575 -0.0007712032 -0.005798754 -0.011025482
-0.007857725 0.0073896814 0.0030727235 0.0014197826 -0.004184285 0.0046783504 0.0037347928 -0.004678294
-0.0023339246 0.0033463144 0.0010732483 0.0020386097 0.0022496323 -0.0017231464 -0.006610758 -0.0035346553
-0.003434536 0.013307635 -0.011598451 -0.0057427012 -0.003881159 0.0013474538 -0.0030782886 0.0035398495
0.01760526 0.005243315 -0.00084170443 0.0069669904 0.016899528 0.014539717 -0.0019151528 -0.0010748201
-0.004095936 -0.0061664553 0.00070710754 0.0022358575 -0.0028056784 0.009042515 0.0041709547 -0.00011694398
-0.0060493774 0.0013263465 0.0004011913 7.6646465e-05 -0.022546783 0.0081894025 0.0019921018 -0.005373037

weight f4 [120]
00000000: 2eaa 853f 1b8c 853f 6411 7d3f 48a3 873f
00000010: 575b 8f3f d1c8 8a3f fec3 823f c190 873f
00000020: e8b0 863f 08b9 8c3f 1090 8e3f 04b5 8a3f
00000030: 1388 8c3f 49f1 7b3f 13e8 873f 152a 8e3f
00000040: 353b 713f 6539 883f 81a7 8f3f 9349 813f
00000050: 9fa2 873f a416 8b3f d275 843f 0d10 903f
00000060: 82e2 813f 2557 843f ad8c 8b3f 9e88 903f
00000070: ebaf 7d3f b289 7d3f 8037 7b3f fd5c 8a3f
00000080: a9ee 863f f420 803f 0b20 813f fb34 813f
00000090: 3b4e 883f 8c46 863f b5be 843f 6df7 7d3f
000000a0: 23a3 873f 2e3c 833f 002c 843f c654 8c3f
000000b0: c8dd 813f 6da6 8d3f 231c 803f fb5d 843f
000000c0: bc18 8e3f 095e 7c3f 057e 8e3f e56e 853f
000000d0: 75e9 7c3f e4b7 8a3f 9518 873f 8e4c 913f
000000e0: 02fc 823f b398 8c3f 446b 8d3f 25e6 723f
000000f0: c941 863f ec2b 903f 4737 823f 5b23 903f
00000100: e27a 833f 4aac 813f e5a3 743f 8bd3 893f
00000110: ff96 7b3f 4ca0 873f 9286 8e3f 729f 863f
00000120: b8f7 703f dc4b 863f 43da 913f 45a5 903f
00000130: d06c 823f e486 893f 734e 883f 68bb 8a3f
00000140: b2c4 703f f16a 923f 258d 873f c386 823f
00000150: 636a 833f 54fb 8a3f c3c3 833f b8ce 803f
00000160: 20b8 7e3f ae02 8c3f 2685 833f cb7a 8c3f
00000170: 2e58 853f 1d61 853f c313 833f ead3 893f
00000180: 528c 8e3f 0c7f 833f d013 873f e635 8e3f
00000190: 1759 8e3f 5058 843f 9870 753f be32 863f
000001a0: 2ab0 843f 4db1 833f 37f3 8e3f 1ae8 7b3f
000001b0: c665 843f 1c30 933f cf6b 823f 0eeb 833f
000001c0: 2c9a 8e3f 928a 893f 4052 843f ab7d 8a3f
000001d0: 551e 843f be13 823f ac41 8a3f 73b8 7d3f
1.044256 1.0433382 0.9885466 1.0596704 1.119975 1.0842534 1.0216062 1.059105
1.0522738 1.0993967 1.1137714 1.0836492 1.0979027 0.98415047 1.0617698 1.1106592
0.9423097 1.0642515 1.1222993 1.0100578 1.0596503 1.0866284 1.0348456 1.1254898
1.014725 1.0339094 1.0902306 1.1291692 0.99096555 0.9903823 0.9813156 1.0809628
1.0541583 1.0010056 1.0087904 1.0094293 1.0648874 1.0490279 1.0370699 0.99205667
1.059666 1.025274 1.0325928 1.0963371 1.0145807 1.1066414 1.0008587 1.034118
1.1101298 0.98580986 1.1132208 1.0424467 0.9879373 1.0837369 1.0554377 1.1351488
1.0233157 1.09841 1.104836 0.9488242 1.0488826 1.1263404 1.0173119 1.126079
1.0271876 1.0130703 0.95562583 1.0767683 0.98277277 1.0595794 1.1134818 1.0517409
0.9412799 1.04919 1.1394733 1.1300436 1.0189457 1.074429 1.0648941 1.0838442
0.94050133 1.1438886 1.0589949 1.0197376 1.0266842 1.0857949 1.0294117 1.0063086
0.994997 1.0938318 1.0275009 1.0974973 1.0417535 1.0420262 1.0240406 1.0767796
1.1136572 1.0273147 1.0552921 1.1110198 1.1120938 1.0339451 0.9587493 1.0484235
1.0366261 1.0288483 1.1167973 0.98401034 1.0343559 1.1499057 1.018915 1.0306108
1.11408 1.0745413 1.0337601 1.0819601 1.0321757 1.0162275 1.0801291 0.9910957

bias f4 [120]
00000000: 4ef6 693b 5939 373d c1fb 7bbd 656c dc3c
00000010: 6244 9abd 61e8 083e bc5a 29bd 4600 cbbc
00000020: 9d4f 2fbd 762f 5b3b bf91 01bc f1ad 98bc
00000030: 2435 eebc fa43 003a 835d 333d dd36 373d
00000040: d75f 17bd cd8b 813c 8cd9 b83d e211 f63a
00000050: 974b 083d 2eaf c33d da8a 51bc 27d8 87bc
00000060: 3791 94bc 141e 63bd 4cab 9abc a94a 083d
00000070: 2126 25bc fd08 8bbd e6e4 2dbe 00e0 42bc
00000080: e830 f4bb 02dd 85bb 0577 03bd 6391 d2bb
00000090: 1aaf c3bc 4b67 1a3d 87d1 a6bd 2f33 c2bb
000000a0: e0ff 293d e5bc 97bd 3a05 babc e8ef 31bc
000000b0: 88d8 81bd a2e1 c9ba 62e2 253c 894e a13c
000000c0: d905 083b 2f8c bbbc bc8f 5cbd b6fa d4bc
000000d0: eb8b 0c3d 581f 2dbd 0c15 48bd 952e 283d
000000e0: ecf7 adbc 7552 80bc 8c9b 5bbc dbe5 95bd
000000f0: 7bf8 093d a861 243d 77ee d2bc a6f7 163d
00000100: 8430 fd3a 6820 273d 9f78 213d 307f a93c
00000110: 4723 7d3c bc73 32bc 08a7 b23d b71f 1d3c
00000120: bd44 25bd c0d7 de3c 3c09 6fbd 5952 233d
00000130: 9c94 18bd 0aef bd3b da84 00bd 9cb7 7c3b
00000140: 17d9 f0bc 0162 46bc 60f4 6ebc 5390 4abd
00000150: 0c4e 713d 4166 883c c677 563d a2ec 7d3d
00000160: 0929 13bd 4489 343c 71ff 093d 865d a138
00000170: 5b78 ad3c 8e0b d3bd edf3 2fbb f4ff 7e3c
00000180: 2243 9c3c e0d2 bc3b d3b1 9b3b e968 4d3d
00000190: fd9a 60bd 0dd9 75bd a2d5 cdbc a510 2b3d
000001a0: c2cd de3b be76 93bc 13a4 633c 0971 5ebd
000001b0: 2bd8 b63c 50f1 093c 7f0c 103d 208c b1bc
000001c0: 16cc 033d 1573 223d 21ac 61bd 0707 e9bc
000001d0: bcad 603d f273 473d 0b91 b4bc 3d29 84bc
0.0035699788 0.044732425 -0.061519388 0.026907155 -0.07532574 0.13369896 -0.041346297 -0.024780404
-0.042800535 0.0033445037 -0.007908284 -0.01863763 -0.029078074 0.0004892942 0.04379035 0.044730056
-0.036956634 0.015813733 0.09025869 0.001877364 0.033275213 0.09554897 -0.012789452 -0.016582562
-0.01813565 -0.055448607 -0.018880509 0.033274326 -0.010079891 -0.06788824 -0.16981849 -0.011894226
-0.007452119 -0.004085184 -0.032095928 -0.006426023 -0.023887206 0.037696164 -0.08145433 -0.0059265117
0.041503787 -0.07409076 -0.02270757 -0.010860421 -0.06340128 -0.0015402327 0.010124775 0.019690769
0.0020755439 -0.022893993 -0.053848013 -0.025998455 0.034313124 -0.04226622 -0.048848197 0.04106005
-0.021236382 -0.015664319 -0.0134037845 -0.07319232 0.033684235 0.040132195 -0.025748475 0.03685727
0.0019316827 0.04080239 0.039421674 0.02069053 0.015450305 -0.010891851 0.08723265 0.009590081
-0.040348757 0.027202487 -0.058358416 0.039873455 -0.0372511 0.005796318 -0.031376697 0.0038561588
-0.029400392 -0.012108327 -0.014584631 -0.049454045 0.058912322 0.016650321 0.05236032 0.06199325
-0.035927806 0.011019055 0.033690874 7.694498e-05 0.021175554 -0.10304938 -0.0026848272 0.015563954
0.01907498 0.005762443 0.004751423 0.05014888 -0.05483531 -0.06002145 -0.025126282 0.04176392
0.0067994306 -0.018000957 0.013894099 -0.054307017 0.022319874 0.00841935 0.035168167 -0.021673262
0.032177053 0.039660532 -0.055095796 -0.028445734 0.054853186 0.04869456 -0.022041818 -0.016132945

running_mean f4 [120]
00000000: 6303 29bc 746e c6bf 22f6 b03f 4e3b 40bf
00000010: f772 553d 06d2 99bf c286 00c0 ca3f 10bf
00000020: 1c2b 23bf 3681 fabf 3587 afbe 809d e6bd
00000030: 0f46 11c0 c841 e53f 8e4c c9be e74b eebe
00000040: 05c3 203f 8ecc 833f aa9c 15bf efa4 5bbf
00000050: 2c1d 0abd 636c 7e3f 4e48 b93e ec6d 08be
00000060: dd36 e1bf 5520 94bf 6422 febe 11ec b63e
00000070: 519f 863f 3de2 7f3d 16e8 0240 06bd ffbe
00000080: 7992 f0be 109a a8bd 30ac 96be 5bf2 04c0
00000090: 7104 c4be 0f09 0c3e fbb9 48bf deb8 a3bf
000000a0: 1891 1c3f f365 fbbe 613e 0a3f 5c45 883d
000000b0: c410 113f d8a0 8cbe 01c7 1abf a5fc b93e
000000c0: fe72 6fbf 090d aebf 61a3 35bf c037 13be
000000d0: 1236 843e 06fc e3bc 1493 8bbf bd99 8abf
000000e0: 49c8 80bf afce 023e 4971 a93c 6dbc 04bf
000000f0: c352 55bf 7727 bf3d 68a0 00c0 1ae6 c8bf
00000100: 2945 103f 5ce4 05be 9dfe 643e 0a50 a73d
00000110: d576 88bd ac2e 503f 7ebe 2abe 6bb5 ae3e
00000120: b340 9f3f 835d 9ebf 414a 783e ae9d 313f
00000130: 6eea d4bf 1dac 233e 02ba 40be 64ae a9bf
00000140: e9b4 98bf 8fad 72bf e4a1 233e c213 d2be
00000150: 9dc3 0fbf 5d4a 3abe fb5a 9fbe 0be0 b13c
00000160: 1a46 09be a553 2cbf 226c a5bd ad51 d5be
00000170: 4fa8 77bf 721c 55bf 2abd 9b3f 7c3c ee3d
00000180: a10c 39bf df2e a53e b55c e63f b95b 12be
00000190: 374b 78bf 8bcb d0be ec47 db3e 9364 e0be
000001a0: 7567 9dbf a280 9a3e abae d3be 1855 26bd
000001b0: d703 8bbe f3ff 33bf 018c 113f ec4c 01be
000001c0: 88c8 eabd d5a6 ec3e c077 1b3e a8e1 a93e
000001d0: 0992 813f b70f 9d3d 0f24 253e 45cf 0fbf
-0.010315749 -1.5502458 1.3825114 -0.7509049 0.052111592 -1.2017219 -2.008225 -0.56347334
-0.63737655 -1.9570682 -0.34282842 -0.112605095 -2.269901 1.79107 -0.3931622 -0.46542284
0.62797576 1.02968 -0.58442175 -0.85798544 -0.033719227 0.99384135 0.36187977 -0.13323182
-1.7594868 -1.1572367 -0.49635613 0.3572698 1.051737 0.062471617 2.0454154 -0.499489
-0.4698675 -0.0823251 -0.29428244 -2.0772922 -0.3828464 0.1367533 -0.78408784 -1.2790792
0.61158895 -0.4910122 0.5400143 0.06653854 0.5666621 -0.27466464 -0.60459906 0.36325565
-0.9353484 -1.3597728 -0.7095242 -0.14376736 0.25822502 -0.027830135 -1.090426 -1.0828167
-1.0061122 0.12774156 0.020683901 -0.51850015 -0.8332941 0.09333699 -2.0097904 -1.5695221
0.5635553 -0.13075393 0.22362752 0.08169563 -0.066632904 0.81321216 -0.1667423 0.34122786
1.244162 -1.2372288 0.24247076 0.69381225 -1.6634042 0.15983625 -0.18820956 -1.3256345
-1.1930209 -0.9479608 0.15979725 -0.410307 -0.5615786 -0.1819243 -0.311241 0.021713277
-0.13405648 -0.6731513 -0.08077265 -0.41663876 -0.96741194 -0.8324653 1.2167103 0.1163263
-0.72284895 0.32262322 1.7997042 -0.14292802 -0.9698977 -0.4078029 0.4282831 -0.43826732
-1.2297198 0.30176264 -0.413442 -0.040608495 -0.27151367 -0.7031242 0.56854254 -0.12627
-0.114640296 0.46221033 0.151824 0.33179975 1.0122691 0.07669013 0.16127037 -0.56175643

running_var f4 [120]
00000000: a199 db3e 1a67 963f 8c3c 983f 53b3 3d3f
00000010: d3f5 193f 4edb c23f 550b 813f 977f 7f3f
00000020: 636c 293f 5bb1 663f 0ab3 413f 6bdb 3e3f
00000030: f0c1 2a3f f486 9c3f eee6 5f3f 990a d13f
00000040: 2904 1f3f 5183 a03f d584 143f f075 123f
00000050: 0e4c f03e 14d0 033f 9b23 7c3f 8b64 4d3f
00000060: 8859 373f 65b4 af3f 1fdf 583f 8494 533f
00000070: 6c43 353f 62aa 843f 7541 3a3f 7a47 1b3f
00000080: 2a06 6b3f 7784 3e3f 3db8 3b3f 0bd2 2a3f
00000090: 8060 293f 76ad 2e3f 4ede 873f 308a 113f
000000a0: e9eb fd3e 3cf1 2b3f 8564 363f 5cae 6e3f
000000b0: 663b 453f e129 593f 4211 063f 6dba 063f
000000c0: c4a1 1e3f a632 863f 8042 203f 9ba4 433f
000000d0: 3800 863f 49ab 3d3f b5c6 493f 0619 773f
000000e0: 87f5 663f f2e8 5e3f 10d1 e13e 5607 4d3f
000000f0: 89d0 1b3f c2df 3d3f 0d65 613f 3d03 9c3f
00000100: 43b2 593f 971e 243f 5d02 913f 61d8 8b3f
00000110: e59a cb3e 270a 263f 5b39 a73f 3ad4 2c3f
00000120: e471 183f 3518 823f 77cf 4b3f 0e80 a63f
00000130: 631a b03f afc2 443f 6149 443f 43ae 943f
00000140: 17b7 543f 8d00 603f 7b89 2a3f 158b 323f
00000150: 36c0 9c3f ad11 843f 0565 003f 205b 7b3f
00000160: 6950 153f ea85 2f3f 55dc 023f 4ba6 813f
00000170: d61b 003f 6892 1f3f 0ca6 943f 1b8c 0b3f
00000180: 511b 173f eb75 5f3f 1f61 963f 4e49 303f
00000190: 8efa 413f 7891 4d3f 2cbc 9b3f d96f 5d3f
000001a0: 2309 1b3f 384b 253f 2b2b 393f 4f9f 6c3f
000001b0: 60a6 3f3f 79e6 e83e 65f3 2d3f 3ef0 443f
000001c0: 4e05 253f a9b8 513f 5caf 633f d36c 663f
000001d0: db59 813f 92f4 343f 6c11 523f 171b 383f
0.42890647 1.1750214 1.1893477 0.7410175 0.60140723 1.5223176 1.0081583 0.9980406
0.6618101 0.9011437 0.75663817 0.74553555 0.66702175 1.2228684 0.87461746 1.6331359
0.6211572 1.2540075 0.58015186 0.5721121 0.46933025 0.5148938 0.9849183 0.8023154
0.7162099 1.3726927 0.84715456 0.8264849 0.70806 1.0364497 0.7275613 0.6065594
0.9180628 0.74420875 0.73328 0.6672675 0.6616287 0.6823343 1.0614717 0.5685148
0.49594048 0.6716497 0.7124713 0.932348 0.7704376 0.8482953 0.52370083 0.52628213
0.61965585 1.0484207 0.6260147 0.76423043 1.0468817 0.74089485 0.7881883 0.9652256
0.90218395 0.87074196 0.44104815 0.8008932 0.60865074 0.7416955 0.88044816 1.2188488
0.8503763 0.64109176 1.1328846 1.0925409 0.39766613 0.6485924 1.3064378 0.6751133
0.59548783 1.0163637 0.7961344 1.3007829 1.3758053 0.76859564 0.7667447 1.161568
0.8309187 0.8750084 0.6661603 0.6974347 1.2246158 1.0317894 0.50154144 0.9818592
0.5832582 0.6856371 0.5111745 1.0128874 0.50042474 0.62332773 1.1613173 0.5451066
0.59026057 0.87289304 1.1748389 0.68861854 0.7577294 0.8030009 1.21668 0.8649879
0.60560817 0.645679 0.72331494 0.92430586 0.74863243 0.45488337 0.67949516 0.7692908
0.6446122 0.81922394 0.8893945 0.900098 1.0105547 0.70685685 0.82057834 0.71916336

weight f4 [84, 120]
00000000: b7f6 f9bc 46ce dd3d ba1d d93d f338 303e
00000010: 84f8 183e 737c d63d e022 023e a599 07bd
00000020: 9c16 f43d 13fc 8a3d 1087 223e e1ea 033d
00000030: 6731 4dbd 2902 2e3e 5092 ffbd d017 073e
00000040: 9eed ba3d 511c 86be edde 0c3e ccc5 233e
00000050: 4b0d 4f3d ee6d 953d 552b 34be 3f65 38bc
00000060: 2738 383e 1fcb 023e 53f1 493e 97f8 8a3e
00000070: 5a59 f2bd 1d4d 8c3c 3067 2ebe 90ed f8bd
00000080: 00cd b73c 8e1f e5bd 7ec4 2d3e f8ea 0f3e
00000090: 8d3a 003e 3b92 d43c c428 013e ec40 53bc
000000a0: 1183 7a3d a9d5 dabd d493 a0bb ba2d ae3d
000000b0: 9269 ad3c 24cf 6dbe 17ea 72bd 9b97 533e
000000c0: a9cf 61bd 964e b63d 076d 443d fc09 5bbe
000000d0: 02e2 88bd c884 73be 2eec 25be 1e04 b4bc
000000e0: ef3d 343d a153 42bd d1bb 0c3e d454 973b
000000f0: 5588 203e 9bae cf3b a7e4 713d 70dd 263e
00000100: f476 36bd 87db 903d 4acb b5bd f747 40bc
00000110: d1a0 ca3b bc2c 5b3e 0fcb 363e f4ab bcbb
00000120: 6cd2 46be 2334 93bd 3ebf f53c 9f84 533b
00000130: bbe5 ffbd 8557 ae3c 00f4 d43d 1efa 193e
00000140: ad50 d0bd 769e d53d 63d2 01bd ecb2 08be
00000150: 1eba 5bbd 2f66 f43d 98f3 a13d 7d21 fbbd
00000160: b7c3 2c3e 7c6f b2bd 09c4 993d fa88 3a3e
00000170: 2b53 d73d 0891 123d 171d e33d dcc3 513e
00000180: 95f4 1d3e 32da 25bc 5d68 10bc c629 95bd
00000190: 5d71 b03d 53fa b9bd a2ea 07be 351d 4cbd
000001a0: d8a8 4ebd 1976 123d 3daf eabc a7e0 2cbe
000001b0: 83ad 8d3d 6c08 ca3d 0799 b23c 71b7 2b3e
000001c0: 6cbe cdbd f2fd 7c3d 80bc 41be 5cb3 5cbe
000001d0: e46c 0e3d 9816 a3bd e30b f6bd db00 efbd
000001e0: 119c 513d cb22 5ebd 5213 113e d906 90bd
000001f0: 86dc 41bc 1482 8e3d 3e78 8abd d9be 8cbc
00000200: dda1 033d 54fb d1bd 20a2 74bd b5ca b33d
00000210: 229a 283d 4409 bf3c cae2 fb3d d2e2 93be
00000220: 4aad 06be 8eba 3f3e d4aa be3c 1df9 3d3d
00000230: 9306 03be cb4c a53c 87a2 b83d 8085 883e
00000240: fed1 8ebd ba38 06be ee34 1bbc b21d 8bbd
00000250: 17cd 83be dc18 49be fdeb aa3b a679 40bd
00000260: 0aee 3d3b 43db 51bd 2f4e 89bd dea6 c33d
00000270: d605 6bbe 8f83 0fbe fda8 2fbe 81a1 1f3e
00000280: 8c91 26bd 01d0 f83d 0dfa 92bd f597 22be
00000290: 3f25 903d 543d a53e fc11 09be 117f c4bc
000002a0: a117 2bbd 4098 58bd 1d00 3fbb 2e8a 14be
000002b0: 4506 bebd 6424 29bd 5a85 40be 47f8 fabd
000002c0: 0394 c8bd 7921 3abb 0e0e 0f3e c08a 44bd
000002d0: 689b 253e 68db 88be a89c b03d 7acd cebd
000002e0: 79fd 35bd 3045 91bd cc34 9b3c 83f7 bd3d
000002f0: 7607 2bbe 6745 f53d de4a 54be 6c4b ef3c
00000300: 53ae 853d 811b 993d 1453 923c 1582 853d
00000310: 6a7d efbd 027b 703d f354 003e bbcc f13d
00000320: 45df d9bc a3f5 8bbe 62fc 363e 796b f6bd
00000330: 4cdf 74bd fd84 b3bd 786d 86bc dbdc 7fbd
00000340: 4706 ebbd ab59 c33d 9a5b 783b 14fe bbbd
00000350: 40c8 a0bd 7734 9ebd 89ae 993d 14a5 843d
00000360: 0c39 eb3d 2551 503e 6863 e4bd b233 de3d
00000370: 2854 9ebd b474 1abe 837c 953c ca64 e0bc
00000380: 2320 44bc 6fcc 153c df1c 18bd 9259 0f3e
00000390: d4c4 b4bc e112 ccbc 171f a7bd 386b 0bbe
000003a0: f08c 793d 90d2 2c3d 81b5 59be 7db9 2cbd
000003b0: aa03 58bd 2505 84be bb4b 4c3d 8ea1 eebb
000003c0: 3aaf 91bd 0fa1 c13c c30e b7bd dc64 d4bd
000003d0: a59d c73c baf3 a33d 3f0b 00be 9cee 0e3e
000003e0: b93c 043e dd66 073e 0f3c 383d 80e1 62be
000003f0: 83ae 22bc 14c0 c4bc 40c5 143d 3558 8d3d
-0.03051315 0.10830359 0.10601373 0.17209224 0.14938551 0.104729556 0.12708616 -0.03310551
0.11918375 0.067863606 0.15871835 0.03220642 -0.050095942 0.16993012 -0.12479079 0.13192677
0.09127353 -0.2619348 0.13756914 0.15993422 0.050549787 0.07296358 -0.17594655 -0.011254608
0.1799017 0.12772797 0.19720964 0.27142784 -0.11833449 0.017126614 -0.1703155 -0.121546865
0.022436619 -0.11187659 0.16969487 0.14054477 0.12522335 0.025948634 0.12613207 -0.012893897
0.06116015 -0.10685284 -0.004900435 0.085048154 0.021168504 -0.23223549 -0.059305277 0.20663302
-0.05512968 0.08901708 0.04795554 -0.21390527 -0.066837326 -0.23781121 -0.16203377 -0.02197462
0.044004377 -0.047443036 0.13743521 0.0046182666 0.15677007 0.0063379533 0.05905595 0.16295409
-0.044547036 0.070731215 -0.08876665 -0.011735908 0.0061837216 0.21403784 0.17850898 -0.005757803
-0.19416207 -0.07187679 0.029998418 0.0032275093 -0.124949895 0.021281967 0.10398102 0.15036818
-0.10171638 0.10430615 -0.03169478 -0.13349503 -0.053644292 0.119335525 0.0790779 -0.12262247
0.16871534 -0.0871267 0.07508094 0.18216315 0.1051391 0.035782844 0.11089533 0.2048487
0.15425332 -0.010122823 -0.008813945 -0.07283358 0.08615372 -0.09080949 -0.13273099 -0.04983254
-0.05045399 0.035757158 -0.028648013 -0.16882573 0.0691786 0.098648876 0.021801485 0.16769196
-0.10046086 0.06176562 -0.18919563 -0.21552795 0.034771815 -0.07963294 -0.12013986 -0.11670085
0.051174227 -0.0542324 0.14167526 -0.07032556 -0.011832362 0.06958404 -0.067612156 -0.017180847
0.032136787 -0.10253015 -0.059724927 0.08778898 0.041162618 0.023319848 0.12299116 -0.28883988
-0.13152042 0.18723509 0.023274817 0.04638015 -0.12795477 0.02017822 0.09015375 0.26664352
-0.069736466 -0.13107577 -0.009473069 -0.06792773 -0.2574241 -0.1963839 0.0052161203 -0.046991013
0.0028980994 -0.051234495 -0.067043655 0.09553312 -0.22951445 -0.1401503 -0.17154308 0.15588953
-0.040666148 0.121490486 -0.071766 -0.1587828 0.07038354 0.32273352 -0.13385767 -0.023986371
-0.04177058 -0.052879572 -0.0029144355 -0.14505836 -0.092785396 -0.04129447 -0.1880087 -0.122543864
-0.09793856 -0.00284013 0.13970205 -0.047983885 0.16172564 -0.26729894 0.0862363 -0.10097785
-0.044431183 -0.070932746 0.018946074 0.09275725 -0.16702065 0.11976128 -0.20731685 0.029210769
0.0652739 0.07475949 0.01786188 0.06518952 -0.11693843 0.05871106 0.12532406 0.11806627
-0.026595721 -0.27335843 0.17869714 -0.120322175 -0.059783265 -0.087656 -0.01640962 -0.062466484
-0.11475807 0.09538587 0.0037896396 -0.09179321 -0.07850695 -0.077248506 0.07503993 0.06476799
0.1148549 0.20343454 -0.11151773 0.10849704 -0.07730895 -0.15083581 0.018247848 -0.02739181
-0.011970553 0.009142979 -0.03713691 0.13999012 -0.022066511 -0.024911346 -0.08160227 -0.1361512
0.060925424 0.042192996 -0.21260644 -0.042169083 -0.05273787 -0.25785175 0.04987691 -0.0072824424
-0.071135 0.023636369 -0.089383624 -0.103708 0.024367163 0.080054715 -0.1250429 0.1395821
0.12913789 0.13222833 0.04497915 -0.22156334 -0.009929302 -0.024017371 0.036320925 0.0690159

bias f4 [84]
00000000: 5056 463d 4c37 76bc 763f 333d daa0 8a3d
00000010: 7233 2a3c 6e55 e8bb a908 50bc 6381 083d
00000020: 5bb3 bc3c 7a23 41bd e95e 723d 044f 10bc
00000030: 8ccf e5bc 949f b23c 7158 8e3d e04c f1bc
00000040: bb15 963d 5a60 51bc 7dd9 463c f205 b1bd
00000050: ec2d 29bd 0dcf 8b3c b4a2 a93d 0f99 de3c
00000060: b6c0 d53c a5b8 2a3c 7302 6ebd 7dd6 bebc
00000070: c020 f0bb c834 f5bb 6753 4dbc 4de7 62bc
00000080: df8b f83c bcb1 de3c e9bf 173c b8f3 b4bb
00000090: 1071 323d 72e6 ce3c 4df3 443c 02af 6b3d
000000a0: 720f ae3c f650 6c39 b74a a93c eef4 2e3d
000000b0: 4328 05bc ff98 b73b ecf9 66bd 727d d5bb
000000c0: b526 773d 178c 2d3d d3d7 43bb 9a5e 1e3d
000000d0: 0ddb ab3c a03a 45bb 00f6 7c3c 9b2c 20bd
000000e0: 1a90 813d e464 273d a7cd 8bbc f375 0fbd
000000f0: 054f 633c dd40 fc3c d155 743d 7ad2 543c
00000100: ba28 2c3d c648 20bc 5749 b23c 242b 593c
00000110: 5131 38bd b8e3 613d 4917 563a 6127 403d
00000120: d45d d2bc 0474 adbb 8fba 833d 4f6a a0bc
00000130: 1fbd a03c 93c4 a0bc dd43 60bc c60a 7a3d
00000140: 8ed7 463d 2f44 67bd 865c bf3c cafe 883c
0.048422158 -0.015027832 0.043761693 0.06768961 0.010388242 -0.007090262 -0.012697377 0.033326518
0.023034742 -0.047152974 0.059172545 -0.008807901 -0.028053068 0.021804608 0.069504626 -0.029455602
0.073283635 -0.01277932 0.012136814 -0.08643712 -0.04130356 0.017066503 0.08282986 0.027172593
0.026092868 0.010419999 -0.058107805 -0.023295635 -0.007328123 -0.0074830987 -0.012532092 -0.013849092
0.030340133 0.02718436 0.009262064 -0.0055222176 0.043564856 0.02525637 0.012020898 0.057539947
0.0212476 0.00022536874 0.02066551 0.042714052 -0.008127275 0.0056029554 -0.056390688 -0.0065151984
0.06033965 0.04236993 -0.002988328 0.038664438 0.020978475 -0.0030094758 0.01543951 -0.03910504
0.06326313 0.0408677 -0.017065836 -0.035024595 0.01387382 0.030792648 0.059652153 0.012989635
0.042031027 -0.009782976 0.021763487 0.013254914 -0.044968907 0.05514881 0.0008166922 0.046912555
-0.025679506 -0.005293371 0.064320676 -0.019581942 0.01962143 -0.019624984 -0.013688055 0.06104543
0.048545413 -0.05646151 0.023359548 0.016723055
