model1/model/big_category.pt (torch, 277255 bytes, 22 tensors)

weight f4 [6, 3, 5, 5]
0	0x3c2260da	0.0099107865
1	0xbe5b2076	-0.21399102
2	0xbe51cce9	-0.20488323
3	0xbe648be6	-0.22318992
4	0xbd2f1f39	-0.042754386
5	0x3e10576d	0.1409585
6	0x3c8d2c55	0.017233053
7	0xbd5f7292	-0.054552622
8	0xbcf2ceef	-0.02963969
9	0x3d6a4370	0.05719322
10	0x3d90ea5b	0.0707595
11	0x3e183856	0.1486524
12	0x3db13e9b	0.08654519
13	0xbd7a1a87	-0.061060455
14	0x3e1442d9	0.14478625
15	0xbd4e04cc	-0.050297543
16	0x3e0be4c5	0.13661487
17	0x3d45f43e	0.04832863
18	0xbbe4e114	-0.006984839
19	0x3e288e51	0.1646054
20	0xbcec641a	-0.028856326
21	0x3d86b8e3	0.06578233
22	0xbd8820b3	-0.06646862
23	0xbdc36a19	-0.09541721
24	0xbdddba69	-0.108265705
25	0x3d560b85	0.05225708
26	0xbe9387ac	-0.28814447
27	0xbea1a85f	-0.3157377
28	0xbd5846e0	-0.052801967
29	0xbe5d1285	-0.21589096
30	0x3caf4578	0.02139543
31	0x3d960b08	0.07326323
32	0xbdc07112	-0.093965665
33	0xbd4b72da	-0.049670078
34	0x3ded8dfe	0.115993485
35	0x3de38f62	0.111113325
36	0x3c8dec6e	0.017324653
37	0xbdb37365	-0.08762244
38	0x3dca87da	0.09889193
39	0xbde4f4ca	-0.11179502
40	0x3db5c56d	0.088755466
41	0x3cfdfa06	0.03100301
42	0x3ae598b9	0.0017516828
43	0xbdc7d9c7	-0.097583346
44	0x3d861172	0.06546296
45	0x3d33375e	0.043753974
46	0x3d8f56a4	0.06998947
47	0x3df94e7d	0.121731736
48	0xbdd882a4	-0.10571793
49	0x3d25a851	0.040443722
50	0xbe0e4c35	-0.13896258
51	0xbe5aaf8c	-0.21356028
52	0xbea12f86	-0.3148157
53	0xbdde9908	-0.10869032
54	0xbde18f8a	-0.11013706
55	0xbb34f5d4	-0.0027612345
56	0x3dbf6d30	0.09346998
57	0x3da4511c	0.08023283
58	0x3b949237	0.0045340317
59	0xbdd6af6d	-0.104826786
60	0xbdb172dd	-0.086644866
61	0xbdbb88f4	-0.09156981
62	0x3d6e6240	0.058199167
63	0x3e1e2c82	0.15446666
64	0x3d73bacb	0.05950431
65	0x3da1f710	0.079084516
66	0x3d86320b	0.06552514
67	0xbd8e89d7	-0.069598846
68	0x3d59986e	0.053123884
69	0xbde03fb6	-0.10949652
70	0x3e063bc0	0.1310873
71	0xbdb3419a	-0.08752747
72	0xbd01e01c	-0.031707868
73	0x3e0ce076	0.137575
74	0x3e1977ee	0.14987156
75	0xbc674ec0	-0.014117897
76	0xbd62f448	-0.055408746
77	0xbdf0d192	-0.11758722
78	0x3cf83228	0.030297354
79	0xbe13e315	-0.14442094
80	0x3d95198c	0.07280263
81	0xbdf2c1ac	-0.11853346
82	0x3e1ee4c2	0.15516952
83	0xbcc535dc	-0.024073534
84	0xbdb2891d	-0.087175585
85	0x3d570480	0.052494526
86	0x3dd443e3	0.10364511
87	0xbda5f6b0	-0.081036925
88	0x3e368f72	0.17828158
89	0x3de5691c	0.11201689
90	0x3dc1bc33	0.09459724
91	0xbdeeee75	-0.11666576
92	0x3dcd65bb	0.10029169
93	0x3e374fef	0.17901586
94	0x3da44878	0.08021635
95	0x3cbf64dc	0.023363523
96	0x3dd9e51f	0.106394045
97	0xbb8f6b3b	-0.0043767965
98	0xbe1c8f11	-0.1528895
99	0xbdc421b2	-0.09576739
100	0x3dc49ec9	0.09600598
101	0x3e03820c	0.12842578
102	0xbe3e6fb7	-0.18597303
103	0x3c9021da	0.017594267
104	0xbd8c7fde	-0.06860326
105	0x3dfa9b1d	0.12236617
106	0x3ceb8908	0.028751865
107	0x3cdb146a	0.026743133
108	0x3ca7deec	0.02049204
109	0xbe7893d4	-0.24275142
110	0x3cbb32cf	0.022851376
111	0xbd2eaf96	-0.04264792
112	0xbd52068e	-0.051275782
113	0x3dcf94c8	0.101358
114	0x3d81fb92	0.06346811
115	0xbdd1ed84	-0.10250381
116	0x3cdb7ae8	0.026792005
117	0xbd85cd6c	-0.06533322
118	0x3e018a76	0.12650475
119	0xbcce0a1f	-0.02515131
120	0xbe4e5905	-0.20151146
121	0x3d62eca4	0.05540146
122	0xbe412316	-0.1886104
123	0x3db954ff	0.09049415
124	0xbe55cb90	-0.20878434
125	0xbc5f26d7	-0.0136201
126	0x3e205c11	0.1566012
127	0x3da36284	0.07977775
128	0xbdfa295f	-0.12214922
129	0xbe6460a8	-0.22302496
130	0x3e22f7f6	0.15914902
131	0x3e2c1768	0.16805804
132	0x3e5dd499	0.21663131
133	0x3de01b71	0.10942734
134	0xbd8f2f97	-0.06991499
135	0x3e5017d4	0.2032159
136	0x3d3a3980	0.045464993
137	0x3e70e64f	0.23525356
138	0x3e16711a	0.14691582
139	0xbe0ba375	-0.13636573
140	0xbe03becd	-0.12865753
141	0x3d25f224	0.040514126
142	0x3e2e0528	0.16994154
143	0xbd69692a	-0.056985058
144	0x3dc35172	0.09537019
145	0xbd603fd8	-0.054748386
146	0xbc4a7a42	-0.01235825
147	0xbda8430e	-0.08215915
148	0x3d7cbc46	0.06170299
149	0xbe1db420	-0.15400743
150	0x3e075e6c	0.13219613
151	0xbddcb55e	-0.107767805
152	0xbded7a90	-0.115956426
153	0xbdfd74aa	-0.123757675
154	0xbdb5fd2a	-0.08886178
155	0xbd7c5bcf	-0.061610993
156	0xbd16e5a4	-0.036840096
157	0xbe1a05f6	-0.15041336
158	0xbe03ac2a	-0.12858644
159	0x3db68383	0.089118026
160	0x3d8a81f8	0.06763071
161	0xbb194d43	-0.0023392
162	0xbd9d5f17	-0.076841526
163	0xbe0a71ad	-0.13519926
164	0x3e1a930c	0.15095156
165	0xbdea2159	-0.11432142
166	0x3deceb34	0.11568299
167	0xbda359c6	-0.07976107
168	0x3df9623a	0.12176938
169	0x3bbf690a	0.005841379
170	0xbd9f2b60	-0.07771945
171	0x3e077e33	0.13231735
172	0x3d0be678	0.03415534
173	0xbe060644	-0.13088328
174	0x3dc4be2e	0.096065864
175	0x3df1df39	0.118101545
176	0xbe123c47	-0.14280806
177	0xbeb23105	-0.34803024
178	0x3d21d179	0.03950641
179	0xbe0c038d	-0.1367323
180	0xbd50ed35	-0.05100747
181	0x3d95e12c	0.07318339
182	0xbe3ec8fd	-0.18631358
183	0xbd93baa6	-0.07213335
184	0x3e1d67c1	0.1537161
185	0x3c25aa60	0.010111421
186	0xbd951645	-0.07279638
187	0xbbe8c53e	-0.007103591
188	0x3e33021e	0.17481276
189	0x3e00153d	0.12508102
190	0xbc62cd74	-0.013842929
191	0x3d1b96ff	0.037985798
192	0x3b5a227c	0.0033284714
193	0x3d9c656b	0.076365314
194	0xbbdda196	-0.0067636473
195	0xbe0c6265	-0.1370941
196	0x3dd40ec1	0.103543766
197	0xbdb646fc	-0.08900258
198	0xbcef12c8	-0.02918376
199	0xbe08055c	-0.13283294
200	0x3d640366	0.055667304
201	0x3cde16a6	0.027110409
202	0xbeda8d6e	-0.42686027
203	0xbe829b89	-0.2550929
204	0xbe0a34a2	-0.1349664
205	0x3e124f1b	0.14287989
206	0x3cf47e09	0.029845254
207	0xbeb6a260	-0.35670757
208	0x3dc48b82	0.095969215
209	0x3d3d7878	0.046257466
210	0xbdc0eb13	-0.09419837
211	0xbd9648cc	-0.07338104
212	0xbe0537be	-0.13009545
213	0xbd6f00f5	-0.058350522
214	0xbbd1c70d	-0.0064019025
215	0xbdbe5389	-0.09293277
216	0x3deb7f4b	0.114988886
217	0xbc3d3e98	-0.011550568
218	0x3d892481	0.06696416
219	0x3d5660fe	0.052338593
220	0x3dc80b9a	0.09767838
221	0xbdf4d981	-0.11955548
222	0x3c388675	0.011262526
223	0xbe035338	-0.12824714
224	0x3db61605	0.08890919
225	0x3e0166a8	0.12636817
226	0x3e03e9c0	0.12882137
227	0x3e59d757	0.21273552
228	0x3dcba935	0.09944383
229	0xbb862c40	-0.0040946305
230	0x3e1cffb2	0.15331915
231	0x3e5594f7	0.20857607
232	0xbd4b6007	-0.049652126
233	0xbe383ee8	-0.17992747
234	0xbcc8753f	-0.02446997
235	0xbd38ca5c	-0.04511486
236	0x3e13f89e	0.14450309
237	0x3cbe83a5	0.023256132
238	0xbe761d7d	-0.24034686
239	0x3805e27a	3.1920594e-05
240	0x3ddace98	0.10683936
241	0xbdd57f8a	-0.10424717
242	0xbe199ee4	-0.15002018
243	0xbe4dd4c1	-0.2010069
244	0xbe039132	-0.12848356
245	0x3e16da9d	0.14731832
246	0x3dda05a6	0.106456086
247	0xbddd4c40	-0.10805559
248	0x3dadc682	0.08485128
249	0xbc0712d9	-0.00824424
250	0x3e3b6ed1	0.18303992
251	0x3e3b38b2	0.18283346
252	0xbd93416d	-0.07190213
253	0x3e153d53	0.14574175
254	0xbe346195	-0.1761535
255	0x3e724aa3	0.23661284

bias f4 [6]
0	0x3ccce3da	0.025010992
1	0xbd67c78f	-0.0565868
2	0xba8ff948	-0.0010984326
3	0xbda63018	-0.08114642
4	0xbbed785d	-0.0072470144
5	0xbd6eda69	-0.05831376

weight f4 [6]
0	0x3f955fcc	1.166986
1	0x3ee0d88a	0.43915206
2	0x3f994eba	1.197715
3	0x3ef05df4	0.4694668
4	0x3f880648	1.0626917
5	0x3f7a5405	0.97784454

bias f4 [6]
0	0xbe96ae66	-0.2942993
1	0xbe608e24	-0.21929222
2	0xbeec42d2	-0.4614473
3	0xbe4a8f47	-0.19781218
4	0xbec33102	-0.38123327
5	0xbe56c6e6	-0.20974311

running_mean f4 [6]
0	0x3f0cca79	0.5499645
1	0xbebf7076	-0.37390488
2	0x3f88e166	1.0693786
3	0xbec7dbda	-0.3903492
4	0x3f60d257	0.87820953
5	0x3d5861bb	0.052827578

running_var f4 [6]
0	0x3f1db8e5	0.6161025
1	0x3eb09369	0.34487465
2	0x3fbfec0d	1.4993912
3	0x3f1abff4	0.6044915
4	0x3fc2c477	1.5216206
5	0x3e51fe3b	0.20507137

weight f4 [16, 6, 5, 5]
0	0x3d2b4630	0.041814983
1	0x3e3380be	0.1752958
2	0x3e7a1fe7	0.24426232
3	0x3dab64f7	0.08368867
4	0xbe3e1b26	-0.18565044
5	0x3e089a35	0.13340075
6	0x3c084cc0	0.00831908
7	0x3c4cf3dd	0.012509313
8	0xbe1bdf62	-0.15221933
9	0x3b5e4b1a	0.0033919276
10	0xbd88c14b	-0.06677493
11	0xbd2d20cb	-0.042267602
12	0xbdf56530	-0.119821906
13	0xbdb1f782	-0.086897865
14	0xbbcc025d	-0.0062258677
15	0xbda932e0	-0.08261657
16	0xbe00232f	-0.12513421
17	0xbc8c12f1	-0.017098876
18	0xbe429b48	-0.19004548
19	0x3da1eb5c	0.07906219
20	0xbdb49668	-0.0881775
21	0x3d497327	0.049182083
22	0xbdf48912	-0.119402066
23	0xbe103acc	-0.14084929
24	0x3c804f0b	0.01566269
25	0xba5ec2a8	-0.0008497634
26	0xbc41e41c	-0.011834171
27	0xbccbb4c0	-0.024866462
28	0x3d785b2f	0.060633834
29	0xbbf10d97	-0.0073563564
30	0x3d40ecea	0.04710094
31	0xbdf3ffec	-0.119140476
32	0x3d8566ee	0.06513773
33	0x3c687b7e	0.014189599
34	0x3bb3200f	0.005466468
35	0x3dc4c1ce	0.09607278
36	0x3bc23a8e	0.0059273904
37	0xbd928099	-0.07153434
38	0xbdf3f467	-0.119118504
39	0xbc9d973d	-0.019237155
40	0x3d14a403	0.036289226
41	0x3d35f8b3	0.04442663
42	0xbd6ae4f9	-0.05734727
43	0xbd93295f	-0.07185625
44	0x3c09cf14	0.008411188
45	0xbd0d172a	-0.03444592
46	0xbcca5fed	-0.024703944
47	0xbc10516a	-0.008808473
48	0x3b315a48	0.0027061868
49	0x3a8f4587	0.0010930755
50	0x3d086cc0	0.033306837
51	0x3e29fc2c	0.16600102
52	0x3e9943f7	0.29934666
53	0x3b0d1bb2	0.00215314
54	0x3d987633	0.0744442
55	0x3d85c6ce	0.065320596
56	0xbd83ff6b	-0.064452015
57	0xbd1e8fbd	-0.0387113
58	0xbd5231ef	-0.05131715
59	0x3d17672a	0.03696362
60	0xbd94b9a3	-0.0726197
61	0xbe0ad134	-0.13556367
62	0x3da74728	0.08167869
63	0xbc7a2c26	-0.015269315
64	0x3e3e3e4e	0.18578455
65	0xbd1c26a7	-0.0381228
66	0x3d765c82	0.060146816
67	0xbd85832b	-0.06519159
68	0x3da8933c	0.08231208
69	0x3cde1045	0.027107367
70	0xbba63b9a	-0.005073023
71	0xbcd3a5a6	-0.025835823
72	0x3d4705ff	0.048589703
73	0x3e1a76e3	0.15084414
74	0x3d92f4bf	0.07175588
75	0xbdacc04b	-0.084351145
76	0xbe15d5a3	-0.14632277
77	0xbe1bd5da	-0.15218297
78	0xbdca173a	-0.09867711
79	0x3d5c4db9	0.05378506
80	0x3da715b2	0.08158435
81	0xbda4b8e4	-0.080430776
82	0x3cdeec9e	0.027212437
83	0xbc755c18	-0.01497557
84	0xb95dc7f7	-0.00021150695
85	0x3dcdfbd0	0.10057795
86	0xbc331114	-0.010929365
87	0xbcdb2055	-0.026748816
88	0x3d6b9bc1	0.057521585
89	0xbd9b8fc4	-0.075957805
90	0x3d277113	0.04087932
91	0xbac1d5b9	-0.0014788426
92	0x3cdf3345	0.027246127
93	0xbd7a5a1d	-0.061121095
94	0xbcf6e8d1	-0.030140312
95	0x3d97e65f	0.07416987
96	0x3cce78de	0.025204118
97	0x3daf1c0e	0.08550273
98	0x3dad1e13	0.08453002
99	0xbdee17cd	-0.116256334
100	0xbe716bbe	-0.23576257
101	0xbde0d08a	-0.10977276
102	0xbe1f29c0	-0.1554327
103	0xbdecbf1c	-0.11559889
104	0xbd022009	-0.031768832
105	0xbe5d7f64	-0.21630627
106	0xbcb987d7	-0.022647781
107	0x3d93610e	0.07196246
108	0xbddf9b5f	-0.109183066
109	0xbd567434	-0.052356914
110	0x3d0a1cf3	0.033719014
111	0x3d6506b2	0.05591459
112	0x3cfafd56	0.030638378
113	0x3d79ffe2	0.061035044
114	0x3d8d6692	0.06904329
115	0x3d9582a4	0.07300308
116	0x3d26bf80	0.040709972
117	0x3ccff30c	0.025384448
118	0xbcfb7d7e	-0.030699488
119	0x3c8342f3	0.016023135
120	0xbc0fb69a	-0.008771563
121	0x3cafcd5f	0.021460233
122	0xbe03e5ee	-0.1288068
123	0x3bb0bf9d	0.005393936
124	0x3d0d693a	0.03452418
125	0x3d56dd50	0.052457154
126	0xbd8b9079	-0.06814665
127	0xbd052a6a	-0.032511152
128	0x3d00f725	0.031485695
129	0x3c04d4fe	0.008107422
130	0x3d61d712	0.055136748
131	0xbd34fe4a	-0.04418782
132	0xbe48494f	-0.19559215
133	0xbcdbeb34	-0.026845552
134	0x3cd8dedd	0.026473457
135	0x3dadf80d	0.084945776
136	0x3c886903	0.016651636
137	0xbe52c3d8	-0.20582521
138	0xbc17245d	-0.009224978
139	0xbda0c72a	-0.078504875
140	0xb9ebb227	-0.00044955427
141	0x3de5ad17	0.11214655
142	0xbb410ce3	-0.0029457144
143	0x3e00aa7d	0.12565036
144	0x3dece24c	0.115666
145	0x3ca6803c	0.020324819
146	0x3da2e3af	0.079535834
147	0xbd148896	-0.03626307
148	0x3d8f2e74	0.06991282
149	0x3df79196	0.12088315
150	0x3da30915	0.07960717
151	0xbc9f8905	-0.019474516
152	0xbd86ad58	-0.065760314
153	0x3b968d4f	0.004594482
154	0xbde33202	-0.110935226
155	0x3dc47111	0.09591878
156	0x3d9eac2b	0.07747682
157	0x3ca5d484	0.020242937
158	0xbe4ee0b1	-0.202029
159	0xbda5e272	-0.08099832
160	0xbcf2da75	-0.029645184
161	0x3b0e411c	0.0021706289
162	0x3de3a016	0.11114518
163	0xbd94faf2	-0.072744265
164	0xbcded706	-0.02720214
165	0x3dce02a1	0.10059095
166	0x3d215578	0.03938815
167	0xbbf61b9b	-0.007510615
168	0xbdab1beb	-0.08354934
169	0xbd2eabf9	-0.042644475
170	0xbdabd87a	-0.08390899
171	0x3cbc1069	0.022957044
172	0xbcdcdd41	-0.02696097
173	0xbd29fb35	-0.041499335
174	0xbda160ff	-0.07879829
175	0x3cb2364b	0.021754405
176	0xbc99cb64	-0.018773742
177	0x3ccdb074	0.025108553
178	0xbd29544e	-0.041340165
179	0x3d9c250c	0.07624254
180	0xbc0b35c0	-0.008496702
181	0xbdd50299	-0.10400886
182	0x3dd6a70a	0.10481079
183	0x3d1fa307	0.038973834
184	0x3cef5090	0.02921322
185	0xbe14e21f	-0.14539383
186	0xbd719599	-0.058980558
187	0xbd27c934	-0.040963367
188	0xbbe0c36a	-0.0068592327
189	0x3da506b9	0.08057923
190	0xbc075702	-0.00826049
191	0x3c378cc4	0.011202995
192	0xbdad2c2d	-0.084556915
193	0xbd5a572c	-0.05330579
194	0x3cf9edef	0.030508963
195	0x3b6e8a0b	0.0036398198
196	0x3d4df00a	0.050277747
197	0xbc802452	-0.015642319
198	0xbb8f5463	-0.0043740734
199	0xbd8bc8db	-0.068254195
200	0x3d956b87	0.072959
201	0x3d29cda4	0.04145588
202	0x3e449841	0.19198705
203	0x3da574d0	0.08078921
204	0xbddc3520	-0.1075232
205	0x3e369beb	0.17832915
206	0x3d9e3b8b	0.07726201
207	0x3e51b6d8	0.20479906
208	0x3d9baad6	0.07600944
209	0xbdea3a89	-0.11436946
210	0x3de8c90d	0.113664724
211	0x3e1dfe69	0.15429081
212	0x3d26d4db	0.04073034
213	0x3e1fc6f5	0.1560324
214	0x3d4d8ef9	0.050185177
215	0xbce925a2	-0.028460328
216	0x3cde4c07	0.027135862
217	0x3d85f058	0.065399826
218	0x3d45b800	0.04827118
219	0xbc5eb8d0	-0.013593867
220	0xbe1207bb	-0.14260761
221	0xbdbdf127	-0.09274512
222	0xbda373f0	-0.07981098
223	0xbde98381	-0.114020355
224	0xbd3d5cb1	-0.046230976
225	0xbdcdd16d	-0.100497104
226	0xbdc91731	-0.098188765
227	0xbdcbdd37	-0.09954303
228	0xbd14b640	-0.03630662
229	0x3cd701b6	0.026245933
230	0xbe1318a5	-0.1436487
231	0xbdc14cea	-0.09438498
232	0x3d966b5f	0.07344698
233	0x3c740b63	0.014895293
234	0xbcc14b44	-0.02359546
235	0xbca769da	-0.020436216
236	0x3da5d1cf	0.080966584
237	0x3d9aac96	0.075524494
238	0xbd42a395	-0.047519285
239	0x3d58e5d7	0.052953567
240	0x3db5baa7	0.08873492
241	0x3c256f05	0.01009727
242	0x3bce71bf	0.0063001807
243	0x3ccd0afb	0.02502965
244	0xbdc3e39e	-0.09564899
245	0xbcd5baf8	-0.02609013
246	0xbc8d65ae	-0.017260399
247	0x3d4da10c	0.050202414
248	0x3c3ac3f4	0.011399258
249	0xbd5678dc	-0.052361354
250	0x3c6fcc29	0.014636078
251	0x3e5b739f	0.21430825
252	0x3dbd5dc9	0.09246404
253	0x3e765837	0.24057089
254	0x3cf84187	0.030304683
255	0x3da5dc26	0.080986306

bias f4 [16]
0	0xbb82b3b4	-0.0039887074
1	0xb94c40d5	-0.00019479108
2	0xbd01f24e	-0.03172522
3	0xbb994bbb	-0.004678217
4	0xbc3e32ae	-0.011608763
5	0xbb74c38e	-0.0037348005
6	0xbd801b9c	-0.06255266
7	0x3c3a0ef2	0.011356102
8	0xbd16366c	-0.036672994
9	0x3b49f115	0.0030813862
10	0xbcb885fc	-0.022524826
11	0x3ca6771e	0.020320471
12	0x3c4e0aa6	0.012575781
13	0xbc5e0d46	-0.013552969
14	0x3d243e7c	0.040098652
15	0xbd3fccf7	-0.04682633

weight f4 [16]
0	0x3f523a59	0.8212028
1	0x3f710c87	0.9415974
2	0x3f4ed9c3	0.8080103
3	0x3f8c2a63	1.0950435
4	0x3f5f4e7f	0.8722915
5	0x3f737a80	0.95108795
6	0x3f93ca94	1.1546197
7	0x3f83f443	1.0308918
8	0x3f7835df	0.969572
9	0x3f858300	1.0430603
10	0x3f82c6aa	1.0216877
11	0x3f88e510	1.0694904
12	0x3f8267e2	1.0187953
13	0x3f703f48	0.9384656
14	0x3f7bc712	0.9835063
15	0x3f71c85f	0.9444637

bias f4 [16]
0	0xbe3a2a3b	-0.18180172
1	0xbe8e304c	-0.27771223
2	0xbe5f800b	-0.21826188
3	0xbe10c8c0	-0.1413908
4	0xbe0d81cc	-0.13819045
5	0xbdca298e	-0.09871207
6	0xbe652332	-0.22376707
7	0xbd963ef2	-0.073362246
8	0xbe2d0ba0	-0.16898966
9	0xbda93410	-0.08261883
10	0x3d7e1e1d	0.062040437
11	0xbd8316ce	-0.06400834
12	0xbe2afaf9	-0.16697301
13	0xbdb0a4df	-0.08625197
14	0xbe01876c	-0.12649316
15	0xbeb54bd1	-0.35409406

running_mean f4 [16]
0	0xbd3532d3	-0.044237923
1	0x3bcd6c75	0.0062690326
2	0xbebc2a5f	-0.36751077
3	0xbd947db4	-0.072505385
4	0xbecc4000	-0.39892578
5	0xbea56e6e	-0.32310814
6	0xbde3d469	-0.111244984
7	0xbdff0784	-0.12452605
8	0xbe6bd4a1	-0.2303033
9	0xbd830b10	-0.063985944
10	0xbe72144f	-0.2364056
11	0xbe9d9bc9	-0.30782917
12	0xbe3fc2da	-0.18726674
13	0xbea314f5	-0.31851926
14	0xbdb0ce7f	-0.08633136
15	0x3e428c86	0.18998918

running_var f4 [16]
0	0x3e160964	0.1465202
1	0x3e157928	0.14596999
2	0x3e86e3d5	0.26345697
3	0x3de2ca50	0.11073744
4	0x3e9f7283	0.31142053
5	0x3e7e3323	0.24824195
6	0x3d929dc4	0.07158998
7	0x3e2a196b	0.16611259
8	0x3e6bcd31	0.23027493
9	0x3e4fdf25	0.20299967
10	0x3ed34cab	0.4126943
11	0x3ee42fe1	0.4456778
12	0x3e2ed0e5	0.17071874
13	0x3e6fc7ad	0.23416014
14	0x3e09c895	0.13455422
15	0x3ea34c1c	0.31894004

weight f4 [120, 16, 5, 5]
0	0xbc1ca6d9	-0.009561264
1	0x3b5e0124	0.0033875192
2	0x3db9b334	0.090673834
3	0xbd4ca5bf	-0.049962755
4	0xbdba42e9	-0.09094793
5	0x3d4d7893	0.050163817
6	0xbd45e758	-0.04831633
7	0x3c127896	0.008939883
8	0xbc3fdf6d	-0.011710984
9	0xbcd57724	-0.026057787
10	0x3ddb8171	0.10718048
11	0xbcd92b25	-0.02650983
12	0x3d81fa58	0.063465774
13	0x3cf37451	0.02971855
14	0x3ccb08e4	0.024784513
15	0x3e246ba2	0.16056684
16	0x3c633a25	0.013868843
17	0x3c30a9ae	0.010782642
18	0x3d110c4f	0.03541213
19	0x3c0d0bf1	0.008608804
20	0x3db3a5b4	0.0877184
21	0x3ce13934	0.027493097
22	0x3dbc82c0	0.09204626
23	0x3c84bf44	0.016204484
24	0x3cf9002d	0.030395592
25	0x3bcb79d4	0.0062095914
26	0xbd57a24a	-0.052645005
27	0xbb892227	-0.0041849795
28	0xbcc5d95a	-0.024151493
29	0x3d98c799	0.07459945
30	0x3db89657	0.0901305
31	0xbbbb4e8e	-0.0057161516
32	0x3d9ab28c	0.07553586
33	0x3c50cf5f	0.012744754
34	0xbce548b8	-0.027988777
35	0x3c591e66	0.013251876
36	0x3dcae807	0.09907537
37	0x3da8e7be	0.08247326
38	0x3cffb946	0.031216275
39	0xbddb2dab	-0.1070207
40	0x3d9befc3	0.0761409
41	0x3c7e7e1a	0.015532995
42	0x3d6f71a0	0.05845797
43	0xbdc26f6b	-0.094939075
44	0xbe32f09c	-0.17474598
45	0x3d331034	0.043716624
46	0x3dd55c60	0.1041801
47	0x3daf2338	0.08551639
48	0xbc4cf595	-0.012509723
49	0xbd947c99	-0.072503276
50	0x3caa53e2	0.020791952
51	0x3c4a00d3	0.012329298
52	0xbde9001a	-0.113769725
53	0xbc0bf1ee	-0.008541567
54	0x3df4a152	0.11944832
55	0xbc4a40ee	-0.012344582
56	0xbd47f7a4	-0.048820153
57	0xbd7fe30f	-0.0624724
58	0x3d7a77ea	0.061149515
59	0x3d58dc4b	0.052944463
60	0x3b3465c2	0.0027526473
61	0xbd120f79	-0.035659287
62	0x3b099753	0.0020994737
63	0x3d44dc86	0.04806187
64	0x3cc8a8ae	0.024494495
65	0x3d9b1f04	0.07574275
66	0xbd8b71fc	-0.0680885
67	0xbc7d5d97	-0.015464208
68	0xbd347bbe	-0.044063322
69	0xbd36f7ad	-0.044669796
70	0x3d673e53	0.05645592
71	0xbc8ff6f6	-0.017573815
72	0x3b4cf87d	0.003127604
73	0xbdd0d5f1	-0.10197056
74	0xbe3b46dd	-0.18288751
75	0x3d02ba77	0.031916108
76	0x3d008b77	0.031383004
77	0x3bf682d4	0.00752292
78	0x3d53fa9a	0.051752664
79	0x3d043808	0.032279998
80	0x3ced7412	0.02898601
81	0xbd6bed94	-0.05759962
82	0x3c72729f	0.014797836
83	0x3d40bc1e	0.047054403
84	0x3d416977	0.04721972
85	0xbcee1983	-0.0290649
86	0xbcf1c5a9	-0.029513197
87	0xbc6d4260	-0.014481157
88	0x3d9ba651	0.07600082
89	0xbc4dc246	-0.012558525
90	0xbd74f20d	-0.05980115
91	0xbcf06ab2	-0.029347751
92	0xbd34e8fe	-0.04416751
93	0x3c4a5e7c	0.012351628
94	0xbdaf3dc1	-0.085567005
95	0x3b8090f7	0.003923531
96	0xbdc3d8c0	-0.09562826
97	0xbdabe0a1	-0.08392454
98	0x3d812b89	0.06307132
99	0xbdde545d	-0.10855935
100	0x3d26d32b	0.04072873
101	0xbce4820a	-0.027894039
102	0xbd1d2e87	-0.03837445
103	0x3d421115	0.047379572
104	0x3e618deb	0.22026794
105	0x3bbc3a80	0.0057442784
106	0xbc7ac9d6	-0.0153069105
107	0xbcc88edd	-0.024482185
108	0x3d6fcf31	0.058547202
109	0x3dca8074	0.09887782
110	0x3c2f10d9	0.010685169
111	0x3c8628b1	0.016376825
112	0xbb5728f6	-0.003283081
113	0xbbe15c6c	-0.0068774726
114	0x3c567dbd	0.013091502
115	0x38766a6c	5.8750084e-05
116	0x3d067dc8	0.032834798
117	0xbd4a978e	-0.04946094
118	0xbd3a06ed	-0.04541676
119	0xbca43af9	-0.020047652
120	0xbd5d5216	-0.05403336
121	0xbc3b742f	-0.011441275
122	0xbdb87618	-0.090068996
123	0xbe285991	-0.16440417
124	0xbdb3e113	-0.08783164
125	0xbc9560b2	-0.018234584
126	0xbd1e6856	-0.03867372
127	0x3c6c4592	0.014420884
128	0x3d7b094f	0.061288174
129	0xbcb096a5	-0.021556208
130	0x3d19a457	0.037510242
131	0xbc897aaa	-0.016782124
132	0xbda17801	-0.07884217
133	0x3da53b3c	0.08067939
134	0x3ab3d27b	0.0013719344
135	0x3d1dbb92	0.03850896
136	0x3c1245d7	0.008927784
137	0xbd86dcb7	-0.06585067
138	0x3bd570e1	0.0065137004
139	0x3d7fb0b0	0.06242436
140	0xbbe20178	-0.0068971477
141	0xbdce1b89	-0.10063846
142	0xbbf3a8c3	-0.0074358894
143	0xbbf12918	-0.007359635
144	0xbd82c8ae	-0.06385933
145	0xbd23a409	-0.039951358
146	0xbe0d0cf6	-0.13774475
147	0xbc941709	-0.01807739
148	0x3c449eba	0.012000734
149	0x3d30da2e	0.043176822
150	0xbd9db2bd	-0.07700107
151	0x3daa72fc	0.08322713
152	0x3d40b559	0.047047947
153	0x3b4211e9	0.0029612726
154	0xbd863df8	-0.06554788
155	0xbd76c0b5	-0.060242373
156	0x3d25f269	0.040514383
157	0x3d2a59cb	0.04158954
158	0xb8a242b4	-7.7371864e-05
159	0xbda2f4e9	-0.07956869
160	0xbddff8c0	-0.10936117
161	0x3d3b8065	0.045776743
162	0x3decdfa6	0.11566095
163	0xbd24ec90	-0.040264666
164	0xbd24c8ea	-0.04023067
165	0xbc7fa2e2	-0.015602799
166	0x3cae6c0d	0.021291757
167	0x3dc39757	0.0955035
168	0xbd9bf4dc	-0.076150626
169	0x3c4760dd	0.01216909
170	0xbd357463	-0.04430045
171	0x3dab2d17	0.083582096
172	0x3dca841a	0.098884776
173	0xbcb61472	-0.022226546
174	0x3d8918a3	0.06694152
175	0x3d889b42	0.06670238
176	0x3d517350	0.05113536
177	0xbca8adfa	-0.020590771
178	0xbc7cea4c	-0.01543672
179	0x3da5dbfc	0.08098599
180	0x3d82d124	0.06387547
181	0x3cc438de	0.023952898
182	0xbd4eaaa2	-0.050455697
183	0xbbcb0c97	-0.006196569
184	0x3c980d61	0.018561067
185	0x3cd442d7	0.025910778
186	0x3dbc0950	0.09181464
187	0x3c0df86b	0.0086651845
188	0xbca4bf84	-0.020110853
189	0x3cef2130	0.02919063
190	0x3d8c01ac	0.068362564
191	0x3d174b5b	0.0369371
192	0x3c493e26	0.012282884
193	0x3d776fd3	0.06040938
194	0x3e160ae1	0.14652587
195	0xbcabb0b9	-0.020958291
196	0x3c36a0d7	0.011146746
197	0x3d921c2d	0.0713428
198	0x3d9ef1d6	0.0776097
199	0x3d9bf035	0.07614175
200	0xbd837bb7	-0.06420081
201	0xbba8462a	-0.0051353173
202	0x3df27b68	0.11839944
203	0x3d688458	0.056766838
204	0x3dcb2007	0.09918218
205	0x3d1630cb	0.036667626
206	0xbd25612d	-0.040375877
207	0xbbe96009	-0.007122044
208	0x3e10bef6	0.14135346
209	0xbd913c89	-0.07091624
210	0x3da2d110	0.07950032
211	0xbe07cf82	-0.13262752
212	0x3d851896	0.0649883
213	0x3d711544	0.05885817
214	0xbc074b83	-0.0082577495
215	0x3daaec36	0.08345835
216	0xbd3ab28c	-0.04558043
217	0x3d06f2ed	0.032946516
218	0xbb603671	-0.0034212137
219	0xbc6173d0	-0.013760522
220	0x38171503	3.6020774e-05
221	0xbd9920ee	-0.07476984
222	0x3b92b3fd	0.0044770227
223	0x3cb9ef15	0.022697011
224	0xbcfa38b1	-0.03054461
225	0x3d498d58	0.04920706
226	0xbc8d8e07	-0.017279638
227	0xbdb99777	-0.09062093
228	0xbd913faf	-0.07092225
229	0x3da84282	0.0821581
230	0x3deb060e	0.11475764
231	0xbc52ec2d	-0.0128736915
232	0xbc2a95ec	-0.010411721
233	0xbd7296cf	-0.059225854
234	0xbd0fff9d	-0.03515588
235	0x3db12104	0.08648875
236	0xbd0686b3	-0.032843303
237	0xbd2211cd	-0.039567757
238	0xbdf82749	-0.12116868
239	0xbd403927	-0.046929505
240	0x3cd430a3	0.025902098
241	0x3d772752	0.060340233
242	0xbc5899ea	-0.01322029
243	0xbe04b143	-0.12958245
244	0xbd29c181	-0.041444305
245	0x3d91044c	0.07080898
246	0x3d8500d6	0.064943
247	0x3d38d4c1	0.045124773
248	0xbdc20554	-0.094736725
249	0x3c9bf600	0.0190382
250	0x3c646068	0.013939001
251	0x3c414b4d	0.011797738
252	0x3dee1ea4	0.11626938
253	0x3bbe2ab9	0.005803433
254	0x3cdd013a	0.026978124
255	0xbd3673d6	-0.044544064

bias f4 [120]
0	0x3bd83680	0.006598294
1	0x393a6abf	0.00017778108
2	0xbb9bdc09	-0.004756455
3	0xbc16d88f	-0.009206905
4	0x3a6f3647	0.00091252144
5	0x3ab4ea6b	0.0013802772
6	0xbc07fea4	-0.008300457
7	0x3be5d51b	0.0070139295
8	0xbadc1cf4	-0.0016793297
9	0x3b74f49b	0.0037377242
10	0xbc0a9494	-0.008458275
11	0x3b7f0e21	0.0038918334
12	0xbc38edfa	-0.011287207
13	0x3bfb54a8	0.007670004
14	0x3a69be9a	0.00089166465
15	0x3bb22c99	0.0054374454
16	0xba60751b	-0.0008562372
17	0xbbcc4d05	-0.0062347674
18	0x3aadfd70	0.0013274383
19	0x3a714420	0.0009203572
20	0xbc401d75	-0.011725773
21	0xbbac3199	-0.005254936
22	0x3c5eda82	0.013601901
23	0x3c08321d	0.008312729
24	0x39cf4a42	0.00039537443
25	0x3af2879d	0.0018503551
26	0x3b7d87be	0.0038685645
27	0x3b0a2070	0.0021076463
28	0x3a9ddd74	0.0012044148
29	0xbc725afe	-0.014792202
30	0xbbfd0689	-0.0077217263
31	0xbc130eee	-0.0089757275
32	0x3b885776	0.004160817
33	0x3bec069d	0.007202937
34	0xbbc480e0	-0.0059968084
35	0xbb9091b3	-0.0044119
36	0xbc034585	-0.00801218
37	0x3a126d59	0.0005585752
38	0xbb95886f	-0.0045633833
39	0x3b34b7c5	0.0027575355
40	0x3ba32b4a	0.0049795257
41	0x3c0aa8a1	0.008463056
42	0x3ba185e6	0.004929292
43	0xbb429b29	-0.0029694533
44	0xbaf45c10	-0.001864316
45	0x3b8ff97d	0.004393755
46	0x3c41b93d	0.011823949
47	0xbbbaad6b	-0.0056969426
48	0xb9041387	-0.00012595775
49	0x3c1ca9a0	0.009561926
50	0x3b096d45	0.002096967
51	0x39be282e	0.0003626956
52	0xbabf9794	-0.0014617317
53	0xbc0d9e28	-0.008643664
54	0xbaec8ad9	-0.0018046751
55	0x396378a9	0.00021693356
56	0x3a0b6b89	0.0005318453
57	0xbca68ca6	-0.020330738
58	0xbbe0452c	-0.0068441834
59	0xb83a876f	-4.4471988e-05
60	0xbb8c9610	-0.00429035
61	0xbabe0c24	-0.0014499468
62	0xbb86804e	-0.0041046506
63	0xbab4768e	-0.0013768242
64	0xbbedb49c	-0.0072541963
65	0x3c0333fb	0.008007999
66	0xbbe3bb3f	-0.0069498117
67	0xbc8f9c97	-0.017530723
68	0xbc119b84	-0.0088871755
69	0xbbaba48b	-0.005238121
70	0xb9ea0cd9	-0.0004464153
71	0xbbe8519d	-0.007089807
72	0x3c6ea5fb	0.01456594
73	0x3c147cfc	0.009063002
74	0xba0618ca	-0.0005115388
75	0x3a9785ce	0.0011560263
76	0xbb140a00	-0.0022588968
77	0x3be56b8a	0.007001345
78	0xbad0d482	-0.0015932473
79	0x392fbfaf	0.00016760708
80	0xbb7582f1	-0.003746208
81	0xbb10357c	-0.0022004535
82	0x3aa4a5fc	0.0012561674
83	0xbb197597	-0.0023416036
84	0x3ba6b4e3	0.0050874813
85	0xbbf06371	-0.007336073
86	0xbb7d482a	-0.003864775
87	0xbbbd55c6	-0.0057780473
88	0xbac68949	-0.0015147115
89	0xb9543c0f	-0.00020240269
90	0xba950203	-0.0011368397
91	0xbc09f724	-0.008420739
92	0x3c97060f	0.018435506
93	0x3bab6351	0.0052303453
94	0xbb8e8f7c	-0.0043506008
95	0xbb36a439	-0.002786888
96	0x3a3358fc	0.0006841568
97	0x3b9aa509	0.0047193808
98	0xba092fc9	-0.0005233256
99	0x3a36871f	0.00069628836
100	0xbc2c49ec	-0.010515671
101	0xbb59ba35	-0.003322256
102	0xb914b43e	-0.00014181525
103	0x3c8ebe0c	0.017424606
104	0xbb4f54f5	-0.0031636332
105	0xbb953d38	-0.004554417
106	0x3c39bdbd	0.011336741
107	0xbb5476dc	-0.0032419479
108	0xbb1169df	-0.0022188348
109	0x3baf24c0	0.005344957
110	0xbc900896	-0.01758222
111	0xba7b184d	-0.0009578511
112	0xbbfe4455	-0.0077596107
113	0xb9919785	-0.00027769446
114	0x3b602e3b	0.0034207243
115	0xbae40a02	-0.0017398002
116	0x3b875657	0.0041301656
117	0xbc03ab23	-0.008036408
118	0xbaf72fdb	-0.0018858867
119	0xbc4e43a4	-0.012589369

weight f4 [120]
0	0x3f842560	1.0323906
1	0x3f81111e	1.0083349
2	0x3f859e1a	1.0438874
3	0x3f884748	1.0646753
4	0x3f8972f0	1.0738201
5	0x3f901734	1.1257081
6	0x3f79da61	0.97598845
7	0x3f87f67d	1.0622097
8	0x3f8aebae	1.0853174
9	0x3f855e2c	1.0419364
10	0x3f7ddac8	0.9916196
11	0x3f872b5f	1.0560111
12	0x3f80ca36	1.006171
13	0x3f7c184a	0.9847456
14	0x3f821adf	1.016445
15	0x3f812b96	1.0091426
16	0x3f786c5c	0.97040343
17	0x3f86db18	1.0535612
18	0x3f86ef49	1.0541774
19	0x3f8c3612	1.0954001
20	0x3f872e5f	1.0561026
21	0x3f7c916e	0.9865941
22	0x3f8a6541	1.081215
23	0x3f95e586	1.171067
24	0x3f87df8f	1.06151
25	0x3f8853ae	1.0650537
26	0x3f8c759a	1.0973389
27	0x3f89b175	1.075728
28	0x3f8a9921	1.0827981
29	0x3f83b1e5	1.0288664
30	0x3f85f114	1.0464196
31	0x3f8e116f	1.109907
32	0x3f8b15e2	1.0866053
33	0x3f817afe	1.0115659
34	0x3f7b5b19	0.9818588
35	0x3f8f14ea	1.1178257
36	0x3f8b49e8	1.0881929
37	0x3f912181	1.133835
38	0x3f8853eb	1.065061
39	0x3f8b43e1	1.088009
40	0x3f83055f	1.0236014
41	0x3f8ce467	1.1007203
42	0x3fa09c10	1.2547626
43	0x3f82be14	1.0214257
44	0x3f89ab16	1.0755336
45	0x3f77f3ea	0.9685656
46	0x3f8c939e	1.0982549
47	0x3f91d2ed	1.1392494
48	0x3f726609	0.94686943
49	0x3f8d071f	1.1017798
50	0x3f8786b2	1.0587981
51	0x3f856c45	1.0423666
52	0x3f893f55	1.0722452
53	0x3f83bb4f	1.0291537
54	0x3f800a98	1.0003233
55	0x3f8216b8	1.0163183
56	0x3f855d2e	1.0419061
57	0x3f8538be	1.0407941
58	0x3f7ced52	0.9879962
59	0x3f803cac	1.0018516
60	0x3f8313fb	1.0240473
61	0x3f829118	1.0200529
62	0x3f845a7d	1.0340115
63	0x3f8d5eb6	1.1044528
64	0x3f7067b2	0.93908226
65	0x3f84ca7b	1.0374292
66	0x3f814c52	1.0101416
67	0x3f863b1f	1.0486792
68	0x3f7cb256	0.9870962
69	0x3f82fb8d	1.0233017
70	0x3f87700b	1.0581068
71	0x3f85739d	1.0425907
72	0x3f8000c2	1.0000231
73	0x3f8cd178	1.1001425
74	0x3f80166a	1.000684
75	0x3f8acf32	1.0844481
76	0x3f8dd4c4	1.1080556
77	0x3f870c42	1.0550616
78	0x3f86f679	1.0543967
79	0x3f7b4942	0.9815866
80	0x3f815f0d	1.0107132
81	0x3f7e391f	0.9930591
82	0x3f7e3b02	0.9930879
83	0x3f7caf15	0.98704654
84	0x3f6da8bf	0.9283561
85	0x3f890679	1.07051
86	0x3f833b59	1.0252486
87	0x3f86f916	1.0544765
88	0x3f87f201	1.0620729
89	0x3f8735d3	1.0563301
90	0x3f814c1e	1.0101354
91	0x3f88129f	1.0630683
92	0x3f868973	1.0510696
93	0x3f84a21a	1.036197
94	0x3f87a0f7	1.0595998
95	0x3f8a9fb8	1.0829992
96	0x3f82c910	1.021761
97	0x3f83ecab	1.03066
98	0x3f87ffd8	1.0624952
99	0x3f874b24	1.0569806
100	0x3f89b4f3	1.0758346
101	0x3f8d3184	1.1030736
102	0x3f88e0cd	1.0693604
103	0x3f84e6ff	1.0382994
104	0x3f781e30	0.9692106
105	0x3f8cb897	1.0993832
106	0x3f7f30a6	0.99683607
107	0x3f8586c3	1.0431751
108	0x3f7fabb5	0.9987138
109	0x3f81817f	1.0117644
110	0x3f85e8ef	1.0461711
111	0x3f7f6f63	0.9977934
112	0x3f848dfa	1.0355828
113	0x3f83a11a	1.0283539
114	0x3f87ab37	1.0599126
115	0x3f7f4b91	0.9972468
116	0x3f8f8e48	1.1215296
117	0x3f883b78	1.0643148
118	0x3f800f7d	1.0004727
119	0x3f81d08c	1.0141768

bias f4 [120]
0	0x3d6e0fed	0.058120657
1	0xbd182a3f	-0.037149664
2	0xbd661774	-0.05617471
3	0xbc21a612	-0.009866254
4	0x3d70d0b7	0.058792796
5	0xbc1f3453	-0.009717065
6	0x3bd2ddbd	0.0064351247
7	0xbc7b16cf	-0.015325262
8	0xbc5cc0ac	-0.013473671
9	0x3d0b259b	0.03397141
10	0xbda823be	-0.08209942
11	0xbd4c4ae5	-0.049876112
12	0xbce4c8b2	-0.02792773
13	0x3b2aedc1	0.0026081654
14	0xbdc86af4	-0.09786025
15	0xbd278ae7	-0.040903952
16	0xbbebe789	-0.007199232
17	0xbc26c360	-0.010178417
18	0xbc1d7417	-0.0096101975
19	0xbc0b5560	-0.008504242
20	0xbc25b75d	-0.010114518
21	0xbc9249d3	-0.017857468
22	0xbd18e090	-0.037323534
23	0x3d8401dc	0.06445667
24	0x3982e0e3	0.00024963086
25	0xbdaeafd5	-0.08529631
26	0x3da407ef	0.08009326
27	0xbc764cd3	-0.015032965
28	0x3ccf8788	0.025333181
29	0x3c3551af	0.011066838
30	0xbd12a2e9	-0.035799894
31	0xbc3aa07e	-0.011390803
32	0x3ceb4b83	0.02872253
33	0x3d3df144	0.046372667
34	0xbbc7cfb3	-0.0060977577
35	0xbda6b019	-0.08139057
36	0xbd80023c	-0.06250426
37	0xbd009640	-0.03139329
38	0x3c8749fc	0.01651477
39	0x3d276dff	0.040876385
40	0x3ca3bf63	0.019988721
41	0x3b031303	0.0020000346
42	0x3de68cbb	0.11257311
43	0x3c0cac0f	0.008585944
44	0x3d11ba1b	0.035577875
45	0xbde39a4d	-0.11113415
46	0x3d0ef14b	0.034898084
47	0x3ce865c8	0.028368846
48	0xbdb619e4	-0.08891657
49	0x3cfd4cb1	0.030920358
50	0xbca6b92b	-0.020351967
51	0xbd063e7f	-0.032774445
52	0xbce79adb	-0.028272083
53	0x3d762b85	0.060100097
54	0x3d1a84a7	0.037724163
55	0xbc20170d	-0.009771121
56	0x3c67d686	0.0141502675
57	0xbcbb830a	-0.022889633
58	0xbc824649	-0.015902655
59	0x3ca98cb1	0.02069697
60	0x3d277d66	0.040891074
61	0xbd18c477	-0.03729674
62	0x3d717544	0.058949724
63	0xbd3fceab	-0.046827953
64	0xbdb45b47	-0.08806472
65	0xbb0452a6	-0.0020190864
66	0xbc6e64b3	-0.014550376
67	0xbda7c59e	-0.08191989
68	0xbd0d0423	-0.034427773
69	0x3d99b837	0.07505839
70	0x3c9d7e69	0.019225316
71	0xbcfcfd45	-0.030882487
72	0xbd017bc8	-0.031612188
73	0xbcc11269	-0.023568349
74	0xbdd3f47f	-0.10349368
75	0x3b88a816	0.004170428
76	0x3cecac57	0.028890772
77	0xbb83ec66	-0.0040259836
78	0xbc3e0e3f	-0.011600076
79	0xbd49357c	-0.049123272
80	0xbdd11724	-0.10209492
81	0xbd11da0c	-0.035608336
82	0xbd0b8267	-0.03405991
83	0xbc8afae5	-0.016965339
84	0xbd958055	-0.07299868
85	0x3b8e5288	0.0043433346
86	0x3c8c743c	0.017145269
87	0x3d54cbf7	0.05195233
88	0xbd883833	-0.06651344
89	0xbc163aa9	-0.009169259
90	0xbccbc114	-0.02487234
91	0x3cf57492	0.029962812
92	0x3caf5313	0.021401918
93	0xbd768c24	-0.060192242
94	0x3d946f47	0.07247787
95	0x3c2a847a	0.010407561
96	0x3d39138b	0.045184653
97	0x3cb2b6b5	0.021815637
98	0xbda7e0a7	-0.08197146
99	0xbcffaf54	-0.031211533
100	0xbca3242e	-0.019914713
101	0x3b9cb2cd	0.004782057
102	0xbb24a8fd	-0.002512514
103	0xbbb7351d	-0.0055910484
104	0x3bacbe93	0.0052717417
105	0x3d18e5b3	0.037328433
106	0xbd05754c	-0.032582566
107	0x3dc87e82	0.097897545
108	0xbe092c72	-0.13395861
109	0x3c0d5a5d	0.008627501
110	0x3d30f7fb	0.043205243
111	0x3cd50961	0.026005449
112	0x3d0ed9d9	0.034875724
113	0xbccb5a0e	-0.024823215
114	0x3c61712b	0.0137598915
115	0xbccef1db	-0.02526181
116	0x3da47f04	0.08032039
117	0x3d1bfbfc	0.038082108
118	0xb9799ada	-0.00023804177
119	0xbd92bf7e	-0.071654305

running_mean f4 [120]
0	0x3f08a970	0.5338354
1	0x3d537535	0.05162545
2	0xbf94166c	-1.1569343
3	0xbf922cff	-1.1419982
4	0x3ef4e724	0.47832596
5	0xbefaaf1b	-0.4896172
6	0xbd8e3273	-0.06943216
7	0x3edaa31a	0.42702562
8	0x3ea416f7	0.3204877
9	0xbf61ad7d	-0.8815535
10	0x3f4364c3	0.76325625
11	0xbf37a840	-0.71741104
12	0xbf926530	-1.143713
13	0xbfc50eee	-1.5395181
14	0x3e0f1cb0	0.13975787
15	0x3f33e815	0.70276004
16	0x3f3485b0	0.7051649
17	0xbdfe8f06	-0.12429623
18	0x3f96e1de	1.1787679
19	0x3db39c4f	0.08770048
20	0xbfb19aa1	-1.3875314
21	0xbf27b658	-0.6551261
22	0x3ec7ce2d	0.39024487
23	0xbf21eb45	-0.6324962
24	0xbf8a1e13	-1.0790428
25	0x40122613	2.2835739
26	0xbe9fdd25	-0.31223407
27	0xbdbddc28	-0.09270507
28	0x3f5fc5a6	0.8741096
29	0x3ec77330	0.3895507
30	0x3f94a5a5	1.1613051
31	0x3e608c00	0.21928406
32	0x3cbc627b	0.022996178
33	0x3f2226bc	0.63340354
34	0xbf7322ca	-0.9497496
35	0xbf7f8fdc	-0.99828887
36	0xbf0d7f1a	-0.55272067
37	0x3dcd2277	0.10016339
38	0xbf48a50c	-0.7837684
39	0x3efeaaaf	0.49739596
40	0xbf967690	-1.1754932
41	0xbfc8a84d	-1.5676361
42	0x3e408d3a	0.18803874
43	0x3c47b551	0.012189225
44	0x3e9cd36e	0.30630058
45	0xbeee7553	-0.46573886
46	0x3cc28c9e	0.023748692
47	0xbeef21b9	-0.46705416
48	0x3f9b4aad	1.2132164
49	0x3e8702c7	0.26369306
50	0x3e91225e	0.28346533
51	0xbf8cd604	-1.1002812
52	0xbf3433a4	-0.703913
53	0x3d35420f	0.04425245
54	0xbe9d11d1	-0.30677655
55	0xbf8e7a40	-1.1131058
56	0x3f8d01d3	1.1016182
57	0xbf98dadd	-1.1941792
58	0xbf12e03f	-0.5737342
59	0x3eabbfc5	0.33544746
60	0xbf16d089	-0.5891195
61	0x3f744538	0.9541812
62	0xbf1f1433	-0.62140197
63	0x3f475226	0.77859724
64	0x3f97c118	1.1855803
65	0xbfaa7772	-1.3317702
66	0xbece0685	-0.4023935
67	0xbf758069	-0.95899063
68	0xbfe36d9a	-1.7767823
69	0xbf34dd15	-0.70649844
70	0x3eeca725	0.4622127
71	0x3f8f5075	1.1196429
72	0x3fad8279	1.3555442
73	0xbe7abdd2	-0.24486473
74	0x3e822ef3	0.25426444
75	0xbf61c28e	-0.8818749
76	0x3e4845fc	0.19557947
77	0xbf816504	-1.0108953
78	0xbf595384	-0.8489306
79	0x3fa771a9	1.3081561
80	0xbd98aaa1	-0.0745442
81	0xbf72825a	-0.9473015
82	0xbeb8baa8	-0.36079907
83	0x3f964702	1.174042
84	0x3f0026e1	0.50059325
85	0xbd76e933	-0.06028099
86	0x3daa0c3b	0.08303114
87	0xbef835af	-0.48478457
88	0x3eaa3b77	0.33248493
89	0xbf959d02	-1.168854
90	0xbe1e4ec0	-0.15459728
91	0xbf443f8f	-0.7665948
92	0xbf732aa5	-0.94986945
93	0xbf8c4404	-1.0958257
94	0x3f1f06c7	0.62119716
95	0x3f106dec	0.5641773
96	0x3f0f9de4	0.56100297
97	0xbef8e58d	-0.48612633
98	0xbe926d5b	-0.28599057
99	0xbea85b36	-0.32882088
100	0x3cef78f0	0.029232472
101	0x3edcebe7	0.4314873
102	0xbbd53408	-0.0065064467
103	0xbf5cf816	-0.8631605
104	0xbd7746ef	-0.060370382
105	0x3e712156	0.23547873
106	0x3f8fdcde	1.1239278
107	0x3e1cc6bf	0.1531019
108	0x3e63a740	0.2223177
109	0x3d967129	0.07345802
110	0xbff0d64a	-1.8815396
111	0xbf6b1036	-0.9182161
112	0x3dc13405	0.0943375
113	0x3d7a36e5	0.061087508
114	0xbf6f07db	-0.9337136
115	0x3eab2aac	0.33430994
116	0x3e9ca662	0.3059569
117	0x3e2aa129	0.1666304
118	0x3ca0d5cd	0.019633198
119	0x3effa9b2	0.49934155

running_var f4 [120]
0	0x3f602901	0.87562567
1	0x3f0e4190	0.5556879
2	0x3f4a18a8	0.7894387
3	0x3f3961cd	0.7241486
4	0x3eb3250f	0.3498921
5	0x3f6de88f	0.9293298
6	0x3ef46a11	0.47737172
7	0x3f036cc2	0.51337826
8	0x3f4fbf03	0.81150836
9	0x3f71437c	0.942436
10	0x3f144045	0.5791057
11	0x3f5ef2ca	0.87089217
12	0x3edc9efc	0.43090045
13	0x3f30f27f	0.6912002
14	0x3f1c33a7	0.61016315
15	0x3f6e3e87	0.9306416
16	0x3f6f8a94	0.9357083
17	0x3ee0104b	0.4376243
18	0x3f1fe108	0.62452745
19	0x3f06407f	0.52442163
20	0x3f48ff99	0.7851501
21	0x3efd24ca	0.4944213
22	0x3f06126a	0.5237185
23	0x3f31042e	0.69147
24	0x3f126c8a	0.5719687
25	0x3f2b847e	0.6699904
26	0x3f3466e0	0.70469475
27	0x3f0cea0a	0.55044615
28	0x3f08ebba	0.5348469
29	0x3f1bfbb8	0.6093097
30	0x3f441e71	0.7660895
31	0x3f5bc0fe	0.8584136
32	0x3f3e674d	0.74376374
33	0x3f554444	0.8330729
34	0x3f028c7e	0.50995624
35	0x3f1f16ae	0.6214398
36	0x3ed4732c	0.4149412
37	0x3f5ce0c0	0.8628044
38	0x3f548253	0.8301136
39	0x3f585932	0.845111
40	0x3eda1285	0.42592254
41	0x3f58ad7c	0.84639716
42	0x3f570f69	0.8400789
43	0x3ec3c4cb	0.3823608
44	0x3ef7f571	0.48429444
45	0x3f7b21fe	0.9809874
46	0x3ed58ef2	0.4171062
47	0x3f56b6e1	0.838728
48	0x3ed7b2d0	0.4212861
49	0x3f18017b	0.5937726
50	0x3ede1c59	0.43381003
51	0x3f11fce4	0.57026505
52	0x3f1c880b	0.61145085
53	0x3ed1d198	0.4098022
54	0x3f0376aa	0.5135294
55	0x3f64c8c1	0.89368826
56	0x3f092807	0.535767
57	0x3f47b028	0.7800317
58	0x3f4c7d89	0.7987905
59	0x3f650ea0	0.8947544
60	0x3f8b3c72	1.0877821
61	0x3f5b0398	0.8555236
62	0x3f69152b	0.91047925
63	0x3f436ed7	0.76341003
64	0x3f4d996a	0.80312216
65	0x3f5ebf37	0.8701052
66	0x3f1f4a12	0.622224
67	0x3f421d71	0.75826174
68	0x3f2109e3	0.6290571
69	0x3f0bc63b	0.5459935
70	0x3f6fb3d6	0.9363378
71	0x3f00e721	0.50352675
72	0x3f02abe8	0.5104356
73	0x3f3f1b41	0.7465096
74	0x3f7f2efd	0.99681073
75	0x3fb29521	1.395176
76	0x3f48665c	0.7828119
77	0x3ed1f3ec	0.4100641
78	0x3ec9e499	0.3943222
79	0x3f32cd0f	0.69844145
80	0x3f33fb59	0.703054
81	0x3f139e05	0.57662994
82	0x3eafa225	0.34303394
83	0x3f5ead77	0.86983436
84	0x3ee6026c	0.44923723
85	0x3f1aa859	0.6041313
86	0x3edde19b	0.43336186
87	0x3f1f47cb	0.6221892
88	0x3f0301b7	0.5117449
89	0x3fa3e0ce	1.280298
90	0x3f071c7a	0.52777827
91	0x3f641005	0.89086944
92	0x3f039716	0.51402414
93	0x3f374260	0.71585655
94	0x3f374666	0.71591794
95	0x3f2f9123	0.68580836
96	0x3f10c553	0.5655109
97	0x3f209412	0.6272594
98	0x3f1dacc5	0.6159175
99	0x3f08e846	0.5347942
100	0x3f128223	0.5722982
101	0x3f69044f	0.910222
102	0x3f1c99bc	0.6117208
103	0x3f0d5f5e	0.55223644
104	0x3f5fcb0c	0.874192
105	0x3f093c66	0.53607786
106	0x3f7fc964	0.9991667
107	0x3f5e415a	0.8681847
108	0x3f9923b6	1.1964023
109	0x3f78e86a	0.97229636
110	0x3eeadaec	0.4587015
111	0x3ed93709	0.424248
112	0x3f26f1a5	0.6521247
113	0x3f00a4c2	0.502514
114	0x3f0e6363	0.556204
115	0x3f7dcbdc	0.9913919
116	0x3edc845d	0.43069735
117	0x3f2d498b	0.6769034
118	0x3f33a803	0.7017824
119	0x3f0918d0	0.53553486

weight f4 [84, 120]
0	0x3e797a95	0.24363168
1	0x3de7d157	0.11319225
2	0x3cbf96d1	0.023387345
3	0xbe0db778	-0.13839519
4	0x3e174568	0.1477257
5	0x3d932b06	0.071859404
6	0xbd5f8c22	-0.054577
7	0xbe1f55b9	-0.15560044
8	0x3cf190f7	0.02948807
9	0xbde721e6	-0.112857625
10	0x3de36f85	0.11105255
11	0xbe1bdd44	-0.15221125
12	0x3beb1b7a	0.0071749063
13	0xbe3fffec	-0.1874997
14	0xbad7daf5	-0.0016468453
15	0xbe11bbb0	-0.14231753
16	0xbe32b8bc	-0.17453283
17	0x3db81221	0.08987833
18	0xbe366e7b	-0.17815582
19	0x3d034adc	0.032053813
20	0xbd1e82f6	-0.038699113
21	0xbcb0836c	-0.021547042
22	0x3d56d639	0.052450392
23	0xbe28cb4c	-0.16483802
24	0x3da469e4	0.080280095
25	0x3b860c33	0.0040908097
26	0x3e48019d	0.19531865
27	0x3d8e1467	0.06937485
28	0x3e77a127	0.24182568
29	0xbcbe771c	-0.023250155
30	0xbdfd54c4	-0.123696834
31	0xbd3c1032	-0.045913883
32	0x3c8635a8	0.016383007
33	0xbd20d7d4	-0.03926833
34	0xbc8527a3	-0.016254252
35	0xbe88e6d0	-0.26738596
36	0x3e3c43a7	0.18385182
37	0xbd8a73c6	-0.06760363
38	0x3d0d1e23	0.03445257
39	0xbdd90771	-0.105971225
40	0x3c0a8c81	0.00845635
41	0xbe69c374	-0.22828466
42	0x3b04a3de	0.0020239274
43	0xbe0ab12b	-0.13544147
44	0xbe12cda3	-0.14336257
45	0xbd6faa4e	-0.058512025
46	0x3e4475a3	0.191855
47	0xbd8e0d57	-0.06936138
48	0x3e31ae84	0.17351729
49	0xbda4aa15	-0.08040253
50	0xbd491591	-0.049092833
51	0x3e0fc5d1	0.14040305
52	0xbe45659d	-0.19277044
53	0x3dc39132	0.09549178
54	0x3e22ff73	0.15917759
55	0x3dcdb9fe	0.10045241
56	0xbb3926cb	-0.0028251882
57	0xbd716a4f	-0.058939274
58	0x3d0e0e35	0.034681518
59	0x3d3a4cdb	0.04548345
60	0x3d7fa799	0.062415693
61	0x3dddcd6f	0.10830199
62	0x3dad7502	0.08469583
63	0x3dd7b517	0.10532587
64	0x3e16961d	0.14705701
65	0x3c01a628	0.00791315
66	0xbd63150f	-0.055440005
67	0x3dad125b	0.08450767
68	0xbd285d1e	-0.04110443
69	0x3d7237e1	0.05913532
70	0x3d89aaef	0.06722056
71	0xbdd4a332	-0.103826895
72	0xbe1a499c	-0.15067142
73	0xbd9b06fe	-0.07569693
74	0xbdf50154	-0.11963144
75	0xbde19762	-0.11015202
76	0xbd9bf000	-0.07614136
77	0xbd335a48	-0.04378727
78	0xbd032493	-0.0320173
79	0x3dbac662	0.0911987
80	0x3e224cf4	0.15849668
81	0xbe1e3ddb	-0.15453283
82	0x3a4beeed	0.0007779438
83	0x383ad323	4.4542492e-05
84	0xbe1f3cc1	-0.1555052
85	0xbe5d9c5a	-0.21641675
86	0xbe160ce8	-0.14653361
87	0xbbbd2702	-0.0057724724
88	0x3de85eef	0.11346232
89	0x3e266257	0.16248451
90	0xbcb706fb	-0.022342196
91	0xbaea01ba	-0.0017853298
92	0xbdaebaf1	-0.0853175
93	0x3e09510d	0.13409825
94	0x3e15294c	0.14566535
95	0x3dc68ee5	0.09695224
96	0xbc92126d	-0.017831052
97	0xbd1f006e	-0.03881877
98	0xbda1d664	-0.0790222
99	0xbd63816f	-0.05554336
100	0x3e8f4e76	0.27989548
101	0xbe26842b	-0.16261356
102	0x3e0b6b24	0.1361509
103	0x3e6fa290	0.23401856
104	0x3dd3d51a	0.1034338
105	0x3e6a4c03	0.22880559
106	0x3c781fad	0.015144271
107	0x3e617614	0.220177
108	0x3da6ff2a	0.081541374
109	0x3d9e60c7	0.077333026
110	0xbccc71a4	-0.024956532
111	0xbd857b03	-0.06517603
112	0x3dedec60	0.116173506
113	0xbd6733eb	-0.056445997
114	0x3e3c2118	0.18372
115	0xbe1d6085	-0.1536885
116	0x3e1d6218	0.15369451
117	0x3e21440d	0.15748616
118	0x3df36a0d	0.11885462
119	0x3e1a0e0b	0.1504442
120	0x3e1b33b0	0.15156436
121	0xbdd52a2c	-0.10408434
122	0xbe78f10e	-0.24310705
123	0xbe091c55	-0.13389714
124	0x3e1eaecf	0.15496372
125	0x3e746900	0.2386818
126	0xbe1d8ac4	-0.15384966
127	0x3e4a4829	0.1975409
128	0x3e15f36a	0.14643636
129	0xbe2dbabf	-0.16965769
130	0xbe2176af	-0.1576793
131	0xbe44c6cc	-0.1921646
132	0xbe3d2f90	-0.18475175
133	0x3cdb40ae	0.02676424
134	0xbe069418	-0.13142431
135	0xbc418c1b	-0.011813189
136	0x3da5767d	0.080792405
137	0x3d9a5626	0.07535963
138	0xbe7e4c9e	-0.24833915
139	0x3e1da1a0	0.15393686
140	0x3c40c9bf	0.01176685
141	0x3d630e39	0.055433486
142	0xbdadc12c	-0.0848411
143	0x3c82d08a	0.01596858
144	0xbdb3d4a9	-0.08780796
145	0x3e25f729	0.16207565
146	0xbd056111	-0.032563273
147	0xbe51c516	-0.20485339
148	0xbe71c7ee	-0.23611423
149	0x3e0c13f5	0.13679488
150	0xbe4e4aaa	-0.2014567
151	0x3d58535a	0.052813865
152	0x3dc4b0e4	0.09604052
153	0x3de991f1	0.11404789
154	0xbdad8fef	-0.08474719
155	0x3e8785b2	0.2646919
156	0x3e10a36a	0.14124838
157	0x3d67acaa	0.05656115
158	0xbe73d82d	-0.23812933
159	0x3db5ccd1	0.08876956
160	0xbdc289c9	-0.09498937
161	0xbe1d90b5	-0.15387233
162	0xbe8054f3	-0.2506481
163	0x3db6e4fc	0.08930394
164	0x3db2cb55	0.08730189
165	0xbdae458b	-0.08509358
166	0xbe24ac59	-0.1608137
167	0x3d961c70	0.07329643
168	0x3bed9fa4	0.0072516967
169	0x3e0248f9	0.1272315
170	0xbd2fad25	-0.042889733
171	0x3e73571d	0.237637
172	0xbe80c047	-0.25146696
173	0x3ded1d72	0.11577882
174	0xbd3de856	-0.04636415
175	0x3dacde75	0.08440868
176	0xbe2734ce	-0.16328737
177	0xbe015f36	-0.12633976
178	0xbd6e0265	-0.058107752
179	0xbe3cb3c8	-0.18427956
180	0xbdda30d7	-0.10653847
181	0x3dfbef72	0.1230153
182	0x3b38c84d	0.002819556
183	0x3def656d	0.11689267
184	0xbd704d3d	-0.05866741
185	0xbe43ddb8	-0.19127548
186	0x3df8fc48	0.12157494
187	0xbe800d2f	-0.25010058
188	0xbd28b891	-0.04119164
189	0x3d33f650	0.043936074
190	0xbe2e67a6	-0.17031726
191	0x3cd1b004	0.025596626
192	0x3e03d9a6	0.12875995
193	0xbd3223d9	-0.04349122
194	0xbe64f7c9	-0.22360148
195	0xbe41ff7e	-0.18945119
196	0xbc23cf94	-0.009998221
197	0xbe5c589e	-0.2151818
198	0xbe2c8e36	-0.16851124
199	0x3e2499b6	0.16074261
200	0x3e1aa9db	0.15103857
201	0xbd9ad213	-0.075596
202	0xbe04b310	-0.12958932
203	0x3d907622	0.07053782
204	0xbdc800e2	-0.097657934
205	0x3e2ce852	0.16885498
206	0x3af8be68	0.0018977644
207	0x3dc3b24d	0.095554926
208	0xbe451e52	-0.19249848
209	0xbea5e077	-0.32397816
210	0x3d39e4fa	0.045384385
211	0xbe79cad6	-0.24393782
212	0x3dc65aaa	0.096852615
213	0x3bf586fe	0.007492899
214	0x3d79d6b3	0.06099577
215	0x3e73cbd7	0.23808227
216	0xbda94997	-0.08265989
217	0xbdc1a33c	-0.094549626
218	0x3d93dc86	0.07219796
219	0x3b9aa467	0.0047193053
220	0xbdfd64b0	-0.1237272
221	0x3e36f509	0.17866911
222	0x3d9003ab	0.070319496
223	0xbe0c199d	-0.13681646
224	0xbc9e73dd	-0.019342357
225	0xbd4ecf8e	-0.05049091
226	0xbc95e4c3	-0.018297559
227	0x3d7ad0f8	0.061234444
228	0x3cdc9ee5	0.026931236
229	0x3d5e834c	0.054324433
230	0x3e2b8e3d	0.16753478
231	0x3e534fc4	0.20635897
232	0x3df0664a	0.1173826
233	0x3c152a73	0.009104359
234	0xbd5414b3	-0.051777553
235	0xbe1f10ae	-0.15533707
236	0xbc9e64ab	-0.019335112
237	0x3df40688	0.11915308
238	0x3e4bd6ca	0.19906154
239	0xbda65fea	-0.08123763
240	0x3e279483	0.16365246
241	0xbd8cedb9	-0.068812795
242	0x3e35118c	0.17682475
243	0x3d63a8b5	0.055580813
244	0xbdb24697	-0.0870487
245	0x3de56aaa	0.11201985
246	0x3dd8b07a	0.10580535
247	0xbd0a0c45	-0.033703107
248	0xbda89788	-0.08232027
249	0xbcfb755f	-0.030695615
250	0xbdb4f5b3	-0.08835926
251	0x3e3fbd32	0.18724516
252	0x3e3e38a7	0.18576299
253	0xbdf9d9b6	-0.12199728
254	0x3e87ca59	0.26521567
255	0xbcdb4532	-0.026766393

bias f4 [84]
0	0x3d538d52	0.051648445
1	0xbc50a50b	-0.012734662
2	0x3d6a8688	0.057257205
3	0x3d5de578	0.054173917
4	0xbc4a3746	-0.01234228
5	0x3c6a5388	0.014302142
6	0xbca7a169	-0.020462709
7	0x3b8f4b60	0.004372999
8	0xbc06b023	-0.008220705
9	0x3ccd4f8b	0.025062343
10	0x3911902a	0.00013881983
11	0xbbfa85da	-0.007645351
12	0x3a13b725	0.00056348956
13	0x3d6a2394	0.057162836
14	0x3ca7cb3b	0.02048265
15	0x3ce9031b	0.028443864
16	0x3d64b2bc	0.055834517
17	0xbb10c815	-0.0022091914
18	0x3ce2b5b4	0.027674533
19	0x3ce166db	0.027514866
20	0xbcd6763f	-0.026179431
21	0xbd0125d1	-0.031530205
22	0xbc6dae23	-0.014506849
23	0xbca827b9	-0.020526754
24	0xbd20051f	-0.039067384
25	0x3d323697	0.043509092
26	0x3d16713c	0.036729082
27	0x3d38fb49	0.04516152
28	0x3b6f01b8	0.003646953
29	0x3bea697b	0.0071536875
30	0x3d2eb799	0.04265556
31	0x3caa5213	0.02079109
32	0xbc56c90e	-0.013109459
33	0xbd0d8747	-0.03455284
34	0xbd0f1f96	-0.034942232
35	0x3d52831d	0.05139457
36	0x3d3cde4f	0.046110447
37	0x3cd7b075	0.026329258
38	0x3d3be230	0.045870006
39	0xbc8a0029	-0.01684578
40	0xbb28ab6b	-0.0025736939
41	0x3b925beb	0.004466524
42	0x3c92fa98	0.017941758
43	0x3c89e45a	0.01683252
44	0x3c4d8eff	0.0125463
45	0x3c7a4d50	0.015277222
46	0x3ce49d35	0.027906993
47	0x3ceb8d69	0.028753953
48	0xbc5d984d	-0.013525081
49	0x3d8025b4	0.06257191
50	0x3d005d90	0.03133923
51	0xbc9e93c4	-0.01935757
52	0x3a89fe13	0.001052799
53	0x3bd2bf17	0.006431471
54	0x3c59d54d	0.013295484
55	0x3d3d0f71	0.046157304
56	0x3b8131db	0.003942711
57	0x3d37db5a	0.044886924
58	0xbd0dfb7e	-0.03466367
59	0xbc74a100	-0.0149309635
60	0x3958a68b	0.00020661407
61	0xbd20dc89	-0.03927282
62	0x3d5f374d	0.0544961
63	0x3d8cd284	0.0687609
64	0xba6e288f	-0.0009085023
65	0x3cc4639e	0.023973282
66	0x3d208c47	0.03919628
67	0xbd0e883f	-0.034797903
68	0x3b720fc9	0.0036935678
69	0x3cde5809	0.027141588
70	0x3cdedf65	0.027206132
71	0xbcf82071	-0.030288907
72	0x3ce2292b	0.027607521
73	0xbc8b6e9c	-0.017020516
74	0x3ceda266	0.029008102
75	0xbd011277	-0.03151175
76	0x3d999646	0.074993655
77	0x3d0b829c	0.034060106
78	0xbd054cca	-0.032543935
79	0x3c605d8c	0.013694178
80	0x3d174e85	0.036940116
81	0x3d51ce44	0.0512221
82	0xbc441f6f	-0.011970385
83	0xbb1d150b	-0.0023968841
