model1/model/big_category.pt (torch, 277255 bytes, 22 tensors)

weight f4 [6, 3, 5, 5]
000000 d1 30 23 bd 52 0a df 3c 47 31 5c be 0a 84 3d be
       -0.039841477 0.0272266 -0.21503173 -0.185074
000010 67 38 63 3d 90 df 5d 3d 24 16 19 3e 23 28 7a bd
       0.05547371 0.054168284 0.14949852 -0.061073434
000020 2c 13 6a bd 2c a2 c3 bb 6c b6 90 bd 44 22 01 3e
       -0.05714719 -0.00597026 -0.07066044 0.12610728
000030 3e a7 10 3e c0 9f 42 be 68 3f af bd 34 31 a7 3d
       0.14126298 -0.19006252 -0.08557016 0.081636816
000040 c8 9c b1 bc 1d 6d 02 3d 70 5b f2 bd 9c 3d 0e 3e
       -0.021681204 0.03184234 -0.118338466 0.1389069
000050 8d 95 7d 3b 7b 04 28 be 12 46 8e bd ad f7 a1 bd
       0.0038693876 -0.16407959 -0.069469586 -0.079085685
000060 d6 64 b4 3d fb f7 d9 bd f6 9c b6 bc 5a 48 df bd
       0.088082954 -0.10643002 -0.022291642 -0.10902472
000070 5d aa 07 be 0d 90 2d bd bd 24 1a 3e 39 af 3c 3e
       -0.13248582 -0.042373706 0.15053077 0.18426217
000080 15 41 ff bd 71 59 80 be 1b a4 07 be b7 e0 e0 3d
       -0.12463585 -0.25068238 -0.13246195 0.10980361
000090 80 7e 1d 3e 17 f1 54 bd 06 09 5e bd 6c 3a 83 3d
       0.15380287 -0.051987734 -0.054207824 0.064076275
0000a0 ae 37 01 be 26 af 94 3d a7 19 b9 bd 77 c0 e1 bd
       -0.12618896 0.072599694 -0.09038096 -0.11023038
0000b0 c0 74 75 3d 27 b0 d2 3d b0 1c 96 3d 6d 88 cf bd
       0.059925795 0.10287505 0.073296905 -0.10133443
0000c0 a9 c4 60 3c 89 4c 03 3c 10 be ed 3d 08 bf a2 bd
       0.013718762 0.008013853 0.11608517 -0.079465926
0000d0 6e 3e eb bd 63 89 81 be 96 72 bd bd 68 89 93 3d
       -0.11486517 -0.2530013 -0.09250371 0.072039425
0000e0 7b dd 97 3d ec 94 bc 3d a7 b0 7f be d8 87 40 3d
       0.07415291 0.09208092 -0.24969731 0.04700455
0000f0 59 93 9a bd c9 61 a9 3d b2 7e 3c 3d 0e 65 62 be
       -0.075476356 0.08270604 0.046019264 -0.22108862
000100 b4 34 b2 bd 37 24 7f 3d 41 6e 86 bd 67 1c c3 3d
       -0.087014586 0.062290397 -0.06563998 0.09526902
000110 49 52 d5 3d ff 04 1e bd 3c 47 9a bd ab 7b ab bd
       0.10416085 -0.038578983 -0.07533118 -0.08373197
000120 c1 d7 9c 3d 3e 5c 13 3e 00 1b 1c be 20 4b 57 3d
       0.07658339 0.14390656 -0.15244675 0.05256188
000130 86 74 44 3e 9f 54 91 3e d4 84 ef 3d e9 55 32 3b
       0.19185075 0.28384873 0.11695257 0.002721185
000140 36 c9 11 be 9d e9 0c 3e be d5 2c bb d7 7f dd bc
       -0.14236912 0.13760991 -0.0026372517 -0.027038498
000150 26 46 fe bd d6 ce 34 be 4b ce 1e 3e e4 73 fc bd
       -0.124157235 -0.17657027 0.15508382 -0.12326792
000160 71 6e 0b be 95 d6 bd 3b f1 e0 8d bd 27 fd 62 3d
       -0.13616349 0.0057934024 -0.0692767 0.055417206
000170 36 cd 0d be b5 9c 9c 3d eb c7 fa bd 3a 4e 88 be
       -0.13847813 0.07647077 -0.122451626 -0.26622182
000180 5a 88 c1 3b 95 c8 3d be 19 cd c6 bc f4 e2 67 3d
       0.005906147 -0.18533547 -0.02426772 0.056612924
000190 a4 53 8b bd d1 d0 27 3e f0 31 1a 3e 8d 59 55 3d
       -0.068030626 0.16388251 0.15058112 0.052087355
0001a0 91 2b ef 3c ff ee f7 bd 92 39 d7 3d 7b 67 0d 3e
       0.029195579 -0.12106132 0.105090275 0.13809006
0001b0 c1 33 fa 3c 83 e4 5f be 03 b8 06 be 3d dd 94 bc
       0.030542256 -0.21864514 -0.13156132 -0.0181719
0001c0 7a be 7d 3d 18 d7 2e be bf 24 27 be b4 6b ae 39
       0.06194923 -0.17074239 -0.16322611 0.0003326811
0001d0 db cb 61 bd e8 8e 47 3d 4a 48 a7 bd e1 b0 82 3d
       -0.055126052 0.04872027 -0.08168085 0.06381393
0001e0 ad 7b 8c bd 42 12 a3 bc ea 29 d6 bc 15 3a 62 be
       -0.06859527 -0.019906167 -0.026143033 -0.22092469
0001f0 5b 0e 77 bd c5 cb 65 bd 40 d7 e9 3d fe 10 9b 3e
       -0.060316425 -0.056102533 0.11418009 0.30286402
000200 b0 49 4f 3e 8e 86 c5 3d 47 a5 66 3d 61 35 14 3e
       0.20242953 0.09644805 0.056309965 0.14473487
000210 c1 8e 1d 3c 15 ef 08 3e 9f 46 41 3d 35 48 5d bd
       0.009616555 0.13372453 0.04718649 -0.05402394
000220 0e b5 1d 3e ee 4b c4 3c d9 f5 1c 3d 1a d1 de bd
       0.15401098 0.023961987 0.038320396 -0.10879727
000230 4b 42 18 bd be d9 bd 3d eb a8 30 bd dd f3 d9 bd
       -0.037172597 0.09270047 -0.043129843 -0.10642216
000240 fd 04 9e bd 95 87 24 bd dd 33 f4 3d b8 8a a0 3d
       -0.07715795 -0.040168364 0.11923955 0.078389585
000250 37 2a c9 3d 9f 53 15 3d 8e a8 5f be 79 6a 7c 3d
       0.09822505 0.0364567 -0.21841642 0.061624978
000260 47 17 20 3e 20 34 85 3c 41 33 47 bc 82 69 e8 bd
       0.1563388 0.016260207 -0.012158216 -0.11348249
000270 9f df 08 3e 78 25 95 3c 37 f8 21 3c 51 d5 c6 bd
       0.13366555 0.018206343 0.009885839 -0.097086556
000280 05 fa 28 be 63 7b 1d bd 1c d8 3c 3e 99 2d bd 3d
       -0.16501625 -0.03844775 0.18441814 0.09237213
000290 dd aa 99 bd d4 fc c5 bd e7 e1 b5 3d 42 95 aa 3d
       -0.07503293 -0.09667364 0.08880978 0.0832925
0002a0 51 e6 d7 bc 22 2b a5 bd 4e d9 65 bd 54 3e 8b bd
       -0.02635494 -0.080648676 -0.05611544 -0.067989975
0002b0 09 b1 60 3d 8f 2b b9 3d d1 47 cb 3b 4a 15 4c bd
       0.054856334 0.09041511 0.0062036295 -0.04982499
0002c0 f8 49 16 3d f2 5d 90 3d df ce 01 be c5 a9 c5 3c
       0.036691636 0.07049169 -0.12676571 0.024128804
0002d0 b5 bf 22 be 17 64 9a 3d ac 8d 3a 3d 4f 76 ac bd
       -0.15893443 0.07538622 0.045545265 -0.08421003
0002e0 e8 db 68 3d fc fb eb bd 81 f5 a2 3d 33 ac d3 3d
       0.056850344 -0.115226716 0.079569824 0.10335579
0002f0 06 78 69 3d 89 6f 80 3d a2 d1 34 be fc e2 3c 3e
       0.05699923 0.06271274 -0.17658094 0.18445963
000300 b7 e9 55 bc f3 36 ed 3d f9 4a 2d be ac 73 30 be
       -0.01305621 0.11582746 -0.16923131 -0.17231625
000310 61 70 8f 3d 34 b1 32 3e 43 2a 03 be 3c 5d d9 bd
       0.070038565 0.1745041 -0.1280909 -0.10613486
000320 ea 41 79 be 37 ea 9b 3c 4b 4c 4c 3e 19 7d a3 bd
       -0.2434155 0.01903258 0.19950978 -0.07982845
000330 bc 0b 1d 3d 6d c9 fe bd 3f 76 85 3c ec 22 c2 3d
       0.03834127 -0.12440763 0.016291736 0.09479317
000340 26 35 c4 bd 3f 26 6c 3d ee 61 f3 bd d4 40 0e 3d
       -0.0958045 0.05765366 -0.11883913 0.034729794
000350 15 24 55 bc 92 ba 0b 3e 4d 17 9f bd 46 a1 aa bd
       -0.013009091 0.1364539 -0.07768116 -0.08331542
000360 f8 b5 9b bd db 07 f9 3c 1c ec 04 3e 03 36 39 be
       -0.07603067 0.030399254 0.12980694 -0.1808701
000370 8a fd 24 bc 60 f3 bc 3c 5f ad 5e 3e 12 ea 13 3e
       -0.010070214 0.023065269 0.21745823 0.1444476
000380 09 4d 39 bd 54 0d 37 bc 0d d5 d9 3d 7e 1a b4 bd
       -0.045239482 -0.011172611 0.10636339 -0.087941155
000390 56 80 1e bd cb b6 50 be f3 7f 1a bc 6f aa 49 3e
       -0.03869661 -0.2038223 -0.0094299195 0.19693922
0003a0 86 8b 88 3d 69 67 17 be 9a fe 3e be 5a ee 19 be
       0.06667237 -0.14785542 -0.1865181 -0.1503233
0003b0 b6 3e 41 3e bd 3a 18 3e 97 4e ff 3d 10 8d c0 bc
       0.18871579 0.14866157 0.12466162 -0.023504764
0003c0 79 c1 20 3e 9c f3 b6 3d 2b 03 21 3e 32 ea 30 3e
       0.15698804 0.089331836 0.15723865 0.17276838
0003d0 1d f5 2f b9 e4 90 18 3d 34 e1 11 3e e7 56 79 bd
       -0.00016780612 0.037247553 0.14246064 -0.060873892
0003e0 b3 79 37 3c f1 4c 88 bd 80 1d 14 3e 2b 4e 00 be
       0.011198449 -0.066553004 0.14464378 -0.12529819
0003f0 9b b1 09 be 4a ae 13 be fe 49 1e 3d ce 2c 1c 3e
       -0.13446657 -0.14421955 0.038644783 0.15251467

bias f4 [6]
000000 4a f5 5b bd 46 8a 80 bc 43 44 15 bd 33 cf 44 bb
       -0.053700723 -0.015690934 -0.036442053 -0.0030030727
000010 f0 d3 2a bd c1 cc 9d 3b
       -0.041706026 0.0048156683

weight f4 [6]
000000 ef fd a0 3f 5c 4a 08 3f 49 67 85 3f cf 45 0c 3f
       1.2577494 0.53238463 1.0422145 0.5479402
000010 3d 28 a3 3f be 99 22 3f
       1.2746655 0.6351584

bias f4 [6]
000000 70 0f e3 be cf 5e c3 bd 85 35 e0 bd ba e2 c4 3c
       -0.44347715 -0.09539568 -0.10947708 0.024033893
000010 43 76 ea be 3e a3 38 3c
       -0.45793352 0.011269389

running_mean f4 [6]
000000 f6 31 2f 3f 9b ee 22 be 8f 0c a9 3d 65 94 64 bf
       0.6843561 -0.15911333 0.082543485 -0.8928893
000010 61 b7 ae 3f 4a 4f d7 3c
       1.3649713 0.026282925

running_var f4 [6]
000000 bb c5 71 3f bc 4a bf 3e a5 de 4d 3e fb f8 c6 3f
       0.9444234 0.37361705 0.20104463 1.5544733
000010 d0 0e 52 40 b4 58 c0 3e
       3.282154 0.37567675

weight f4 [16, 6, 5, 5]
000000 35 39 2d be fb b0 db bd cb 86 76 3e 2a d4 f4 3d
       -0.16916354 -0.10727116 0.24074857 0.119545296
000010 bb 56 0d 3d c8 b5 13 be cf 4f 18 be 6d 63 ba bd
       0.03450654 -0.14424813 -0.14874195 -0.09100995
000020 79 79 b4 bd fb 6b b2 bd 02 33 bd 3c b9 7c 2d bd
       -0.088122316 -0.08712002 0.023095611 -0.042355273
000030 2e 33 f8 3d 4b fa 13 be 86 5a cc bd 49 9a 2a be
       0.12119137 -0.14450948 -0.099782035 -0.16660418
000040 0a b4 12 bc ee 7d 79 3c c6 a3 6f 3d 4d 1a 2a bd
       -0.0089540575 0.015227778 0.058505796 -0.04152899
000050 cd b5 5c bd 81 ec bf bd 52 64 14 3d b5 76 4f 3c
       -0.053884316 -0.093712814 0.036228485 0.012662579
000060 b5 80 46 3d 97 02 08 3d b1 41 cf 3d 96 33 bf 3d
       0.04846259 0.033205595 0.101199515 0.09336011
000070 6d 6a 30 bd 42 ff 85 bd f0 a6 0a bd e0 f7 8f 3d
       -0.043070246 -0.06542827 -0.03385061 0.070297
000080 0b 2d ba bd 7f 76 c3 bd 0a 1a c2 bd 07 de de bc
       -0.090906225 -0.09544086 -0.09477623 -0.02720548
000090 a0 26 81 3d 68 73 ac 3c ce df a7 3d 9b 7d 4c bd
       0.06306195 0.021051124 0.08196984 -0.049924474
0000a0 99 76 87 bd 0f 3f 63 3d db 29 a0 3d 24 85 e9 3d
       -0.066144176 0.05548006 0.07820483 0.11402348
0000b0 8c f8 b7 3d d6 b6 43 3d 7b db de bd 87 31 71 bd
       0.089829534 0.047781788 -0.10881706 -0.058885124
0000c0 0b 10 98 3d 1e 4d 8e 3d 42 38 5e bd c1 3d c5 3d
       0.07424935 0.06948303 -0.05425287 0.09630919
0000d0 18 98 98 be 3d 04 20 be 62 eb 4e be 4e a3 80 3d
       -0.29803538 -0.15626617 -0.20206979 0.06281148
0000e0 ab 16 ea bc 01 86 11 be ac d0 aa 3d 0b dc da bd
       -0.028575262 -0.14211275 0.08340582 -0.10686501
0000f0 a2 7d 14 3e ec 45 dc bb e9 38 4b be 47 56 a5 3d
       0.1450105 -0.0067222025 -0.19845928 0.08073097
000100 05 f8 bb bd 28 dd cb 3d e2 90 74 3d 7c 64 9f bc
       -0.09178165 0.099542916 0.059708484 -0.019457094
000110 76 f3 e2 bd 99 d3 66 bd ef ab 8c 3d 74 e5 e0 3d
       -0.11081593 -0.05635414 0.06868731 0.10981265
000120 44 f9 de bd cb 1f fa bd a7 50 9b bd 91 13 41 bd
       -0.108873874 -0.12213095 -0.075837426 -0.0471378
000130 95 2d ce 3c 80 31 70 3d 50 b9 4a 3d 7f d4 ff 3c
       0.02516822 0.058640957 0.049493134 0.031229256
000140 1b 87 0c 3e e0 05 8f 3b e3 27 57 bd 55 d7 72 bd
       0.13723414 0.004364714 -0.052528273 -0.059287388
000150 25 8c 2f bd ec d5 dc 3c 69 88 ca 3d 91 1d b4 bd
       -0.04285826 0.026957475 0.098892994 -0.08794702
000160 93 3e c8 bc f5 cd 31 3d 9b 60 5a bc 1a 04 8a 3c
       -0.0244439 0.043409307 -0.013328697 0.016847659
000170 2f a3 71 3d 51 bb e9 bc 90 7e 08 be 5c c9 1f be
       0.058993515 -0.028531702 -0.1332953 -0.15604156
000180 d0 ad 28 be 1a b5 67 bc e4 c5 1c be 3e b6 3f bd
       -0.16472554 -0.014142299 -0.15309864 -0.04680466
000190 b3 17 1d be 0b 55 66 be 00 d4 0a bd 13 cb 77 3e
       -0.15341072 -0.22493379 -0.033893585 0.2419856
0001a0 83 bc d8 3d 17 8b 9f 3c 4a 4b 03 bc 9b 93 91 bd
       0.10582831 0.019475503 -0.008013556 -0.07108232
0001b0 71 ef d4 3d f1 62 b9 bd a4 95 06 3e 3f cf e9 3d
       0.10397232 -0.09052075 0.13143021 0.11416482
0001c0 70 c6 73 3c 18 08 d6 3c 0b c9 97 3d be 4a 7f bd
       0.014878854 0.026126906 0.07411393 -0.06232714
0001d0 61 6a 2d bd 09 b9 76 3d 13 34 ce 3d 93 b3 79 3d
       -0.04233778 0.060235057 0.10068526 0.06096227
0001e0 17 ae 94 3c 59 96 15 3d cb 7d 29 3e b9 05 5b 3e
       0.018149419 0.036520336 0.16551892 0.21388902
0001f0 96 6c 4f 3e da 05 b5 3b 2e 03 87 3d 10 58 41 3b
       0.20256266 0.005524379 0.06592403 0.0029501952
000200 af 15 28 be ae 23 87 bd 0b 91 c9 bc e9 2f 49 3d
       -0.16414522 -0.06598602 -0.024605295 0.049117956
000210 f2 82 c5 3d 3f 23 39 bd 0f bd 2b 3c 0b 4d 3c 3d
       0.096441165 -0.04519963 0.010482087 0.04597191
000220 eb de 9f bd 3a 9f c2 bd 56 9f b4 bc a9 e7 d6 3d
       -0.0780619 -0.09503026 -0.022048634 0.104934044
000230 de c0 0d 3e 0d 2a 25 3d ff b9 d7 3c c8 21 96 bd
       0.13843104 0.040323306 0.026333807 -0.07330662
000240 b3 44 ef 3d a4 13 51 3d 45 e5 f7 bd 28 04 db bd
       0.11683025 0.05104412 -0.121042766 -0.10694152
000250 65 ab 3d 3b 2d 1f cd 3d 57 65 e6 bd c6 b4 26 be
       0.002894127 0.10015712 -0.11249798 -0.16279897
000260 d2 66 42 be e6 a1 14 be e1 ad 8f bc ba ed fb 3d
       -0.18984535 -0.14514884 -0.017538967 0.12301202
000270 83 5b 01 be f3 ab 0b be d3 a1 a4 3d 3c 04 9a bd
       -0.12632565 -0.13639812 0.08038678 -0.07520339
000280 74 1a 0d 3d 10 5e d2 3d e3 a9 08 be 1a f1 de 3d
       0.034449056 0.10271847 -0.13346057 0.1088583
000290 a5 b4 10 bd 51 ee 3e bd d4 7e 95 3d 67 04 37 bd
       -0.035328526 -0.046613995 0.07299581 -0.044681933
0002a0 3d 13 6e bb 64 c5 01 bd d1 42 06 3e d9 3a 89 3d
       -0.0036327385 -0.031682387 0.13111426 0.067006774
0002b0 0d 2b 7e 3d 36 cb b9 3d d2 43 91 3d e4 f5 15 be
       0.062052775 0.090719625 0.07093014 -0.14644581
0002c0 b3 61 8e 3d e5 da 92 3c 13 b5 2f 3e 33 20 af 3b
       0.069522284 0.017926643 0.17158918 0.0053444146
0002d0 24 94 ee bd 65 0e 8e bd 96 04 6a bd 0d 3c 1d 3d
       -0.11649349 -0.06936339 -0.05713328 0.038387347
0002e0 99 e8 51 3d 9f 62 21 be 63 33 ed bc 14 26 60 3d
       0.051247213 -0.15760277 -0.028955167 0.054723814
0002f0 5b f3 ca bc e9 8f 7d 3d b7 7e 8d bc 1c 1a 6e 3d
       -0.024774244 0.06190482 -0.017272336 0.05813037
000300 da b4 9a bd 04 76 53 3c 83 c0 b1 3c c0 34 55 3d
       -0.07554026 0.012906555 0.021698242 0.05205226
000310 9b eb 87 3d 8e da 3d bd c0 52 d5 3d 51 4a 28 bc
       0.06636735 -0.046351008 0.10416174 -0.010271625
000320 af 8a fc 3d 7e 26 e2 bc 1d fb e9 3b 57 28 92 bc
       0.12331139 -0.027606245 0.0071405307 -0.017841501
000330 8f 1b 6c 3d d5 91 86 3d c0 58 bd bd 87 47 1b bd
       0.05764347 0.06570784 -0.09245443 -0.03791001
000340 93 a6 1e 3e e2 44 7e bd 35 15 89 3d 14 c2 aa bd
       0.1549323 -0.06207741 0.06693498 -0.08337799
000350 6b 58 d7 3c 3c a8 cc bc f3 e7 4d be 34 d6 06 3d
       0.026287278 -0.024982564 -0.20108013 0.032919124
000360 9f f2 95 3a 9c 5f 1b be f4 9e b9 bd 0e a1 7b be
       0.0011440105 -0.15173191 -0.09063521 -0.24573156
000370 ff 87 30 3d e5 5a 23 3d a3 a8 7a be f4 52 56 be
       0.043098446 0.039881606 -0.24478392 -0.20930082
000380 e6 b5 73 be 14 d9 89 bc ba 38 6e 3c 29 ec 70 bd
       -0.23799857 -0.016827144 0.014539892 -0.05881897
000390 e8 18 97 3d a2 5a 11 3d b2 df 13 bd a8 09 38 3d
       0.07377797 0.035486825 -0.036102004 0.044931084
0003a0 95 78 74 bb 8e c0 9e 3d 0a 95 60 bd ff 55 1c bd
       -0.0037303318 0.07751571 -0.054829635 -0.03816795
0003b0 d8 ec ab bd b9 45 08 bd 57 ae 13 3d 04 fa f9 ba
       -0.08394784 -0.033269618 0.036054935 -0.0019071703
0003c0 cc e4 b1 3d fe a5 46 3d 60 2f f8 bd 7f b3 72 3c
       0.08686218 0.048498146 -0.12118411 0.014813303
0003d0 6c 82 a9 3d 9b 1d 1b 3c cb 19 09 3c 02 1a c8 bd
       0.08276829 0.009467508 0.008367966 -0.097705856
0003e0 a2 d0 56 bd 44 bc 17 be 0e 1b 0b be c5 21 05 be
       -0.05244506 -0.14817911 -0.1358454 -0.13001163
0003f0 e6 1c a9 bd 8e 70 19 be 76 ea 03 be b8 55 1d bd
       -0.08257465 -0.14984342 -0.12882408 -0.038411826

bias f4 [16]
000000 c7 3c 69 3c d4 d3 9d bb c9 32 ba bc a2 32 e4 bc
       0.014235682 -0.0048165116 -0.022729294 -0.027856175
000010 83 05 c3 bc 8e f6 13 3d fa ca c8 b9 d3 82 be 3c
       -0.02380634 0.036123805 -0.00038298202 0.023255741
000020 66 58 00 3c f8 1f 37 bc 31 2c 4b 3c 41 bd 98 bb
       0.007833576 -0.011177056 0.012400673 -0.0046612327
000030 83 1d 71 3c e3 22 f0 bc 7d 41 85 bc 40 60 da 3a
       0.014716509 -0.02931351 -0.016266579 0.0016660765

weight f4 [16]
000000 5e 35 88 3f dd 14 6c 3f 03 3a 74 3f ad 49 52 3f
       1.0641286 0.92219335 0.9540102 0.8214367
000010 bb 34 61 3f 92 fe 75 3f cf 2f 6e 3f 31 9d 90 3f
       0.87971085 0.9609157 0.930417 1.1297971
000020 0d 6e 84 3f c0 70 89 3f 82 39 8c 3f 0e ad 8a 3f
       1.0346085 1.0737534 1.095505 1.0834062
000030 ab d5 79 3f e0 f5 40 3f 27 7a 86 3f 0d e2 6d 3f
       0.97591656 0.75375175 1.0506028 0.9292305

bias f4 [16]
000000 ff 39 4a be d9 77 82 be b1 c6 97 3b 39 fe 09 bf
       -0.19748686 -0.25482062 0.00463184 -0.5390354
000010 4a 54 20 be 77 e1 2f be 69 35 87 3d e9 71 11 bd
       -0.15657154 -0.17175852 0.06601984 -0.035509024
000020 1c ab 59 be 72 d0 48 be 81 85 d7 bd e5 51 7d be
       -0.2125668 -0.19610766 -0.10523511 -0.24738272
000030 7c e9 f6 bd 8b 5a 4b be 66 ab 50 be 4d 07 18 be
       -0.12056252 -0.19858758 -0.20377883 -0.14846535

running_mean f4 [16]
000000 6f be 49 be 8f 74 c4 be 22 b2 cf be 98 80 0a 3f
       -0.19701551 -0.38370177 -0.40565592 0.5410247
000010 b8 07 12 be 07 f0 c0 be 07 f7 12 be 55 7c 6f be
       -0.14260757 -0.37683126 -0.14352046 -0.23387273
000020 13 96 35 bd e7 f5 3f be 97 f7 59 be 33 30 e5 3d
       -0.044332575 -0.18746148 -0.21285854 0.11190834
000030 a5 d2 c8 bd b5 df 0a bf 97 25 26 bf 2f 45 d6 be
       -0.09805802 -0.542476 -0.6490111 -0.41849658

running_var f4 [16]
000000 df 81 b3 3e 4e 8b 9a 3e fb 18 b4 3e 29 b1 fd 3e
       0.3506002 0.30184406 0.3517531 0.49549225
000010 10 a5 4b 3e 54 5f c7 3e 7c 02 89 3e 48 9c 28 3f
       0.19887185 0.38939917 0.26759708 0.65863466
000020 9f 5e 7e 3e 34 2f 76 3e a8 d2 53 3e 2c 95 6c 3e
       0.24840783 0.24041444 0.20685828 0.2310378
000030 16 c0 9f 3e 4c 09 01 3f 15 26 06 3f bf 0f 84 3e
       0.31201237 0.5040481 0.5240186 0.25793263

weight f4 [120, 16, 5, 5]
000000 61 80 c6 bc f5 9f 77 bb 4b 8c 90 bb c6 6f 33 3d
       -0.024231138 -0.003778455 -0.0044112555 0.043807767
000010 a0 a5 d5 3d d4 f1 4d 3b 70 e1 95 3c 49 b2 91 3d
       0.10431981 0.0031424658 0.018295974 0.07114083
000020 0a ef b4 bd d0 76 71 bd 7e 4c fe bc b4 12 3b 3d
       -0.088346556 -0.0589512 -0.031042334 0.045672134
000030 cf 01 0f 3d 2c a5 e1 bd 7e d8 8f bd 4a 9b 2c ba
       0.034913834 -0.11017832 -0.070237145 -0.0006584419
000040 f4 92 20 3e 9c 90 cd 3c ed ea ad bd b7 38 31 be
       0.15681058 0.02509337 -0.08492074 -0.17306791
000050 15 5b 8c 3d a4 1a 2c 3e 89 d8 27 3c b3 46 92 3c
       0.0685331 0.16807038 0.010244497 0.017855978
000060 f9 4a 4e be 60 41 90 3d f3 4b fb b9 c1 92 08 bd
       -0.20145787 0.07043719 -0.00047931037 -0.03334308
000070 a5 84 b8 bc 5c cb 45 bd 28 74 58 bd 56 96 58 3c
       -0.022524187 -0.04828964 -0.05284515 0.013219437
000080 71 47 06 3d fd 90 0d bd 92 60 42 bd dd 2b 5c bd
       0.032782976 -0.0345621 -0.047455378 -0.05375277
000090 aa f1 c3 3c 4d 58 80 3d 49 7f f2 bc 06 ca 0f be
       0.023918945 0.06266842 -0.02960171 -0.1404191
0000a0 a7 5d c0 bc ab 9b a9 3d d3 16 fb 3d 63 25 a0 bc
       -0.023482157 0.082816444 0.12260213 -0.019549077
0000b0 d9 57 03 be 13 c6 a1 bd af e0 f0 3d 06 91 66 3d
       -0.1282648 -0.07899108 0.11761605 0.05629065
0000c0 02 40 0f 3a 56 9c bf bd da b0 bf bd 9f 59 33 3d
       0.0005464555 -0.093559906 -0.09359904 0.04378664
0000d0 e6 54 f8 bc 64 85 9d 3a 8c 68 59 3c 68 67 68 bc
       -0.03031392 0.0012017903 0.013269555 -0.01418481
0000e0 9a eb da 3d 08 3f 89 3d 3c a9 b7 3d ae ad ac 3d
       0.10689469 0.067014754 0.08967826 0.08431564
0000f0 c9 d9 15 bd b5 8f 83 3b 3c 0f ea bd 4a 0a 8f bd
       -0.03658465 0.004014934 -0.11428687 -0.06984384
000100 c3 2c 5e bc 69 ff 7b bc b4 f5 10 bd 82 e4 24 bd
       -0.013560477 -0.015380719 -0.03539057 -0.040256985
000110 fd 3b 4a bd a9 46 57 3d 52 15 bc bb f2 d2 a8 bc
       -0.049373616 0.05255762 -0.0057398463 -0.020608399
000120 d3 b3 95 bd df cb ed bc da fb 16 bd 32 0f c6 3c
       -0.073096894 -0.029027877 -0.036861278 0.024177168
000130 21 33 f4 bc 97 cc 80 bb 6d fa 59 3d 92 0c 55 bd
       -0.029809536 -0.003930639 0.05321734 -0.05201394
000140 f8 53 b0 3a d4 53 bb bc 3e 1d 90 3d d3 57 5b bd
       0.0013452759 -0.02286712 0.070368275 -0.053550553
000150 4c 8c 52 3c b2 6d 70 bc f0 b5 c7 3c eb a3 85 3d
       0.012850832 -0.014674591 0.024378747 0.065254055
000160 b8 d5 e7 3c 4a 6f bf bd 1b 13 c0 bd a8 0d c3 3c
       0.028300151 -0.093473986 -0.09378644 0.023810223
000170 8a 2c 3b 3d e5 50 36 3c a6 6c 0e be 77 e8 33 bd
       0.045696773 0.011127685 -0.13908634 -0.043922868
000180 36 07 02 bb 5a 81 41 bd 80 8c 3f 3d 73 cf c0 bd
       -0.0019840724 -0.0472425 0.04676485 -0.09414568
000190 a1 66 e7 3c cd e7 60 3d 72 af 25 3e d3 32 48 3d
       0.02824718 0.054908562 0.16180208 0.048876595
0001a0 4c 92 d7 3d 6f a1 64 3d e4 1c 3d 3c d7 5c e4 3b
       0.10525951 0.055818018 0.011542533 0.006969075
0001b0 49 7e fb bd e9 f9 a3 bd 71 76 60 bd 76 89 36 bd
       -0.12279946 -0.08006651 -0.054800455 -0.044564687
0001c0 af 5e 25 bd 8a e4 8e bd 37 08 f2 3c 10 81 dd 3c
       -0.0403735 -0.06977184 0.029544933 0.02703908
0001d0 2c c4 92 bc 9a c7 87 bd 05 3b 40 bd fc 6c 7e 3d
       -0.017915808 -0.06629868 -0.046931285 0.062115654
0001e0 a1 89 5a 3d 47 f5 90 bd 2c ed 89 bd d0 5b 81 bc
       0.05335391 -0.07078033 -0.0673469 -0.01579085
0001f0 b8 f4 9c 3d 0e 19 f6 bc 0a 45 cc 3c 4b 8a 17 bc
       0.07663864 -0.030041244 0.024935264 -0.00924928
000200 32 2d 85 3c 4f 33 ae bc fb 87 45 bd a0 c7 f1 bd
       0.016256902 -0.0212647 -0.048225384 -0.118056536
000210 a4 3b e4 bd 1f 2b 27 3d 4a eb f7 bd 78 14 26 bd
       -0.11144188 0.040812608 -0.12105425 -0.040546864
000220 3d c8 08 be a9 99 05 be c3 54 46 bd 2e fb b4 bc
       -0.13357635 -0.13046898 -0.04842068 -0.022092428
000230 db d3 97 bd 2a 65 05 be 5f b5 11 be 01 39 c1 3c
       -0.07413455 -0.13026872 -0.14229344 0.023586752
000240 62 c4 78 3c 46 0a ed bd e2 4b 32 be 0b 21 90 bd
       0.01518354 -0.11574225 -0.1741176 -0.070375524
000250 bd 56 b2 3c 23 3e c5 bb 30 db 6b bd 22 27 01 3d
       0.021769876 -0.00601937 -0.05758208 0.03153146
000260 b3 57 87 3d 79 02 ea bc ca 15 67 bd 49 c1 03 bc
       0.06608524 -0.028565632 -0.056417264 -0.008041688
000270 ad f5 89 bb 9e 64 3a 3d f5 5e f6 3c bf fb d4 bc
       -0.004210195 0.045506112 0.030074576 -0.025998948
000280 d0 d7 2b 3b 6c bd a7 3c 2f 20 67 bd 20 13 06 3d
       0.0026221164 0.020476066 -0.056427177 0.032733083
000290 cf a3 2d 3d 99 b2 01 be ff 5d f4 bc 37 88 81 3c
       0.04239255 -0.12665786 -0.029829977 0.015812023
0002a0 28 9c 01 bc 9a 8a ed ba 7d f8 16 be e9 48 2d 3c
       -0.007910766 -0.0018122972 -0.14743228 0.010576465
0002b0 8b 8d 6f 3d ca ca b4 3d 49 0f ec 3c 18 19 f0 bd
       0.058484595 0.088277414 0.028815882 -0.11723536
0002c0 1d 5e e2 3c d0 19 fb bc 60 99 9f 3d cb 5d 9e bd
       0.027632767 -0.030651957 0.07792926 -0.07732733
0002d0 7f e9 04 3d 61 df 04 3e d6 02 d9 bd 98 2f 1f be
       0.03244924 0.12975837 -0.10596244 -0.155455
0002e0 57 5c 09 bd 9f cf 9f 3d ed 76 b8 3d 30 4e 7e bc
       -0.033535328 0.078032725 0.09007058 -0.015521571
0002f0 d1 a5 ee bd 2f e8 c2 bd 5f fa 38 3d b0 14 ca 3c
       -0.11652721 -0.09516942 0.045160647 0.024668068
000300 f7 71 93 bd 86 2e 8c 3d 0e e3 31 be 05 79 9d 3c
       -0.071994714 0.06844811 -0.1737177 0.019222746
000310 80 2e a0 3d 41 d9 41 bc 36 9e 8c bc 52 65 b7 bd
       0.07821369 -0.0118315825 -0.017165285 -0.08954872
000320 76 8a 68 3b 78 89 bd 3c c6 c6 84 3d 02 dd f4 3d
       0.003548292 0.02313684 0.064832255 0.119562164
000330 f3 47 1b bd 7a 4e 30 3a f7 e1 1b bd ea 82 3e bd
       -0.037910413 0.0006725561 -0.038057294 -0.046511568
000340 68 b3 fb bd 18 51 42 bd 03 e7 e6 bb 6a 77 dc bd
       -0.122900784 -0.04744062 -0.0070465817 -0.10764964
000350 3f b8 92 bd 61 85 cf bd 55 d4 1c be 3a e7 d1 bd
       -0.071640484 -0.10132862 -0.15315373 -0.10249181
000360 77 a2 c4 bd 4f a1 a5 3d ac e9 1a 3d c6 c8 4f be
       -0.096013 0.08087408 0.037820503 -0.20291433
000370 3a 51 6a bd 86 91 80 bd f6 2a 0c bc 31 ac d9 bc
       -0.05720637 -0.062777564 -0.008555165 -0.026571365
000380 41 97 16 bd 13 53 78 3d 9c 8c e8 3b 84 cd 00 bd
       -0.03676534 0.0606261 0.00709684 -0.031445995
000390 70 1d 08 3d 18 cb 2c 3b bd 84 fa 3a a8 7d d6 3c
       0.0332312 0.002636617 0.0019113045 0.026182964
0003a0 ec 99 cc 3d 24 4f eb 3c 35 47 01 3b 81 a2 f7 bc
       0.09990296 0.02872426 0.001972628 -0.030228855
0003b0 11 23 4c bd 5e d9 b2 bb 5b eb d8 3a 8c 6b 68 3c
       -0.04983813 -0.005458041 0.0016549634 0.014185797
0003c0 6e b7 ac bc c2 f4 05 bc c0 aa 02 3c f5 00 29 bd
       -0.02108356 -0.008176031 0.00797528 -0.04126068
0003d0 eb b5 5c bd 9c 28 91 bd 6b 45 ea 3c f6 d0 29 3d
       -0.053884428 -0.07087824 0.028597554 0.041459046
0003e0 cc 02 51 3d a9 66 51 bd 0f 41 95 bd c6 2f e6 bc
       0.051028058 -0.051123295 -0.072877996 -0.028098952
0003f0 62 e9 81 3c af c2 eb 3d b6 2e 50 bd 14 ba 76 bd
       0.015858356 0.11511742 -0.050825797 -0.06023605

bias f4 [120]
000000 bb e7 3d bb 3c 33 28 bb 49 c6 2a 3a f5 32 f2 bb
       -0.0028977233 -0.0025665304 0.0006514532 -0.0073913285
000010 ed f0 3d 3b 3b 1b 92 bb b1 21 26 3c 28 34 af 3b
       0.0028982714 -0.0044588125 0.010139869 0.0053467937
000020 60 7e 5b 3c c7 c3 8f ba 9e 86 dc 3b fc 2e 49 bb
       0.013396829 -0.001096838 0.006729915 -0.003069817
000030 56 9a 06 3a d9 66 82 ba 29 a4 98 ba 6d b2 39 bc
       0.0005134692 -0.0009948864 -0.0011645603 -0.011334044
000040 f4 a3 13 3c 4e 49 53 bc 99 bc 0e 3b 5d 28 46 bc
       0.009011257 -0.012895895 0.0021779893 -0.012094584
000050 bc 93 8e bb c5 06 5e 3b 5f 0e 38 3c 2a ae af bb
       -0.0043511074 0.0033878547 0.011233895 -0.005361338
000060 1f 57 bb 3a d0 47 8f 38 d1 af b1 3a 35 58 e8 bb
       0.0014292932 6.8321475e-05 0.0013556426 -0.007090593
000070 cd a6 39 ba d7 3e 18 3b 76 10 07 bc af 80 bc 3a
       -0.0007082045 0.0023230815 -0.008243671 0.0014381612
000080 9c 5d c1 3b 98 d7 03 bc 9c 39 b3 bb 96 e7 2b 3b
       0.0059010517 -0.008047007 -0.005469514 0.0026230565
000090 12 e5 20 bc bc 7b 1c 3a 82 01 06 3c 5f d7 19 39
       -0.00982024 0.00059693656 0.00817907 0.00014671449
0000a0 1f 36 fe b9 c3 5e 7f 3c 99 37 94 ba 69 ff 15 3c
       -0.0004848698 0.015586558 -0.0011308073 0.009155133
0000b0 81 7c 3f bc a8 97 15 bb 0a 70 c0 3b 7e 20 20 bb
       -0.011687399 -0.002282599 0.005872731 -0.002443343
0000c0 14 6c 1f 3b 80 cd e2 3b be b5 89 bb e2 d5 24 bb
       0.0024325894 0.00692147 -0.0042025736 -0.0025151898
0000d0 fe f5 8c bb df 86 03 bc ab 41 ed 3b fc a8 b1 ba
       -0.0043017855 -0.008027761 0.0072404942 -0.001355439
0000e0 79 bb a6 3b 4b 77 ab ba b6 e1 8b bb 8c e1 cf ba
       0.0050882665 -0.0013081817 -0.00426885 -0.0015860065
0000f0 0d 16 8b bb 8b 50 2f b9 0c a9 bd bb 91 8b 0e 3c
       -0.004244572 -0.00016719305 -0.005787974 0.008700267
000100 f2 7c 22 bc b5 b0 38 3b 3c 9b bc 39 b2 e2 ec 3b
       -0.009917485 0.0028181497 0.00035973813 0.0072291726
000110 9a d0 8b 3a b6 c2 0e 3b 69 97 33 3b 9a 72 c8 ba
       0.0010667027 0.0021783537 0.002740348 -0.0015292943
000120 a5 bb 7d 3a 51 d1 81 3b 82 56 0f 3c 58 1c 73 3a
       0.00096791453 0.00396172 0.008748652 0.0009273938
000130 9d 6b 59 3c fa 91 bf bb a9 e3 40 3b 05 cb 15 3b
       0.013270286 -0.005846259 0.002943257 0.0022856605
000140 4f f1 cf 3a a8 53 c4 3b 3e 9e ad 39 a0 e9 40 bb
       0.0015864762 0.005991418 0.0003311503 -0.0029436126
000150 ca 0d d6 ba ef 5f 9c 3b 8b ed 94 3c 1a f4 f5 39
       -0.0016331014 0.0047721784 0.018179676 0.0004691191
000160 db bd 30 bb ea c1 47 3b ad 70 9c bb f2 d2 5c bb
       -0.0026968631 0.0030480572 -0.004774174 -0.003369507
000170 ba 94 a0 ba 91 88 0e bd ba 18 ab 3b 88 4b 6e bb
       -0.0012251355 -0.03479821 0.0052214535 -0.0036360938
000180 2e 2f 96 3b 9f 7a e8 b8 f5 88 9b bb 5d 17 53 ba
       0.004583261 -0.00011085462 -0.004746551 -0.00080524926
000190 39 7e 4c 3c 72 2c 3e 3b f2 7b b0 3b e5 69 fa 3b
       0.012481266 0.002901819 0.005385869 0.007642018
0001a0 a8 69 33 3c 2d e5 11 bc ac 82 a2 ba 91 2a 85 bb
       0.010950483 -0.008904737 -0.0012398562 -0.004063912
0001b0 6d e9 e2 3a ae 10 5a bb 05 6d 02 ba d3 02 c9 3b
       0.0017311998 -0.0033274102 -0.00049753516 0.00613437
0001c0 10 65 9a ba e0 d4 02 ba 32 ea 07 bc df 6e da bb
       -0.0011779387 -0.00049908273 -0.008295583 -0.006666049
0001d0 09 5c b5 3a a6 26 f5 ba 3d 03 07 3b 05 63 d0 3a
       0.0013836633 -0.0018703535 0.0020601295 0.0015898651

weight f4 [120]
000000 53 ed 83 3f 86 09 71 3f f0 07 75 3f 72 c3 85 3f
       1.0306801 0.94155157 0.95715237 1.045027
000010 d3 5d 82 3f a2 07 77 3f 1b e5 7e 3f a8 b5 8a 3f
       1.0184883 0.9649602 0.9956834 1.0836687
000020 3d 7f 81 3f f2 df 93 3f 82 0c 8e 3f 3e 80 8f 3f
       1.0116955 1.1552718 1.1097567 1.1211011
000030 65 b0 7c 3f 65 80 81 3f d2 32 78 3f 36 14 88 3f
       0.98706657 1.0117308 0.96952546 1.0631168
000040 fd 85 93 3f ab fe 90 3f 1b 3b 8c 3f 4c 01 81 3f
       1.1525265 1.1327718 1.0955538 1.0078521
000050 bc 06 84 3f 1f 3e 85 3f cb ac 82 3f 04 dc 88 3f
       1.0314555 1.0409583 1.0208982 1.0692143
000060 e2 4b 81 3f 25 a3 87 3f b9 c7 94 3f cc c1 7f 3f
       1.0101283 1.0596663 1.162345 0.99905086
000070 cd 3e 89 3f c0 39 81 3f b3 19 7d 3f 22 23 83 3f
       1.072229 1.0095749 0.9886734 1.0245097
000080 ad e2 7f 3f c4 44 81 3f 0f f3 84 3f 5c 69 93 3f
       0.99955255 1.0099111 1.0386676 1.1516528
000090 3e 6b 76 3f a0 f0 86 3f 3a a3 8c 3f 12 10 87 3f
       0.9625739 1.0542183 1.0987313 1.0551779
0000a0 aa 28 8b 3f 51 87 80 3f 2f d6 80 3f 69 fd 8e 3f
       1.0871785 1.0041295 1.0065364 1.1171085
0000b0 d5 25 83 3f 75 b0 82 3f 1b e5 80 3f 6b 4c 7d 3f
       1.024592 1.02101 1.0069917 0.9894473
0000c0 35 36 81 3f b4 3f 8f 3f 02 f2 83 3f f7 bc 86 3f
       1.0094668 1.1191316 1.030823 1.0526417
0000d0 a7 a5 6f 3f 71 70 8c 3f b0 8f 95 3f c9 a5 84 3f
       0.9361214 1.0971814 1.1684475 1.0363094
0000e0 bb bb 78 3f 1c 89 86 3f f1 b8 78 3f 33 91 84 3f
       0.97161454 1.0510592 0.971572 1.0356811
0000f0 50 22 84 3f 1f f8 6b 3f 7b 81 83 3f 99 43 89 3f
       1.0322971 0.9217548 1.0273889 1.0723754
000100 5e dd 77 3f 89 1d 71 3f 44 44 80 3f 50 73 8d 3f
       0.96822155 0.9418569 1.0020833 1.1050816
000110 08 ce 84 3f 57 12 83 3f be cb 86 3f 04 d8 7d 3f
       1.0375376 1.0239972 1.0530927 0.9915774
000120 c4 9b 79 3f 1b e0 7b 3f 1b de 7f 3f e6 a2 8c 3f
       0.97503304 0.9838883 0.9994828 1.0987213
000130 a7 e2 83 3f d7 21 89 3f 93 a7 7f 3f 50 32 89 3f
       1.0303544 1.0713452 0.9986507 1.0718479
000140 e2 25 76 3f 16 78 76 3f de 3a 7f 3f 10 78 71 3f
       0.96151555 0.96276987 0.996992 0.94323826
000150 da 10 8f 3f 15 46 8b 3f 00 8d 84 3f 20 4c 71 3f
       1.1177018 1.0880762 1.035553 0.9425678
000160 17 56 85 3f 24 21 88 3f bb fb 84 3f 49 f9 84 3f
       1.0416898 1.0635114 1.0389322 1.0388576
000170 9d b3 8a 3f e3 91 8b 3f d8 13 72 3f 55 5d 87 3f
       1.0836064 1.0903896 0.9456153 1.0575358
000180 0a e2 89 3f 89 f1 8a 3f 65 4b 82 3f 72 ba 82 3f
       1.0772107 1.0854961 1.0179259 1.0213149
000190 5d 55 89 3f 6b 1d 85 3f 45 ee 98 3f 61 51 7a 3f
       1.0729176 1.0399603 1.1947714 0.97780424
0001a0 a0 29 8a 3f 24 91 89 3f 65 d2 80 3f 2a 0d 7d 3f
       1.0793953 1.0747418 1.0064207 0.9884821
0001b0 d5 4d 7f 3f 1a 84 82 3f 1c 96 90 3f b1 c7 7f 3f
       0.9972814 1.0196564 1.129581 0.9991408
0001c0 98 43 8c 3f 69 5f 87 3f b0 27 84 3f de 68 8b 3f
       1.0958128 1.0575992 1.0324612 1.0891378
0001d0 c9 8a 88 3f de 69 83 3f b7 5d 83 3f b6 6a 7f 3f
       1.0667354 1.0266683 1.0262975 0.997722

bias f4 [120]
000000 4f d5 24 3d ba d8 9a bd 7b 02 79 bc cc ed 49 bd
       0.04024249 -0.075608686 -0.015198345 -0.049299046
000010 56 f9 9d bb db 3a 07 be 8d 9f 9e bc 47 85 3d bd
       -0.004820983 -0.13206045 -0.01936319 -0.04626968
000020 d5 c9 a7 bd b3 f3 5e 3c b9 d4 4c 3c a8 e7 98 bc
       -0.08192793 0.013607907 0.012501889 -0.01866515
000030 1c 41 a4 bb 17 ce c6 3b 51 e6 60 bd f4 3a 80 3d
       -0.0050126445 0.0060670483 -0.054907147 0.062612444
000040 b4 2d 2e 3d 35 99 81 bd db 20 14 3c df 87 cf bc
       0.042524055 -0.0632805 0.0090410365 -0.025333343
000050 2d 3f 32 bd 5b 45 44 bc d7 23 08 bd 56 24 67 bd
       -0.04351728 -0.011979426 -0.033237305 -0.056431137
000060 d4 2a 71 3c 41 19 8b 3c ba 88 42 3d 52 75 f0 bc
       0.014719684 0.016979815 0.047493674 -0.029352818
000070 f6 87 53 bd ac a9 ce bd 6f 90 7a bd 92 ee e7 bd
       -0.051643334 -0.10090956 -0.0611729 -0.113248006
000080 e6 17 dc 3b 54 e1 10 bc 7b 7a 15 ba 5d 1b 04 3d
       0.006716716 -0.008842785 -0.000570215 0.03225266
000090 71 74 16 bd 95 31 6d 3d c5 1a 2a bd ad 32 60 bd
       -0.03673214 0.057908613 -0.041529436 -0.05473583
0000a0 ae a0 d0 3c 5d a0 0d bd 7d a1 28 bd 5d ca 8b 3d
       0.025467243 -0.034576762 -0.041169632 0.06825707
0000b0 ca 3c 03 3b ec 32 2b 3d aa cd ce bd 31 41 32 bd
       0.0020025247 0.04179661 -0.10097821 -0.043519203
0000c0 51 3b 8d 3c ca 99 88 3c 2e 7a 88 3d 06 76 4a bb
       0.017240198 0.016674895 0.06663929 -0.0030893101
0000d0 94 31 e1 bd a3 59 1b bd 0d 43 4d bc 08 6f b8 3b
       -0.109957844 -0.03792728 -0.012528193 0.0056284703
0000e0 2e 49 9c bc 87 da f1 bb 20 11 c2 bd 46 4e 8c bd
       -0.019077864 -0.007380787 -0.094759226 -0.06850867
0000f0 1c e8 40 3d 00 de 36 bd 58 e8 62 bc 2b f6 89 3c
       0.047096357 -0.04464531 -0.01384934 0.016841015
000100 7a 44 66 3c 0d 25 79 bd 8a 66 26 3d 0a d4 35 3d
       0.014054412 -0.06082635 0.040625133 0.04439167
000110 9f 03 76 bd 93 7a 0c bc 8a 2e c7 3d 8b 17 5b 3d
       -0.060062047 -0.008574146 0.097256735 0.05348925
000120 f3 10 5e bd 34 3e a0 bb 4e f9 a9 bb a6 0d 28 bd
       -0.054215383 -0.0048902277 -0.00518719 -0.04102864
000130 33 0e a7 bb 15 b6 27 3d 99 bc a5 bc 84 14 e4 bc
       -0.005098128 0.04094513 -0.020231532 -0.027841814
000140 ec 61 60 bd 82 e2 ad bd 1e 42 25 3d 26 16 05 bd
       -0.054780886 -0.084904686 0.040346257 -0.032491826
000150 0f fb 2a bd 91 e2 80 3d 30 d9 be ba 7c b8 e9 bd
       -0.041743334 0.06293214 -0.0014560577 -0.11412141
000160 55 00 70 3c 54 1e 44 3c b1 1a c1 3a 47 e6 1f bd
       0.014648517 0.011970121 0.0014732686 -0.03903797
000170 f8 27 74 3c 0e 4c 42 bc db 22 89 bd 80 3a 1b 3c
       0.014902107 -0.011858953 -0.06696101 0.009474397
000180 20 60 55 bc e8 2a f9 3c 4a cc 2d 3c 39 60 b7 3b
       -0.013023406 0.030415967 0.010607788 0.0055961874
000190 f1 a4 a3 3c 52 d9 12 3d 1c 7f 8f 3d 69 2c 62 bd
       0.019976111 0.035851784 0.07006666 -0.055218134
0001a0 12 6c 56 3c 18 b7 05 3d a8 15 7b 3c fc 68 c2 bd
       0.013087289 0.032645315 0.0153249875 -0.094926804
0001b0 4b 70 d7 bd 7a 67 a5 bd a5 96 a4 bb d2 a9 e8 bc
       -0.10519465 -0.08076377 -0.005022841 -0.02840129
0001c0 de 01 aa bc c1 e0 00 bd 6e 45 aa 3b 46 3e 1b 3d
       -0.020752843 -0.031464342 0.005196265 0.037901185
0001d0 a9 ec f1 3c 1d 2a e8 3c 69 39 85 bd 20 7f fc bc
       0.029531794 0.028340394 -0.06505091 -0.030822337

running_mean f4 [120]
000000 4d 11 e9 be 7f fb eb be 64 bb 9f bf 91 71 05 40
       -0.45521012 -0.46090314 -1.2479062 2.0850565
000010 f2 46 20 3f a3 e2 74 bf 44 d6 7b 3f 6b b3 07 bf
       0.62608254 -0.9565832 0.9837382 -0.53008145
000020 21 49 41 be eb ee 27 3f 3a 75 20 3f d1 37 04 be
       -0.18875553 0.65598935 0.62678874 -0.12911917
000030 ef fe 20 3f d5 a1 a3 3e 67 08 68 bf 10 f0 c6 3f
       0.62889 0.31959406 -0.9063782 1.5542011
000040 f1 48 4c 3d 25 67 bc 3e 21 24 28 3f 58 05 4b be
       0.04987425 0.36797443 0.6568013 -0.19826257
000050 31 77 a5 3e 42 93 4a bf ca 4d b4 be e2 66 95 bf
       0.32317498 -0.7913095 -0.35215598 -1.1672022
000060 46 71 fa be 14 16 2f 3e a4 6c ff bd 99 e6 c0 bf
       -0.48914546 0.17098266 -0.124718934 -1.5070373
000070 69 2a 4c bd e0 1f 32 3f 49 98 84 be d1 71 9f 3f
       -0.049845133 0.6957989 -0.25897434 1.2456609
000080 6e 4c db 3c 42 18 a8 bf 3e 15 de 3c cf 07 ab be
       0.026769843 -1.3132403 0.027109738 -0.33404395
000090 80 1b c0 be b3 05 60 bf 03 7a e6 3e c0 b6 39 3f
       -0.3752098 -0.87508696 0.45014963 0.7254448
0000a0 cd d2 97 bf 00 26 72 bf d4 06 e9 be 53 08 32 3f
       -1.1861206 -0.94589233 -0.45513022 0.6954395
0000b0 46 09 70 be 02 4d 6a 3f e7 5e 0c c0 8f 2f e8 bf
       -0.23441038 0.91523755 -2.1932924 -1.8139514
0000c0 47 29 11 3e 4f 00 82 bb 6c cd bd 3e bf aa 23 3f
       0.14175902 -0.003967322 0.37070787 0.6393241
0000d0 77 2e 9c 3f 0d 40 5d bf 64 2f da 3c c8 d0 ab 3e
       1.220168 -0.8642586 0.026633926 0.33557725
0000e0 db cf ae bd b8 ae 39 3f 1b e6 fa bf 75 64 0e bf
       -0.08535739 0.72532225 -1.9601473 -0.55622035
0000f0 9c e2 aa be 80 ce 4c 3f 42 bd 80 3e 33 4a 94 bf
       -0.33376014 0.80002594 0.25144392 -1.1585144
000100 5e 45 4c 3f 77 af d9 3e c5 d7 fc be 0e e8 f6 3e
       0.79793346 0.42516682 -0.4938337 0.4822392
000110 f3 48 a4 bf f7 da 86 3f 6a f1 f6 3e 47 f5 19 3d
       -1.2834762 1.0535573 0.4823106 0.03758743
000120 fe c2 d8 bf 7e c6 9d bf 64 a3 32 3f 3a d0 af be
       -1.6934507 -1.23262 0.69780564 -0.34338552
000130 01 f7 59 bf bd dc 56 bf c1 93 1d 3f 0b 6e 6f 3f
       -0.85142523 -0.8393057 0.6155358 0.9352729
000140 d3 1e 9b 3d 87 68 21 bf 6d 18 18 c0 1f 3d 0e be
       0.07574239 -0.6305012 -2.3764908 -0.13890503
000150 31 49 91 bf 3e 6a 91 be f6 a5 a5 3e ae b7 84 bf
       -1.1350461 -0.2840137 0.3235318 -1.0368555
000160 52 7c c0 3e fc ca 06 be a6 f6 8d 3f 3d 5d 81 3e
       0.3759485 -0.1316337 1.1090896 0.25266448
000170 81 e4 fe be 6b 0a a8 bf 9e c5 f0 3e 71 7d 9c be
       -0.4978371 -1.3128179 0.4702577 -0.30564454
000180 dc 03 b8 be 38 4e 84 bf 43 c4 a4 bf 9e 10 80 3e
       -0.35940444 -1.033637 -1.2872394 0.25012678
000190 58 9e c6 3e 5f 28 23 be 5d 09 a4 3d fa 7e bf 3e
       0.38792682 -0.15933369 0.080095984 0.37401563
0001a0 23 33 1e 3d a6 01 2c bf 9d 4f 11 3f 13 13 54 bf
       0.038622987 -0.67190015 0.56762105 -0.82841605
0001b0 69 7d 5f 3f 7d 33 42 bf ad 8d 0b 3e 68 d4 ba bf
       0.87300736 -0.75859815 0.13628264 -1.4596071
0001c0 85 e3 45 3f f7 a4 83 3f c4 d8 9a 3f a2 68 04 bf
       0.7730029 1.0284718 1.2097402 -0.51722157
0001d0 cf 48 03 c0 d1 a6 0d 3f f4 4f 8e be 39 68 87 3f
       -2.051319 0.55332667 -0.27795374 1.0578681

running_var f4 [120]
000000 3a 23 5c 3f af 85 83 3f 7d ad 66 3f 5d 6e 11 3f
       0.8599125 1.0275172 0.9010847 0.56809026
000010 42 a6 71 3f bc 01 33 3f 53 99 57 3f d0 84 0f 3f
       0.94394314 0.6992452 0.8421833 0.5606203
000020 c9 bc cf 3e ea 12 fd 3e 7f 0d 13 3f c3 44 ca 3e
       0.4057372 0.49428493 0.5744247 0.39505586
000030 e0 5a 93 3f 3c e1 84 3f 3e b6 1f 3f 08 35 d8 3f
       1.1512108 1.0381236 0.62387455 1.6891184
000040 43 ab 25 3f a6 b7 05 3f 08 84 4d 3f 6b c5 21 3f
       0.6471445 0.5223335 0.8027959 0.6319186
000050 fe 49 82 3f d5 c2 15 3f b2 c4 04 3f eb 63 80 3f
       1.0178831 0.58500415 0.51862633 1.0030493
000060 b6 5d 6b 3f dd f2 23 3f a0 46 0c 3f 63 cc 26 3f
       0.91939867 0.64042455 0.54795265 0.6515562
000070 da 73 8b 3f bb 85 0b 3f 72 8a 25 3f 55 2e b7 3e
       1.089473 0.5450093 0.64664376 0.35777536
000080 45 70 3e 3f 38 b7 7a 3f 2e 91 96 3f 8d 57 a7 3e
       0.7439006 0.9793582 1.1763055 0.32683983
000090 28 d5 b0 3f 5e c3 56 3f cf 30 43 3f 92 99 a2 3f
       1.381505 0.83891857 0.7624635 1.2703116
0000a0 94 45 85 3f 87 df 1a 3f 0c 48 21 3f 1e 4a 42 3f
       1.0411859 0.60497326 0.6300056 0.75894344
0000b0 95 c4 b4 3e 74 8c f3 3e d4 52 70 3f ed 0c 54 3f
       0.3530623 0.47568095 0.93876386 0.82832223
0000c0 30 53 56 3f af 92 7c 3f 74 3a d0 3e 77 f2 2b 3f
       0.83720684 0.9866132 0.40669596 0.67166847
0000d0 af f7 50 3f 9f cc 61 3f e1 e7 0a 3f bb 70 1d 3f
       0.81627935 0.8820285 0.5426007 0.6150014
0000e0 a6 1a 6a 3f 48 e9 2e 3f b0 cf 48 3f 43 b4 5a 3f
       0.9144691 0.6832471 0.78441906 0.8543131
0000f0 8e b9 1d 3f 6d 8b 77 3f 83 0e f6 3e 9e d9 f0 3e
       0.6161126 0.9669712 0.48057947 0.4704103
000100 fe d2 04 3f 73 75 a9 3e d6 97 5a 3f b9 37 0d 3f
       0.5188445 0.3309742 0.85387933 0.5516315
000110 ff 26 40 3f cd c6 39 3f 13 ff 45 3f 76 09 be 3f
       0.75059503 0.7256897 0.7734234 1.4846637
000120 ee 7b 82 3f 26 a2 52 3f 43 72 89 3f ac 24 5a 3f
       1.019407 0.8227867 1.0737995 0.85212207
000130 b3 21 71 3f e4 2e 98 3f 76 ab f2 3e d0 dc 88 3f
       0.94192046 1.188931 0.4739644 1.0692387
000140 7e 78 4e 3f 76 6c 4b 3f 06 7b 19 3f 24 a6 38 3f
       0.80652606 0.79462373 0.59953344 0.7212851
000150 b0 a4 54 3f 8f b1 32 3f cc e1 1a 3f f7 71 1c 3f
       0.83063793 0.6980218 0.6050079 0.61111397
000160 10 6e 34 3f e5 ee 20 3f d4 7b 4f 3f ef 7d 82 3f
       0.7048044 0.62864524 0.8104832 1.0194682
000170 9f 44 6c 3f ca b7 d6 3e f2 b6 40 3f 65 29 04 3f
       0.9229221 0.41937095 0.7527915 0.51625663
000180 d5 19 39 3f 6c 01 6c 3f f7 99 71 3f 14 85 27 3f
       0.7230504 0.9218967 0.94375557 0.65437436
000190 28 70 e7 3e 12 97 68 3f c7 9a 87 3f fd 07 84 3f
       0.45202756 0.90855515 1.0594109 1.0314938
0001a0 40 95 46 3f c4 6b 3d 3f 90 18 35 3f 7d 34 5e 3f
       0.7757149 0.7399256 0.70740604 0.8679884
0001b0 6f 83 13 3f 53 04 b0 3f fe 6a 31 3f e0 9b 0f 3f
       0.57622427 1.375132 0.6930388 0.5609722
0001c0 72 50 09 3f 1c 53 29 3f 0d ef 25 3f e9 36 18 3f
       0.53638375 0.6614244 0.6481789 0.59458786
0001d0 5f 47 89 3f a0 87 5d 3f c8 9a 1b 3f ce 61 49 3f
       1.0724906 0.8653507 0.6078305 0.78664863

weight f4 [84, 120]
000000 eb b6 84 be df a6 ab bd 87 ca 86 3d 66 58 9c bd
       -0.25920805 -0.083814375 0.06581598 -0.07634048
000010 40 42 b6 3c 8e cb 47 3e 67 0e ed 3d 68 17 0f 3e
       0.022248387 0.19511244 0.11575013 0.13973773
000020 fd 35 47 3d 04 f9 fd bd 06 9e a4 3d 0f 7c 8d 3d
       0.04863547 -0.124010116 0.08037953 0.06908428
000030 b2 37 b3 3d f4 bd f6 bd 6b 70 e3 bd 59 be d5 bd
       0.087508574 -0.120479494 -0.111054264 -0.104366966
000040 c6 27 1a 3e 80 2f 75 3d 44 cb c2 3c 40 e7 08 3d
       0.15054235 0.059859753 0.023778565 0.033423662
000050 1e 53 20 be 5a 47 22 bd 66 38 66 bd ea 87 6a 3e
       -0.15656707 -0.039618827 -0.05620613 0.2290341
000060 b1 39 a1 3d 64 93 68 3e 67 87 16 be db f9 62 be
       0.07872332 0.22712475 -0.1470009 -0.22165625
000070 76 49 00 3c 9e 78 be 3d 8f e2 92 3d 16 1e e6 bd
       0.007830014 0.0930035 0.07172119 -0.11236207
000080 f6 d3 1f be 4c 11 48 be 0e 3f 4e 3e 0f ce 8e 3d
       -0.156082 -0.19537848 0.20141241 0.06972896
000090 55 28 39 3d d9 25 7c bd d9 4e ef 3d 9f 56 13 be
       0.04520448 -0.06155953 0.11684961 -0.14388512
0000a0 3e 48 d1 3b 0a 31 c1 bc 38 7c 20 be a7 a8 e2 bd
       0.006386786 -0.023582954 -0.15672386 -0.11067324
0000b0 02 d0 cc bd 0c 96 83 3d 62 aa f3 bd 8f 6e bb 3c
       -0.10000612 0.064251035 -0.11897732 0.022879867
0000c0 67 ad 18 be fd 3f 88 bd fd c8 67 3d ba c9 f1 bd
       -0.14909898 -0.0665283 0.05658816 -0.118060544
0000d0 70 0a f1 3b 29 1d 2f be ca 4b 09 3e 84 fb 47 bc
       0.0073559806 -0.17100967 0.13407817 -0.012205962
0000e0 8b 40 09 3e a3 10 09 bd 93 15 54 bd 11 25 47 3e
       0.13403527 -0.03346313 -0.051778387 0.19447733
0000f0 2c 06 73 be b9 1e 7f be ea 6a 92 bd 4f 85 16 bd
       -0.23732823 -0.24914064 -0.071492985 -0.036748227
000100 a8 0b 8d be 05 78 45 bd ee c2 90 bd 3e 64 12 bd
       -0.27547956 -0.048210163 -0.0706843 -0.03574013
000110 50 eb ec bc c2 3d b6 bc cd 0f a5 bd aa 98 2c 3d
       -0.0289208 -0.022246245 -0.080596544 0.04213778
000120 66 5b f7 bd b5 c1 a0 bd 8b 3d 7e be e4 6c 56 bb
       -0.1207798 -0.07849447 -0.24828164 -0.0032718712
000130 10 24 c4 bd d5 47 1b be c0 a1 35 be a2 a1 7a 3e
       -0.09577191 -0.1516412 -0.17737484 0.2447572
000140 cb 2a 2e bd 19 3c 3d be dc f8 97 3d 43 b4 76 3c
       -0.04252128 -0.18479957 0.07420513 0.015057626
000150 b5 51 cd bd 77 f6 28 be 10 cc 3d be 97 69 0e 39
       -0.1002535 -0.16500269 -0.18534875 0.0001358151
000160 d3 c1 10 3d 92 7e 1a 3e bb d8 3f bc ad 22 d7 bd
       0.035341095 0.15087345 -0.011709387 -0.10504661
000170 b6 86 a2 3d 45 b7 6b bd 08 cd 51 3a d7 4c 54 be
       0.0793585 -0.057547826 0.00080032693 -0.20732437
000180 da 73 08 be 90 36 c2 3c e0 b6 1b be 76 40 0d 3e
       -0.13325444 0.023707658 -0.1520648 0.13794121
000190 6f da 4f bc 4b 0c d4 3d f7 e6 72 3b 42 56 e1 3d
       -0.012686356 0.10353907 0.0037063935 0.110027805
0001a0 40 4b cf bc 48 6a 40 bc b0 65 b0 3d 52 a9 a7 bc
       -0.025304437 -0.011744089 0.08613145 -0.02046648
0001b0 ad 45 23 bc 29 39 1a 3e f0 38 b1 3d 9c 03 34 be
       -0.0099653425 0.15060867 0.08653438 -0.17579502
0001c0 41 f5 af bd ed 24 26 be 10 31 04 3e 44 8c e7 ba
       -0.085917 -0.16225024 0.12909341 -0.0017665704
0001d0 62 cc 3a bd 7b d6 39 be 85 2c 12 3e b9 90 94 be
       -0.04560507 -0.18148224 0.14274795 -0.29016665
0001e0 47 53 b4 3c 49 cd c7 bd d2 64 c7 b9 5b ed 5c 3e
       0.022012366 -0.09755952 -0.00038031355 0.21574919
0001f0 4a 91 ca bd 41 e4 14 3e 87 dd 30 bd 95 d5 0c 3e
       -0.09890993 0.14540197 -0.043180015 0.1375335
000200 47 52 24 3e 3b f1 2c be 59 42 06 3d 62 a7 41 bd
       0.16047011 -0.16888897 0.032778118 -0.04727877
000210 0f 1a 9f 3d b4 d8 c1 3d 53 ca 2b be 4e c2 52 3e
       0.07768642 0.09465161 -0.167764 0.20581934
000220 df 6e 9f be de e6 15 bd d2 fc e0 3d f2 4d 46 be
       -0.31139275 -0.036597125 0.10985722 -0.19365671
000230 af a9 2e 3e 73 0d 0f 3e 0b 04 df bd 8a 70 35 3e
       0.17056917 0.13969974 -0.10889443 0.17718711
000240 cb b4 9f 3d 30 68 96 3b f1 80 8f be 55 b7 7a 3d
       0.077981554 0.004590057 -0.28028062 0.061209995
000250 8a db 30 be e7 48 43 3d 1d f2 3d bd 19 f2 9a 3d
       -0.17271248 0.047676947 -0.046373475 0.07565708
000260 4e a9 d5 3d 35 4b c9 3d 2c 9f 51 bd 47 b3 3b 3c
       0.10432683 0.09828798 -0.05117719 0.011456317
000270 5d 78 53 bd c2 63 05 3d 22 91 30 3e 89 60 17 3d
       -0.05162846 0.03256584 0.17242864 0.036957297
000280 55 8c 40 3e 96 bf 2e be b6 a0 1a 3e af 1d 89 bd
       0.18803532 -0.17065272 0.15100369 -0.06695115
000290 55 22 9a 3c 0c 04 10 be c0 3e 5b 3e 81 86 51 3d
       0.018815199 -0.14064044 0.21410656 0.051153664
0002a0 90 da 05 be e3 4c 72 be 32 e3 86 be 7f 4b 44 3e
       -0.13071656 -0.23662142 -0.2634521 0.19169424
0002b0 d1 ad fb 3d 1a d9 29 3e 40 f1 40 3e de 07 2c bd
       0.12289012 0.16586724 0.1884203 -0.04199969
0002c0 e0 01 b2 3d 7a 6b 16 be f1 64 51 3d 8d 1b 52 3e
       0.08691764 -0.14689437 0.051121656 0.20518322
0002d0 24 3b 38 bd 7a 1e 36 bb a0 2e 0d 3d 33 e1 2d bd
       -0.044978276 -0.0027789162 0.034468293 -0.042451095
0002e0 f8 e8 ee bd f5 88 e2 3d 33 6e 25 3e 4b c0 da 3c
       -0.11665529 0.11061279 0.16155319 0.02670302
0002f0 f7 44 68 3c e9 92 8d 3d 1c 04 b2 3d 2c 53 f2 3b
       0.014176599 0.069127865 0.0869219 0.0073951688
000300 39 3d 3e 3e 00 2c 23 bb db b5 0f 3e f3 2c dc bb
       0.18578042 -0.0024898052 0.14034216 -0.0067192256
000310 9e 60 1d 3e 5f 30 8b bc 24 f7 f6 bd f0 27 85 bd
       0.15368888 -0.016990839 -0.12058857 -0.06501758
000320 5e 23 ca bc 6f 63 a0 3b 45 83 e4 bd 08 b7 34 3e
       -0.024675068 0.004894666 -0.1115785 0.17647946
000330 cd ad 0b 3e f6 20 43 bd b1 7d a4 3d 23 a4 89 bd
       0.13640518 -0.047638856 0.08031786 -0.0672076
000340 83 e8 08 3d 1e f0 42 bb a6 c4 0f be 69 aa 55 3d
       0.033424865 -0.0029745172 -0.14039859 0.05216447
000350 b2 8c 51 3e d4 70 72 3d 5e 3a 32 be 2e 6d 12 3e
       0.20463827 0.059189633 -0.17405078 0.14299461
000360 a5 a4 fd 3d 9e 87 d7 bd df 8f 4b bd af f7 37 3b
       0.12384919 -0.10523914 -0.049697753 0.0028071215
000370 5d ec 71 be 62 b5 4e be 11 92 86 be 50 d7 39 be
       -0.23625322 -0.2018638 -0.26283315 -0.18148541
000380 07 e8 24 be 8d 1f 1a bd 7d a1 e4 bd b5 7a 3b 3e
       -0.16104136 -0.037627745 -0.11163614 0.18308528
000390 6b e2 46 3e f3 c8 91 3d ee 85 a2 3d 74 ce fd 3d
       0.19422309 0.07118406 0.07935701 0.123928934
0003a0 22 45 75 bd a2 d1 03 be 13 6d e9 bd 38 1c cc bd
       -0.059880383 -0.12872937 -0.113977574 -0.0996632
0003b0 1a 2d 40 3d 14 f8 16 3c d2 a6 00 3e 51 33 25 bd
       0.046918012 0.00921442 0.12563637 -0.040332142
0003c0 44 94 e3 3d 54 b4 08 be 3e 0e 0f bd 6c 87 d5 3d
       0.11112264 -0.1335004 -0.03492569 0.1042622
0003d0 16 d5 eb 3d 6f b6 99 bd 63 9b 85 3d 70 47 8b 3d
       0.11515252 -0.075054996 0.06523778 0.06800735
0003e0 12 b3 46 3d 99 4b 50 be 67 a1 25 be 46 18 6a be
       0.04851062 -0.20341338 -0.16174851 -0.22860822
0003f0 ff de ea bd 45 c6 38 3d 28 44 27 3e e9 1b 2a 3e
       -0.114683144 0.04511096 0.16334593 0.1661221

bias f4 [84]
000000 aa 44 92 bc 4b 8b 78 bc 03 57 99 bc 16 1a 4d 3b
       -0.017855007 -0.015169929 -0.018718248 0.0031296066
000010 e7 ef 6b bc e4 56 5f 3d 95 d1 ec 3c 0f 62 6f bd
       -0.014400459 0.054526225 0.02890853 -0.058443125
000020 79 48 27 3d 3f e1 51 3d 51 40 5c 3b 89 f3 39 3d
       0.0408406 0.051240202 0.0033607672 0.04539827
000030 e4 b8 90 3d 56 c7 24 3d ab 03 1b bc 73 32 2e 3d
       0.07066515 0.040229164 -0.009461324 0.04252858
000040 d6 35 64 bc 39 73 30 3d 97 6d 9b 3c 55 bf 8b 3d
       -0.013928851 0.043078635 0.018973155 0.06823603
000050 03 8d 40 3b 3c db 9f 3c 88 f2 7a bb dd 67 10 3c
       0.0029380925 0.019513719 -0.0038291533 0.008813825
000060 74 a0 e7 bb b4 db 0a bc 7d 53 1d bd ad 7a ea bc
       -0.007068688 -0.008475233 -0.0384097 -0.02862295
000070 18 41 e1 bb 9e 26 84 3d 21 d0 5d 3d a4 f5 35 bc
       -0.006874215 0.06452678 0.054153565 -0.011105929
000080 56 1f 82 3d 23 29 5d 3d ae 95 7b 3c 29 67 49 3d
       0.06353633 0.05399431 0.015355511 0.049170647
000090 e1 7e 82 bc ca 3c 9e 3d c7 88 0f 3d de e8 c1 bb
       -0.015929641 0.07726438 0.03504255 -0.0059176525
0000a0 24 66 6b 3d 8b 92 8b 3c 25 ee 34 3d da 46 8b bc
       0.057470456 0.01703765 0.044172425 -0.017001558
0000b0 42 6a cf bc 67 2f a6 bb f8 81 1e bd fb cf 4e 3c
       -0.025319222 -0.005071569 -0.038698167 0.012622829
0000c0 b3 93 a2 bb 67 3f 3b bc 96 bd 34 3d 28 d8 4c 3d
       -0.004961455 -0.0114286905 0.044126116 0.05001083
0000d0 01 b2 0c bd b4 d0 57 3d ac fe 3c 3d c0 74 26 bb
       -0.034349445 0.05268927 0.04614131 -0.0025399178
0000e0 58 30 39 3c 46 d2 93 bb 66 69 9c bc 38 21 3b 3c
       0.01130303 -0.0045111505 -0.019093227 0.011421494
0000f0 f6 c0 7b 3d d2 17 cd 3c 97 37 c7 3c d1 9d 96 3b
       0.06146332 0.025035772 0.0243185 0.00459645
000100 31 13 67 3c ab 9b 78 bb b5 97 92 bb c1 5c 1c bd
       0.014103697 -0.0037934582 -0.0044736513 -0.038174395
000110 d2 78 8e bc e9 60 48 bc 48 85 d7 bb c6 a3 b7 bb
       -0.017391596 -0.012230136 -0.0065771677 -0.00560424
000120 3d f9 f7 3c fa 71 0b 3d 6f a9 40 bd 3a 3d 5b 3c
       0.030270213 0.034044243 -0.047036584 0.013381297
000130 e9 1f f8 bc 7a 0b c1 3c b9 dd a0 ba 09 e9 76 bc
       -0.030288653 0.023565043 -0.001227311 -0.015070208
000140 51 11 18 bd b9 5c d8 3c 90 a5 81 3c 59 50 1c bd
       -0.03712589 0.026411401 0.015826017 -0.038162563
