model1/model/bottom(93.83).pt (torch, 276798 bytes, 22 tensors)

weight f4 [6, 3, 5, 5]
000000 79 78 88 3d ec 1a 2d 3d 6b 49 da bd f3 85 b8 bd
       0.06663603 0.042262003 -0.106585346 -0.09009924
000010 68 54 8c bd a6 b6 0e be f0 1f 33 3e df 5f f5 3d
       -0.06852037 -0.13936862 0.17492652 0.119811766
000020 50 cb c9 3d b6 79 e1 bd 0c 6a e6 bc f2 0d 1e 3e
       0.09853232 -0.11009543 -0.028126739 0.15435007
000030 69 55 b4 bd e2 54 bf bd fe a3 ef 3c a0 5c 1a bd
       -0.08805353 -0.09342362 0.029253002 -0.03768599
000040 e4 64 03 3e 17 cc 30 bd e4 bf 17 3e dc 24 f8 bd
       0.12831455 -0.043163385 0.14819294 -0.12116405
000050 27 ee 1e be 7a f8 29 3d 32 9e d6 bd 02 0f ae 3d
       -0.15520535 0.04149673 -0.10479392 0.08498956
000060 c7 75 3f 3d f3 c1 05 3e c4 7a 97 3d 62 ef 9a 3d
       0.04674318 0.13062267 0.073964626 0.0756519
000070 c2 4e e6 3c ad 45 50 bd 7e 1a aa bc 76 41 89 3d
       0.028113727 -0.050847698 -0.020764586 0.06701939
000080 1a 78 d2 bd 45 01 82 3c b2 3e a5 3d fa 65 d4 bd
       -0.10276814 0.015869746 0.08068599 -0.10371013
000090 c8 f3 48 3e 5f 66 13 3e 14 37 28 3e 2a 84 e5 bd
       0.19624245 0.1439452 0.1642726 -0.11206849
0000a0 93 76 29 3d 70 7e d0 3d c4 48 05 bd 67 95 ed 3d
       0.041372847 0.10180366 -0.032540098 0.11600762
0000b0 4b 53 c7 3d c9 5a 87 3d 5c 66 2c 3b ad 28 c6 bd
       0.09732684 0.06609113 0.0026306128 -0.09675727
0000c0 43 83 80 3d ae e1 1c be 7c 4e 08 3e 26 7a 91 3d
       0.06275036 -0.15320465 0.1331119 0.07103376
0000d0 2c 5b f5 ba 74 3c 8e bc 1a de 0a be 3e 28 f6 bd
       -0.0018719188 -0.01736281 -0.13561288 -0.12019394
0000e0 8b 20 ae bd fd bd 86 3c d6 7d fa 3c 4d 37 ae 3d
       -0.08502301 0.016448015 0.030577581 0.085066415
0000f0 3d c2 a7 3d 1c a8 f5 3c 89 57 ee 3d 03 de ef bc
       0.08191345 0.029987387 0.1163779 -0.029280668
000100 1f ac 76 3d 14 9b 1d be ae 82 4f 3e 1b 02 19 3d
       0.06022274 -0.15391189 0.20264694 0.037355524
000110 8e 9f 2c 3e b4 a2 2f 3e eb e7 74 3d 5a f4 b9 bd
       0.1685774 0.1715191 0.059791487 -0.090798095
000120 1c 82 18 be 15 75 c5 3d 72 95 ed bd fb bc f0 3c
       -0.14893383 0.09641472 -0.1160077 0.029386988
000130 2a 56 31 be 44 69 7b 3d 0d 05 35 be 17 49 cc 3d
       -0.17318025 0.061379686 -0.17677708 0.09974878
000140 d4 b9 33 be a3 74 d4 3c 95 43 07 3e 58 6f 0b bd
       -0.17551357 0.025934523 0.13209374 -0.034041733
000150 95 7c 31 bc 2d 33 52 bd 10 43 10 bd be 9e dc bd
       -0.010832925 -0.051318336 -0.035220206 -0.10772465
000160 de 18 06 3e 16 c6 83 bb 0f 89 09 3d 51 17 d1 bc
       0.13095424 -0.0040214164 0.033577975 -0.025523813
000170 ce 96 98 3d f7 dd 98 3c 22 0b ee 3d f6 1e 11 3c
       0.07450639 0.018660529 0.11623217 0.008857479
000180 b2 a1 b9 3d 57 cf 06 be 67 19 89 bc 82 39 09 3e
       0.09064044 -0.13165031 -0.016735746 0.13400844
000190 2a 57 8d bd 9f 97 30 3d 50 bd 51 3d 42 f6 60 3d
       -0.06901391 0.043113347 0.051205933 0.05492235
0001a0 4d fa 03 be c3 35 1e bd d3 dd 74 bd e8 37 a9 bd
       -0.12888451 -0.03862549 -0.05978186 -0.082626164
0001b0 5f f4 0c be 6d f7 fc 3d 25 7c 18 3d ce a9 72 3d
       -0.13765095 0.1235188 0.03722777 0.05924397
0001c0 20 44 49 3e c4 5b e9 bd bf 9b b1 bd 88 e6 48 bc
       0.19654894 -0.11394456 -0.08672284 -0.012261994
0001d0 61 3a 58 3d 60 90 a3 3b 52 32 41 3d 44 6b b4 bd
       0.05279005 0.004991576 0.04716713 -0.08809522
0001e0 67 97 28 be 7a 8b 2f bd 6a 69 6e 3e 42 30 0d bb
       -0.16464005 -0.042857625 0.232824 -0.0021543656
0001f0 f7 0f df 3d 40 bb fb 3d a5 87 d9 bd af 16 f8 3c
       0.10891717 0.122915745 -0.10621575 0.030284254
000200 e1 05 b6 3d 28 96 f7 bd 15 59 f5 3b 8b 1b 8d ba
       0.0888784 -0.12089187 0.007487426 -0.0010765655
000210 73 20 e7 3c 9e b9 32 bc 79 c3 0c 3e 3c e7 d4 3d
       0.028213715 -0.010908512 0.13746442 0.10395667
000220 71 86 30 3d 69 b3 f9 3d f1 8e a7 bd 09 f2 07 be
       0.043096963 0.12192423 -0.08181561 -0.13275923
000230 d6 ca 3b be 34 af 5c bd 27 95 04 3e e1 7e d6 bd
       -0.18339095 -0.053878024 0.12947522 -0.10473419
000240 bf 27 38 be 43 6a 0f be bc 6a 0a 3e ad 39 46 3e
       -0.17983912 -0.1400538 0.13517278 0.19357939
000250 6f 90 ce 3d 47 25 e6 bd 5c 84 19 3a 72 a3 92 bd
       0.10086142 -0.11237579 0.000585621 -0.07160081
000260 a5 46 11 b8 ea 7f 66 bd 77 f0 5b 3c 5c 60 28 3e
       -3.4636487e-05 -0.056274332 0.0134240305 0.16443008
000270 d6 6c 1e be 83 47 0b be 4f 0f 6d bd a1 57 a0 3b
       -0.15471205 -0.13601498 -0.057875928 0.0048932587
000280 a2 3e b3 bd c9 b6 5f 3d 56 1a 7f 3a 63 b9 a7 3b
       -0.08752181 0.054617677 0.00097314024 0.0051185354
000290 6f 46 38 3d 79 78 4e 3e 6d b5 e7 3d 81 29 29 3d
       0.044989046 0.20163144 0.11313901 0.041299347
0002a0 08 1d 83 bd 69 7b 8e bd 8a ab 7a 3d 35 fb 45 bd
       -0.06402022 -0.06957132 0.06119875 -0.048335273
0002b0 1c de 14 be a1 54 16 be 33 d2 8c bd c2 9d 80 bc
       -0.14537853 -0.14680721 -0.0687603 -0.015700225
0002c0 e2 2e cc bd c8 a0 08 be 37 d5 b5 3d 4f a6 8d bd
       -0.0996988 -0.13342583 0.08878558 -0.069164865
0002d0 6c 17 39 3e 9f 25 00 be 7a 3f 6e 3d d1 92 17 bd
       0.18075341 -0.12514351 0.058166005 -0.03700525
0002e0 6e 39 a8 3d 67 06 7c b9 ea 34 0d 3c e0 0b 56 be
       0.08214079 -0.00024034978 0.008618573 -0.20902967
0002f0 c4 89 82 3d bf 12 32 3e 45 6c 1d 3e f6 38 25 be
       0.06373933 0.17389964 0.15373333 -0.1613501
000300 8e b7 a0 bc 73 5e eb bd 32 e3 0e 3e 34 02 f5 bd
       -0.019618776 -0.11492624 0.13953856 -0.11963311
000310 fc 1b 84 ba 98 69 1e be 8a 5c b5 3d ff 55 1d 3e
       -0.0010079141 -0.15469968 0.08855541 0.15364836
000320 6f 1e 82 3d 0e 18 95 3d a9 0c e7 3c 21 27 fc 3c
       0.06353461 0.07279979 0.028204279 0.030780377
000330 da c1 01 be b3 19 d4 bc 80 17 76 3d 22 6c d6 3d
       -0.12671605 -0.02589116 0.060081005 0.104698434
000340 3f 53 ad 3d 02 56 43 bd 01 fd 27 3d e6 60 ab 3d
       0.084631436 -0.047689445 0.041012768 0.08368091
000350 61 05 8f bd c2 6c 24 3d 2e 86 11 bc 4f e4 a3 bd
       -0.06983448 0.040142782 -0.008882089 -0.08002531
000360 6f 4a a4 bb 25 85 01 be 7a f0 2b be fd 3d 52 3c
       -0.005013756 -0.12648447 -0.16790953 0.012832162
000370 79 99 2f 3e e9 3b 36 bd 0d 2c 5b be 4e 08 8f bd
       0.17148389 -0.04449073 -0.21403523 -0.06984006
000380 db 2a 5a 3e 92 31 c6 3d 5e 3b 5f 3b cc f2 e3 3d
       0.2130541 0.096774235 0.0034062485 0.11130294
000390 d4 b2 87 3d df 6d 2d be 10 24 91 3c 30 6a 04 bd
       0.06625906 -0.16936444 0.017717391 -0.03232783
0003a0 39 7a 41 bd d3 eb c8 3d 91 24 eb 3c 46 e5 11 3e
       -0.0472357 0.09810605 0.02870396 0.14247617
0003b0 8f 88 fc bd 21 49 f4 bd ab 6c fb bc e8 eb 2f be
       -0.12330734 -0.11928011 -0.030691465 -0.17179835
0003c0 2c bb ca 3d ad e7 f7 3d 8e 52 52 3d 92 a7 28 be
       0.098989815 0.121047355 0.05134826 -0.16470173
0003d0 72 a6 9a 3d f4 ba 04 3e 14 1c c1 3d 2e 4e 91 bd
       0.07551278 0.12961942 0.094291836 -0.0709499
0003e0 f0 7c b8 3d bb 6b 1b be 5e dc be bc ab 08 8f ba
       0.09008205 -0.15177815 -0.023298439 -0.0010912617
0003f0 bd 26 86 3c 20 74 71 bd 39 d1 f9 bc 8a 42 58 3e
       0.016375894 -0.058948636 -0.030495273 0.21119133

bias f4 [6]
000000 ab 92 75 3b 8b e1 7f bc 2d ee ef 3b 89 a6 17 3c
       0.0037471454 -0.0156177385 0.007322094 0.009256014
000010 bf 5f 9a 3b 23 a6 03 3c
       0.004711121 0.008035216

weight f4 [6]
000000 c3 ff 7e 3f 84 cd 83 3f 84 a2 56 3f 4d 77 89 3f
       0.9960901 1.0297093 0.8384173 1.0739533
000010 3f c9 74 3f 47 44 88 3f
       0.9561958 1.0645837

bias f4 [6]
000000 79 40 82 be e0 ff 25 3c 7f 66 66 bd 95 ef e4 3b
       -0.25439814 0.010131806 -0.05625009 0.006986568
000010 d5 ae 8b 3d fc 8f dd bc
       0.06820456 -0.027046196

running_mean f4 [6]
000000 9d 18 94 3e b2 82 24 bb 54 3c 06 be a5 f8 85 3d
       0.28925028 -0.0025102315 -0.13108951 0.06541566
000010 18 15 7d bd ed 6d e0 3b
       -0.061787695 0.0068490417

running_var f4 [6]
000000 9a 58 3d 3f f3 0f c3 3d 01 c5 99 3e 2a e1 11 3f
       0.7396332 0.095245264 0.30033115 0.569842
000010 b9 a8 0a 3f c6 8c c2 3d
       0.541637 0.09499507

weight f4 [16, 6, 5, 5]
000000 1e 61 b8 3d b8 7e e9 3d 9a 1e 81 3d b3 2e 98 bd
       0.09002899 0.11401123 0.06304665 -0.07430782
000010 b0 b8 6c bd 99 08 09 bd a6 24 d8 bc bf 02 8e bd
       -0.05779332 -0.033455465 -0.026384663 -0.069341175
000020 8d f0 9d 3c 55 14 ae bc af 0f 38 bc 97 8f 0b 3e
       0.019279743 -0.02124993 -0.011234208 0.13628994
000030 a3 dc 51 bd a5 fa 1d 3c c3 33 c7 bc ae 18 c2 3d
       -0.051235806 0.009642278 -0.024316674 0.094773635
000040 34 79 de bc 6c 7d b2 3d 05 bb 71 3b 4c 64 51 bd
       -0.027157404 0.087153286 0.0036885154 -0.05112104
000050 22 74 e8 bd 33 03 00 3d 72 79 2f 3d 48 39 1c bb
       -0.113502756 0.03125305 0.04284043 -0.0023837853
000060 f3 1b 33 bd 09 45 42 3d fc 7a ac bd 68 e9 8f 3d
       -0.043727826 0.04742912 -0.08421895 0.070269406
000070 7a eb 06 bd d1 44 39 3d 2f 90 46 3d b6 a9 c6 bd
       -0.03293941 0.045231644 0.048477348 -0.097003385
000080 96 55 f0 bb 1b 48 3b ba b2 28 e2 bc 9c 2f b0 bd
       -0.0073344214 -0.00071442284 -0.027607296 -0.08602831
000090 89 52 d7 bd 7f 9b 69 3d 4c 3f 90 bd 71 3a 47 3d
       -0.10513789 0.05703306 -0.07043323 0.04863972
0000a0 5f 11 55 bb 41 60 42 bc d3 36 96 bd 21 03 eb 3d
       -0.0032511575 -0.011863769 -0.07334676 0.11475206
0000b0 28 42 80 39 cb 48 11 be 1e 5a 1e be 69 dc 4b ba
       0.00024463353 -0.14187925 -0.15464064 -0.0007776679
0000c0 e5 67 26 3e b7 ee 97 bd 71 0b 81 3d 32 88 9e bd
       0.1625057 -0.07418578 0.063010104 -0.07740821
0000d0 52 26 94 3d 15 f1 32 3d b0 8e 84 3b 53 b0 17 bc
       0.072338715 0.043686945 0.00404533 -0.009258348
0000e0 91 64 40 bd 90 15 4b bd 3b 11 c7 bd b3 7e e7 bc
       -0.046970908 -0.04958111 -0.09720083 -0.028258657
0000f0 1f 17 53 bc a3 b6 61 bb 5a 35 33 bd 5a ed 8b 3d
       -0.0128839305 -0.0034441135 -0.043752052 0.068323806
000100 79 c8 ad bd 9f 6f a5 bd ba 4e b8 3d 51 1c b9 3d
       -0.08485503 -0.08077931 0.08999391 0.09038604
000110 b5 84 58 bd 5e 86 fc bd a8 1a b9 3d db 36 a3 bd
       -0.052860934 -0.12330316 0.090382874 -0.07969447
000120 b4 5f f9 3d 65 a4 de 3b ee c0 17 3d 65 79 02 3c
       0.12176457 0.0067944997 0.037049226 0.007963513
000130 1a 1e 81 bd 59 92 02 bd b9 21 ed 3c f6 64 e6 bc
       -0.063045695 -0.03187785 0.028946744 -0.028124314
000140 8b 16 ab 3c d1 ca 1e 3d 5d 1d b1 bc 4a 90 94 bd
       0.020884773 0.03876764 -0.021620447 -0.072540835
000150 6e 21 90 bd 38 b1 17 bb f2 dd d8 bd e0 d1 3f be
       -0.07037626 -0.0023146402 -0.10589208 -0.18732405
000160 30 6a 92 3d 47 5f e9 3d 0c 75 c9 3c 0f e7 62 3d
       0.0714916 0.11395126 0.024591945 0.055396136
000170 15 95 ca bd 6c ac 1d bd e2 8a be bc 4e 3d 00 3e
       -0.098917164 -0.038494512 -0.023259584 0.12523386
000180 1b 3f ab bd 43 cf d3 bd 62 df 0c 3d d7 26 15 3e
       -0.08361646 -0.103422664 0.034392722 0.14565597
000190 0e 7e 31 bc ba 74 34 3d 2f 5c 94 3d d5 23 b7 bd
       -0.010833276 0.04405663 0.07244145 -0.08942381
0001a0 04 be 8d 3d 1b df 78 bd b4 11 55 3d 66 57 81 bc
       0.06921008 -0.060759645 0.052018836 -0.015788745
0001b0 cc fa 0a be 6e 7e cd bd 0c 33 05 bc e4 5d 39 3d
       -0.13572234 -0.1003388 -0.008129846 0.045255557
0001c0 60 a6 ac 3c b2 74 5a 3d 4c 9f 9b bd 00 af d9 3d
       0.021075428 0.053333946 -0.07598743 0.10629082
0001d0 5f 8f 6e 3d 4c c7 ce bc 65 8c 95 bd bc 48 f4 3c
       0.058242198 -0.025241517 -0.07302169 0.029819839
0001e0 4c 3c 41 bd a7 a8 b2 3d 63 13 c3 bb 7c 3a 51 bd
       -0.047176644 0.08723574 -0.005953239 -0.051081166
0001f0 41 e2 e0 bd bc 57 0c bc 4a 63 45 bd 7f f8 99 bd
       -0.109806545 -0.008565839 -0.048190393 -0.075181
000200 b4 51 14 3d 9e e4 01 bd ac 4e d9 3c be 6c b4 bc
       0.03621073 -0.031712167 0.026526771 -0.022024509
000210 11 4b cd 3d 0d ca 56 3c 78 7a 9e bd 56 92 fe 3c
       0.100240834 0.013109696 -0.07738203 0.031075638
000220 33 ec c1 3c bf fd 8a bd b7 cb e3 3b f1 46 9e 3d
       0.023672199 -0.067866795 0.006951775 0.07728375
000230 15 56 85 bc b1 87 12 bd fb ec db bc 61 cc ca 3d
       -0.016276399 -0.035773937 -0.0268464 0.099022634
000240 20 95 74 bd 45 9a 88 bd 45 2c 1e 3d 9f 22 33 bd
       -0.05971253 -0.066700496 0.038616437 -0.04373419
000250 b9 86 ec 3d c8 d5 2e bd ed 20 41 3d 7c 61 da ba
       0.11549134 -0.042684346 0.04715054 -0.0016661133
000260 54 7e 95 3d 32 a2 8c bd 1c 1e 8a bd 9d 1c 31 3d
       0.07299486 -0.06866874 -0.06744024 0.04324018
000270 88 49 4d bc 35 a7 c3 bd b0 c1 53 bc aa ce 0c bd
       -0.012529738 -0.095533766 -0.012924597 -0.034376778
000280 d8 1b ab 3d 45 0d 02 3e 91 98 ad 3c 4d 2a 97 bd
       0.0835492 0.12700374 0.021190913 -0.07381115
000290 48 87 83 bd 61 72 d4 3d d4 43 26 bd 3e b9 02 3e
       -0.06422287 0.103733785 -0.04059203 0.12765977
0002a0 44 b1 6a bd 5b 10 92 bd 4b c5 33 bd 20 5b 65 bd
       -0.05729796 -0.07132026 -0.043889325 -0.055995107
0002b0 cd f0 0b bc 77 f2 9e 3c 1e 98 89 3d 00 64 e0 3c
       -0.008541298 0.019402726 0.06718467 0.027391434
0002c0 94 c5 35 3d ec 2d 1c bd c1 2f b1 bd ae 40 11 3e
       0.04437788 -0.038129732 -0.086516865 0.1418483
0002d0 2f 13 d2 bd 1c a7 37 bd 5c a2 32 3b 47 57 86 bd
       -0.10257565 -0.044837102 0.0027257418 -0.065596156
0002e0 df 45 e2 3d 90 8c d8 bd a7 d1 8a 3d 3a 30 20 3e
       0.11048483 -0.10573685 0.06778269 0.15643397
0002f0 17 2b 9d bd 3a b2 a9 3d 5d 94 9a bd b2 4a b6 bd
       -0.07674234 0.08285947 -0.07547829 -0.08900966
000300 75 e6 20 3e e6 7e 19 bd 6b d8 d1 bd 2f 48 44 be
       0.15712912 -0.037474535 -0.102463566 -0.19168161
000310 04 99 06 bc 3a 17 10 bd 8c 69 35 3c 08 4a 8b bd
       -0.008215193 -0.0351784 0.011072528 -0.0680123
000320 e9 f7 0b 3d e0 be ff bd 95 1f 76 3d 92 b8 f9 bd
       0.034171972 -0.124875784 0.060088713 -0.12193407
000330 ca de 62 3d ea 66 fe bd d1 18 3e bd 3f 40 09 3d
       0.05538825 -0.12421973 -0.046410386 0.033508535
000340 e0 ba b4 bd 8f 3e c9 bc fa d5 da 3a 59 41 01 3b
       -0.08824706 -0.024565963 0.001669585 0.0019722788
000350 af d3 77 bd 75 d9 0d 3d 7c 5e f2 bc 2b 29 c3 3d
       -0.06050461 0.03463121 -0.02958607 0.095293365
000360 fb df 06 bd 8d 2e 97 3d a3 a0 96 3d fa f7 49 bc
       -0.03292845 0.07381926 0.07354858 -0.012327189
000370 b3 16 6b bc af 4c be 3d c3 b7 e6 bb 36 d7 ed bd
       -0.014348674 0.0929197 -0.007040949 -0.11613314
000380 0c 7c 1f bd 65 ac c3 3d 17 9c 7b bc 44 55 8a 3c
       -0.03893666 0.09554366 -0.015357039 0.016886361
000390 9a 50 ca bc 16 d6 39 3d 76 a8 b5 3d 66 1a da bd
       -0.024696637 0.045370184 0.08870022 -0.10649566
0003a0 3d 5b 0e bd 4f 7e c6 bd 04 b9 3f 3d 0a 4f 0b bd
       -0.03475498 -0.0969206 0.046807304 -0.034010924
0003b0 84 11 77 3c db a7 64 3c 6a 9e ce 3c 55 ba 67 ba
       0.01507986 0.0139560355 0.025222022 -0.00088397163
0003c0 a1 2f c7 bd 2c d0 de bc cc 63 05 be 1f 46 21 3c
       -0.09725881 -0.027198873 -0.1302635 0.009843378
0003d0 26 bd 47 bd 27 5f 4d 3d 0a e9 74 bd c5 84 6a 3d
       -0.04876437 0.050139572 -0.059792556 0.057255525
0003e0 36 6c 23 3c b9 ce f3 bd 77 8a 59 3c da bb af 3c
       0.00997453 -0.119046636 0.0132776415 0.02145188
0003f0 2b f1 38 3c 5f a0 a3 3d 39 1a 5b bd 2f 60 e3 3d
       0.011287968 0.07989573 -0.053491805 0.1110233

bias f4 [16]
000000 96 41 b7 bc 58 a2 01 3b 85 91 f9 bc d8 95 9c 3c
       -0.022370141 0.0019780602 -0.030464897 0.01911442
000010 5d 1a 2e 3c d7 c2 ca 3a a5 d5 93 bc fa fc 82 bc
       0.010626403 0.0015469444 -0.01804621 -0.01598977
000020 d7 8d ea 3b be 08 e6 bb 11 2f 44 3c 80 90 b2 bb
       0.007158022 -0.007020085 0.011974112 -0.0054493546
000030 41 e3 b1 3a 73 cf fd ba 30 7d eb bb 53 99 c3 bc
       0.0013571755 -0.0019364193 -0.0071865544 -0.023876822

weight f4 [16]
000000 4e d9 86 3f 2f d2 82 3f ea 36 6c 3f 51 7c 83 3f
       1.0535066 1.0220393 0.9227129 1.0272313
000010 db 54 77 3f 62 1b 6d 3f dc e9 77 3f 89 e3 87 3f
       0.96613854 0.9261991 0.96841216 1.0616313
000020 06 4e 77 3f 29 a3 84 3f 95 5a 83 3f 93 1e 5f 3f
       0.9660343 1.0362293 1.0262018 0.8715603
000030 9d b7 7d 3f 85 33 91 3f 54 e7 84 3f 59 bf 81 3f
       0.99108297 1.1343848 1.0383096 1.013652

bias f4 [16]
000000 fd 5a 99 bd cc a0 6c bd 00 a3 aa bd f2 3b 25 bd
       -0.07488058 -0.057770535 -0.08331871 -0.04034037
000010 bc 8a 5f bc 67 a8 00 be ba 32 fc bd e7 e8 cb bd
       -0.013643917 -0.1256424 -0.12314363 -0.09956532
000020 3e 33 68 bd 4a 1d fd bc 89 a2 f9 bc dc 0f 0b be
       -0.056689493 -0.030897755 -0.03047301 -0.13580269
000030 3b 9b b5 bd 34 34 38 bd cf bb 30 bd fb f6 d8 bd
       -0.088674985 -0.04497166 -0.04314786 -0.10593983

running_mean f4 [16]
000000 b8 3b 81 be 6b 63 9e be fb d1 02 bf 51 2d 80 be
       -0.25240874 -0.30935225 -0.51101655 -0.25034574
000010 1d f3 82 bd 67 98 ad bd d1 e9 fc 3e 1a 92 98 be
       -0.063940264 -0.08476334 0.49397138 -0.29798967
000020 38 e6 c0 be b2 b3 94 be d5 c6 a5 be 01 cf 0b bf
       -0.37675643 -0.29043347 -0.3237826 -0.5461274
000030 d3 c6 b7 be 26 79 e1 be e6 24 d0 be 6b 6a 0b bf
       -0.35893878 -0.4403774 -0.4065315 -0.54459256

running_var f4 [16]
000000 35 43 86 3e 9d 1a 65 3e 82 47 88 3e b2 99 95 3e
       0.2622315 0.22373433 0.26617056 0.29218823
000010 7a 51 1d 3e 79 5a 25 3e 2e 4a 0f 3e 4f f1 55 3e
       0.15363112 0.16147794 0.13993141 0.20892833
000020 e7 77 88 3e 76 2d 19 3e 3f c6 41 3e 69 ca 8e 3f
       0.26653978 0.14958748 0.18923281 1.1155521
000030 43 f2 c5 3e 90 02 c7 3e 8d e0 c4 3e 83 95 b4 3e
       0.38661394 0.38869143 0.3845257 0.35270318

weight f4 [120, 16, 5, 5]
000000 3a c1 97 3d 7b 3e 46 ba f0 d8 6a 3d 83 96 e2 3c
       0.07409902 -0.0007562411 0.057335794 0.02765966
000010 ff 99 99 3d e9 08 34 bc 6c 5e ee 3c 37 d1 10 bc
       0.075000755 -0.0109884525 0.029097758 -0.008838943
000020 39 03 4b 3c 8b 1b 2d 3d fd 26 b8 bc 7a 3b 31 3b
       0.012390905 0.042262595 -0.022479529 0.0027043507
000030 21 8e 50 bd f4 d2 78 3c c5 1a da 3c 34 7b cf bc
       -0.050916795 0.015187014 0.026624093 -0.025327303
000040 7e f2 34 bd 8a 0f 91 bd 70 27 3c bc f2 1c 02 bd
       -0.04417657 -0.07083042 -0.011484012 -0.031765886
000050 33 7b 07 bd 22 d4 0e bd b3 80 e5 bd 03 77 9d bd
       -0.033076476 -0.034870274 -0.11206188 -0.07688715
000060 46 4a 00 bd 1e e5 54 3d 18 a8 18 bd 77 61 93 ba
       -0.031320833 0.051976316 -0.03726968 -0.0011244257
000070 03 4e 81 bd 0e cf b3 bb e7 a9 4f 3c ae cf e2 bc
       -0.06313708 -0.0054873293 0.012674785 -0.02768692
000080 9c a1 38 3c a9 63 37 3d ef 9f 16 3d 3b 7b 1c bc
       0.011268999 0.044772778 0.03677362 -0.009550865
000090 cf 82 f6 3c 30 e7 73 ba d7 cc e7 3c fb cf 70 3d
       0.030091671 -0.0009304164 0.028295917 0.058792096
0000a0 c3 5a 2e 3d 2a c7 91 bd 95 e5 4a bd 6b 52 45 3c
       0.042567026 -0.07118066 -0.049535353 0.012043576
0000b0 04 fe 06 bc 48 1b 93 3b 78 7b d6 3c e1 e2 d7 bc
       -0.008239273 0.004489336 0.026181921 -0.026353301
0000c0 d2 e6 ee 3c a6 cf db bc fd 74 8e 3b 82 48 5b bc
       0.029162798 -0.026832413 0.004347442 -0.013383986
0000d0 48 64 9f bc fd 0a 42 bc 4a e7 f6 3b 16 dc f4 bc
       -0.019456998 -0.01184344 0.007534896 -0.029890101
0000e0 01 27 7d bd 69 7c ed bc 85 1a af 3c 3a df 86 bc
       -0.061804775 -0.028989987 0.02137495 -0.016463865
0000f0 27 76 a6 bd 2c 95 38 3d e9 a9 4c bd e3 0b 3a bc
       -0.081280045 0.045064136 -0.049966726 -0.011355373
000100 37 b4 19 3c fd d7 25 bc 8d 54 9c 3c 02 41 92 bd
       0.0093813455 -0.010122296 0.019083286 -0.071413055
000110 41 29 3e 3d 1c 8d 0b 3d ed 36 e9 3c 50 13 82 bd
       0.04642606 0.03407012 0.028468573 -0.0635134
000120 c9 89 52 bd 1c 19 15 3d e6 90 99 3c 0e 4b 8c bd
       -0.051400933 0.0364009 0.01874585 -0.06850253
000130 43 57 13 bc 60 da f2 3b 8b 84 1a 3b e0 82 93 3d
       -0.008992973 0.0074112862 0.0023577537 0.07202697
000140 a0 dc 18 bc cc 02 91 3d bb 8f 3c bc 9a 9d 8f bc
       -0.009329945 0.070806116 -0.011508877 -0.017531205
000150 74 5f 2c 3d 6f dc 08 3d e7 94 67 bd 07 38 92 bc
       0.04208322 0.033413347 -0.05653849 -0.017848982
000160 fc a8 52 3d 3a 2c c5 3c 53 17 a6 bc 22 64 28 bd
       0.051430687 0.02406894 -0.020274794 -0.04111112
000170 72 aa 1d 3d d3 77 bd bc cd c2 01 bc 50 dc 9c bc
       0.038492627 -0.023128426 -0.007919979 -0.019148022
000180 86 24 50 bc 09 75 51 3d c1 30 af 3c dc f3 32 3d
       -0.01270402 0.051137004 0.021385552 0.043689594
000190 a4 69 c6 3c 84 af fb bc 23 9e 7b 3b 5f 38 b8 3c
       0.024220295 -0.03072334 0.0038393817 0.022487817
0001a0 a9 3c 0f 3d 96 57 8a bc 25 1b 45 3d e3 d8 63 3b
       0.03496996 -0.016887467 0.04812159 0.0034766726
0001b0 cf 35 b7 ba e0 92 1e bc 3d cd 32 bc 4c 42 87 3c
       -0.0013977828 -0.009678572 -0.01091319 0.016511105
0001c0 ea 0b b9 3c 13 09 28 3d 00 69 99 3c b8 bc 5c bc
       0.022588689 0.04102428 0.018726826 -0.013472728
0001d0 6a 2c 87 bd 6f 4c 7a 3b 98 34 31 3c 0e 5f 3a bd
       -0.06600268 0.003819253 0.010815762 -0.045500807
0001e0 1f 08 d4 3c a1 9a 93 bd a9 d9 db bd 8c 57 5c bd
       0.025882779 -0.072072275 -0.10734875 -0.05379443
0001f0 3c 8c ae bc 59 bf e4 3b f3 dd 4f 3d 95 e5 0c bc
       -0.021307103 0.006980818 0.050748777 -0.0085996585
000200 59 7c 95 3c f6 fc 54 bc 0c 28 bc bb f9 56 aa bc
       0.01824777 -0.012999764 -0.0057420786 -0.020793425
000210 30 86 ff bc 6a 8b d6 3c f6 31 d2 bc 31 b3 1a 3d
       -0.031191915 0.026189525 -0.025658589 0.037768546
000220 74 e5 40 bb 27 ad 49 bc 9b cd 41 3d 43 ad 59 bd
       -0.002943364 -0.012309349 0.04731522 -0.05314375
000230 e9 29 ce 3c 0c f1 93 bc 15 ad 84 bc ce 84 82 bd
       0.025166469 -0.018059276 -0.016195813 -0.06372987
000240 5d 9b 0d bc 1b 3a 67 3d ae 69 b1 bc 9f 8c a3 bc
       -0.0086429985 0.056451898 -0.021656837 -0.019964514
000250 b8 fc 0f bd df 4e 05 bd 36 93 72 bd dd 04 8b bc
       -0.03515312 -0.03254592 -0.059222423 -0.016970092
000260 ae d1 3a bd 4e 25 56 3c 22 ba 82 bc 5a 96 81 bb
       -0.045610122 0.013070418 -0.015957896 -0.003954691
000270 78 ae 75 bc 58 00 50 bc ee 1e d7 3a 55 e6 01 3d
       -0.01499521 -0.012695394 0.0016412416 0.031713802
000280 b0 b1 04 3d 70 bc 88 3c 21 b7 57 bd 27 29 79 bd
       0.03239602 0.016691417 -0.05266488 -0.06083026
000290 da 81 f1 3c df ed ad bc ab 87 39 bd 42 a4 0c bd
       0.029480863 -0.02123159 -0.0452954 -0.034336336
0002a0 d1 88 aa bc d8 9b 9e bb c1 ef 2d bd 36 61 b6 bc
       -0.020817192 -0.0048403554 -0.042464975 -0.02226315
0002b0 5a 76 18 bd da 3c 35 bd d7 51 4a ba af 8c 2b 3d
       -0.037222244 -0.044247486 -0.00077178836 0.041882213
0002c0 9e 9f 19 3b 5f 9d 6a 3d 00 e7 45 bb 92 58 d2 3c
       0.0023441087 0.057278987 -0.0030197501 0.025677
0002d0 7f c5 42 bd 6e 1d 34 3b 5d ae 95 3c 95 8f 97 3c
       -0.04755163 0.0027483362 0.01827162 0.018501082
0002e0 25 27 5f 3d 6e 3d a7 bb 7f 36 9f bd fb 46 6f bc
       0.05448069 -0.0051037585 -0.07774066 -0.014604325
0002f0 ac 14 f0 3c 29 ee ed bb b1 5b 7a bd b3 75 80 bd
       0.029306732 -0.007261057 -0.0611226 -0.06272449
000300 dc 28 37 bd 9f f5 89 bd f2 a8 06 3d ee d7 0c bd
       -0.0447167 -0.06736302 0.032875963 -0.034385614
000310 87 bf 01 be af 9b 0c bc 0d 12 dc bb f2 1d 46 3c
       -0.12670718 -0.00858204 -0.006716019 0.0120921
000320 73 ba b8 3c 2c bd bd 3c 29 e0 32 bd dc 7d 96 3c
       0.022549843 0.023161493 -0.043670807 0.018370561
000330 69 22 bd 3c 2b 96 8b bc c9 14 51 3d 1b 19 09 3d
       0.023087697 -0.01703938 0.051045213 0.033471208
000340 38 95 65 3c 24 1d 16 3d 05 e8 d0 ba 28 e1 4b 3b
       0.014012627 0.036648884 -0.0015938288 0.0031109545
000350 1f b3 dd 3c 48 c7 3c 3d 28 ad 0f 3d f1 91 ae 3c
       0.02706295 0.046088487 0.035077244 0.021309825
000360 8d 51 00 3c e8 de c1 3c 84 e8 27 3c 64 99 ca 3c
       0.007831943 0.02366586 0.010248307 0.024731345
000370 22 96 7a bd 28 21 bf bc 78 8f bc bc 05 95 cf bb
       -0.061178334 -0.02333124 -0.02301763 -0.006334903
000380 b9 bd 6a bd bd b5 03 3d ba 31 83 bc 8e 65 dd 3b
       -0.05730984 0.03215574 -0.016014922 0.006756491
000390 c5 b1 6e bd c3 88 b5 3b 09 95 84 bc df 55 08 bd
       -0.058275003 0.005539985 -0.016184347 -0.033285018
0003a0 26 3f da bc f9 c4 83 3d 04 1b 37 3d b2 57 48 3c
       -0.02664144 0.06434054 0.0447035 0.012227939
0003b0 85 bb cb 3c 8a b1 f0 bc a8 7d d9 3c 55 41 a1 3a
       0.02486969 -0.029381532 0.026549175 0.0012302796
0003c0 53 ee db bc 2b 52 19 bd c3 99 12 3d 2b 38 1b 39
       -0.02684704 -0.037431877 0.03579117 0.00014802876
0003d0 38 ac 5a bc 5a 39 13 bd 86 f1 4f bd 9c 57 21 bd
       -0.013346724 -0.035943367 -0.050767444 -0.03939019
0003e0 e8 6c 0a 3d be 78 2d 3d fa 32 d2 3b b6 90 db 3c
       0.033795267 0.042351477 0.0064147683 0.026802402
0003f0 d1 77 65 3c 14 28 6c bd a4 a3 16 bc 85 da 93 3c
       0.014005617 -0.05765541 -0.009194288 0.018048534

bias f4 [120]
000000 d1 82 e6 ba c1 a6 7f ba 28 03 30 bc a1 88 d7 3a
       -0.0017586594 -0.00097523263 -0.01074294 0.0016443917
000010 3b 2b 07 bb 4e a9 39 bb ed 14 06 3b b0 01 cc bb
       -0.0020625133 -0.0028329673 0.002045925 -0.006225787
000020 96 5f a0 3b 5b 94 6c bb e2 6c e9 ba 04 16 b8 3a
       0.004894207 -0.003609917 -0.0017808939 0.0014044647
000030 2d 9a a9 b9 fe bf 1d ba 90 12 57 3b a2 0c d6 ba
       -0.00032349062 -0.0006017684 0.003281746 -0.0016330669
000040 dd 00 55 3b cb 26 3b bb b4 f9 27 bb 72 bb b9 ba
       0.0032501735 -0.0028557058 -0.0025631012 -0.0014170243
000050 70 1d 29 3b bd 65 2a ba 7a 06 6b ba 79 9d 33 b8
       0.00258049 -0.00065001455 -0.00089655037 -4.2823583e-05
000060 a2 aa da b7 bf 83 47 3b c4 d9 86 bb ba 94 af 3b
       -2.6067082e-05 0.0030443517 -0.004115315 0.0053583058
000070 59 f7 53 bb e5 3f 83 b8 41 d4 28 bb ab d7 7e 3b
       -0.0032343476 -6.258468e-05 -0.0025761279 0.0038885872
000080 be ca 71 3b c2 56 94 3b f0 20 a4 bb 57 5d 81 bb
       0.0036894525 0.004526944 -0.0050088093 -0.0039478946
000090 7e ad 62 3b e6 b4 1c b7 88 05 6c 3a 9a 74 ba b9
       0.0034588273 -9.340443e-06 0.000900351 -0.0003556356
0000a0 a6 b0 67 b8 dc 50 e6 3b a8 66 6b b9 78 b2 be 3b
       -5.523921e-05 0.007028682 -0.00022449589 0.005819615
0000b0 5d 50 b2 ba 9c a7 b7 ba c1 61 2d 3c b4 41 e9 39
       -0.0013604272 -0.0014011743 0.010582388 0.00044490176
0000c0 45 5c 6a 3b 49 cd 1d 3b cb 7c 39 39 f7 b4 d3 3a
       0.0035760563 0.0024078658 0.00017689464 0.0016151954
0000d0 30 0e b2 ba ce b0 d0 b9 eb 20 0a 3b a6 6c 61 3b
       -0.001358455 -0.0003980458 0.002107675 0.0034397035
0000e0 46 6c 10 3b 03 63 82 3b a6 50 e1 bb 69 21 62 3b
       0.0022037192 0.0039790883 -0.006876069 0.0034504777
0000f0 d9 3b 7b bb c3 17 09 bc 44 97 cc 39 ad 20 af 3a
       -0.0038335233 -0.008367482 0.00039022614 0.0013361179
000100 14 43 c6 39 90 be 98 bb bd 57 fc 3a ab 3c 8a 3b
       0.0003781548 -0.0046613887 0.0019252222 0.004218658
000110 0c ef 99 ba 80 58 d0 b8 19 89 51 bc 23 0b c7 bb
       -0.0011744215 -9.934697e-05 -0.012789034 -0.0060743256
000120 39 c1 a8 39 3a 47 09 3b 52 10 a2 39 d0 15 af bb
       0.0003218742 0.0020946995 0.00030911207 -0.0053431764
000130 b1 b0 1a 3b 3c be 88 39 58 cf 82 bb bf f5 51 bb
       0.0023603851 0.00026081677 -0.0039920025 -0.0032037345
000140 21 eb 9c b9 a8 c4 9f ba d4 5e 00 3c 24 bf 60 3b
       -0.00029929823 -0.0012189345 0.007835109 0.0034293616
000150 ee d2 b5 bb 77 2e 4f 3a a4 de 8b bb 96 f9 cc 3a
       -0.0055488264 0.0007903347 -0.004268484 0.0015638347
000160 7c 8a ba 3b a2 08 9d 3b de 20 99 3b 42 45 5e 3a
       0.005692778 0.004792289 0.0046731075 0.0008478948
000170 47 e4 c2 bb ae 7f b7 b9 a8 a6 5a 3b a1 e5 d5 3a
       -0.005947623 -0.0003499961 0.0033363495 0.0016319045
000180 3c fc 96 bb 27 fa a4 bb a9 47 0a bc ac 39 e9 3a
       -0.0046077054 -0.0050347033 -0.008439937 0.0017793677
000190 52 62 4f ba 45 14 3e bb 70 c5 d3 b9 27 b9 6c ba
       -0.0007911074 -0.002900378 -0.0004039216 -0.00090302754
0001a0 a1 32 39 3b ab 55 9e b9 7a 6f 81 ba c5 1b fc ba
       0.0028258937 -0.00030199936 -0.0009875142 -0.001923435
0001b0 4b cf 0e 3b df fc 9d 3a 19 a8 a2 3b 56 a5 22 ba
       0.0021791037 0.0012053511 0.0049638865 -0.00062044465
0001c0 9d 75 f5 ba 23 98 34 3a ce bd 17 ba 7a 30 03 bb
       -0.0018727068 0.0006889125 -0.0005788476 -0.0020017908
0001d0 31 e3 c5 ba fb 53 8d 3a 5e b9 79 3b f6 a9 44 3a
       -0.0015097616 0.0010782474 0.0038104872 0.0007502133

weight f4 [120]
000000 29 cc 85 3f a8 78 86 3f 2d 81 82 3f 1b 9e 81 3f
       1.045293 1.0505571 1.0195671 1.0126375
000010 e9 dc 80 3f 62 19 81 3f f1 63 82 3f fb 5b 80 3f
       1.0067416 1.0085871 1.018675 1.002807
000020 ba 26 71 3f 5c b9 82 3f f3 ea 7f 3f db ea 7e 3f
       0.9419972 1.0212817 0.9996788 0.9957711
000030 75 04 83 3f 75 87 85 3f e0 e3 7e 3f 6a 86 7e 3f
       1.0235735 1.0431963 0.9956646 0.9942385
000040 dc 52 80 3f 46 f6 83 3f 2f ca 80 3f a5 c5 79 3f
       1.0025287 1.0309532 1.0061702 0.97567207
000050 38 01 86 3f ec 67 7e 3f a8 f6 87 3f e5 73 86 3f
       1.0469122 0.9937732 1.0622149 1.0504118
000060 34 c8 81 3f dd 58 89 3f 2e a5 88 3f 90 ea 7a 3f
       1.0139222 1.0730244 1.0675409 0.98014164
000070 46 4b 82 3f c7 4d 83 3f d9 80 86 3f 7a ed 83 3f
       1.0179222 1.0258111 1.0508071 1.0306847
000080 f8 fb 85 3f 31 0b 75 3f 31 7c 83 3f c5 b9 8b 3f
       1.046752 0.957202 1.0272275 1.0916067
000090 6f 1c 7b 3f 14 b0 77 3f ba ce 81 3f 59 bf 87 3f
       0.9809026 0.9675305 1.0141213 1.060527
0000a0 db 3c 82 3f bf 72 7d 3f 78 7b 82 3f 9e ef 82 3f
       1.0174822 0.99003214 1.019393 1.0229375
0000b0 13 2d 80 3f 08 dc 88 3f e7 19 83 3f 88 e0 81 3f
       1.0013756 1.0692148 1.024228 1.0146646
0000c0 47 dc 89 3f be 1e 84 3f 44 a8 83 3f 69 88 87 3f
       1.0770348 1.0321882 1.0285726 1.0588504
0000d0 db 53 85 3f 55 57 7f 3f 85 7f 7e 3f b2 de 7e 3f
       1.0416216 0.99742633 0.9941333 0.99558556
0000e0 74 50 7f 3f 9b 42 7c 3f 51 7c 7b 3f f8 d8 83 3f
       0.99732137 0.9853913 0.98236567 1.0300589
0000f0 47 0f 7a 3f b0 1b 82 3f 90 fd 8a 3f 70 d3 78 3f
       0.9767956 1.01647 1.0858631 0.9719763
000100 d8 a3 81 3f 8d eb 80 3f ab 92 80 3f 89 e2 82 3f
       1.0128126 1.0071884 1.004476 1.0225383
000110 80 7d 82 3f aa 2a 7e 3f a2 14 89 3f b4 77 83 3f
       1.019455 0.9928385 1.0709422 1.0270905
000120 f2 65 82 3f ed 42 87 3f 26 70 82 3f e4 ed 81 3f
       1.0187361 1.0567299 1.0190475 1.0150723
000130 ee e3 7c 3f 1a 05 83 3f 34 34 82 3f 2c d0 88 3f
       0.98785293 1.0235932 1.0172181 1.0688529
000140 a8 79 88 3f a0 88 82 3f 03 72 81 3f 3b 3d 80 3f
       1.0662127 1.0197945 1.0112919 1.0018686
000150 67 77 80 3f 23 f3 80 3f 97 12 7f 3f 9b ce 81 3f
       1.0036439 1.00742 0.9963774 1.0141176
000160 63 b2 82 3f f8 0a 80 3f 33 15 86 3f 5c c1 81 3f
       1.0210689 1.0003347 1.047522 1.0137134
000170 5c 06 84 3f 0c ab 83 3f 95 4b 81 3f 5d 00 80 3f
       1.0314441 1.0286574 1.0101191 1.0000111
000180 0f 24 82 3f 48 39 83 3f 50 3d 80 3f 9b 36 83 3f
       1.0167254 1.0251856 1.0018711 1.0251039
000190 92 50 77 3f 86 b9 7e 3f 8a 4a 7c 3f 7c 01 84 3f
       0.96607316 0.99501836 0.9855124 1.0312953
0001a0 9f 23 80 3f 27 8e 86 3f 37 a4 81 3f 4e cd 83 3f
       1.0010871 1.0512131 1.0128239 1.0297029
0001b0 75 3f 84 3f 37 03 83 3f 9e 81 85 3f f1 a4 80 3f
       1.0331866 1.0235356 1.0430181 1.0050336
0001c0 5a 2c 7c 3f 54 88 87 3f e0 49 7f 3f ad ef 83 3f
       0.98505175 1.0588479 0.997221 1.0307518
0001d0 1a ab 83 3f 95 54 84 3f e7 e0 80 3f 96 be 81 3f
       1.0286591 1.0338312 1.0068635 1.0136287

bias f4 [120]
000000 ed 27 24 3d 7f bd 4d 3d 26 a8 b0 38 7c 21 80 bc
       0.04007714 0.050229546 8.423654e-05 -0.015640967
000010 75 1a ba bc 24 37 c2 3c 79 3e 85 bc 06 9d c7 3b
       -0.022717694 0.023707934 -0.01626514 0.0060917167
000020 47 d2 15 bd e6 cb 4f 3c 9e ab 04 bb 78 aa 1b 3c
       -0.03657749 0.0126828905 -0.0020243893 0.009501092
000030 a8 09 a2 3a 7b 44 2c 3d 16 56 5e 3c 5f af 20 bc
       0.0012362497 0.042057496 0.013570329 -0.009807437
000040 5c c4 dc 3c 10 83 2a 3d 6d 05 49 3b 83 67 c6 bc
       0.0269491 0.041628897 0.00306734 -0.02421928
000050 69 b0 d9 3c bf 21 09 bd 87 b0 6c 3d 4e 22 ba 3c
       0.026573377 -0.03347945 0.057785537 0.022721436
000060 3d 7b 05 bd fa 47 95 3c 52 7d f6 3c 4e 30 8a bb
       -0.032588232 0.018222798 0.030089054 -0.004217184
000070 0d 2c ac 3c 3f 95 c4 3c 00 7a 0b 3d 85 51 98 3b
       0.021017099 0.023996947 0.034051895 0.0046483898
000080 5f e7 f7 3b 3b ea 1e bd c7 21 74 b9 a9 eb 3b 3d
       0.0075654234 -0.0387976 -0.00023282236 0.04587904
000090 a6 63 5c bc 67 7f c3 bc d0 82 ba bc f6 92 c1 3c
       -0.013451492 -0.023864461 -0.022767454 0.023629647
0000a0 84 51 5c bc 1d f4 12 bd 32 57 55 3c b6 f7 04 bb
       -0.013447169 -0.035877336 0.013021277 -0.0020289249
0000b0 34 d0 91 3c 18 7c a5 3c 2b 96 1f 3c 26 d7 f0 3c
       0.017799474 0.020200774 0.009740393 0.029399466
0000c0 07 95 6e 3d 45 21 30 bc 18 d7 51 bc 3a 31 76 3c
       0.058247592 -0.01075012 -0.01280763 0.015026385
0000d0 15 9c 0e 3d 2d f2 62 bc 2f f5 0f bc 8d 57 72 bc
       0.03481682 -0.0138516845 -0.008786484 -0.014791382
0000e0 b3 2a 8a bc 1c bc 0f bd db 09 81 bb ff 32 c4 3c
       -0.016866064 -0.035091504 -0.0039379424 0.023950098
0000f0 73 4c f8 bc e4 a4 96 3a a1 c1 0d 3d 95 ca ca bc
       -0.030309891 0.0011493233 0.034608487 -0.024754802
000100 96 b6 0e bb 3a 56 a1 bc 01 b9 5a 3a 37 86 59 bb
       -0.002177631 -0.019694436 0.0008343608 -0.003319157
000110 3b bf 46 3c ca da ff 3a a1 d2 e8 3c e9 a8 2e 3d
       0.012130554 0.001952016 0.028420748 0.042641554
000120 2e db 98 3c f9 7d 2c 3d 6e e5 da bc c2 46 3c bb
       0.0186592 0.042112324 -0.026720729 -0.0028728698
000130 c0 54 8f bc 5b ab a3 3c 7a 4a 8a 3c e6 bb 56 3b
       -0.017496467 0.01997917 0.016881216 0.0032765805
000140 20 41 00 3d 72 16 c5 39 1c 3d af 3c 42 e8 d2 3b
       0.031312108 0.0003759149 0.021391444 0.0064363787
000150 76 40 14 bc d9 68 1f 3d d6 48 85 bc 2c 31 24 3b
       -0.009048572 0.03891835 -0.016270082 0.0025053723
000160 cc 66 98 bc 0c 32 8c 3b fe 8e ef ba 3b 5e bf bb
       -0.018603705 0.004278427 -0.0018276868 -0.0058400906
000170 04 cb 13 3d 74 7b 03 bc 51 c5 f6 3c 10 68 4f bc
       0.036082283 -0.008025039 0.030123385 -0.012659088
000180 fc db 40 3c 2c 3a fe 3c 62 c8 97 3a 72 d6 88 3c
       0.011771198 0.031033598 0.0011580104 0.016703818
000190 92 38 cd bb 6d 0e 03 ba da cc ec bb dc 30 03 3c
       -0.006262847 -0.0004999403 -0.0072265686 0.008007254
0001a0 bd 56 01 3b 21 34 fd 3c 7c c5 3c bc 08 70 95 3c
       0.0019735538 0.030908646 -0.011521693 0.018241897
0001b0 48 c9 de 3c 4e e9 c9 3b 1d b2 4d bd f6 b3 80 3c
       0.027195588 0.0061618453 -0.05021869 0.015710812
0001c0 0c f7 2b bd 2c 3c 64 3d c7 ae 35 bc 46 92 a3 3c
       -0.04198365 0.055721447 -0.011089033 0.01996721
0001d0 19 a8 c7 3c 87 e9 40 3d 9c 06 b2 3a 3a 37 e6 bb
       0.024372147 0.04709771 0.0013582292 -0.0070256265

running_mean f4 [120]
000000 88 57 45 be 74 3d 21 bf 65 42 9d 3e 18 2c 1a bf
       -0.19271672 -0.62984395 0.30714718 -0.6022353
000010 eb c2 9e 3e 64 76 79 be 00 09 45 3f 9d 37 e5 bd
       0.31008086 -0.24361569 0.7696686 -0.11192248
000020 0a 85 10 be 04 85 a6 3e e9 8a 1b be 2a 56 ec 3e
       -0.1411325 0.32523358 -0.15189709 0.46159488
000030 71 60 5c 3e aa d0 74 3e fc 52 50 3e 2b f2 e6 3e
       0.21521164 0.23907724 0.20344156 0.45106634
000040 7c 40 2d bf 2c 7b 17 3f 44 a2 1c 3f d0 e6 19 3f
       -0.6767652 0.5917232 0.611851 0.60117817
000050 83 70 cc bd a4 6e 50 bf 88 87 f8 3e d6 9e fe bd
       -0.099823974 -0.81418824 0.48540902 -0.12432639
000060 e4 b5 b8 3e d2 3f 61 be 50 7c 29 3f df 2f be bd
       0.36076272 -0.21997002 0.6620531 -0.092864744
000070 69 63 0b 3f d8 68 83 be 7b ce 4a 3e 80 93 ae 3e
       0.5444856 -0.25665927 0.19805329 0.3409691
000080 1c 8a 14 bc 43 3f 81 be 1b 5f c7 be d3 fa 70 3e
       -0.009066131 -0.25243577 -0.38939747 0.23533182
000090 4a df c7 be d8 79 4b 3e ea ae 34 bf 52 52 3d be
       -0.39037544 0.19870698 -0.705794 -0.18488434
0000a0 67 c4 7c bf 6f 71 d5 be b6 0d c8 3c 93 81 ce be
       -0.98737186 -0.41688105 0.0244206 -0.40333232
0000b0 e9 9c ea be 34 07 10 3e 21 a8 18 bf df 30 2f 3f
       -0.45822838 0.14065248 -0.59631544 0.68433946
0000c0 6b c3 89 bd 0b 4a 1d be 50 14 42 be f9 0c 8e bd
       -0.06726726 -0.15360276 -0.18953061 -0.06936068
0000d0 2e 2d 0e 3f f2 51 ac 3d 84 6f 30 bc 2a 7d aa 3e
       0.5553769 0.08414067 -0.010768775 0.33298618
0000e0 c4 2f 8b bd bf ba 2e bd 99 13 3c be b5 4e 60 3e
       -0.0679622 -0.042658564 -0.18366851 0.21905024
0000f0 e4 2e dc 3e 9c 57 4f 3f fd c4 87 3e 3a 58 76 be
       0.43004525 0.80993056 0.26517478 -0.24057093
000100 98 f4 0d 3e 7b 62 47 bf c0 90 65 3f fd 4c 15 3e
       0.13862836 -0.77884644 0.89673996 0.1458015
000110 05 c7 f6 3e 26 bf 31 3f 84 a3 41 3e cc 6d 1e bb
       0.48198715 0.69432294 0.18910033 -0.002417433
000120 ce 6c a0 bf 54 6c 6b be 4e da df be 36 e2 e4 3e
       -1.2533205 -0.22990543 -0.4372124 0.44703835
000130 a8 d6 a4 be 14 54 6f be ff 3e 00 3e 66 25 d0 3e
       -0.3219502 -0.23371917 0.12524031 0.40653533
000140 e0 1a d3 3e 71 fa 0d 3f f5 08 c0 3e 58 cf 9a bd
       0.41231441 0.5546027 0.37506834 -0.07559079
000150 69 cb f1 bd de 14 d9 be 52 be 3d bf 93 a7 ac be
       -0.118063755 -0.42398733 -0.7411853 -0.337216
000160 79 2f 0c 3e 58 7e a5 3e be f1 ce be e0 ff 10 bd
       0.13689984 0.32322955 -0.4041881 -0.03540027
000170 80 98 ac 3e fe 9d 8f 3e 07 f5 1d 3f ef c6 96 be
       0.33710098 0.28050226 0.6170201 -0.2944865
000180 58 db 91 3a a5 81 b7 be b4 c4 0d bf 14 97 a0 be
       0.0011127992 -0.35841098 -0.5537827 -0.31365263
000190 38 a2 c2 be b4 7b ac 3d 88 12 4c 3f b2 78 af be
       -0.38014388 0.08422032 0.79715776 -0.3427177
0001a0 5a 39 37 3f 55 ba 6e 3f 6e 37 c9 be ca 68 15 3f
       0.71571887 0.9325307 -0.39300102 0.5836302
0001b0 19 b7 8b 3e 90 1c 16 bf 96 5f 37 bf fc 29 d1 3d
       0.2728813 -0.5863733 -0.7163023 0.10213086
0001c0 cf a4 47 3e f1 3a 0d 3e 78 aa 20 bf d1 7e 48 3f
       0.19496463 0.13792016 -0.62760115 0.78318506
0001d0 3d 7e 6a 3e 80 2f ee be ed 37 4f be 61 b5 3a 3f
       0.22899719 -0.46520615 -0.20236178 0.7293301

running_var f4 [120]
000000 04 0c 94 3e bb b1 8f 3e a1 18 04 3e 57 27 42 3e
       0.28915417 0.28065285 0.1290002 0.1896032
000010 66 b1 04 3e 7c 21 04 3e d4 6c b0 3e 29 5e 07 3e
       0.12958297 0.12903398 0.3445803 0.13219513
000020 90 ef c3 3e ee b2 6c 3e 3d 07 24 3e 28 58 78 3e
       0.3826871 0.23115131 0.16018386 0.24252379
000030 25 99 2b 3e 8b 51 38 3e d6 82 8f 3e 03 79 64 3e
       0.16757639 0.17999856 0.28029507 0.22311787
000040 7c 82 8e 3e e3 88 cd 3e a6 56 7f 3e 2e 6d 28 3e
       0.27833927 0.401435 0.24935398 0.16447899
000050 3a c0 89 3e 7d 5e 0b 3e c3 cb b5 3e d6 9e 9f 3e
       0.2690447 0.13610263 0.3550702 0.3117587
000060 a5 19 f2 3d 19 89 4f 3e eb 8d b6 3e 1d f3 f1 3d
       0.118212976 0.20267142 0.3565515 0.11813948
000070 6f e5 8e 3e a7 fb fa 3d 15 9f f8 3e 48 80 3a 3e
       0.2790942 0.1225503 0.4855887 0.18212998
000080 14 3d 3f 3e f8 a6 f2 3d 7c e0 ee 3d 68 b1 95 3e
       0.18675643 0.11848253 0.11663911 0.29236913
000090 c3 34 38 3e d7 fd d2 3e 80 9a 96 3e d0 61 c2 3e
       0.17988877 0.4120929 0.2941475 0.3796525
0000a0 72 2b 54 3e f3 64 3e 3e 02 f3 4d 3e 1c 85 41 3e
       0.20719698 0.18593197 0.20112231 0.18898433
0000b0 ff 5d 10 3e ee 89 56 3e 8f 45 fd 3d 40 26 27 3e
       0.14098357 0.20951054 0.12366783 0.16323185
0000c0 6f 10 7c 3e 05 24 1d 3e 3f 49 be 3d da 36 b6 3d
       0.24615644 0.15345772 0.09291314 0.08897181
0000d0 43 50 14 3e 28 44 91 3e 62 df 50 3e 7f de ee 3e
       0.14483742 0.28372312 0.20397714 0.46654126
0000e0 c9 b2 15 3e f5 00 6b 3e cf 11 b3 3e f5 a7 90 3e
       0.14618982 0.22949584 0.34974524 0.2825314
0000f0 89 b3 84 3e 80 1f c9 3e 36 46 67 3e 1b de 44 3e
       0.25918224 0.39281845 0.22585377 0.19225352
000100 17 69 59 3e 22 0b 1b 3e 06 6c 22 3e 6c 13 df 3e
       0.21231495 0.15140966 0.1586152 0.43569505
000110 36 fd 35 3e 91 2a 9a 3e 5b 6c 3f 3e 5e d8 2a 3e
       0.17772374 0.301106 0.18693678 0.166841
000120 c2 fd 82 3e a3 ad 14 3e d6 c7 92 3d b7 32 d7 3d
       0.25584227 0.14519362 0.07167022 0.1050772
000130 fc a8 0d 3e 10 f8 83 3e f7 95 5b 3e db 6a 87 3e
       0.13833994 0.25775194 0.21443926 0.26448712
000140 cc 5b 50 3e b7 d0 90 3e 5f 2a 85 3e 10 c7 1f 3e
       0.20347518 0.28284237 0.2600889 0.1560328
000150 61 fc d2 3d 67 69 07 3e 7d 7d 4f 3e ab c3 61 3e
       0.10302044 0.13223802 0.20262714 0.22047298
000160 f8 b3 2a 3e ff 04 1a 3e a6 99 2a 3e 4f 28 83 3e
       0.16670215 0.15040968 0.16660175 0.2561669
000170 87 a4 75 3e 01 6d 58 3e 45 a8 db 3e 13 ec 0a 3e
       0.23988543 0.21135332 0.42901817 0.13566618
000180 08 a1 04 3e 12 85 62 3e 06 b0 56 3e 44 fa 44 3e
       0.12952054 0.22121075 0.20965585 0.19236094
000190 9e 47 5e 3e 9e 1a 1e 3e 8e 14 54 3e 64 0d ed 3d
       0.21707007 0.15439841 0.20710966 0.1157482
0001a0 38 f4 94 3e a6 62 fc 3e d2 8a 3d 3e 1f 3d 02 3e
       0.29092574 0.49294013 0.18509987 0.12718628
0001b0 2b 9f b8 3e 5d 37 29 3e a2 12 e3 3d 7e 8e a0 3e
       0.36058936 0.16525026 0.11087538 0.31358713
0001c0 f9 f9 4d 3e 75 21 f3 3e 2a 74 19 3e eb da 9d 3e
       0.20114888 0.47486463 0.1498572 0.30831084
0001d0 9f 9d 12 3e b2 ad 6b 3e e3 d0 c2 3d ca 47 f5 3e
       0.1431794 0.23015478 0.09512498 0.47906333

weight f4 [84, 120]
000000 9b 80 82 3d bb 49 0d 3e ce df 08 be cf 5c ab 3d
       0.06372186 0.13797657 -0.13366625 0.08367311
000010 dd a5 96 3c 55 66 04 be 48 dd 17 bd 9a 1d d2 3d
       0.018389637 -0.12929662 -0.037076265 0.10259552
000020 a0 eb 8d bd cd 65 68 be f7 1a 22 be 2b ed 65 bd
       -0.069297075 -0.22695084 -0.15830599 -0.056134384
000030 87 1a 3c be 21 06 62 bd 90 74 66 bc 2d d2 39 be
       -0.18369494 -0.055181626 -0.014065877 -0.18146582
000040 01 b4 1a bd 69 2c 05 3e 3c b5 e0 3d fd f5 ee 3d
       -0.03776932 0.13005222 0.10972068 0.11668012
000050 28 3c 53 be 80 6b aa bb e5 9d 08 3e f7 9e 8d 3d
       -0.20628417 -0.0052008033 0.13341482 0.06915086
000060 76 9f fd bc 4e 6c 2c 3e bd d3 80 3d 78 06 26 bd
       -0.030959826 0.1683819 0.06290386 -0.040533513
000070 2e 4a 14 be 42 2f 50 3d 12 9c 46 3d 2c 59 e3 3b
       -0.14481422 0.05082632 0.048488684 0.0069381204
000080 de 3c 23 3e 30 db 5d 3d 11 e3 80 3c eb d4 93 bd
       0.15941188 0.05416411 0.015733274 -0.07218345
000090 a0 0a c0 3c 89 f3 08 3e 51 07 33 3e b3 3a 20 3e
       0.023442566 0.13374151 0.1748326 0.15647392
0000a0 a9 9a e2 bd 05 88 07 3e 68 05 69 3d ff 70 4b bd
       -0.11064655 0.13235481 0.05688992 -0.04966831
0000b0 a8 e5 3a be d5 4f c5 3c 33 26 01 bd b2 91 b8 3c
       -0.1825167 0.024085918 -0.03153057 0.02253041
0000c0 6b 84 78 bd c3 3e 3c 3e 0d 3f b9 bd e4 4f 53 be
       -0.06067316 0.18383317 -0.09045229 -0.20635945
0000d0 eb 86 4b ba 34 20 8b bc 6b 87 f1 3d 6a 8e 0c 3e
       -0.000776394 -0.01698313 0.11793407 0.13726202
0000e0 26 9b ae 3d 46 9f 08 3d a4 03 db 3d 57 f4 16 be
       0.08525686 0.03335502 0.10694054 -0.14741646
0000f0 51 6e 1b 3e ed ff bf bd d1 37 05 be 2c 18 ca ba
       0.15178801 -0.09374986 -0.13009574 -0.0015418581
000100 26 bc 04 3e cf 21 57 bb a8 4e 12 3c 47 b4 17 3e
       0.12962398 -0.0032826548 0.008929886 0.14814864
000110 8e 55 8c bd 4a 84 c5 3d 83 55 d8 3c fe 83 a9 3d
       -0.06852256 0.09644373 0.026407963 0.08277129
000120 bf fa ad 3c 08 e8 0e bd 59 ce e8 3d 7d 0b bf 3d
       0.02123773 -0.03488925 0.11367483 0.09328363
000130 ac 3b 48 bd 3a f0 35 be b0 e4 74 3d 67 46 b3 bb
       -0.048885033 -0.1776742 0.059788406 -0.005471039
000140 12 3a 03 3d 7c c4 d6 3d b7 c4 21 be ee 76 a5 3a
       0.032037802 0.10486695 -0.15797697 0.0012623945
000150 6d a9 48 3d 44 10 1a be ec 94 48 3e 0a bc dc 3d
       0.048989702 -0.15045267 0.19588059 0.10778053
000160 78 3a f9 3d f2 e4 9a bd 18 ea 55 bd a4 4b ba bc
       0.12169355 -0.07563199 -0.052225202 -0.022741146
000170 f8 1d 87 3d 71 55 65 bd 4f b0 95 bd 95 b6 21 bd
       0.06597513 -0.055989686 -0.07309019 -0.039480764
000180 1b 33 94 bc 5a a7 13 bc 03 8e ec 3d d5 79 58 be
       -0.018090775 -0.009012068 0.11550524 -0.21140225
000190 9c e4 c9 bd b2 3c 18 be e8 54 00 be d9 96 66 bd
       -0.09858057 -0.14866903 -0.12532389 -0.056296203
0001a0 ca be bd bd e3 86 18 3e f2 d1 14 be 3c b2 34 3e
       -0.09264906 0.14895205 -0.14533213 0.17646116
0001b0 ae 08 2a 3e 94 ed 37 3e a7 d2 38 3e da 90 c1 3d
       0.16604874 0.17961723 0.18049107 0.09451456
0001c0 40 fc d5 bd ca f0 02 bd 57 eb 26 bd 7e 73 2d be
       -0.104485035 -0.031967916 -0.04075178 -0.16938588
0001d0 80 67 01 be b4 20 4c bb e6 1f a3 bd 78 8b 28 bd
       -0.12637138 -0.0031147422 -0.079650685 -0.041148633
0001e0 cb a8 37 3d 8a 11 28 bd 31 c0 9e 3d 0b 66 cc 3d
       0.044838708 -0.04103235 0.07751501 0.09980401
0001f0 ca 7e d3 bd c5 3a 3d 3e fd 2b 6d bd 4c a7 16 3e
       -0.103269175 0.1847945 -0.05790328 0.14712256
000200 d1 d9 f9 3c fe ee ec 3d 86 e6 37 3d a2 2f 80 bc
       0.03049937 0.11569022 0.04489758 -0.015647713
000210 39 6f 22 3e f0 d9 7e 3d 00 d8 c9 bd a0 5e 00 3d
       0.1586274 0.06221956 -0.09855652 0.03134024
000220 ca 45 c6 bd 3c e4 54 3b f4 6d e9 bd bb fe 17 3e
       -0.0968128 0.003248467 -0.11397925 0.14843266
000230 e4 25 24 be bf 78 35 be 69 25 48 3e c9 01 5a 3e
       -0.16030079 -0.17721842 0.19545521 0.21289743
000240 96 de 3b 3e fb 31 d5 bd d4 99 f0 bc 11 e6 36 3c
       0.18346629 -0.10409924 -0.029370226 0.011163251
000250 1f cf ac 3c 68 eb e4 bd 11 39 23 3c 58 f1 25 be
       0.021094857 -0.11177713 0.009962336 -0.16205347
000260 df f0 9d bc b7 ec 38 be 71 12 59 3d b4 6a a6 bd
       -0.019279895 -0.1805905 0.052996103 -0.08125821
000270 22 c5 2c 3d 98 1f 4d bd 4d e1 a0 bd 92 33 ee 3d
       0.042180188 -0.05007896 -0.07855473 0.1163093
000280 3e da 33 be 06 e9 1d 3d e0 33 59 bd dd 4f 1f be
       -0.17563722 0.038552307 -0.053027987 -0.15557809
000290 42 78 5d 3d 01 14 61 3e 8a 75 37 3b 6e ad fa 3b
       0.054069765 0.21980287 0.0027993643 0.007650069
0002a0 c3 49 15 3e 9e 16 a0 bd 5f 1f 07 3d 61 b2 e2 bc
       0.14578919 -0.07816814 0.032988902 -0.027672948
0002b0 8c ea 51 3e 46 75 be 3c 05 30 13 bc 43 e5 3d 3d
       0.20499629 0.02324928 -0.008983617 0.04636122
0002c0 bc 2d 3f 3d 11 4a 44 3c 02 fd 11 be 80 0b 2b be
       0.046674475 0.011980549 -0.14256671 -0.16703606
0002d0 be 21 90 3c 08 5d 2e 3e e7 bf 48 bc ad ae 33 be
       0.017594215 0.17027676 -0.012252784 -0.17547102
0002e0 20 1a 45 be cf 37 9a 3d cf e4 0c be c9 6d 90 3b
       -0.19248247 0.07530176 -0.13759159 0.0044076187
0002f0 38 79 d1 3d 57 b5 62 bd eb 3f fe bd 08 76 51 3e
       0.10228199 -0.05534872 -0.12414535 0.20455182
000300 eb d1 3a be 8c ea 87 bd c3 9a 36 bd 33 d9 0c 3e
       -0.1824414 -0.06636533 -0.044581186 0.1375473
000310 8f 88 19 3e d3 c7 10 3e 50 2c 1e 3e 31 6f 30 bd
       0.14993499 0.14138727 0.15446591 -0.04307479
000320 fa 23 b0 bd 53 55 70 bd f7 9b 0e bb 9b de 00 3e
       -0.08600612 -0.05867512 -0.0021760443 0.12584917
000330 bc c5 0c be 99 76 03 3e 53 20 46 be 9d e6 44 be
       -0.13747305 0.1283821 -0.19348268 -0.19228597
000340 9a 95 e9 3d 6d e3 d7 bd 46 b2 36 be 93 ac 38 3d
       0.11405487 -0.10541425 -0.17841443 0.045086455
000350 a5 f7 a1 bd 68 00 0d be 58 1e 20 bc 4d 96 58 3d
       -0.079085626 -0.13769686 -0.0097728595 0.052877713
000360 2c 75 0f 3e 54 84 6e bc 11 00 88 3d 62 be 59 bd
       0.14009541 -0.014557917 0.06640638 -0.05316008
000370 68 ee af bc 8c 2d 9a bd 27 d7 15 bd 62 ce 33 3d
       -0.021475986 -0.075282186 -0.03658214 0.043897994
000380 4b 95 fb 3d 96 0c 1c be 25 2c fb 3d df e5 7d 3d
       0.12284335 -0.15239176 0.12264279 0.0619868
000390 a3 de 9c bd 59 4b bd 3d ef 39 02 3d f3 30 1e 3e
       -0.07659652 0.09242887 0.03179353 0.1544836
0003a0 41 e9 62 bd d8 96 3c 3e f1 b3 0f bd 08 2c c4 3b
       -0.05539823 0.18416917 -0.035083715 0.0059866942
0003b0 e4 07 2e be 26 eb e8 bd a1 4d 72 be bf 9f b6 3d
       -0.16995198 -0.11372976 -0.23662426 0.08917188
0003c0 c9 84 60 3d a0 a8 1e bb bb a0 29 3e 15 e0 af bd
       0.054814134 -0.0024209395 0.1656522 -0.08587662
0003d0 4b 74 3e be 56 81 36 3d 58 1e e6 bc 64 99 1c 3e
       -0.1859905 0.044556938 -0.02809064 0.15292889
0003e0 04 72 31 be 75 11 f7 bd 58 a1 12 be 26 30 6a 3c
       -0.1732865 -0.120638765 -0.1431936 0.014293706
0003f0 61 79 b6 3d 4d e0 f6 3c a5 83 24 bb a1 e8 18 3e
       0.0890987 0.030136252 -0.002510288 0.14932491

bias f4 [84]
000000 b7 1f 24 3b ad e6 1c bc fc da ea bc e3 6a b8 3c
       0.0025043318 -0.009576482 -0.028668873 0.022511905
000010 75 5e c6 3c 4e ab 0e bc 21 88 9d bb bb 29 7a 3c
       0.024214962 -0.008707834 -0.0048074876 0.015268738
000020 06 93 22 3d dd 28 0c bc b5 b5 67 3c e7 c2 9c ba
       0.039690994 -0.008554664 0.014142443 -0.0011959941
000030 c7 59 01 3b aa f7 06 bc b1 74 65 3c d4 ce 65 3c
       0.001973735 -0.008237759 0.014004872 0.014026362
000040 18 f6 99 bc f9 51 c8 bc 9f 9e f8 3a d3 ae f5 3a
       -0.018794104 -0.02445315 0.0018968171 0.0018744118
000050 b6 55 2b bc c9 d5 2e 3c 4a 15 85 ba 1b ee 52 bc
       -0.010457447 0.010671088 -0.0010153439 -0.012874152
000060 46 79 f4 3c 94 d9 b7 3a 14 d2 82 bb 99 55 f4 3b
       0.029842984 0.0014026635 -0.0039923284 0.007456493
000070 9e bb 0f bb 68 45 f3 3c 50 53 a8 3b bb ff 98 3c
       -0.0021931897 0.029696181 0.0051368847 0.01867663
000080 d1 21 85 bb b3 f2 19 3d 68 fc 39 3c 79 a4 2a 3c
       -0.004062869 0.03758497 0.011351682 0.01041519
000090 f0 9e 9f 3c 57 75 64 bc ff 19 52 3c 95 87 f8 3a
       0.019484967 -0.013943992 0.012823581 0.0018961305
0000a0 b3 14 08 3b ab 09 19 3d 25 a4 c8 b9 02 b0 00 3d
       0.002076429 0.037362736 -0.0003826927 0.031417854
0000b0 06 92 51 3c 6d c4 ed 3c 8a 31 69 bc 26 bf 42 3c
       0.012791162 0.029024327 -0.014233002 0.011886394
0000c0 86 36 4d bc a3 8f 48 3c 41 3a 1d 3d fd b6 e1 3c
       -0.012525206 0.012241277 0.038385633 0.027553076
0000d0 f7 73 9e 3c d3 b3 bf 3b 10 2e e4 3b 96 69 8b bc
       0.019342406 0.005850294 0.006963499 -0.01701812
0000e0 a7 a5 e7 3a d3 0d f8 3b 07 9e 20 3c 70 eb 12 3d
       0.001767327 0.0075700074 0.009803302 0.035869062
0000f0 86 b6 b5 3c 3b d7 ef 3c d5 c0 bf 3c 02 04 5b 3b
       0.02218176 0.029277435 0.02340738 0.0033419137
000100 c3 7e 54 bb 73 5a 9f b9 8d 24 cb 3c b1 ff 08 3c
       -0.0032424189 -0.00030394233 0.024797702 0.008361743
000110 66 0f 69 bc 7a 0b d7 bb b6 83 65 bc c7 c7 83 3a
       -0.014224863 -0.0065626474 -0.014008453 0.0010054045
000120 02 3d c5 3c 3c 87 76 3c 10 b9 b6 3c 12 b1 b2 3b
       0.024076942 0.015046891 0.022305042 0.0054532373
000130 11 27 ac 3c 63 87 10 3c 67 32 0a 3b db 1c 95 3c
       0.021014722 0.008821341 0.002108717 0.018202236
000140 1f 58 63 3b b5 2c fc bb b5 11 b3 bc 7b f0 bf 3b
       0.0034689975 -0.007695759 -0.02185903 0.005857525
