model1/model/bottom.pt (torch, 276083 bytes, 22 tensors)

weight f4 [6, 3, 5, 5]
000000 9f d2 0b 3d 58 42 b3 bd fa fc a5 3d aa 5e 23 be
       0.03413641 -0.087528884 0.08104892 -0.1595408
000010 c8 06 75 3c 28 9e d4 bd 34 d5 1a 3e 85 df 66 3c
       0.01495523 -0.103817284 0.15120393 0.014091377
000020 b4 9f a5 bd e2 4e b2 3d 1f e9 1b 3d 3f 28 96 bd
       -0.080871016 0.08706452 0.03806412 -0.07331895
000030 26 b1 a5 3d 12 42 01 be d1 2e 50 3d 0d 78 b5 3d
       0.08090429 -0.1262286 0.050825898 0.088607885
000040 da f6 19 3e af 93 41 bd 6e 57 93 3d 33 d2 cc bd
       0.15035573 -0.047259983 0.0719441 -0.1000103
000050 3f 11 db bd a0 a1 a7 bc f7 83 16 3c dc d4 1f 3e
       -0.10696649 -0.020462811 0.009186736 0.15608543
000060 8b a1 0c be 8f 40 47 be 36 77 94 3d 0e 31 7c bd
       -0.13733499 -0.19458221 0.072493 -0.06157022
000070 2f 11 3a 3c 81 c9 fa 3c fc 21 56 bc c6 69 18 be
       0.011356636 0.030613663 -0.013069626 -0.148841
000080 2f 70 47 bd 93 dc 15 be 5e 24 50 3d 14 64 9d 3d
       -0.04869097 -0.14634924 0.050815932 0.07685104
000090 96 f3 92 3d b3 51 3b 3e 56 2a f7 bd d8 e9 39 bc
       0.071753666 0.18292885 -0.12068622 -0.011347257
0000a0 3e 7b e4 bd b5 33 38 3e f0 bc 98 3d ee a7 42 3d
       -0.11156319 0.17988475 0.07457912 0.04752343
0000b0 f3 a0 d8 bd 38 4a e4 bb c0 86 2b 3e 91 4f 78 3c
       -0.105775736 -0.0069668554 0.16750622 0.015155689
0000c0 78 70 53 3d 52 bf 07 be d1 ed 90 bd f4 eb 2c 3d
       0.05162093 -0.13256577 -0.0707661 0.04221721
0000d0 bc 76 77 bd 01 6d 04 3d 77 48 25 be 6a 37 14 be
       -0.06041597 0.032330517 -0.16140924 -0.14474264
0000e0 79 3c 38 3c 37 b3 99 3d 5c b2 cb 3d 48 b5 12 be
       0.011244887 0.07504886 0.09946129 -0.14326966
0000f0 e3 ae 17 bd f4 e4 23 3e 95 e8 01 3d 54 4b fd 3c
       -0.03703202 0.16005307 0.031715948 0.030919708
000100 37 7b 0a 3d e7 a0 14 bd 06 50 bf bc 16 5d 38 3e
       0.033808913 -0.03628626 -0.023353588 0.1800426
000110 92 e1 13 3e 70 22 94 bc 0a b1 3e be c3 58 62 3b
       0.14441517 -0.018082827 -0.18622223 0.003453777
000120 be 98 b0 bd cc b5 1f 3e 28 9b 2f 3d 6a b4 0e bd
       -0.08622883 0.15596694 0.042872578 -0.034840025
000130 a0 1c f8 3c 9a 6f 30 3e 79 84 4a 3d 1e 34 e2 bd
       0.030287087 0.17230073 0.049442742 -0.11045097
000140 f4 de 3a bd 58 69 69 3d ed 47 a1 bd f1 42 ba 3b
       -0.04562278 0.05698523 -0.07875047 0.0056842496
000150 c1 61 26 be 97 34 d3 3d 48 da fe 3c 47 0e 1f 3e
       -0.16248228 0.10312765 0.031109944 0.1553279
000160 0b c4 91 3d 86 63 11 be cc 29 0c 3d 53 e4 cb bc
       0.0711747 -0.14198121 0.034219548 -0.024889147
000170 3b 03 ee 3c b5 12 61 bd 83 a3 d8 bd 40 6e 20 3e
       0.029054275 -0.05494948 -0.105780624 0.15667057
000180 4c ef 42 bd 72 0c 0c 3d 70 79 d7 bd 7b 70 e8 bc
       -0.047591493 0.034191556 -0.10521209 -0.028373947
000190 ef d7 9b 3d c1 85 1a bd 2d 6b 00 3e e4 ff 89 bd
       0.076095454 -0.037725214 0.12540884 -0.067382604
0001a0 2b 65 ab bd 7f 3e 11 3e 5f 2c ca bd 93 ac e1 bc
       -0.08368906 0.14183997 -0.09871744 -0.02754811
0001b0 b7 df 52 3d 43 7b 21 be 37 71 1a 3d 52 db f7 3c
       0.051482882 -0.15769677 0.037705626 0.030255947
0001c0 19 d8 95 bd ef 62 08 be f3 69 b4 bd 89 2d 27 3d
       -0.07316608 -0.1331899 -0.08809271 0.04081491
0001d0 bd 3d 2c 3e 8b ab 66 bd b2 ab ec 3d e4 9b 4d be
       0.16820426 -0.05631594 0.11556186 -0.20078999
0001e0 27 f1 cd bd 72 b4 0e 3e e4 92 bb 3d 3e c5 71 bd
       -0.10055762 0.13936022 0.091588765 -0.059025995
0001f0 94 5a 8b 3d 33 62 48 be ed e3 00 3e ba 0b c2 3d
       0.06804386 -0.1956871 0.12586947 0.09474893
000200 46 1f c7 3d fb ba 60 be 72 59 84 3d 61 d4 0a 3e
       0.09722762 -0.21946327 0.06462373 0.13557579
000210 03 63 25 3e ac ea 1e 3c a5 88 eb 3c d2 e9 b5 3d
       0.16151051 0.009699505 0.02875168 0.08882488
000220 5f 28 d0 3d dd bb e0 bd 4c cf 20 bd d6 c4 a5 bc
       0.1016395 -0.10973332 -0.039260194 -0.02023546
000230 07 5e 98 3d 45 9e 8f bc fb 6e 56 3d 35 db 98 3a
       0.07439809 -0.017531523 0.052351933 0.0011662008
000240 04 41 6b be d0 fc 73 3d ba 1a 67 3d b5 bd c9 3d
       -0.2297402 0.059567273 0.056421973 0.09850637
000250 e1 ef 42 bc 81 ad 9d be 9a 61 e8 3c fe cc 9f bd
       -0.011898012 -0.30796435 0.028366853 -0.07802771
000260 65 b5 a7 bb 6f 5a 01 3e 4a 8b 12 be 1a 66 6e bd
       -0.0051180595 0.12632154 -0.14310947 -0.05820284
000270 a8 90 0b 3e 4b f0 a8 bd ab 4d b8 bd 29 75 11 3e
       0.136294 -0.08248957 -0.08999189 0.1420485
000280 53 48 cd bd f9 e2 3d bd f6 6c 0e be cc 0b a5 3d
       -0.100235604 -0.046359036 -0.13908753 0.08058891
000290 90 7e b1 3c 95 f7 16 3c 07 55 27 be 99 a3 9e 3d
       0.021666795 0.009214302 -0.16341029 0.077460475
0002a0 5a 83 03 be b5 85 29 3e 0c 73 95 bd 85 f4 1d bd
       -0.12843075 0.16554911 -0.07297334 -0.03856327
0002b0 b8 36 b0 bc 15 a2 17 3e 5b 1a c9 3d 55 b2 c2 3d
       -0.021510467 0.14807923 0.0981948 0.095066704
0002c0 65 16 fe bd 43 4a e9 bc 0f 1f 95 bd ff e7 02 be
       -0.12406615 -0.028477794 -0.072813146 -0.12783812
0002d0 7c 02 fd 3d 60 c0 07 3e 42 f0 68 3d fe 1e a5 3c
       0.123539895 0.13256979 0.056869753 0.02015638
0002e0 f0 c3 2d 3e 48 12 35 bd 39 81 2a be ee 83 b6 bd
       0.16969275 -0.044206887 -0.16650857 -0.08911882
0002f0 88 31 40 3e 44 4d 96 3d 1a 34 d6 bd 21 1f 30 bd
       0.18768895 0.07338956 -0.10459156 -0.042998437
000300 76 31 3b 3e fe 72 a7 bd f3 82 05 bc 74 15 2b 3e
       0.18280587 -0.0817623 -0.0081488965 0.16707402
000310 15 82 4e be d3 48 13 be 4d b2 c9 bd e7 ae 8d 3d
       -0.2016681 -0.14383249 -0.09848461 0.069181256
000320 0d 54 02 bd 7d d4 a5 bd c9 05 fb 3d d5 0c 0d 3d
       -0.03181844 -0.080971695 0.12256963 0.034436066
000330 cd 6f 7c 3c e8 b9 60 bc 5b 8f f4 bd b5 8f 5f bd
       0.015407515 -0.0137161985 -0.119414054 -0.05458041
000340 7d de 11 3d 69 2c 9d bd ad e5 86 3d e7 29 cc 3c
       0.035612572 -0.07674486 0.06586776 0.024922324
000350 e1 ab d7 bd 12 4a 51 bb 17 2c 85 bb d2 92 07 3e
       -0.1053083 -0.0031935018 -0.004064094 0.13239601
000360 53 14 8a be dc d1 36 bd fd 17 d2 3d da c7 b9 bd
       -0.2696863 -0.04463373 0.10258482 -0.09071322
000370 5a 9d e4 bd 03 f6 2d be 54 54 b8 bd 4f 73 8e bc
       -0.11162825 -0.16988377 -0.09000459 -0.017388968
000380 ee ee 08 3e f1 c7 1d 3d df ed cb bc d6 5c 23 3e
       0.13372394 0.038520757 -0.0248937 0.15953383
000390 e2 fa a5 3c b1 b3 d5 3d 8c d1 54 be 7d e4 e2 3c
       0.020261232 0.10434664 -0.20783061 0.027696842
0003a0 8f ca 44 3d 1e 94 3a bd 3e 44 cb bd 28 3c 34 be
       0.048044737 -0.04555141 -0.099251255 -0.17601073
0003b0 23 f7 29 be 5c c1 0c be d1 b7 2e 3e 3d fd 60 bd
       -0.16598181 -0.13745636 0.17062308 -0.054929007
0003c0 fd 2c 86 3d 6a 35 0e 3a 87 7b ee 3d 7c c0 39 3e
       0.065515496 0.00054248294 0.11644655 0.18139833
0003d0 79 77 a5 3d 68 9d 41 bd f9 d6 ab bd 36 93 1a 3e
       0.08079428 -0.047269255 -0.08390612 0.15095219
0003e0 8e 99 75 bd 61 63 33 3e e2 72 89 bc 41 7b a5 bd
       -0.059960894 0.17518379 -0.016778413 -0.080801494
0003f0 5e 3c 11 3e 20 e3 52 bd 7f 4c c2 3c b5 c7 9d bd
       0.14183185 -0.051486135 0.023718117 -0.07704107

bias f4 [6]
000000 e0 ee 36 bd dc cc 6a bd 78 4e fc bc 17 5c 36 3d
       -0.044661403 -0.057324275 -0.030799136 0.044521417
000010 a3 e6 4d bb 0b f7 92 3c
       -0.0031417988 0.017940065

weight f4 [6]
000000 a6 e3 6e 3f 1f e4 8c 3f 30 26 92 3f 80 7d 65 3f
       0.93316114 1.1007117 1.1417904 0.8964462
000010 3d 3b 67 3f 10 9d 5e 3f
       0.90324765 0.8695841

bias f4 [6]
000000 cb 64 38 3d 92 d0 b6 3c 45 a3 21 be ab b9 16 bd
       0.045018 0.022316251 -0.15784939 -0.03679816
000010 80 d9 a3 bd 3f 8b a7 bd
       -0.08000469 -0.08180856

running_mean f4 [6]
000000 0b 1c eb bc be e7 34 bd 0f 45 c0 3e 91 e8 42 be
       -0.028699895 -0.04416632 0.37552688 -0.1903403
000010 56 b8 a3 be b4 ef 07 3e
       -0.31976575 0.13275033

running_var f4 [6]
000000 a2 ca 88 3d 58 98 d3 3e f2 c2 a2 3e 85 cb 88 3e
       0.06679274 0.41327167 0.31789356 0.26717773
000010 a0 e3 81 3e 78 34 f0 3d
       0.25368977 0.117287576

weight f4 [16, 6, 5, 5]
000000 5b 22 51 bd 67 7b 22 3d af 86 3c 3c 94 21 ab bd
       -0.051058155 0.039668467 0.01150672 -0.08356014
000010 a6 35 91 3d c5 57 0c 3d d8 d7 82 3d b2 cd 26 3d
       0.07090311 0.03426339 0.06388825 0.04072351
000020 2f f5 de 3b da 38 3d bd a8 9d 8b bd 32 8d 7f 3d
       0.0068041305 -0.046196796 -0.0681718 0.062390514
000030 fb bf 6a 3c 58 b7 43 3d ce 21 bd bd 8a 93 54 bd
       0.014327998 0.047782272 -0.09234963 -0.051898517
000040 89 c2 00 3e 2d 45 ad 3d 25 5f cc bd ef f7 e4 3c
       0.1257421 0.0846046 -0.09979085 0.027950255
000050 36 97 2f bd 23 d2 64 3c 22 5e e0 3c 17 25 ef bb
       -0.042868815 0.013966116 0.027388636 -0.0072981226
000060 65 2c b0 ba 0b dc f4 bc b6 0b 17 be 32 61 d3 bd
       -0.0013440965 -0.02989008 -0.14750561 -0.10321273
000070 70 ae 02 be a5 0b a5 bd b0 23 b5 3d b5 87 a6 3c
       -0.12761855 -0.08058862 0.088446975 0.020328382
000080 85 51 f3 bd 9f 88 43 3c ca d9 48 bb 34 4d ca bc
       -0.11880783 0.0119344285 -0.003064739 -0.024695016
000090 8f a1 17 3d 70 8a fd bd 8e 1f 0a bd 79 dc 86 3a
       0.03701931 -0.123799205 -0.0337215 0.0010289095
0000a0 6c 28 04 3d bc 96 33 3d 7f 14 0d 3c 2e 5d 6d 3d
       0.03226511 0.043844923 0.008610844 0.05795019
0000b0 f7 42 92 3d 55 b6 b5 3d 23 35 9c 3d 45 1b 62 3d
       0.07141679 0.08872668 0.076273225 0.055201788
0000c0 fa 57 0b be 85 a4 0e be d7 ad 10 be 97 b6 f0 bd
       -0.13607779 -0.13929947 -0.14128815 -0.11753576
0000d0 6d 5b c9 bd fb c8 1e bd 74 f6 cd bd d1 38 07 be
       -0.09831891 -0.03876589 -0.10056773 -0.13205267
0000e0 95 f6 80 3d f0 65 75 bb aa 2a 46 bd 24 e9 e5 bd
       0.06297032 -0.0037444793 -0.04838053 -0.11226109
0000f0 79 d6 89 3d 9f f2 a0 3d f1 e3 4a 3d 70 01 57 3d
       0.067303605 0.07858776 0.049533788 0.052491605
000100 12 2d 0d 3b f7 aa bc 3d 05 d8 3b bd a2 70 ba 3d
       0.0021541757 0.092122965 -0.04586031 0.09103514
000110 82 88 3e bd 19 93 b0 3c 4e f6 fd 3d c6 bb 13 3e
       -0.046516903 0.021554517 0.124004945 0.14427099
000120 4c 7b 4e 3e da f9 88 3c 71 ee 4b 3d 9f 7e 47 3c
       0.20164222 0.016720701 0.049787942 0.012176185
000130 70 31 5c 3b 9e 62 4b bd ae b4 b4 bd 36 ca c2 3d
       0.0033598803 -0.049654596 -0.088235244 0.09511225
000140 64 b9 98 3d c4 07 30 bd 92 d7 21 bd 6d 33 b8 bd
       0.074572355 -0.042976156 -0.039512224 -0.08994184
000150 d5 e8 86 3d 59 50 7c bd 1f ec 54 3b 30 3a d7 3d
       0.06587378 -0.061600063 0.0032489372 0.10509145
000160 e7 3e 9d 3d 9d 0d 33 bd c2 19 e9 3c 9e ee be bd
       0.07678013 -0.043714155 0.028454665 -0.09322856
000170 97 e0 c8 3d 86 3d 80 bd 16 80 c1 bd f9 3a df 3d
       0.09808462 -0.06261735 -0.094482586 0.1089992
000180 61 d0 c9 bd e2 33 fd bb ce 54 86 bd b8 e6 ac bd
       -0.09854198 -0.007727132 -0.06559144 -0.084424436
000190 29 d8 8e bc f0 91 b2 3d cc db 48 3c bf 37 e8 3d
       -0.017437058 0.087192416 0.012259435 0.11338758
0001a0 de fe 39 bd 02 0f 79 bd f3 2c f1 3c a6 2d 79 3c
       -0.045409076 -0.06080533 0.029440379 0.015208637
0001b0 dd ab 66 3d 08 8f c1 3d 1e be 82 bd 88 dd 76 bc
       0.056316245 0.09451109 -0.06383918 -0.015067466
0001c0 d1 52 0e bd dc ec 96 bd 01 58 a4 3d 6a 52 4f bc
       -0.03474695 -0.07369396 0.08024598 -0.012653926
0001d0 47 3e ac 3d 7b bb 72 bd 1a cc 1f 3d b1 8f cb bd
       0.08410316 -0.059260827 0.039013006 -0.09939516
0001e0 e2 83 0e bc cb 14 c8 bc 88 45 69 3d e5 4e fe bc
       -0.0086984355 -0.024423977 0.056951076 -0.03104348
0001f0 7f f6 f7 bd 20 e7 45 3d 49 4a 1b 3d 51 1c 12 3c
       -0.12107562 0.04831612 0.03791264 0.008917884
000200 b0 07 1b 3c c6 07 03 3e a2 9e 95 bd 46 fa c7 bd
       0.009462282 0.12795934 -0.073056474 -0.09764533
000210 06 23 8a 3c 7b 8c c2 3d 24 35 22 3d e2 70 af bd
       0.016862404 0.09499451 0.03960146 -0.085664526
000220 1c ca de 3b fd 8b 57 bd bb 61 78 3d 54 d0 c3 3a
       0.0067989957 -0.052623738 0.060640078 0.0014939406
000230 9f e0 73 bd 49 80 ed bc b4 4d 7b bd b4 96 90 3d
       -0.059540387 -0.028991835 -0.0613534 0.07059994
000240 82 02 9e bd ad a2 b0 bc a5 9b b5 bc 57 bc 4d bd
       -0.07715322 -0.021561945 -0.022168944 -0.050228443
000250 16 3e 88 3d 47 e8 d3 39 d4 77 c4 bc 39 35 e5 3c
       0.06652467 0.00040418116 -0.02398292 0.02797948
000260 dc af 72 3d a7 7c a7 3d 1d 30 44 bd da 3c 51 bc
       0.059249744 0.081780724 -0.047897447 -0.012770856
000270 d4 dc 95 bd 16 50 40 3d d3 b6 87 3c f4 23 db bd
       -0.0731751 0.046951376 0.01656667 -0.10700217
000280 57 c9 7f bd da 95 78 3d d2 28 b0 bd 91 83 88 bd
       -0.062447872 0.060689785 -0.08601536 -0.06665719
000290 e7 25 9f bd e2 ce 10 3d 8e 64 9e 3d 23 30 46 3d
       -0.07770901 0.03535355 0.07734023 0.04838575
0002a0 e2 98 3b 3d d0 49 6c 3c a6 ee 8b bd 53 4f 87 bd
       0.045800097 0.014421895 -0.06832628 -0.06606927
0002b0 75 ca ce bc bc c5 64 bd 2d fb 8a 3d ac da eb bc
       -0.025243023 -0.055852637 0.06786189 -0.028790794
0002c0 ae 60 00 bd 55 e5 02 3d 44 1e 5f bd b0 23 11 be
       -0.0313422 0.03195699 -0.054472223 -0.1417377
0002d0 ad b0 9b bd ae dd 45 bd f0 b0 ae 3b 7c 29 cf 3d
       -0.076020576 -0.048307113 0.005331151 0.101153344
0002e0 56 04 19 bd 1c 24 c2 bc a9 4d 1d bc a9 88 9d 3d
       -0.03735765 -0.023698859 -0.009601035 0.076920815
0002f0 39 f4 b6 3b eb 38 e1 bc 02 14 dd 3d 0a 5e b7 3d
       0.005583313 -0.02749296 0.10794832 0.089534834
000300 44 f8 55 3d 26 a1 d0 3c 74 2a 4e 3d e3 58 19 3e
       0.052238718 0.025467467 0.050333455 0.14975314
000310 1a e9 4c 3d 36 53 11 3d 01 15 e2 3d a2 e4 1c bc
       0.05002699 0.035479747 0.110391624 -0.009575995
000320 39 1b 44 3d 04 0e 19 3e 5f a5 c2 3c 84 a4 0a 3c
       0.047877524 0.14946753 0.023760496 0.008462075
000330 19 32 a7 3c 72 49 5d 3d af 20 5e bc cf c1 53 3d
       0.02040963 0.05402512 -0.013557597 0.051698502
000340 d4 bd bd bd 31 2b 06 3e 02 2a 89 3d ca 50 6e bb
       -0.092647225 0.13102414 0.066974655 -0.0036364072
000350 91 97 98 3d 88 e9 fb bb a7 7c 5d bc 3a 9f 4d 3d
       0.07450784 -0.007687751 -0.013518489 0.05020068
000360 7d 67 cb 3d a7 cf b2 3c a6 dd 98 bc 3f 47 0a 3e
       0.09931848 0.021827532 -0.018660378 0.1350374
000370 fa e2 2e bc 00 18 87 bb db 00 97 3d 7e 6e 0d 3e
       -0.010674233 -0.004122734 0.0737321 0.1381168
000380 ed 46 b4 bc 5b 5a f7 3c c6 93 e2 bc 54 c0 38 bd
       -0.022006476 0.030194452 -0.027658354 -0.045105293
000390 34 bc 9b 3d 92 be 7b bd b7 ae d4 bc d9 d7 f2 bd
       0.07604256 -0.06146104 -0.025962217 -0.11857576
0003a0 cd 55 a3 bd 3b b5 92 3c 6c 66 43 bd 5e f9 03 3d
       -0.079753496 0.017908683 -0.0477051 0.032220237
0003b0 0e 72 63 3d 2b 1e a9 3c 8a 97 81 bd a9 8b b7 3d
       0.055528693 0.020644268 -0.06327732 0.08962185
0003c0 11 a9 8a 3d 9d a9 a3 3d 9d 52 9c bd ef 3a af 3d
       0.06770528 0.079913355 -0.07632945 0.085561626
0003d0 c9 5e 9e bd 8f 8b db ba 7e ed db bd b0 4e 9b bc
       -0.077329226 -0.0016749966 -0.107386574 -0.01895842
0003e0 1d f1 a1 bc bb 6f d8 bd 42 dc 0d 3d 5c 91 6a bd
       -0.019768292 -0.10568186 0.034633882 -0.05726753
0003f0 c6 a4 c7 bd 34 b4 02 be 69 da 66 3d 25 3f d8 bd
       -0.09748225 -0.12764055 0.056360636 -0.10558919

bias f4 [16]
000000 12 85 2e bc 33 47 03 3c 25 a0 bc 3b b7 37 79 bc
       -0.010651844 0.008012581 0.0057563954 -0.015211037
000010 23 90 53 3c 5f 01 86 bc 6a f6 22 3b 40 10 9c 3c
       0.012912783 -0.016358076 0.0024866113 0.019050717
000020 75 82 b6 bc 08 bf 8c 3c 94 79 96 3b 31 64 e4 bb
       -0.022279004 0.017180935 0.00459213 -0.0069699516
000030 d8 24 69 bc 50 dc 11 3d 1e 8a cf 3b 9f 0a fc 3b
       -0.014229976 0.035610497 0.0063336035 0.007691696

weight f4 [16]
000000 25 d7 86 3f 09 71 6c 3f 96 a9 60 3f 6a ca 68 3f
       1.0534407 0.9235998 0.8775877 0.9093386
000010 cc 87 82 3f 5d 91 70 3f 5a 89 82 3f 32 9f 86 3f
       1.0197692 0.93971807 1.0198166 1.0517333
000020 b6 85 94 3f 69 0d 73 3f 54 c3 78 3f 5b c7 6b 3f
       1.1603305 0.9494234 0.9717305 0.9210107
000030 4f e9 7f 3f f0 f2 8e 3f e8 e9 82 3f 85 9f 77 3f
       0.99965376 1.1167889 1.0227633 0.9672778

bias f4 [16]
000000 5e 74 ce bd bc f4 04 be 47 5a 7b bd 60 52 a8 bd
       -0.10080789 -0.12983984 -0.061365392 -0.08218837
000010 1e f1 f5 bc 4d f3 24 be d1 bf 92 bd 22 7a 9e bd
       -0.0300222 -0.16108437 -0.07165492 -0.07738139
000020 35 09 37 3c 59 16 4a bd ae 28 40 bd 04 26 82 bd
       0.011171629 -0.04933772 -0.046913795 -0.06354907
000030 74 e1 be bd 40 10 06 3a 31 b9 12 be 9b 1a ca bd
       -0.093203455 0.0005114116 -0.14328457 -0.09868356

running_mean f4 [16]
000000 be a8 dc bd 43 7a 1b bd fc b2 b6 bd 30 9e de be
       -0.107743725 -0.037958395 -0.08920857 -0.43480062
000010 29 c9 b7 be 3e d9 42 3e 56 2e 8b be e8 dd a3 be
       -0.3589566 0.19028184 -0.2718379 -0.3200524
000020 d6 98 ab be 75 59 13 be 96 1f 41 be 0f 62 06 bf
       -0.33515042 -0.14389594 -0.18859705 -0.52493376
000030 77 22 73 3e b4 7c 56 be 41 b7 65 be a4 df 29 bd
       0.23743616 -0.20946008 -0.22433187 -0.041473046

running_var f4 [16]
000000 2b f5 fe 3d 3a cd ea 3e af ca 27 3f c6 20 54 3e
       0.12449106 0.458597 0.65543646 0.20715627
000010 fa fe 4f 3e fd 31 83 3e 69 20 2a 3e 63 07 b9 3e
       0.2031211 0.25624076 0.16613926 0.36138448
000020 a8 82 0b 3f 6c 67 5b 3e 8d 49 28 3e 15 f4 d5 3e
       0.5449624 0.21426171 0.16434307 0.41787782
000030 df 27 8b 3e b1 da 8b 3e 2c d1 4e 3e 56 f1 7c 3e
       0.27178857 0.27315286 0.2019698 0.24701437

weight f4 [120, 16, 5, 5]
000000 31 70 6e 3c a2 4c 16 3d 49 d1 61 bc 85 d1 d2 3c
       0.014553116 0.036694176 -0.013782808 0.025734672
000010 c9 11 a6 3c 45 a1 4c 3d c5 ca fc ba b9 da 96 3b
       0.020272152 0.049958486 -0.0019286504 0.0046037105
000020 53 54 29 3c f6 a0 46 bc 1d 5b f5 3c 3e 3b 28 bc
       0.010335046 -0.012123337 0.029950673 -0.010268031
000030 5a 7a 61 bc 11 5a 16 3d 2a 5b 77 bd 9a 66 20 3c
       -0.013762081 0.036706988 -0.060389675 0.009790087
000040 b6 0a 0b bd 38 99 04 3d fa 48 bf bd d9 95 1c 3d
       -0.03394576 0.032372683 -0.09340091 0.038228843
000050 e1 6f cb 3c 8a 4a 95 b9 03 47 39 bc bd b4 54 bd
       0.024833621 -0.0002847503 -0.011308434 -0.051930178
000060 f5 fa 39 bd b6 77 f8 bc ae 2e 53 3a 9d cd b1 3b
       -0.045405347 -0.03033052 0.0008055967 0.0054261223
000070 22 d4 88 bc b2 92 3f 3d ae c8 6f bc 1f d1 43 3d
       -0.016702715 0.04677076 -0.014635248 0.047806855
000080 bb 6e 10 bd 29 6b 2f bd 43 cb 45 b8 1a 3c 39 3d
       -0.03526185 -0.042826805 -4.7157762e-05 0.045223333
000090 66 0a b5 bc 0d 3f 2a bd 20 b6 fc 3c 9e d5 b9 3c
       -0.022099685 -0.041564036 0.030848563 0.022684868
0000a0 92 46 c9 bc 34 34 8b bc 54 ca 19 bc e5 5b f4 3a
       -0.024569783 -0.016992666 -0.009386618 0.0018643109
0000b0 5f 79 22 3d 5a d0 49 3d 7b a6 b7 bc d3 73 64 bc
       0.03966653 0.049270965 -0.022418251 -0.01394363
0000c0 d7 fa 7a 3b 88 8c 08 3d 12 14 a9 3c e4 3b ef 3c
       0.0038296485 0.033337146 0.020639453 0.029203363
0000d0 b0 27 c0 3c 63 d7 e1 3c 49 1b 4a 3c 7b 58 0a 3d
       0.023456424 0.027568525 0.012335607 0.033775788
0000e0 aa e0 fd bc 1c 3c 25 3d fe 75 1a bc 30 32 ff bc
       -0.030990917 0.040340528 -0.009427546 -0.031151861
0000f0 83 20 4d bc 8f 13 d0 3c 05 da 1a bd 4e 3a 90 bc
       -0.012519958 0.025399951 -0.037805576 -0.017605927
000100 d9 07 7a 3c 4a f4 ff 3c 9d 3d 0b bc 85 1d ce 3b
       0.01526066 0.031244416 -0.0084985765 0.00629014
000110 bb 54 e0 bc cc fb 09 bd e4 00 1f bc fd b7 24 bc
       -0.027384153 -0.033687398 -0.009704802 -0.010053632
000120 3e eb 8b 3c 8a 3b 5b 3d cf cb e2 bb 5b 99 0d bc
       0.017079946 0.053523578 -0.0069212685 -0.00864252
000130 d4 e1 ad bd 88 d1 82 3c ae fc 20 3d 51 d7 57 bd
       -0.08490339 0.015969053 0.039303474 -0.052695576
000140 60 56 34 bd ab 8c 89 bb cb 98 e0 3c a3 b2 15 3d
       -0.044027686 -0.004197677 0.027416607 0.036547314
000150 7c 34 d4 bb fd 83 00 bd aa f3 b9 bc da 6e 11 3b
       -0.006475983 -0.031375874 -0.022699196 0.0022191317
000160 68 b6 90 3c 07 93 d1 3b bd 7e dc bc bd 31 d8 bb
       0.017665103 0.006395701 -0.026915902 -0.006597726
000170 a7 2a bd bc 93 dc 4b 3d 87 3e 66 bd 32 a2 00 bd
       -0.023091627 0.049770903 -0.056211974 -0.03140468
000180 b7 2c 46 bd 59 71 e4 bc c6 bf e0 3c db 03 95 bd
       -0.048382487 -0.02788608 0.027435195 -0.07276126
000190 9f 93 01 bd 61 72 8b bc 50 b6 44 bd 13 a8 38 3d
       -0.031634923 -0.017022314 -0.04802543 0.045082163
0001a0 ac 82 2f 3d 71 2a b5 3c 10 05 04 3d 34 2e 23 bd
       0.042849228 0.022114964 0.03223139 -0.039838985
0001b0 b2 17 3a 3d bd 15 1f 3d 4f 85 bb bc 31 72 10 bd
       0.045432754 0.03883909 -0.022890715 -0.03526515
0001c0 54 8d c6 bc 99 32 78 3b ad 20 df bc 04 fa c5 bc
       -0.024237312 0.0037871955 -0.02723726 -0.024167068
0001d0 97 dd 17 bc ae 7e 02 bd 31 f1 11 3d a6 e7 61 3d
       -0.00926914 -0.031859092 0.03563041 0.055152558
0001e0 10 db 56 bc e7 40 19 bb 54 fa 75 bd b4 85 e8 3c
       -0.013113752 -0.0023384632 -0.060053185 0.028384067
0001f0 82 28 6a 3d 0a 96 26 bc e6 1a 0b 3c dd 54 4c b9
       0.057167538 -0.010167608 0.0084903 -0.0001948657
000200 ad 15 4f bd f4 35 13 3d 3c 07 84 3c f0 41 ed bb
       -0.05055778 0.035940126 0.01611673 -0.0072405264
000210 60 2c d0 bc 5a f9 99 bd 0b d5 8c 3d 53 85 46 bd
       -0.025411785 -0.07518263 0.06876572 -0.04846699
000220 9b 1c 00 3d fa af cd bc 8c 00 66 bd a5 e7 19 3d
       0.03127728 -0.025108326 -0.056152865 0.03757443
000230 07 66 d4 bb 17 c8 04 bb e0 d6 81 bc 4a 32 94 3c
       -0.006481889 -0.0020260864 -0.01584953 0.018090386
000240 d4 d0 e5 3c 7f 15 28 bd 8a e9 ae 3b 30 5d b0 bc
       0.028053679 -0.041036125 0.0053378986 -0.02152881
000250 bf 8d d3 bb 4b 24 8c 3c 69 f9 c1 3c b7 87 2e 3d
       -0.0064561064 0.01710715 0.023678498 0.042609897
000260 42 93 a6 3d 5c b2 72 bc 94 d2 e4 bb ad d9 7c bc
       0.08133556 -0.014813032 -0.0069831107 -0.015432757
000270 a1 47 b9 bb cf 9e b6 3c ae bd b7 bc 1c d9 c8 bb
       -0.005654291 0.022292523 -0.022429314 -0.006129397
000280 5d 95 37 bd e2 42 61 3c fe dc 18 bc f8 32 6c bb
       -0.04482018 0.013748856 -0.009330032 -0.0036041122
000290 07 d3 b1 3c c2 c2 63 bd 6f 0c 3f bd d9 73 19 3b
       0.021707071 -0.055605657 -0.046642717 0.0023414998
0002a0 24 c6 c2 ba 34 60 db bc 4f b5 d9 bc 5d 81 6f bd
       -0.0014860076 -0.026779272 -0.026575712 -0.05847298
0002b0 68 a8 e2 3b c5 34 04 3d d3 23 6f 3c 02 c2 b5 bc
       0.0069170482 0.032276887 0.0145959435 -0.022187237
0002c0 8d 44 d0 3c 7e e0 0b bc 50 bd 7f bd 09 89 09 bc
       0.025423313 -0.00853741 -0.0624364 -0.008394488
0002d0 f4 c0 a0 3c c9 61 4f 3d 85 b2 30 3c 0b 1e e9 bc
       0.019623257 0.050630365 0.01078475 -0.028456708
0002e0 40 15 30 bc b8 2c f4 3c cc 73 ac bc 36 ec 34 3b
       -0.010747254 0.02980648 -0.02105131 0.0027606613
0002f0 b7 cd 30 bd e5 d0 22 bc 85 5f 53 bc 42 c7 c9 bb
       -0.043164935 -0.0099375 -0.012901192 -0.0061577866
000300 9d 1d 1b 3d 41 4f 8e bd b1 2b ac bd fa 43 4d 3b
       0.03787004 -0.0694871 -0.08406771 0.0031321035
000310 ad ed 9a 3b a1 dd 55 3d 70 a9 83 bd 19 88 99 bd
       0.00472804 0.052213315 -0.06428802 -0.07496662
000320 36 c1 a0 bc da 45 10 3d 7f e1 0f 3d 1a 2c 6f bd
       -0.01962338 0.035222866 0.03512716 -0.058391668
000330 a5 22 8e bd 4e b5 14 3d f1 64 07 3c cc 0f ce 3c
       -0.06940202 0.036305718 0.008263812 0.025154017
000340 69 97 bc 3c 72 5c 93 bc 28 4a 31 3d 5e 7b 34 bb
       0.023021417 -0.017988417 0.04328361 -0.0027539353
000350 f7 86 70 3d 5c 27 5e bd 8e c7 1f bb cf 04 a5 3c
       0.058722463 -0.054236755 -0.0024380418 0.020143894
000360 fb f1 82 3c 5c bc 97 3d 63 aa 3b bc 2e 3f 6e bd
       0.015984526 0.074089736 -0.011454198 -0.05816572
000370 e2 9f 7f 3d 7b 97 10 bd b9 99 25 3d d7 e2 9d bd
       0.062408336 -0.035300713 0.040429804 -0.07709282
000380 ec c7 d0 bc ea 52 96 3c 2e a7 c0 bc fc fd 1f bd
       -0.025485955 0.018350083 -0.023517217 -0.039060578
000390 41 da ff 3a 5a 6d 99 bc 8f 96 3c bc 09 60 a2 bc
       0.0019520001 -0.0187289 -0.011510505 -0.019821184
0003a0 92 48 b3 bc 54 8a 20 3c f5 c8 0c bd d4 f6 e7 3c
       -0.02188519 0.009798605 -0.034371335 0.028315939
0003b0 13 fa 20 3d 13 4a ae bc 83 f8 e0 bc 4e 40 12 3c
       0.03930099 -0.021275556 -0.02746225 0.008926464
0003c0 ef bc 7c 3c fb 6a 38 3d ba f2 7b bc f0 cd 8e bc
       0.015425905 0.0450239 -0.015377695 -0.017432183
0003d0 a8 9b 56 bd 0f 55 02 bd 92 45 97 3c 38 1d 42 bd
       -0.05239454 -0.0318194 0.01846579 -0.047391146
0003e0 13 6a 06 bd f1 94 dd bc ff 9a b6 bd 68 2f 33 bd
       -0.032816004 -0.02704856 -0.08916282 -0.043746382
0003f0 c5 df be 3c ff 28 2b 3d c1 c2 27 bc 87 c2 3a bd
       0.023300061 0.041787144 -0.010239304 -0.045595672

bias f4 [120]
000000 25 94 f7 b9 1e 8d e4 3a 8a 35 5f bb 15 ae 96 ba
       -0.00047221888 0.0017437076 -0.0034059011 -0.0011495972
000010 f8 fb d6 bb 14 8d 0a 39 65 68 d8 3a ff bc 80 3a
       -0.0065607987 0.00013213261 0.0016510604 0.000982195
000020 c6 ec c4 bb b9 64 8f 3b 28 50 ae 39 b0 29 d0 ba
       -0.006009671 0.0043760207 0.00033247587 -0.0015881564
000030 47 a8 b2 ba a7 5e 9e 3b 77 65 5f 3b 31 90 d8 bb
       -0.0013630473 0.004833061 0.0034087577 -0.006608986
000040 45 29 d8 3a 6d 25 06 bc cb a3 e0 36 f1 12 54 3a
       0.0016491791 -0.008187634 6.694788e-06 0.00080899807
000050 70 54 53 bc 67 68 53 bb 9a 42 35 3b 8b ed 15 3b
       -0.012898549 -0.0032258274 0.0027658106 0.0022877182
000060 5f a7 59 bb 21 22 90 bb e0 c6 52 39 51 13 7e bb
       -0.0033211333 -0.0043985997 0.00020101247 -0.0038768838
000070 20 fa 27 bb ff 94 26 3b 46 5b c6 3b 46 c3 d2 bb
       -0.0025631264 0.0025418398 0.006053361 -0.00643197
000080 05 88 be ba f9 e9 9e 3a b3 1e ce b9 d4 82 99 3a
       -0.0014536387 0.0012124173 -0.00039314255 0.0011711963
000090 74 5d 13 3b 41 97 82 ba 67 8a 79 3b c8 1f 98 38
       0.0022486122 -0.000996329 0.003807688 7.2538445e-05
0000a0 f3 35 3a bb 80 fe 67 3b 0a da c1 3a 36 25 86 39
       -0.0028413504 0.0035399497 0.0014789712 0.00025586196
0000b0 7a e5 78 3b 5b e3 65 bb 2e 67 1f bb 5b 36 5d bb
       0.0037978576 -0.0035078141 -0.0024322974 -0.0033754322
0000c0 fc 80 b4 3a 51 14 9f 3a 4c b2 25 3a 8e a2 df 3b
       0.001377135 0.0012136792 0.0006320819 0.006824798
0000d0 cd b9 bc bb a4 07 84 bb 86 c5 b6 ba 52 bc 26 3c
       -0.005759454 -0.004029231 -0.0013944365 0.010176735
0000e0 1b 9d 8e bb 32 e2 fd 3b bb b9 3c 3a 59 b7 81 3c
       -0.0043522245 0.007747912 0.0007199307 0.015834497
0000f0 7f c1 36 bb 78 9d 32 bb 35 2e 1a 3a a1 98 f9 3a
       -0.0027886329 -0.0027254503 0.0005881519 0.0019042679
000100 3b 49 68 ba a9 47 51 bb 92 1a 8f 3b 2d 91 05 bc
       -0.000886101 -0.0031933582 0.004367181 -0.008152288
000110 d4 ee 87 ba 1a f6 35 bb 9d 82 d0 bb 30 d4 9b 3b
       -0.0010370859 -0.0027765096 -0.0063632266 0.0047555193
000120 10 86 8d bb 34 16 1b bb 57 0f 4c bb 8b 9a 62 bb
       -0.00431896 -0.0023664357 -0.0031137073 -0.0034576978
000130 a7 c4 8b 3a 8d aa f8 ba 49 07 e2 bb 80 74 19 bb
       0.0010663465 -0.0018971727 -0.006897841 -0.0023415387
000140 bc d3 06 bc 2c 3f 74 3b 86 1f 50 b8 b3 dc 08 3c
       -0.008229192 0.0037269099 -4.9620423e-05 0.0083534
000150 ab 15 9f bb 06 a0 89 3b 69 07 24 bb 69 9c a5 3a
       -0.004854878 0.0041999845 -0.002502883 0.0012635115
000160 ae fb 71 ba c8 64 f3 ba 81 8d 56 bb 86 4a 84 3a
       -0.00092309236 -0.0018569464 -0.0032738151 0.001009301
000170 ca 30 83 3b fd a4 2b 3c 10 ce 95 b9 25 c2 ca 3a
       0.004003619 0.010476348 -0.00028573023 0.0015469237
000180 29 49 3f b9 03 6c 4e 3a 37 90 7f 3b cc 3f 12 3b
       -0.00018242434 0.00078743714 0.003899587 0.0022315858
000190 82 3c ca 3b 40 7f 99 b8 cd 95 04 bb d8 1f 29 bc
       0.006171764 -7.319311e-05 -0.002023089 -0.010322534
0001a0 e3 49 96 bb 9e 43 7e 3b 30 f6 7e bb 6b 4f 8a 3b
       -0.0045864447 0.0038797627 -0.0038904063 0.004220893
0001b0 5f 37 f5 39 10 2f ad bb 58 46 43 bb a7 55 3a 3b
       0.00046771296 -0.0052851513 -0.0029796567 0.00284324
0001c0 56 28 db 39 53 33 f0 3a dc 9f 01 bc 2d 96 0e 3b
       0.00041800988 0.0018325843 -0.007911649 0.0021756992
0001d0 db 18 93 39 8d ef a4 ba 7e b2 24 3b b8 b4 4f bc
       0.00028056544 -0.0012583599 0.0025130804 -0.012677364

weight f4 [120]
000000 12 74 7d 3f 79 73 82 3f 6c c1 81 3f c7 52 84 3f
       0.99005234 1.019149 1.0137153 1.0337762
000010 fc cf 7b 3f 97 6b 77 3f 9c 58 7f 3f ad 89 80 3f
       0.98364234 0.96648544 0.9974458 1.0042015
000020 ba 67 85 3f 78 94 79 3f 43 07 7d 3f 89 57 82 3f
       1.042228 0.9749217 0.98839206 1.0182964
000030 f7 89 82 3f f2 d0 82 3f 89 f1 81 3f 5a 92 7f 3f
       1.0198354 1.0220015 1.0151836 0.9983269
000040 9f c5 84 3f 71 d4 7d 3f fb 65 7e 3f 62 24 82 3f
       1.0372809 0.99152285 0.9937436 1.0167353
000050 34 14 87 3f 5e b8 7f 3f 64 4d 7f 3f 96 d1 81 3f
       1.055304 0.99890697 0.99727464 1.0142086
000060 11 57 84 3f 4f c2 82 3f f7 37 81 3f b2 2f 82 3f
       1.033907 1.0215548 1.0095204 1.0170805
000070 6f 90 7e 3f 54 c9 87 3f 50 7b 80 3f da 9d 82 3f
       0.9943914 1.0608315 1.0037632 1.0204422
000080 1a e2 79 3f f3 11 7e 3f 0d e6 7f 3f 53 85 7d 3f
       0.9761063 0.9924614 0.99960405 0.9903156
000090 8a d3 84 3f 15 bc 81 3f f7 9f 76 3f 12 1c 81 3f
       1.0377057 1.0135523 0.96337837 1.0086691
0000a0 0f 7a 7b 3f ad 66 82 3f c3 0b 83 3f c0 ec 80 3f
       0.9823312 1.0187584 1.0237964 1.007225
0000b0 2c c9 7d 3f c2 a1 79 3f 49 27 80 3f 46 c2 7e 3f
       0.9913509 0.9751245 1.0011989 0.9951519
0000c0 d3 a4 7f 3f 1c 57 84 3f 70 dd 8a 3f 6e a4 82 3f
       0.99860877 1.0339084 1.0848827 1.020643
0000d0 3f cf 82 3f 23 ad 7a 3f 4f bd 76 3f 37 3d 82 3f
       1.0219496 0.97920436 0.9638261 1.0174931
0000e0 1d 80 84 3f b8 66 81 3f fa 85 81 3f 0e 42 90 3f
       1.0351597 1.0109472 1.0119011 1.1270158
0000f0 71 d1 78 3f 68 a0 86 3f 76 f3 83 3f 79 ad 80 3f
       0.9719458 1.0517702 1.0308673 1.005294
000100 91 18 7f 3f b0 f0 7b 3f fe 47 81 3f 84 03 7f 3f
       0.9964686 0.98414135 1.0100095 0.9961474
000110 c4 4d 83 3f 6d d9 76 3f 25 79 82 3f dd c9 81 3f
       1.0258107 0.96425515 1.019322 1.0139729
000120 45 ba 82 3f 42 a5 83 3f be ce 74 3f 13 25 89 3f
       1.0213095 1.0284808 0.95627964 1.0714439
000130 b6 aa 85 3f 78 8b 88 3f 7b 29 84 3f 72 a2 7d 3f
       1.0442722 1.0667562 1.0325159 0.99075997
000140 84 3d 7c 3f 0f 4d 74 3f 75 d5 82 3f 74 f3 7f 3f
       0.98531365 0.9543008 1.0221392 0.99980855
000150 bd 55 82 3f d2 0a 77 3f 1f f5 80 3f 38 b0 79 3f
       1.0182415 0.96500885 1.0074805 0.97534513
000160 95 2d 81 3f 2e ab 82 3f 4f 25 80 3f 10 07 86 3f
       1.0092036 1.020849 1.0011386 1.0470905
000170 c0 6b 81 3f a1 aa 87 3f 69 9e 81 3f 91 aa 81 3f
       1.0111008 1.0598947 1.0126468 1.0130178
000180 05 31 81 3f 9c 2c 7b 3f d9 6b 86 3f 38 64 7f 3f
       1.0093085 0.98114944 1.0501662 0.99762297
000190 0e 70 85 3f f4 82 80 3f 24 b2 81 3f 1e 53 80 3f
       1.0424821 1.0039964 1.0132489 1.0025365
0001a0 4f 3b 7c 3f 41 73 80 3f 98 8b 82 3f 0f ba 86 3f
       0.98528 1.0035173 1.0198851 1.052553
0001b0 84 02 7e 3f 65 e8 80 3f 07 48 73 3f 7f 8a 80 3f
       0.9922259 1.0070921 0.9503178 1.0042266
0001c0 95 6c 7f 3f e6 d3 7b 3f 02 af 84 3f 43 e2 7e 3f
       0.9977506 0.98370206 1.0365908 0.99564
0001d0 f5 41 7f 3f 63 9e 80 3f 9e 9c 82 3f 24 0f 83 3f
       0.9971002 1.0048336 1.0204046 1.0238996

bias f4 [120]
000000 79 2b 67 bc 13 c9 c9 bb d7 2e aa ba 93 04 98 3c
       -0.014109486 -0.006158003 -0.001298393 0.018556869
000010 b9 63 d2 bc de 45 0c bd ca d9 b8 bc a1 d5 9a 3c
       -0.025682317 -0.034246318 -0.022564787 0.018900694
000020 52 f0 f7 3c 8f a9 67 bd bd 9d 6f bc c8 16 45 bc
       0.03026596 -0.056558188 -0.01462501 -0.012029357
000030 2b 24 fc 3b bb 63 10 3d 1f 37 30 3d 34 a5 76 bc
       0.0076947412 0.03525136 0.043021318 -0.015054036
000040 63 cd ba bc 98 dc 52 bc f3 d1 53 bd 34 ec e7 3b
       -0.022803014 -0.012869976 -0.051713895 0.007077718
000050 fa d2 24 3c 6b 79 a0 bb 55 1a d0 bc e3 13 e1 bb
       0.010060066 -0.0048972866 -0.025403181 -0.0068688258
000060 76 6b 32 3d b0 3b 96 3c 0f 94 60 3c 45 b2 d7 bc
       0.043559514 0.018339008 0.013707175 -0.026330123
000070 68 38 a8 bc 57 c1 ed bb 09 cb 67 bc f1 71 06 3d
       -0.02053471 -0.007255714 -0.014147528 0.032823507
000080 4d 50 23 3c 59 9d 5e bb 29 35 32 bc bf e2 7b bb
       0.009967876 -0.0033968298 -0.010876932 -0.0038434712
000090 21 22 27 3c 65 23 6c 3c eb ad 59 bc 20 17 46 bb
       0.010201008 0.014412736 -0.013286094 -0.0030226186
0000a0 66 08 d9 bb a0 1c 1a bc 8c 26 1c 3d 37 18 12 bd
       -0.0066233156 -0.009406239 0.0381227 -0.035667624
0000b0 5e ce 1b bd 27 6b 39 bd 2a 53 86 3c 69 49 90 bb
       -0.038038604 -0.045268204 0.016397078 -0.0044032824
0000c0 1d 19 fb 3a 16 53 ae 3b 7f d7 a7 3c 0c 57 54 bb
       0.0019157265 0.005319963 0.020488499 -0.0032400517
0000d0 42 67 21 bc 0d 8a fa bc 38 2f 08 bd 86 50 7a bb
       -0.009851279 -0.030583406 -0.033248156 -0.0038194968
0000e0 6c ee a1 3c 8a 9b 09 bb 8b 47 19 3c 6b dc 4d 3d
       0.019767009 -0.002099725 0.009355436 0.050259035
0000f0 4d 86 70 bc 07 cf e1 3c 73 43 b3 3c fb 7a e8 bb
       -0.014680457 0.027564539 0.021882748 -0.0070947385
000100 97 60 1b bd 01 54 5f bd 6b 41 41 3c 10 39 48 bc
       -0.037933912 -0.05452347 0.011795382 -0.012220636
000110 1a c7 e7 3c 38 2f 49 bd a1 1d f1 ba 96 4c 11 3c
       0.028293181 -0.049117297 -0.0018395671 0.008868357
000120 5a 62 2e 3b 6c 17 c1 3c e1 27 c1 bc 15 fe 0b ba
       0.0026608915 0.023570739 -0.023578586 -0.00053402904
000130 dd 6f 1e 3c b9 bd e4 3c 4d 4b 8a ba db 00 fd bc
       0.009670225 0.027922498 -0.0010551006 -0.030884197
000140 07 6f 71 bc 87 f1 79 bc e1 f5 77 bc 11 04 3c 3c
       -0.014735944 -0.0152553385 -0.015134306 0.011475579
000150 77 7d 16 3c f4 7d 6b bd 55 89 2e 3c 8a fd ee bc
       0.009185187 -0.057493165 0.01065286 -0.029173631
000160 a8 d7 eb bc 9e 5c 89 3d 87 a8 bd bc e5 22 09 3c
       -0.028789356 0.067071185 -0.02315165 0.008370136
000170 f9 b4 ed 3c 24 cd 86 3d 93 10 fe bc d4 c9 bb 3c
       0.029016959 0.06582096 -0.031013763 0.022923388
000180 3b aa 30 3c 07 35 8b bb 57 4d a7 bb 6c 74 0f bd
       0.010782774 -0.0042482647 -0.005105655 -0.035023138
000190 b8 68 b7 bb cf 43 de 3b 36 d0 63 bc 92 0a 92 bc
       -0.0055972002 0.0067829858 -0.013904622 -0.017827306
0001a0 6e 62 ec bc 9e 99 06 3c c8 41 d6 3b 9a 28 3d 3d
       -0.028855529 0.008215336 0.0065386035 0.0461813
0001b0 07 2e 73 bb fa 46 9c bb 7a 81 0a bd 24 3b a5 bb
       -0.0037106292 -0.0047692033 -0.033814885 -0.0050424505
0001c0 15 26 c4 bb 57 4a 88 bd 9c ff b1 3b a7 53 de bc
       -0.005985985 -0.06654804 0.0054320823 -0.027139498
0001d0 31 84 b0 3b 89 4b 77 3a b8 3b 9c 3c 89 ed f8 3c
       0.005386852 0.0009433558 0.019071445 0.030386703

running_mean f4 [120]
000000 5c 50 29 3c aa 4f 58 bf e5 73 0c bd 5a f7 77 bd
       0.010334101 -0.8449656 -0.034290213 -0.060538627
000010 0c ea 9f 3e 6c 86 bc 3e 7e 14 73 bd f8 25 21 bf
       0.3123325 0.36821306 -0.059345715 -0.6294856
000020 cd 2c 66 be 10 24 c1 3e 13 13 2b 3c 78 87 37 bf
       -0.22478028 0.37722826 0.010441559 -0.71691084
000030 26 86 11 bd 7c ff 32 3e 8d 6a 0a bf ea 01 89 bf
       -0.035528325 0.17480272 -0.54068834 -1.0703709
000040 80 49 89 be 73 8e 41 bf 39 ae 4c 3e e6 aa fb bd
       -0.2681389 -0.75607985 0.19988336 -0.12288456
000050 a5 59 31 bf ad ca 27 3d f5 a4 1c bf 01 98 f2 bd
       -0.6927741 0.04096477 -0.61189204 -0.11845399
000060 e1 50 ff be 69 e3 70 3e 4a f0 27 bf cc e4 92 bf
       -0.49866393 0.2352425 -0.65601027 -1.1476073
000070 27 66 53 bf b5 84 99 3e 44 84 ff 3d 94 01 12 bf
       -0.8257775 0.2998406 0.124763995 -0.5703366
000080 39 b7 8f 3d 80 af 79 be 52 ea f1 3d 41 cb 3c 3f
       0.07017369 -0.24383354 0.11812271 0.7374764
000090 52 3a db bd 52 d4 0a bf 7f 08 81 be 47 6a 9e be
       -0.10704483 -0.54230225 -0.25201795 -0.30940458
0000a0 8e bc 29 bf 83 87 ab 3e 10 62 5b bf 88 e5 34 bf
       -0.66303337 0.33501825 -0.85696507 -0.70662737
0000b0 21 52 d5 3e ad ad da 3e 4e 12 74 3e fe 18 a1 bd
       0.41664222 0.4271063 0.23835108 -0.07866095
0000c0 0b b8 6c bf c6 bf f5 3d b9 32 d1 bd 44 fc 38 3e
       -0.9246833 0.119994685 -0.10214753 0.18064982
0000d0 64 42 4f 3e 03 37 00 3e d1 ae 1b bf 94 63 3b 3f
       0.2024017 0.12520985 -0.60813624 0.7319882
0000e0 d7 72 fa bd 14 6f 9e bf 6b a7 92 be 08 e4 c3 3e
       -0.12228935 -1.2377648 -0.28643355 0.38259912
0000f0 16 2e dc bd 94 f8 f5 be bc d5 93 be 62 4c 47 bd
       -0.10750978 -0.48041213 -0.28874004 -0.04865683
000100 0b bf 82 3e 27 69 0e bf b1 d1 3c 3f 9a cf 17 bf
       0.2553638 -0.556292 0.73757464 -0.5930115
000110 af 62 b7 3e cd 98 9b 3f ab fb fa bc f7 80 0c bf
       0.35817477 1.2156006 -0.030637583 -0.54884285
000120 e9 40 04 bf 02 12 32 bf 23 fe 70 3e 5b 46 b6 bd
       -0.51661545 -0.6955873 0.23534445 -0.08900138
000130 0d 8f 6c 3d 58 f6 85 be ac e7 d0 be 46 5a 8b bf
       0.05775361 -0.26164508 -0.40801752 -1.0886924
000140 f1 24 9e 3d df 31 ba bc 1c bf 5c bf 4e 82 0f bf
       0.0772189 -0.022728859 -0.8622911 -0.56058204
000150 14 70 c5 3c ea 34 11 3e bb 5d 44 be 3a 45 8b bd
       0.024101295 0.14180341 -0.1917638 -0.06800313
000160 dd 5c b3 be 99 e3 46 3d 87 3c 78 bf f5 64 d0 3d
       -0.35031787 0.048556898 -0.9696736 0.10175506
000170 2a 45 13 bf 08 8c a2 3e 27 59 44 3f f2 d5 9d bd
       -0.5752741 0.3174746 0.76698536 -0.077068225
000180 5a 39 46 bf 2c 17 d4 3e fc 77 9f 3b 1b f9 de bd
       -0.7743126 0.4142393 0.004866598 -0.10887357
000190 ed 8e 05 bf f8 70 1d bf a7 19 8e 3e 44 92 21 bf
       -0.5217121 -0.615005 0.27753946 -0.6311381
0001a0 b6 6f e5 be 1d 24 77 bf 5f cf f1 3d 64 38 25 3e
       -0.4481179 -0.9653948 0.11807131 0.16134793
0001b0 69 e3 c7 be 04 e8 3e be 72 80 a8 be c1 28 17 3f
       -0.39040688 -0.18643194 -0.32910496 0.5904656
0001c0 48 93 f4 be 44 f0 4f be e9 64 1f bf 1f 4d d2 be
       -0.47768617 -0.20306498 -0.6226335 -0.41074464
0001d0 6b 2f 10 3f 28 0f 09 3e a6 33 4f be cc 04 e1 be
       0.56322354 0.13384688 -0.20234546 -0.43948972

running_var f4 [120]
000000 66 cf dd 3e 61 db 27 3e 40 66 45 3e 33 a0 7b 3e
       0.43322295 0.1639228 0.19277287 0.2457283
000010 5a 3e 87 3e 7a 69 bc 3e d8 38 70 3e 2a f2 7f 3e
       0.26414758 0.36799222 0.23459184 0.24994722
000020 14 e1 3f 3e a9 ca 69 3e a3 a6 96 3e b5 5e 3f 3e
       0.18738204 0.22831215 0.2942401 0.18688472
000030 df 9d 31 3e 93 f8 80 3e c2 e1 d4 3e fe f5 a5 3e
       0.1734538 0.25189647 0.4157849 0.3241424
000040 97 e7 66 3e 13 98 d7 3e 1b 6f 13 3e 42 65 8b 3e
       0.22549282 0.4210821 0.14397852 0.2722569
000050 dc 2f 59 3e a0 8a 5e 3e 25 04 57 3e 8a 03 62 3e
       0.21209663 0.21732569 0.20997675 0.22071663
000060 7e a2 91 3e 13 ee 34 3e 71 8c 81 3e e8 92 69 3e
       0.28444284 0.17668943 0.2530246 0.22809947
000070 2a 04 68 3e 8d bb 9d 3e fe 54 56 3e 85 d6 44 3e
       0.22657838 0.30807152 0.2093086 0.19222458
000080 a6 01 a9 3e ef 28 71 3e 37 6b 15 3f 27 cd 20 3e
       0.3300907 0.23550771 0.5836672 0.1570326
000090 79 08 2a 3e eb fb 03 3f 5c 7b b3 3e 7e e4 96 3e
       0.16604795 0.5155627 0.35055053 0.294712
0000a0 ca 3d a5 3e 6a b1 58 3e 1a a5 97 3e 26 f1 83 3e
       0.32273704 0.21161428 0.2961815 0.2576992
0000b0 71 ad ad 3e 99 8b 89 3e 63 d3 25 3e 85 1a 0c 3e
       0.33921388 0.26864317 0.16193919 0.13681991
0000c0 3f 73 8b 3e 6d ed 07 3f 1b 9a 6e 3e 2e 46 58 3e
       0.27236363 0.5309666 0.23300974 0.21120521
0000d0 7f bd 98 3e 95 ba 4d 3e a0 ec 7b 3e a5 f9 41 3e
       0.29832074 0.20090707 0.24601984 0.18942888
0000e0 3c e6 51 3e d6 ee 60 3e 78 9d 4b 3e 0a 32 a5 3e
       0.20497984 0.21966109 0.19884288 0.3226474
0000f0 52 6d a4 3e 2c 44 9d 3e b2 64 86 3e 90 1d 87 3e
       0.32114655 0.30716074 0.262487 0.26389742
000100 8f 5a 56 3e e8 bc e5 3e b4 b7 5a 3e 7e 59 4e 3e
       0.20932983 0.44870687 0.2135914 0.20151326
000110 7a 62 e5 3e ea 31 f5 3e fe 2b 26 3e 1d 28 80 3e
       0.44801694 0.47889644 0.16227719 0.25030604
000120 3e 05 5f 3e 8f c0 d4 3e 4f fd 9a 3e 26 b1 6f 3e
       0.21779343 0.4155316 0.30271384 0.2340742
000130 77 df 80 3e 8b e1 07 3f f8 56 55 3e 76 8d bf 3e
       0.2517049 0.53078526 0.20833957 0.37412614
000140 cf 8d 84 3e 5b 6b 12 3e 0c 7b 81 3e 03 64 8b 3e
       0.2588944 0.14298765 0.2528919 0.2722474
000150 c3 64 3b 3e a3 53 d2 3d 64 f2 51 3e 0f 2b c7 3e
       0.18300156 0.10269859 0.20502621 0.3890004
000160 31 3c 21 3e 77 eb 34 3e b3 ba 5c 3e b7 d2 77 3e
       0.15745617 0.17667948 0.21555595 0.24201475
000170 ea c8 7c 3e 9e 56 2e 3e 7d c4 de 3e 96 97 3b 3e
       0.24686018 0.1702523 0.43509284 0.18319544
000180 b1 85 c6 3e e9 57 03 3f 75 03 1e 3e 89 3c a7 3e
       0.38773873 0.51306015 0.15431006 0.32663372
000190 ba 7a 6c 3e 87 16 48 3e 5f b5 63 3e 34 1c a2 3e
       0.23093691 0.19539843 0.22237156 0.31662142
0001a0 cf 2a 69 3e 15 21 62 3e dc b4 83 3e 4c 78 de 3e
       0.22770236 0.22082932 0.25723922 0.43451154
0001b0 ad 62 3c 3e b1 db 60 3e 38 97 92 3e be 30 e6 3e
       0.18397017 0.21958806 0.28630996 0.44959062
0001c0 ac 4b 8c 3e 3b 78 85 3e 5e 3c 58 3e fb e5 93 3e
       0.27401483 0.2606829 0.21116778 0.288864
0001d0 65 bc cd 3e b7 12 a4 3e 7f 31 a1 3e db 33 62 3e
       0.40182796 0.32045528 0.31483075 0.22090094

weight f4 [84, 120]
000000 ec 94 7d 3d 04 8d 39 3d ab 91 9e 3d 51 88 83 bd
       0.0619096 0.0453005 0.07742628 -0.06422485
000010 40 85 dc bd 06 55 b1 3b c3 48 25 3d 68 e8 38 3c
       -0.10767603 0.005411747 0.040352594 0.011285879
000020 4c 5e 36 be 32 dc 63 bd 07 67 4d bd 26 e8 3f 3d
       -0.17809409 -0.055629916 -0.050147083 0.046852253
000030 3b 1a f7 3d 03 4c a4 bd 99 c9 52 bd 7d 1f 24 3e
       0.1206555 -0.080223106 -0.05146179 0.16027637
000040 e2 e4 c8 3d 02 58 18 3e 33 17 ff bd b6 7a 1a be
       0.09809281 0.14877322 -0.12455597 -0.15085873
000050 45 00 86 3d f1 7a fd bd 98 1f a4 bd 97 fe cb 3c
       0.0654302 -0.12376965 -0.080138385 0.024901671
000060 ac 26 0b 3d 9b 16 f7 3d 52 91 e8 bd c6 f6 90 3d
       0.033972427 0.120648585 -0.11355843 0.07078318
000070 2f 31 86 bc be 93 c8 bc 7a 3a 32 3d 30 53 a1 3d
       -0.016380874 -0.024484511 0.0435128 0.07877195
000080 b0 7b 89 3d 5e cc 2a 3e 7c 83 f3 3d 13 29 f9 3c
       0.06713045 0.16679522 0.11890313 0.030415094
000090 08 27 14 bd 28 c0 1d 3d a1 d3 e0 3d 66 3b 84 bd
       -0.036170036 0.038513333 0.10977865 -0.06456642
0000a0 4f 6f 9b 3d 76 88 bf 3d 98 54 d5 bd b2 2d e3 bd
       0.0758959 0.093522 -0.104165256 -0.110927
0000b0 e9 15 7a 3d 7e 8e c2 3d 81 cd 18 be bc 77 5b bd
       0.06105605 0.094998345 -0.14922144 -0.053580984
0000c0 0b a9 a3 3d 47 c3 33 3e c4 de e0 bd de 4e e5 3d
       0.07991227 0.17554961 -0.10979989 0.11196683
0000d0 47 08 80 3d 43 16 49 bd c3 01 d1 bd 23 2b 22 be
       0.06251579 -0.049093496 -0.10205414 -0.15836768
0000e0 56 27 ed bd de 92 19 3d 31 5b ca 3b 78 b1 2c be
       -0.11579768 0.03749358 0.0061754216 -0.16864574
0000f0 0b 6c 4a 3d 6b b8 c3 bd 68 6a a4 3d df ab 20 3d
       0.049419444 -0.09556659 0.08028108 0.03922641
000100 37 d8 e3 bd e8 d6 df 3d 4f a2 d2 bd b2 b0 5c 3d
       -0.11125224 0.10929662 -0.10284864 0.053879447
000110 28 24 ff 3d a2 71 47 3d 6d 42 f0 bd f8 90 3a bc
       0.12458068 0.048692353 -0.1173142 -0.011387102
000120 9a b2 18 3e 2d 8f 8a 3d aa b6 66 3d 90 ec 17 3e
       0.14911881 0.0676559 0.056326546 0.14836335
000130 01 03 e9 bb 6d 8d bd bd fd fb 27 3e 9b 73 60 3d
       -0.007110954 -0.092554905 0.1640472 0.05479775
000140 75 be 22 3e 14 f5 01 be 49 12 b6 3d 6c c8 18 3d
       0.15892966 -0.12691146 0.08890206 0.037300512
000150 a4 d6 2a 3e d3 2f d0 bd ef 40 c1 bd 0e b4 03 3e
       0.16683441 -0.10165372 -0.09436213 0.12861654
000160 86 bb 15 3b ea 27 14 3e 90 f4 c6 3d 4d 23 40 be
       0.0022847368 0.14468351 0.09714615 -0.18763466
000170 41 b2 3e 3e 70 32 2d be c8 a8 71 3c c2 80 73 bd
       0.18622686 -0.16913772 0.014749713 -0.059448965
000180 8c 9a c4 bd c0 30 ee bd 32 7a f4 bb 92 3c 1e bd
       -0.0959979 -0.11630392 -0.007460856 -0.038631983
000190 51 bb 00 bc dd cc 8a bd ec 39 05 be 15 35 a4 3d
       -0.00785716 -0.06777356 -0.13010377 0.08017937
0001a0 3d 3a 92 3d bc 46 0b 3d 66 17 37 3d f5 a3 b4 3d
       0.07140014 0.034003004 0.04470005 0.08820335
0001b0 31 af a3 bd 62 04 50 bc 5c 5d 5b bd a1 0d e1 3d
       -0.079923995 -0.012696357 -0.05355583 0.10988928
0001c0 06 6a 31 be e8 54 c7 3b fc 90 8b 3d 6b 8e ba 3d
       -0.17325601 0.0060831197 0.06814763 0.09109195
0001d0 8d 31 b5 3c 7a 76 2c 3e 91 17 c1 3c 12 8d 00 be
       0.022118354 0.1684207 0.023570808 -0.12553814
0001e0 f7 a1 10 3e 82 92 a4 3d 3d ed de bd b4 f2 34 3d
       0.14124285 0.08035757 -0.10885093 0.044176772
0001f0 c1 71 1d be 44 a2 80 3d b3 d4 04 3e d9 4f 18 bd
       -0.15375425 0.0628095 0.12971763 -0.037185524
000200 8e e7 62 be bb 29 67 bd f7 2f 6c 3d 80 0b 2f 3e
       -0.22158644 -0.05643628 0.05766293 0.1709423
000210 42 02 1e 3d 6f 80 fd 3d ed ed 20 3e d8 e5 37 3d
       0.038576372 0.123780124 0.15715761 0.04489693
000220 26 07 2c 3e da fb 1d 3e 78 ea f8 3d 6b 9f d0 bd
       0.16799602 0.15428105 0.12154096 -0.101866566
000230 e5 4c 38 3e ce 9c 0e be 30 2e 36 3e 29 13 82 3c
       0.17998083 -0.13927004 0.17791057 0.015878277
000240 97 91 19 be 4e e1 b0 bd 84 05 95 bd 00 c9 6c 3d
       -0.14996944 -0.086367235 -0.07276443 0.057808876
000250 f7 7f 38 3e 4a 93 dd bc f8 47 92 bd 55 63 01 bd
       0.18017565 -0.027047772 -0.07142633 -0.03158887
000260 fa 45 1e be 7b 5f ba bd 64 38 d2 3d d8 45 0b be
       -0.15456381 -0.09100243 0.10264662 -0.13600862
000270 60 77 ec bd 0c 55 05 3d 90 52 36 bd a8 8b 75 3d
       -0.115462065 0.03255181 -0.04451233 0.05994764
000280 4b ec 02 3e de 81 09 be 69 da 22 3e cd c1 19 3e
       0.12785451 -0.13428447 0.1590363 0.15015335
000290 85 1c 22 be 0d 71 c3 bd 30 cf 3c be c6 43 a4 bc
       -0.15831192 -0.09543047 -0.18438411 -0.020051848
0002a0 19 37 10 3e 3e 07 5f bd 2f 88 0c be a5 39 b7 bd
       0.14083518 -0.054450266 -0.13723825 -0.08946542
0002b0 28 58 1f 3e 7a ff 1a 3e fc aa ba 3d 21 32 80 bd
       0.15560973 0.15136519 0.09114644 -0.06259561
0002c0 15 cb 2b bd da 22 23 3d 14 de 02 3d 0d 77 de bd
       -0.04194172 0.03982816 0.03195007 -0.10862551
0002d0 e9 82 3a be f7 e0 88 bb 3d c0 24 be 0b a4 06 3e
       -0.18214001 -0.0041772085 -0.16088958 0.13148515
0002e0 20 01 9c 3d 3f 6d 29 bd 06 4c 18 be c6 61 0e 3e
       0.07617402 -0.04136395 -0.1487275 0.13904485
0002f0 0e 29 45 3e 93 0b 42 bd fc c9 13 be f3 9c 8e bd
       0.19253942 -0.04737432 -0.1443252 -0.069635294
000300 c3 d1 8b bd 78 c9 a5 bd 7a 2d a7 bd ab 59 0e bd
       -0.06827118 -0.08095068 -0.08162971 -0.034753483
000310 b6 cf 40 bd 14 af 33 3d b0 9a 3b be f2 41 07 3d
       -0.04707309 0.04386814 -0.18320727 0.033021875
000320 3f 21 f9 3d 71 ed 62 bd 60 bc 36 3e dc 07 ee bc
       0.12164544 -0.055402223 0.17845297 -0.029056482
000330 9f 46 e0 bd 49 94 1b bd c7 90 bd bd a1 a2 a0 b8
       -0.1095097 -0.037983213 -0.0925613 -7.6596865e-05
000340 63 3a d5 bd eb ab 45 be ff 59 e4 3d 52 f6 fc bd
       -0.10411527 -0.19303863 0.11149978 -0.12351669
000350 1b b4 74 3d 7d d3 2d be 91 a6 85 bc 0d 52 50 bd
       0.059742074 -0.16975208 -0.016314777 -0.0508595
000360 0f be 76 3d e8 16 80 bd 2b 0e 21 be ae a7 79 3d
       0.060239848 -0.06254369 -0.15728061 0.060950927
000370 a7 bc 13 3e 90 af 0d be 06 c4 b8 bc 41 15 d1 bd
       0.14427434 -0.13836503 -0.022554409 -0.10209132
000380 3e 31 3f 3e 42 ce 2f be c7 bb 0e be bb e6 97 bc
       0.18671128 -0.17168525 -0.13938819 -0.018542638
000390 66 7f b6 3d 4c 8c f7 bd f5 4d d7 3c 77 3e e4 bb
       0.08911018 -0.120873064 0.02628229 -0.006965454
0003a0 10 fc 4b 3d 65 4a 20 bc b8 95 da bd c1 d8 20 be
       0.049800932 -0.009783362 -0.10673088 -0.15707685
0003b0 12 63 51 3d 7d d2 f3 bd 36 5b ea 3d b5 86 c7 3d
       0.05111987 -0.11905382 0.11443178 0.0974249
0003c0 c0 7c 3d bd 96 8d 13 be 7b ae 93 3d 1e 4d 2d be
       -0.04626155 -0.1440948 0.07211014 -0.16923949
0003d0 56 76 8b 3d a9 94 91 bd 3d 81 27 3e 58 f8 2a bd
       0.0680968 -0.07108433 0.16357894 -0.041740745
0003e0 7a 0f 53 bc dd 30 fb bd 52 db 23 be e5 5b 58 3d
       -0.012882108 -0.12265179 -0.16001633 0.052822012
0003f0 4e 55 a2 3d 99 47 d8 bd 53 54 66 b8 4b 5a 0d 3e
       0.07926427 -0.10560531 -5.4914806e-05 0.13803975

bias f4 [84]
000000 49 69 23 3c 3f 17 7e bb 5e 97 bc bb a3 52 4f 3b
       0.009973832 -0.003877118 -0.005755349 0.0031634949
000010 87 18 bc bb 4e 50 a4 ba a3 ef ab 3c 4c 8c a7 bc
       -0.0057402286 -0.001253614 0.020988291 -0.020452641
000020 66 d1 28 3b bf ee 8c bb 00 a9 27 3c 3a 11 84 3c
       0.0025759577 -0.0043009217 0.010233164 0.016121496
000030 a2 d3 4c 3d fa b5 77 bc 76 5c cb 3c dc d4 2e bb
       0.050006516 -0.01511907 0.024824362 -0.0026677167
000040 e5 6c 1f bd 94 20 c5 3c 38 93 c9 3c 14 b9 11 3b
       -0.03892221 0.024063386 0.024606332 0.002223556
000050 bc 00 24 3d 50 31 2e 3c bd 14 bf 3b 7a 7b 38 3b
       0.040039763 0.010631874 0.0058313296 0.002814977
000060 4a 08 b6 3c 56 d3 04 3c 8c 42 0c bb 1c 86 81 bb
       0.02222075 0.008107027 -0.002140197 -0.0039527547
000070 86 ab c6 3c c2 74 ab 3b 62 89 75 bc e5 68 0f 3c
       0.02425171 0.0052324245 -0.014986368 0.008753036
000080 50 37 60 3c 44 25 43 3c c7 24 79 bc 2f 70 ad 3b
       0.0136850625 0.01191074 -0.015206522 0.0052929143
000090 8d dc 11 3c 13 5e be 3c 02 8d 18 bc 43 cc 5e 3c
       0.008902681 0.023238217 -0.009310963 0.0135985045
0000a0 c8 09 12 3c d3 61 c4 bb 47 70 40 3c 2c e6 d0 bb
       0.008913465 -0.005993107 0.011745519 -0.006375095
0000b0 2e d0 82 3c 18 f0 b0 3b 70 62 68 3c 6d cb 86 3c
       0.015968408 0.005399715 0.014183626 0.016454423
0000c0 84 8e 2f 3d dd 0b e0 bb 31 e8 17 bc ef 1f 13 3c
       0.042860523 -0.0068373517 -0.009271667 0.0089797815
0000d0 f5 b9 94 bc 4f 47 ca 3b ea c9 de bb f4 07 1d ba
       -0.018155077 0.0061730514 -0.0067989724 -0.000599026
0000e0 97 50 24 b9 1f 5c a3 3a 59 ec 71 3c 8f 9c f2 bc
       -0.00015670281 0.0012463367 0.014765822 -0.029615669
0000f0 1b 58 a3 3b ae cb 93 3c 0d 7a da 3c 4c 0f 96 3b
       0.004984868 0.018041458 0.026669526 0.0045794602
000100 53 c9 d4 bc 1a 84 43 3c a5 b4 5a 3c 79 0e 76 bc
       -0.025974905 0.011933351 0.013348733 -0.015018099
000110 fe 39 88 3c db ff 6f 3b 8b ea c2 3b 4f a7 1a bd
       0.016629215 0.0036621008 0.00594837 -0.037757214
000120 2a 80 1a bc f7 77 83 3b 8e 9c b8 bc 55 4b 2f bd
       -0.009429971 0.0040121037 -0.022535589 -0.04279645
000130 96 41 da 3b d6 c5 0b bc 1d af 76 3c 43 a4 00 3c
       0.0066606505 -0.0085310545 0.015056399 0.007851663
000140 6f 51 b4 3c 74 ed 96 bc 1c 8f 29 3c f6 23 7a bc
       0.022011487 -0.018423773 0.010349061 -0.015267363
