model1/model/footwear(91.07).pt (torch, 277802 bytes, 22 tensors)

weight f4 [6, 3, 5, 5]
00000000: 0d4e ea3c 8448 f1bc 4bcb 0bbe 9404 c03d
00000010: 1176 f83c 5f1e a6bd 295e f3bd e602 103e
00000020: f8fa e7bd f9f2 693c 0910 46bd e2b7 b0bd
00000030: d067 243c fd6b a6bd 5ed3 ee3d 4af2 ef3d
00000040: 1f89 3a3d d512 3a3e b2a7 ca3d 728b 1e3e
00000050: 6226 9ebd ee84 0a3d bb77 6b3e 69e6 513e
00000060: 61c5 f9bd 53ef 8abd 01bf 9d3d 1978 67bd
00000070: 8c64 d6bd ceca b3bd 5bc6 93bd 1c97 d2bd
00000080: ccbe 3f3d 1142 63bd 4197 82bd 727c dbbd
00000090: 3847 5abd 9929 183e 7811 ed3d d30b aa3d
000000a0: 1982 1dbe f493 753e c902 6e3e 477a 8c3e
000000b0: 159e b83c 08d9 6dbe 91f5 95bd be06 533e
000000c0: ef3a bf3c e417 453e 41c3 443d d8bd f53d
000000d0: 3489 10be 996f f9bc 2277 c43c e847 12bd
000000e0: 2ce6 16bd 7c56 473d dd18 c9b7 5cb7 46bd
000000f0: af67 cf3d 53f9 10be 3c8b f1bc e98c f63d
00000100: 421e 973c 3410 1e3e 7f36 733e ee13 e83d
00000110: e94a 823e 9272 24bd 5874 b83c 367a df3d
00000120: 8301 da3d c9e3 df3d 080c f83c b21a a73d
00000130: 46f8 d23c 8a89 d73d 3e0f 3bbd 307f e63d
00000140: d130 6d3e 82f4 593d 69f8 f03d 372c d03d
00000150: 36b8 9e3a 28f3 7ebd bd5a 32bd cd12 e23d
00000160: 7e87 e2bd 5ea1 55bd 5d8e 11be 8fcc 98bd
00000170: 7330 063d 8d2e 0abe 86f5 44be 2fe1 af3d
00000180: 038a 993d 1f57 173e 5ae4 4f3c dbfe 40bd
00000190: fc36 bf3d 4e31 babc 80b7 803d dc3f 823d
000001a0: f445 103e f00e c7bc b3a5 303c 1032 7d3d
000001b0: ad49 16be f642 afbd 6998 583d a82c 86bd
000001c0: 80f3 1abe 13ad ffbc c170 143c c469 323d
000001d0: a024 e83d 37f9 ce3d 07b7 463d 5dad a73d
000001e0: ef3c f8bb 6b71 343d d141 61bd 2554 2ebe
000001f0: 813d 86bc d1aa 3c3e 25b0 593e a589 1c3e
00000200: 76ab 15be a64d a0bd 207f 0a3d 27df 3b3e
00000210: 9b22 373e e5bf 37be 5dbd 76bd 0c68 3a3c
00000220: 36ff c93c 1084 b2bd 62f1 29be 0483 37be
00000230: 5253 fe3d dcb7 c4bd c716 1b3e 2265 c2bc
00000240: de20 1bbe c806 403d 567b bfbd bbbc cf3d
00000250: 68e9 9cbd b9ad e5bd 41e7 ce3c 8aeb bbbd
00000260: dac2 403e 08a4 3b3e 92ca 913d c7d7 b13d
00000270: c7c9 9abd e349 b43c fd29 0dbd 560a 0cbe
00000280: d72e 8cba bd5f ee3d c4ae 79bc 3a93 a53d
00000290: 6743 7cbd 9537 4c3e 4304 20bb 1ef3 e1bd
000002a0: 7e5e b33a 98a6 b8bd f997 b83c c6ce 14be
000002b0: 4716 adbd 4650 aebc 440e ca3c c97c 13bd
000002c0: a49e 27bd c8ef cc3d bfae 053d b33b 0f3d
000002d0: d2f0 13be b63f 86bc 6eba 3abe d21a 3dbe
000002e0: 895b 963c 9def 04be ea07 2cbe 07cf 9a3d
000002f0: d151 e83d 12d0 cbbd 41bc 383e 0c16 ee3d
00000300: e294 0f3e 76bb c43d 18a5 853d d214 a33d
00000310: f173 183d 3187 fabd cb79 313d 8619 c6bd
00000320: e1df fd3c 7f74 fc3d af75 0abe 1edb e8bd
00000330: f446 db3c 4672 56be 8bfb 55be 1e2b 43bc
00000340: 131f 08be b006 c3bd a329 a63c e40a 9a3d
00000350: 27f8 49be cd5d 4abe e009 02be c721 4abd
00000360: d440 353e 4ea6 893d 875f d93d b498 26bc
00000370: 362c d23d fa6a dbbd 6d03 c03d f3e1 2e3d
00000380: a60c b03d ef40 9d3c 8c5a c2bd d797 98bd
00000390: 3dd3 873d 33b6 4a3e 3d98 233e ca35 ddbd
000003a0: 434b 0abe 5abf 863a a3e7 233e d48a 16be
000003b0: c3cd c13d b669 003e dd2e ed3d d0d3 1b3e
000003c0: 4a61 853d 8e7f 0cbe 757d 283e 59c8 093e
000003d0: f442 d13c 7565 0d3d 31e0 6f3c 1cdf d7bd
000003e0: a979 90bc bd3a aabd 54c7 0c3d 5a31 6ebd
000003f0: 15f2 26be 39a0 d2bc 3f23 87bc e6ee 6cbd
0.02860167 -0.029453523 -0.13651769 0.09375873 0.030329736 -0.081112616 -0.11883194 0.14063606
-0.11327165 0.014279121 -0.048355136 -0.08628823 0.010034516 -0.08126066 0.11661409 0.11716135
0.045540925 0.18171246 0.098952666 0.15482882 -0.07722165 0.033818178 0.22994892 0.20498051
-0.1219585 -0.06783929 0.07702447 -0.05651102 -0.104683965 -0.08778916 -0.07215568 -0.10282728
0.046812817 -0.055482928 -0.06376506 -0.107170954 -0.053290576 0.14859618 0.115755975 0.083030365
-0.1538166 0.23982221 0.2324325 0.2743704 0.022536317 -0.23227322 -0.07322229 0.2060804
0.023343531 0.19247395 0.04803777 0.119991004 -0.14114839 -0.030448722 0.023982588 -0.035713106
-0.036840603 0.048666462 -2.3972645e-05 -0.04851471 0.10127198 -0.1415761 -0.029485337 0.12038595
0.018447045 0.15435869 0.23751257 0.11331926 0.25447777 -0.040148325 0.022516415 0.10911982
0.106448196 0.109321184 0.030279174 0.081593886 0.025753152 0.1052428 -0.045668833 0.11254728
0.23163153 0.053211696 0.117661305 0.10164683 0.0012109342 -0.06224361 -0.043543566 0.11038742
-0.11060999 -0.052155845 -0.14214464 -0.074608915 0.03276105 -0.1349432 -0.19234285 0.08587872
0.07497027 0.14779328 0.012688721 -0.04711805 0.09336659 -0.022728588 0.06285 0.063598365
0.14089185 -0.024299115 0.010781693 0.06181532 -0.14676543 -0.08557694 0.052879725 -0.06551486
-0.1513195 -0.031210458 0.009060086 0.043557897 0.11335111 0.10106128 0.048514392 0.08187363
-0.007575623 0.044053476 -0.054994408 -0.17024286 -0.01638675 0.18424536 0.212586 0.15286882
-0.14616188 -0.0782731 0.033812642 0.18346845 0.17884295 -0.17944296 -0.060239185 0.011377346
0.024657827 -0.08716595 -0.16595986 -0.17921072 0.12418236 -0.09605381 0.15145408 -0.023729865
-0.15149257 0.046881467 -0.09349696 0.10143419 -0.07661706 -0.112147756 0.025256755 -0.09175785
0.1882433 0.18324292 0.07118715 0.086837344 -0.07558017 0.022007888 -0.03446387 -0.13675818
-0.0010695112 0.116393544 -0.015239421 0.08084722 -0.061587717 0.19943078 -0.0024416603 -0.11032699
0.0013684777 -0.0901615 0.022533404 -0.14532003 -0.08451515 -0.021278512 0.024665006 -0.036007676
-0.040922776 0.10006672 0.032637354 0.034969043 -0.14447334 -0.016387802 -0.1823518 -0.18467262
0.018354194 -0.1298203 -0.16799894 0.075590186 0.1134373 -0.09951796 0.18040563 0.11625299
0.14021638 0.09606068 0.0652563 0.079629555 0.037219945 -0.12232817 0.04332904 -0.09672837
0.030990543 0.12326907 -0.13521455 -0.11369918 0.026767232 -0.2094203 -0.20896737 -0.011912135
-0.13293104 -0.0952276 0.020283526 0.075216085 -0.19723569 -0.19762345 -0.1269908 -0.04934862
0.17700511 0.06721173 0.106139235 -0.010168243 0.10262339 -0.107137635 0.093756534 0.04269595
0.085961625 0.019196002 -0.09489927 -0.07450836 0.066320874 0.19796066 0.15976043 -0.10801275
-0.13505273 0.0010280416 0.16006331 -0.14701396 0.09463074 0.12540326 0.11581204 0.15217519
0.06512697 -0.13720533 0.16454108 0.13455333 0.025544621 0.034520585 0.014640854 -0.105406016
-0.017636137 -0.08311985 0.03436978 -0.058152534 -0.16303284 -0.025711166 -0.016496299 -0.05784502

bias f4 [6]
00000000: 1e9d dabb 2944 653c c9da 243b 26f5 e13b
00000010: 0f2b 94ba 8494 c83c
-0.006671562 0.013993301 0.002515482 0.006895679 -0.0011304336 0.02448488

weight f4 [6]
00000000: 1246 883f 0a15 833f 2602 603f 83bc 7d3f
00000010: 5553 863f f537 853f
1.0646384 1.0240796 0.8750328 0.9911577 1.0494181 1.0407702

bias f4 [6]
00000000: 8893 09be d2a8 8bbd b480 bbbd c081 80bd
00000010: 0eda 3ebe a983 3abd
-0.13435185 -0.06819309 -0.091554075 -0.06274748 -0.18637869 -0.045535717

running_mean f4 [6]
00000000: 359e aa3f 2456 b23e 56de b7be 1180 593e
00000010: eaef 293f 1d61 b83e
1.3329531 0.34831345 -0.35911816 0.2124026 0.66381705 0.36011592

running_var f4 [6]
00000000: e8e1 ec3f a8ab e23e bac7 7d3e 9693 453e
00000010: 97bb dc3e 08a5 683e
1.8506441 0.44271588 0.24783221 0.19294581 0.4311187 0.22719204

weight f4 [16, 6, 5, 5]
00000000: f9cf f2bd 6f65 6fbd 6f5d 883d c04c ccbd
00000010: 6f17 e2bd 2c3c ea3c 9be8 51bc ad52 a33d
00000020: 032c bf3d 07d0 0cbc c76d 59bd fbe7 b1bd
00000030: 4d16 febd 8073 863d bb64 b13d 7320 d13d
00000040: 5bda e6bc 4ad0 1fbd 794e 47bd bc21 a7bd
00000050: 5d9a 843d ad01 01bd ca82 af3d 0df4 91bd
00000060: b034 17bd 99b1 1b3b 8f52 03bd 70a9 da3d
00000070: 5e61 e53d 7cb4 46bd 06eb 183d 912c 2ebe
00000080: 07a3 cb3b 95a6 223d 50e6 24bd a13f bbbd
00000090: dfe7 d3bd b062 ee3b b951 afbd 286f 223d
000000a0: 77e2 28be b003 cebd 0f6c 9bbd 22c1 503d
000000b0: f092 0d3e ad14 423d acfd 633d bc3a b3bb
000000c0: 8c55 b53d c1ed b8bc 9e2f 64bd bc83 bf3d
000000d0: bedd 5d3c bdcf 713d 30f9 733c 9517 bebc
000000e0: c874 df3d f211 073e 80d6 a53c 2483 56bd
000000f0: af0d d5ba 93c7 b2bc 29ef 403c 7219 273d
00000100: aeb3 063d 78be 8abc e05a 96bd 6233 473d
00000110: 2319 86bd 614e 83bd a7c1 85bd ea93 803c
00000120: 912f 523d a937 a53d 9567 eb3b affe f63c
00000130: b4d8 d9bd acad 413d 06ff a0bd 0bc9 a3bd
00000140: 1807 77bc fab0 5f3d eeec fa3b 428d ee3d
00000150: d402 b9bd 5da1 6fbd 6724 25bd c979 a33d
00000160: afde 92bd 50de 583c 8ada 30bc 381c 90bd
00000170: ae8c f03d bf9c 713d 85e2 00be 5246 073d
00000180: 2eca 193e 80c4 213d 9346 07be eb98 13be
00000190: 1bd4 c3bd f4a3 c93c 0ce0 cf3c 32a8 8a3d
000001a0: ee56 9f3d 246f abbd ab81 22bc ff86 043d
000001b0: 8a5b 7fbd 110a 2e3d edba 363d 2c2c 9dbd
000001c0: 241a 903d 0b8f b8bd 4b90 7c3d b3d1 d13d
000001d0: 4a3b 843c 91cf 413c 46c6 193e dbe7 11bd
000001e0: 92d9 2d3e a073 103d a072 dd3d 2a00 d53c
000001f0: d13b 62bd fbe5 093d e935 b3bd 78de ce3d
00000200: 0ac4 98bd 3a41 d33d 6092 bf3d 300b 9abd
00000210: df39 603c 0d49 743d 219d 7ebd 8390 debd
00000220: 8d3c 18bd 641f 023d 2adf 00be a66a 083d
00000230: f4e4 463d 5de7 1b3d 0faa 44bd c4b2 e9bc
00000240: 03fc dcbd 55a0 9ebd 7ed5 2d3d 3a12 063d
00000250: 3c3f 273d b227 adbd e536 bd3c ee09 893d
00000260: becc 313c d920 893c 043f 60bc fa29 e5bd
00000270: 7a28 543c 28c4 f83c a729 0f3c 55c5 b73d
00000280: 36cd a5bd a432 a7bd ec91 19bd d967 31bc
00000290: f07b 1bbc 07ef 8fbd 592c a23d 4286 dfbc
000002a0: 1e4f 99bd 5796 a8bc cca7 9abd 60c1 5cbd
000002b0: c4ee e0bd e231 e0bd 8eed b73d 75da a1bc
000002c0: e31b 1fbe b338 023d 9e16 06be 279e 92bd
000002d0: 6140 16be 6297 3a3b f7f9 efbd fca3 9cbd
000002e0: a7dc 80bd 489e ac3d 1703 bcbd 909e f1bd
000002f0: 879c b73d d243 4c3d fa3a 24bd 7226 50bd
00000300: 9918 373d ba96 733d 3edc 1e3d 4fb7 a83c
00000310: 4f8e 15be df70 9abd ebe9 02bb 4af1 023b
00000320: 3396 973c 4760 ecbc a54c 9f3d 296a 803d
00000330: c8a8 8c3c 9602 a63d a12f b9bd ca92 abbc
00000340: c65b 61bd cede b4bd 4918 9d3c 6673 8abd
00000350: e409 8f3b 75a8 66bd a37e d1bd d403 9cbd
00000360: feb3 233d 2f33 2dbd 3d37 07bd c722 8d3d
00000370: acb8 19bd 1442 dfbd eab5 ab3b 9049 993d
00000380: 075f b03d 3855 56bd d83d be3d 606c 1a3d
00000390: 9e89 73bd 09c1 9e3c 20cc 7d3d ee23 c2bc
000003a0: ddb9 23bd 7f1d 4e3d 0a0b 79bc 2a92 acbd
000003b0: 16b2 aabd c9e6 bd3c 36bc 35bc 7353 b1bd
000003c0: 57b1 81bc 3c8d ab3d 7625 0abe 5f72 4ebe
000003d0: bd41 aabd 6536 85b9 8ca4 3d3d 7366 b5bd
000003e0: bf44 f2bc 490d 763d a8e4 d4bd f25e c2bc
000003f0: bf83 45bc 39f3 a53d 256d 943c 450d abbc
-0.11856074 -0.058446344 0.06658446 -0.099755764 -0.11039626 0.028593145 -0.012811805 0.079747535
0.093345664 -0.008594519 -0.053083207 -0.08686825 -0.12406597 0.065649986 0.08661791 0.10211267
-0.028180292 -0.039017 -0.04865882 -0.08160731 0.06474755 -0.03149574 0.08569868 -0.07126627
-0.03691548 0.002375698 -0.032061156 0.10676849 0.11200212 -0.048511967 0.03733351 -0.17009188
0.0062145027 0.039709646 -0.040258706 -0.091429956 -0.1034696 0.007274948 -0.08560509 0.039656788
-0.1649264 -0.10059297 -0.0758897 0.050965436 0.13825583 0.047383 0.055661842 -0.005469648
0.088542074 -0.022574307 -0.055709474 0.09351298 0.013541637 0.059036005 0.014890954 -0.023204604
0.10910946 0.1319044 0.020243883 -0.05237116 -0.0016254688 -0.02182368 0.01177577 0.04079575
0.0328862 -0.016936526 -0.07341552 0.048632987 -0.06547763 -0.06411434 -0.06531077 0.01569553
0.051314894 0.08067257 0.007183979 0.03015074 -0.10637036 0.047284767 -0.07861142 -0.0799733
-0.015077375 0.054612137 0.0076576388 0.116480365 -0.090337425 -0.058503497 -0.04031792 0.07982213
-0.0717138 0.013236597 -0.010794291 -0.07036632 0.117455825 0.058987375 -0.1258641 0.033026047
0.15018532 0.039494038 -0.13210516 -0.14413802 -0.0956194 0.024614312 0.025375389 0.06770362
0.077802524 -0.08370808 -0.009918611 0.032355305 -0.062343158 0.04249007 0.04461186 -0.07674441
0.07036236 -0.09011658 0.061661046 0.10245075 0.016141552 0.011829273 0.15017042 -0.035621505
0.16977528 0.03526652 0.108128786 0.026001055 -0.055232827 0.033666592 -0.08750517 0.10101026
-0.074592665 0.10315175 0.09354091 -0.07521665 0.013685673 0.05963998 -0.06216157 -0.10867407
-0.03716712 0.031768218 -0.1258513 0.033304833 0.04855819 0.038062442 -0.048013743 -0.028527625
-0.10790255 -0.07745425 0.04243993 0.032732226 0.04083179 -0.08454837 0.023097465 0.06691347
0.010852037 0.016739296 -0.013686899 -0.11189647 0.0129491035 0.030366972 0.008737958 0.08973185
-0.080957815 -0.08163956 -0.037492678 -0.010827982 -0.009489998 -0.07028013 0.07918615 -0.027285699
-0.074857935 -0.0205795 -0.07551536 -0.053895354 -0.10983041 -0.109470144 0.08980857 -0.019757489
-0.15537982 0.031792354 -0.13094565 -0.071590714 -0.14672996 0.002847158 -0.11717599 -0.07648465
-0.06292086 0.08428627 -0.09180277 -0.117978215 0.08965402 0.049869366 -0.040095307 -0.050817914
0.044701193 0.059469916 0.038784258 0.02059522 -0.14605068 -0.0754106 -0.0019975852 0.0019980245
0.018504238 -0.028854502 0.07778291 0.062702484 0.017170325 0.08105962 -0.090422876 -0.020944018
-0.055019163 -0.08831559 0.01917662 -0.06760292 0.0043651927 -0.056312997 -0.10229232 -0.07617918
0.039966576 -0.04228514 -0.033011664 0.06891399 -0.037529632 -0.10901275 0.0052401917 0.07484734
0.08611875 -0.052327365 0.092891395 0.03770101 -0.059457414 0.019379156 0.061962247 -0.023698773
-0.039972175 0.0503211 -0.015200386 -0.08426316 -0.083347484 0.023181336 -0.011092236 -0.08658495
-0.015831633 0.08376548 -0.13490853 -0.20160817 -0.0831332 -0.00025408264 0.046299502 -0.08857431
-0.029573796 0.060071263 -0.10395175 -0.023726914 -0.0120553365 0.08103032 0.01811845 -0.02088035

bias f4 [16]
00000000: 284c b03b 005e 4e3b f077 ce3c 76ea edbc
00000010: d3c2 d63a ffef 96bc b8f8 a1bb 0077 b2bc
00000020: 2dc2 debb f677 aebc d1fd 9fbc 15cc 293c
00000030: d73b 09bc fa1e b23c fd0e 2b3b 65bd 853c
0.0053801723 0.0031489134 0.025203675 -0.029042464 0.0016384966 -0.018424986 -0.0049429797 -0.02178526
-0.00679805 -0.021297436 -0.019530209 0.010363598 -0.008376083 0.021743286 0.0026101463 0.016325662

weight f4 [16]
00000000: 3c55 623f 42a1 7a3f 420f 7a3f 1329 7d3f
00000010: 466e 963f cbd1 933f 3e83 783f decc 773f
00000020: e3e2 7e3f 14af 803f d61a 7c3f fca0 793f
00000030: 6e4d 833f 5998 853f dda6 553f 8118 843f
0.8841131 0.9790231 0.9767953 0.988908 1.1752403 1.1548399 0.9707526 0.9679698
0.9956495 1.005343 0.9847845 0.9751127 1.0258005 1.0437118 0.8345774 1.0319978

bias f4 [16]
00000000: df96 ecbd 4232 cabd dedb 56bd f886 aabc
00000010: 8455 7cbd e1a3 95bc bcd9 bebd 5cf5 9abd
00000020: a534 ca3c 48e1 c03d 24a5 183c ae46 f53b
00000030: 4afd b9bc bbbf 42bd 3a8f efbd 6afc 56bd
-0.11552214 -0.09872867 -0.052455775 -0.020816311 -0.06160499 -0.01826662 -0.09318873 -0.0756633
0.024683306 0.09417969 0.009316716 0.0074852323 -0.022703785 -0.04754613 -0.1169724 -0.052486815

running_mean f4 [16]
00000000: b47a 19be f825 3cbf eef7 debd ab5a 0cbf
00000010: 1460 af3e 3c34 9f3e a8a5 97bd d903 34be
00000020: 03fe 0cbf d0f2 f1be 6515 5bbe 0f7a dcbe
00000030: 421c cebe 3a5a f1bd 0259 e5be 888c 6e3e
-0.14988214 -0.73495436 -0.108871326 -0.5482585 0.3425299 0.3109454 -0.07404643 -0.17579593
-0.5507509 -0.47255564 -0.2139488 -0.43061873 -0.40255934 -0.117847875 -0.4479447 0.23295796

running_var f4 [16]
00000000: 369c 0b3e 1bcc 1d3e 90c7 ed3d 66dd e73d
00000010: adcd ae3d 1130 f23d 0195 253e f6ba d83d
00000020: 6820 213e f461 c63d 81f9 d13d b9b3 143e
00000030: b95f 423e 60eb 4c3e 7a2c b83e f785 ea3d
0.13633808 0.15409891 0.11610329 0.11321525 0.08535323 0.11825574 0.16170122 0.10582535
0.15735018 0.09686652 0.10252667 0.14521684 0.18981828 0.20011663 0.35971433 0.11451333

weight f4 [120, 16, 5, 5]
00000000: 1e37 cf3c 2607 22bd 7a84 26bd c93a 593b
00000010: 6add 11bc 1c7f 67bd 7a03 a0bc a4cf 98bb
00000020: f7dd d03c 3b25 fd3c e000 efbc 9167 aa38
00000030: 6517 463b 800a 96bc 7472 21bd ca4c fcbc
00000040: 91ba f13c e8c3 913d 5802 423d ced5 293a
00000050: 43c2 acbd 4d4d 7abc 2b8e b4ba d391 c13c
00000060: 6f0d b83c df25 16bd 7435 6e3c 21a0 0e3d
00000070: 4fe5 843c cabc 56bc 2618 a8bd d523 f7bc
00000080: 61fe a4bc aaaf 26bb eece 133d 71d1 bcb9
00000090: 981b 443d c16e 073d 11bb c9bc 74f1 cf3c
000000a0: 62e5 7fbd f2d2 cbbc d5e6 fbbc 485e 573d
000000b0: 32ff 33bd 1d2e 3ebe 4034 91bd 22cc 65bd
000000c0: 945a 53ba 22be 73bd aa82 18bd d4df 7abd
000000d0: c320 963a c8f4 083c 0dfd 8ebc 7bd2 ed3b
000000e0: 75ba a7bc 6702 67bd 8040 ab3c 7973 df3a
000000f0: 09e9 123d 4f3e 483c 9b3f a93c 7276 903a
00000100: 7337 113d d71c 463d 57c0 983b 6a3e 10bd
00000110: b799 693d 593a 8c3d f5f0 d73b 9d66 783b
00000120: e353 34bd 5bb0 f0bc 16bd 693d b662 1abd
00000130: 2668 5fbd e3ac 17bd 635c df3c 01ae 30bd
00000140: b4e2 813d 8da1 8d3d 27b3 acbb 9357 93bc
00000150: 4926 da3c 86ce edbc da26 eebc ed35 513d
00000160: 5e5b 4cbc 1d33 3c3d 7911 5e3b 0900 843d
00000170: 9d19 263d 0c36 3dbd 5298 8dbd 57d0 16bd
00000180: d8a0 8dba d97d b3bc ee3c 7bbd f3b3 4ebd
00000190: ecd1 84bb 846b 2e3d 03f0 063d 2f9e 363d
000001a0: c3e4 933d d9dd 493d 1e17 6e3d 3843 8f3c
000001b0: 602a 69bd 4f9c cdb9 32d9 9dbd d7c7 963a
000001c0: 6fe7 06bc d239 5e3c bfa6 fb3c a369 97bd
000001d0: 672c 87bd d9cb eabc 8c35 f23b 8af1 913d
000001e0: b121 febc ba1d a13c b2e9 04be 0946 9bbb
000001f0: d6ad ca3d 1967 073d 241e 9d3d 51d2 b63b
00000200: 3b71 2ebc ba16 22bd 8b9b fbbd e6de 32bd
00000210: 97f7 1e3c cc85 c5bc 06bd ffbc 0e1e dbbd
00000220: a918 18bd 0131 86bc 6c47 b5bd a487 8fbc
00000230: e9e2 c7bd 35ca 903c f9ee 18bc b87e 083d
00000240: d8ef 773d 80d2 22bd b836 9b3d 1d1f 42bd
00000250: 17d5 8e3a 127b b03c 063a 77bd 0dfc fb3c
00000260: 7a5b 47bc 1106 febb d910 c6bc c25b 78bd
00000270: 981b 443c 5910 d9bb 0b0e ab3d 7416 7fbd
00000280: 2dbb 823b b6e1 403c 9f0f 7fbc d898 d73c
00000290: 9923 dfbc d996 37bc 841c 4fbc fdfe 6d3c
000002a0: fbf9 473d f5f5 c7bc 79de 8dbc 5254 5fbc
000002b0: 2b16 413d 62d1 b53c e4a6 103d 70d9 98bd
000002c0: 7321 b53c f9d0 733c 8641 5d3d 3021 b0bb
000002d0: 2e75 f53c e8ec 7e3c 4156 16bd b19c 9cbc
000002e0: 56ff 6c3d 1f35 f3bc 2328 0abd 4588 0f3c
000002f0: 0492 72bd 1b57 a3bc 1d10 5ebc d25d 67bc
00000300: 8f86 4ebd 29b5 563d 0c08 c0bc 7207 fbbc
00000310: abf6 abbc bb5c 133c f1fb 19bd ad84 253c
00000320: b41c 19bd f53d 6d3c 854b 8dbc e393 933c
00000330: 1140 c4bc 639d 1fbd d493 44bd e0f1 a3bb
00000340: feda b13c 7c50 74bd e0d1 a5bc eb4e 6dbd
00000350: eb47 463c f147 78bb 5f54 c0bc c0f0 aebb
00000360: f254 7ebd d532 fe3b b7d4 d53c 3d0c 4e3c
00000370: 69dd b9ba 07a7 49bc 0917 47bd 4450 aabc
00000380: 69c2 27bd e277 57bd d96e 673d 1b37 e6bb
00000390: 54d6 be3b 2eb8 3ebd c476 163d bb10 c8bc
000003a0: ecad 2e3d 1f0a 793c 06eb 393d eb73 afbc
000003b0: 30ab 41bd 8d37 023d 445a 3fbd 6940 a33b
000003c0: 05cd babc efe0 623d fc3d 97bc 4efe 0cbd
000003d0: e355 66bc 1144 76bd b143 533d d425 7b3d
000003e0: 0910 e13b fe9f 433d 4b21 6bbd f50f d93c
000003f0: 1d39 ac3b a426 acba 8561 1dbd 27db 973b
0.025294837 -0.0395576 -0.040653683 0.003314661 -0.008902887 -0.056517705 -0.019532908 -0.0046634246
0.025496466 0.030901542 -0.029175222 8.1255224e-05 0.0030226347 -0.018315554 -0.03941579 -0.030798335
0.029507907 0.07117444 0.047365516 0.0006478698 -0.0843549 -0.015277219 -0.001377528 0.023629105
0.022467343 -0.03665721 0.014539111 0.03482068 0.016222624 -0.013106534 -0.08207731 -0.030168453
-0.020140829 -0.0025434294 0.036086015 -0.000360142 0.047877878 0.033064608 -0.024625333 0.025383689
-0.062474616 -0.02488086 -0.030749718 0.052580148 -0.043944545 -0.18572278 -0.07090044 -0.05610288
-0.00080625084 -0.059507497 -0.037233986 -0.061248615 0.0011453856 0.008359142 -0.017454648 0.0072577572
-0.020474652 -0.056398775 0.02090478 0.0017047963 0.03586677 0.012221887 0.020660212 0.0011021628
0.03545327 0.048367348 0.0046616006 -0.035215773 0.05703136 0.068470664 0.0065900036 0.003790296
-0.044025313 -0.029380968 0.057065092 -0.037691794 -0.054542683 -0.037030112 0.027265733 -0.043134693
0.06342068 0.06915579 -0.00527038 -0.017986095 0.026629584 -0.029029142 -0.02907126 0.05107682
-0.0124729555 0.045947183 0.0033884926 0.06445319 0.04055177 -0.04619412 -0.069138184 -0.036819782
-0.0010805381 -0.021910595 -0.061337404 -0.05046458 -0.004053345 0.042583004 0.032943737 0.04458445
0.07221367 0.049283836 0.058127515 0.017488107 -0.056925178 -0.00039217106 -0.07707442 0.0011503649
-0.008233889 0.01356359 0.03071916 -0.073931955 -0.06600266 -0.028661655 0.007391637 0.07126148
-0.031021925 0.019667495 -0.12979773 -0.0047385735 0.09896438 0.033057306 0.076717645 0.005579271
-0.010647113 -0.039572455 -0.12285527 -0.043669604 0.009702585 -0.02411165 -0.031218063 -0.10699092
-0.037132893 -0.016380789 -0.08851513 -0.017520733 -0.097600766 0.017674545 -0.009334319 0.033323973
0.060531467 -0.03975153 0.07578796 -0.047392953 0.0010897246 0.02154306 -0.06035807 0.030759836
-0.012167806 -0.007752188 -0.024177955 -0.060634382 0.0119694695 -0.0066242632 0.08352288 -0.062277272
0.0039895982 0.011772564 -0.015567689 0.026317999 -0.027238654 -0.0112053985 -0.012641076 0.014526126
0.048822384 -0.024409274 -0.017317997 -0.013630943 0.04714028 0.022194568 0.03531541 -0.07463348
0.022110676 0.014881366 0.054017566 -0.00537505 0.029963102 0.015559413 -0.036703352 -0.019117685
0.057860695 -0.029688416 -0.033729684 0.0087605165 -0.059221283 -0.019938996 -0.013553646 -0.01412149
-0.050421294 0.05241886 -0.023441337 -0.030643199 -0.020991644 0.008994277 -0.037593786 0.010102433
-0.03738089 0.014480104 -0.017247925 0.018014854 -0.02395633 -0.038968455 -0.047992542 -0.005003199
0.021710869 -0.05964707 -0.020241678 -0.05793659 0.0121021075 -0.0037884677 -0.023477731 -0.005338758
-0.06209273 0.0077575245 0.026102407 0.01257616 -0.0014180365 -0.012307889 -0.048605952 -0.020790227
-0.04095689 -0.052604564 0.056502197 -0.007025612 0.0058238897 -0.046562366 0.036734357 -0.02442204
0.042646334 0.015200167 0.04539015 -0.021417579 -0.047282398 0.03179126 -0.046716943 0.0049820435
-0.022802839 0.055390295 -0.018462174 -0.03442221 -0.014058563 -0.060123507 0.051578227 0.061315373
0.0068683666 0.047760002 -0.057404798 0.026496867 0.005255832 -0.0013134074 -0.03842308 0.0046342793

bias f4 [120]
00000000: 9f0f 9a3b 8dd6 893b 9aba 33bb c511 9fbb
00000010: 9f7a 333c 26cb 9fba 9393 f53a 193a 93ba
00000020: 5cd8 1b3b 7e9f bb3b 0312 ce3b 56b1 8d3a
00000030: 6653 373c a520 2bbb 5e32 483b 3ed8 c33a
00000040: 463e 58bb 1bb2 a539 8430 37ba 371c 4c3b
00000050: 1663 5a3b cc46 50bb c2d5 283b 8f03 553a
00000060: 74de 183c e9a9 bd3b e0aa 5f39 722d dc3a
00000070: 491a c53b 4c60 6f3b 2e5e fb3a e3f9 b43b
00000080: c41b 753b a007 263b 911f 543b a2a3 14bb
00000090: 1eb7 013c 7811 113c 79ef 11bc 15f6 cebb
000000a0: 1eb9 e03b e5e1 0c3b 06df 85ba c0c6 57b7
000000b0: f598 5cbb b14b 3f3c b4f7 20bb cb71 8b3a
000000c0: a2ae ac3b f9c7 98bb 30e3 f0ba f212 893b
000000d0: 55a7 00bc 8d79 76bc a4cd 39bc 6229 0c39
000000e0: eb9c c1bb e469 c5bb 75c0 e9b9 38cf b03a
000000f0: 2277 34bc ab40 513c 105a 16ba 8da9 e23b
00000100: 71fa 1abb 3637 0bba b709 3e3b 4253 113c
00000110: e0a0 8eb9 33f5 643b c5ed 81ba b46c 533b
00000120: de9f f839 97d8 943b 1249 1a3b 6ed5 cf3a
00000130: bb05 a13b 134c ba3b 1fe1 77ba 2116 ad3b
00000140: cfbe 913a 7a97 2fba 8a18 af3b 0189 01bb
00000150: 0b6e 493b 207d 5fbb ddaf 8d3b 4a19 923b
00000160: 8530 81bb e685 43bb 431d 1c3c 5302 a8bb
00000170: 7d74 94ba 1b0c 1bb8 f904 463c 6278 8cbb
00000180: 36e5 e63b cea3 453a b596 213b 40d8 98ba
00000190: 7aa8 b03b 0402 743b 1cd9 e5bb 10f4 233c
000001a0: fa09 ab3b 207b e7ba ecc9 14bb ee1b e83b
000001b0: d223 723b b998 923b 9440 213c ec9a aa3b
000001c0: c4db 3dbb ec7b 273b 6d65 febb 5905 133c
000001d0: da10 173b 2921 173a 6bc2 0c3c ca7e 58bc
0.004701569 0.0042064846 -0.0027424456 -0.004854413 0.010954528 -0.001219128 0.0018735997 -0.0011232524
0.0023780083 0.0057258 0.0062887683 0.0010810297 0.011189317 -0.0026111987 0.00305476 0.0014941765
-0.0032996102 0.0003160395 -0.00069881254 0.0031144747 0.003332322 -0.003178048 0.0025762175 0.00081258354
0.009330381 0.005788077 0.00021330593 0.0016798212 0.0060150963 0.0036525903 0.0019177848 0.005522953
0.0037400583 0.0025334135 0.0032367448 -0.002268054 0.007917194 0.0088542625 -0.008907192 -0.0063159564
0.006858005 0.0021496948 -0.0010213561 -1.2861274e-05 -0.0033660505 0.011675761 -0.0024561705 0.0010638771
0.0052698413 -0.0046625105 -0.0018378254 0.0041831667 -0.007852395 -0.015043628 -0.011340532 0.00013366857
-0.0059085987 -0.006024586 -0.00044584615 0.001348949 -0.011014732 0.012771766 -0.0005735466 0.0069171847
-0.002364781 -0.0005310656 0.002899749 0.008869948 -0.00027204212 0.003493619 -0.000991278 0.0032260837
0.00047421356 0.004542421 0.0023542088 0.0015856454 0.004914013 0.0056853383 -0.0009455848 0.005282179
0.0011119487 -0.0006698292 0.0053435015 -0.0019765499 0.0030735757 -0.003410168 0.004323943 0.004458581
-0.0039425516 -0.0029834448 0.009528461 -0.00512723 -0.001132622 -3.6966154e-05 0.0120861465 -0.0042868117
0.007046367 0.00075393624 0.0024656479 -0.0011661127 0.0053911777 0.0037232647 -0.007014407 0.0100069195
0.005219695 -0.0017660595 -0.0022703363 0.0070834076 0.003694762 0.0044737724 0.009842057 0.0052064564
-0.0028970102 0.002555604 -0.0077635557 0.008973443 0.0023050816 0.0005765134 0.008591275 -0.013213823

weight f4 [120]
00000000: f65d 873f fa0e 833f 09d8 773f 0e34 843f
00000010: 7fae 803f 595d 853f d5eb 843f 6252 8d3f
00000020: 4687 7b3f 26e9 833f 582a 853f 7762 8a3f
00000030: ebb1 893f bacf 863f 6c0b 803f 74b3 853f
00000040: 2566 843f a891 813f f414 893f 80d8 863f
00000050: d3bd 7f3f ee6f 853f 9a8d 813f 219a 7d3f
00000060: aa60 833f 1805 8a3f c136 843f 1da0 843f
00000070: c494 883f 50a9 843f 9ad5 863f 3ec8 883f
00000080: a50e 883f a0f9 853f 7aa6 8f3f 6adb 823f
00000090: d609 863f 979f 843f 7c3b 833f 5bb0 7f3f
000000a0: be2e 893f 72ea 823f 3e8d 813f 2f33 823f
000000b0: 6761 813f c084 853f 56b0 843f d357 843f
000000c0: dc4e 813f f86b 7e3f c705 853f b74a 8d3f
000000d0: 2d72 893f a2ad 853f c62e 8c3f 5dd8 7d3f
000000e0: 3bb3 833f 8f47 823f d7b3 893f a447 843f
000000f0: 6c59 863f b33a 843f 20ad 833f c5b3 843f
00000100: 5e35 7f3f 5955 813f 6b4e 793f fe6b 823f
00000110: 4404 863f cd34 803f aa59 823f 978e 803f
00000120: 7570 8d3f e383 843f b5fa 843f 35d2 853f
00000130: acee 833f 763d 7e3f 24f5 7e3f 2c77 8d3f
00000140: 3664 823f 64ca 853f 3e2c 853f 5de9 853f
00000150: ddc9 823f fb6d 843f b8d5 7c3f 044f 823f
00000160: acf7 7f3f 2cbf 8a3f 98e3 803f 903a 8a3f
00000170: c917 893f 0433 843f a548 853f cad9 873f
00000180: c0bc 873f 8eb8 803f 68d0 7f3f f857 823f
00000190: d5e6 8a3f ac7a 863f a455 833f 706c 853f
000001a0: d453 883f 6b2d 863f 1a7d 843f 832e 863f
000001b0: 433d 833f 0614 843f 1130 823f 017a 873f
000001c0: e531 8f3f 2441 863f 638f 833f 91d9 893f
000001d0: 0ad8 803f c161 873f 7fdf 8a3f 9098 803f
1.057555 1.0238945 0.9681402 1.0328386 1.0053252 1.0419112 1.038447 1.1040766
0.98253286 1.0305526 1.0403547 1.0811299 1.0757421 1.0532143 1.0003486 1.044539
1.0343672 1.0122576 1.0709519 1.053482 0.99899024 1.0424783 1.0121338 0.9906331
1.0263875 1.0782804 1.032921 1.0361363 1.06704 1.036417 1.0533936 1.0686109
1.0629469 1.0466805 1.122268 1.022321 1.0471752 1.0361203 1.0252528 0.9987847
1.071739 1.0227797 1.0121229 1.017187 1.010785 1.0431137 1.0366313 1.0339302
1.0102191 0.993835 1.0392388 1.1038426 1.0737969 1.0443614 1.0951774 0.9915827
1.0289072 1.0178088 1.0758008 1.0334363 1.0496039 1.0330414 1.0287209 1.0367361
0.99690807 1.0104171 0.9738528 1.0189207 1.0470052 1.0016114 1.0183613 1.0043515
1.1049944 1.0352749 1.038901 1.0454775 1.0307212 0.9931253 0.99592805 1.1051993
1.0186832 1.045239 1.0404127 1.0461842 1.0217854 1.0346063 0.9876361 1.0180364
0.9998729 1.0839591 1.0069456 1.0799122 1.0710384 1.0328069 1.0412794 1.0613339
1.0604477 1.0056322 0.9992738 1.0183096 1.0851694 1.0506186 1.026051 1.0423717
1.0650582 1.048261 1.0350678 1.0482944 1.025307 1.0318611 1.0170919 1.0584108
1.1187102 1.0488629 1.0278133 1.0769521 1.006593 1.0576707 1.0849456 1.0046558

bias f4 [120]
00000000: 85d3 8c3a 253f d8bc 7af1 2dbd 4f03 cebc
00000010: 89b4 f63b 325e 04bd 3e3b adbc 1216 943c
00000020: 467c e5bc 5a61 16bd edab 8b3c fc3b 9d3c
00000030: c75f bebb d928 d13c 9df9 ecbc 8adc 19bc
00000040: 1d5e 5c3c ac92 21ba 5eda 013d e079 523c
00000050: 6b3e a0bc 919f c43c 58a6 66bb 756c f6bc
00000060: ed7f cebb 8ba9 173d 7909 a83c e21c 203c
00000070: 9f4f 7a3c f68e 483c 0198 233d 4cf9 c63c
00000080: 0b52 32bc 482b 333d f280 99bc 8f68 27bd
00000090: f666 9c3c a2c0 5dbd 9554 433c 38b4 8cbb
000000a0: 1d97 8e39 0aec 67bc 4268 0abd 8438 223c
000000b0: 37af 03bd 6ed6 82bb f634 53bd 0dce 8cbc
000000c0: 6c6e 16bd b98b 5fbb ac4e 0a3d 613a e23c
000000d0: 866e ae3c 31d9 943c 03ed 813d 8b40 36bc
000000e0: dc83 3b3c 9faf 133d 1167 17bc c049 d8bc
000000f0: 59b1 5ebd 3e87 02bd 5733 4abc 9621 7bbc
00000100: ecea fabc 0e5b cdbc 77b3 84bd 2642 033d
00000110: 2b96 dc3c 29e7 94bc 495d 213c 3e91 c8bc
00000120: 2bdf 123d 2afe 963c 6e7e 08bd 0c3d de3b
00000130: e2ef aebc fdde 523d 7154 89bc 9bf4 3b3d
00000140: 15cf 503b 21c6 de3c 11bb 3e3a 00d5 383c
00000150: 49a5 62bc aecc 42bc 4649 1dbd 3364 7f3c
00000160: 9caf 74bd f44d d43c 4243 d0bc da61 44bc
00000170: 639e a8bc d548 f03b f573 7f3a e02e ab3c
00000180: 893b 83bc 740a adbc a8db aa3c 2af4 2e3d
00000190: f085 d23c f121 5b3c eafa 3d3b d0ea 9bbc
000001a0: e21f 84bb 5895 54bc b2e0 323d a46f 9dbc
000001b0: 5006 d3bc 391c 4dbc 09e9 a93c ea0a a0bc
000001c0: 052c 413c 75b7 41bc 4200 bd3c 0dcb a23c
000001d0: 154c 93ba 18c0 0c3c c2da 8abc 56a6 0a3c
0.001074419 -0.026397297 -0.042466618 -0.025148062 0.0075288457 -0.032316394 -0.021146413 0.01807693
-0.02801336 -0.036713935 0.017049754 0.019193642 -0.0058097574 0.025532173 -0.028927619 -0.0093909595
0.013450173 -0.00061635184 0.03170239 0.01284644 -0.019561013 0.024001868 -0.0035194363 -0.030081013
-0.006301871 0.037026923 0.02051233 0.009772511 0.015277772 0.012241116 0.039939884 0.024288796
-0.010883818 0.043742448 -0.018738244 -0.0408712 0.019092064 -0.054138787 0.011922021 -0.0042939447
0.0002719694 -0.014155397 -0.033790834 0.00990117 -0.03214952 -0.003992847 -0.05156418 -0.017188096
-0.0367264 -0.003411038 0.033766434 0.027615728 0.021292936 0.018169971 0.063440345 -0.011123787
0.011445012 0.036056157 -0.009240882 -0.026402354 -0.05436835 -0.03186726 -0.012341342 -0.015327832
-0.030629598 -0.025067832 -0.06479543 0.032045506 0.026927074 -0.018176632 0.009848901 -0.02448332
0.03585736 0.018431742 -0.033323698 0.0067821797 -0.02135462 0.05148219 -0.016763898 0.04588757
0.0031861712 0.027194085 0.00072758 0.011281252 -0.013833352 -0.01188962 -0.038399957 0.015587854
-0.059737787 0.025916077 -0.025422696 -0.01198622 -0.020583337 0.007332901 0.0009744757 0.020896375
-0.0160196 -0.021123149 0.020856693 0.04271332 0.025698632 0.0133747915 0.0028988668 -0.019032866
-0.004032121 -0.012975059 0.043671317 -0.019218273 -0.025759846 -0.012518936 0.020741003 -0.019536454
0.01179028 -0.011823525 0.023071412 0.019872213 -0.0011237884 0.008590721 -0.016950015 0.008462509

running_mean f4 [120]
00000000: e54c e2bf 4618 d0be 21b7 253f f063 3dbd
00000010: b256 3d3f b8f3 14bf cbbf fbbe 1d34 113f
00000020: 5108 07bf 410a 3abe df31 34be ec67 30bf
00000030: 107b 9fbd 536d a53e 1281 b5bd 0d18 61be
00000040: 8ae0 9e3e 8957 86bd b673 6cbd 541a c93d
00000050: 2b2b 22be 2ec5 bdbe 0fe9 a43e a697 9a3e
00000060: 86d8 43be 164f 9abf db3a 2c3d c8f8 dd3e
00000070: aeca 2f3f 952c 1b3f e25b 6c3f 7785 db3e
00000080: 10c7 7bbe f708 dc3c e982 ed3e aed3 a13e
00000090: f03f 973d c619 ab3d d360 a8bf ed0c 33bf
000000a0: fda8 bdbe b7b8 90be 4550 87be a5af c93e
000000b0: e5e7 9abe 5696 bbbe 6bde 9abe 5f93 2abe
000000c0: d814 b0be f370 c83e 7799 3dbf 8728 92be
000000d0: 211d 73bd 842c 943e 34ec 123f 7125 623e
000000e0: ed60 99be 4f78 76bd 55c8 a03e f304 94b9
000000f0: 0337 133f 4a03 4e3f 7d2a 18be 85fd c6be
00000100: 282c 883e 27db 073f 0c97 193e b72a d23e
00000110: 513e 26bf 82e8 903e 240d 1bbe 2314 a2be
00000120: 57bf 6e3d 3901 dcbe 5e34 89be dbf2 88be
00000130: 40aa 933d 9fe2 f1be f7dd e93e e7c8 0e3e
00000140: fbf6 9fbf 2a05 06bf 17cd afbd 15d1 333e
00000150: 03d2 a33d 2ae7 893e 33da 7b3e eb26 3b3e
00000160: df2c 9bbd 4885 9f3e 6145 94bd 4abb 453e
00000170: c555 373e fdda fe3e 2e69 5a3e 98c3 d93e
00000180: 2b96 c83e 8bfb a3bf f96e 33bf 69ff 293f
00000190: d1a7 603d 9d58 663f 6373 1fbf 7066 11be
000001a0: ec0a 83be c461 243f 5202 7ebd 72fe d73e
000001b0: c55e e4bd aeca b93e 9a84 2dbf 2349 aabe
000001c0: 5790 12bf 251b 20bf 3394 fbbe a838 e7be
000001d0: 9ed8 f0be ae8c ee3e 92d5 ce3c 6b84 02bf
-1.7679716 -0.4064352 0.6473256 -0.046237886 0.7396041 -0.58184385 -0.49169764 0.56720144
-0.52747065 -0.18167974 -0.1759715 -0.6890857 -0.07787144 0.3230997 -0.08862509 -0.21981831
0.31030685 -0.06559665 -0.057727538 0.09819475 -0.1583678 -0.370645 0.3220906 0.30193824
-0.19125566 -1.2055385 0.042048316 0.43353868 0.6866864 0.606149 0.923277 0.42875263
-0.24587655 0.026859744 0.4638894 0.3160681 0.07385242 0.08354525 -1.3154548 -0.699416
-0.3704299 -0.28265926 -0.26428428 0.3939182 -0.30255046 -0.36638135 -0.30247816 -0.1665778
-0.34390903 0.39148673 -0.74062294 -0.28546545 -0.05935395 0.28940213 0.5739167 0.22084595
-0.2995676 -0.06017333 0.3140284 -0.00028232447 0.57505816 0.8047377 -0.14859958 -0.38865295
0.2659619 0.53068775 0.14999026 0.41048214 -0.6493884 0.2830239 -0.15141732 -0.31655988
0.058287945 -0.42969683 -0.26797765 -0.26747784 0.07210207 -0.4724321 0.45677158 0.13943826
-1.2497247 -0.5235163 -0.0858404 0.17560227 0.07999041 0.26934177 0.24594955 0.18276565
-0.07576918 0.31156373 -0.072397955 0.19309726 0.17903812 0.4977645 0.21329185 0.4253204
0.3917707 -1.281114 -0.70091206 0.6640535 0.054847542 0.89978963 -0.6228544 -0.14199233
-0.2559427 0.6421168 -0.06201393 0.42186314 -0.11150888 0.36287445 -0.6778046 -0.33258924
-0.57251495 -0.6254142 -0.49136505 -0.45160413 -0.47040266 0.46591705 0.025248323 -0.50983304

running_var f4 [120]
00000000: 8ec2 7a3e d3c2 a43e 70ab ca3e 29ff aa3e
00000010: 0bee 723e cc77 d33e 0cbc 883e 1827 993e
00000020: 362a 433e 1dcf 8c3e 572a 983e e37d 863e
00000030: 1017 9e3e 42aa aa3e ccd9 a33e f6b7 e33e
00000040: c56d a23e 1cee b73e 2a2b bc3e 9722 973e
00000050: f979 a13e b98b f03e 39e6 983e ec26 8e3e
00000060: 6cf6 a13e e392 af3e b014 f13e 3a31 dc3e
00000070: 7228 a53e b3e6 b03e d75e 9b3e 0a69 fb3e
00000080: a403 b63e 1743 9e3e df36 913e 6f40 883e
00000090: a368 893e ef15 ca3e 1213 9e3e 4b8a f33e
000000a0: 0916 c03e 9a79 c33e 7446 c53e c42c 7e3e
000000b0: 203b 553e 3669 863e abca 543e 6ea9 e03e
000000c0: 6329 883e 1107 ab3e cf66 333f a661 ab3e
000000d0: e295 5c3e 76dc bf3e 4f4c e13e 3c6a 0e3f
000000e0: 2676 813e 86de d93e fe17 b73e 6d43 3e3e
000000f0: 9030 753e 2650 8e3e d5d7 943e 4266 713e
00000100: 66f4 833e ceb3 c13e b683 a23e 1b54 a93e
00000110: a4e2 973e cef1 9f3e c1f2 673e c0bc 473e
00000120: f0e2 b83e 010e d13e db85 bf3e c09f b33e
00000130: 109d 963e 107b b43e 8bcb c73e 3bb8 7b3e
00000140: 6e79 473e 6fff 9c3e 6190 923e a7a9 9d3e
00000150: fa2b ad3e 7400 be3e 1169 943e 0af0 063f
00000160: 57eb 963e e152 c63e 285e 583e 0b4a 813e
00000170: da5a c73e 0720 cf3e 3b6f 7f3e 38db 533e
00000180: 53a1 893e a8ea 7a3e d90b f33e d4f3 b33e
00000190: 8711 e13e c1b3 613e 552d 653e f858 6a3e
000001a0: 30ba 613e c5e2 a13e 28dd 993e 766d c13e
000001b0: 45fe a83e bef8 b83e 27c9 023f 95b9 613e
000001c0: 66ef 993e cb14 8d3e b226 d03e 764f 983e
000001d0: 3e0b 4e3e 791a b53e d6dc 8e3e 8989 973e
0.24488279 0.3217989 0.3958392 0.33397797 0.23723619 0.41302335 0.26705968 0.2991264
0.19059071 0.27501765 0.29719803 0.2626792 0.3087697 0.3333302 0.32002103 0.4447629
0.31724373 0.3592385 0.36751682 0.29518577 0.3153837 0.469816 0.29863146 0.2776407
0.31633317 0.34291753 0.47086096 0.43006307 0.3225742 0.3455101 0.30345795 0.49103576
0.35549653 0.3091056 0.28362176 0.2661166 0.26837644 0.3946986 0.30873924 0.47566447
0.3751681 0.38178712 0.38530314 0.24821764 0.20823336 0.26252145 0.20780437 0.43879265
0.26594076 0.3340383 0.7007875 0.33472937 0.21541551 0.37472886 0.4400353 0.5563085
0.25285453 0.42552584 0.35760492 0.18580408 0.23944306 0.27795523 0.29070917 0.23574165
0.257724 0.37832493 0.31741112 0.3307198 0.296651 0.3123917 0.22651197 0.19505596
0.3611064 0.40830997 0.3740681 0.35082817 0.29416704 0.3525014 0.39022478 0.24581997
0.19479915 0.3066363 0.28625777 0.30793497 0.33822614 0.3710972 0.2898641 0.5271002
0.29476425 0.38735107 0.21129668 0.25251803 0.38936502 0.40454122 0.24944775 0.20689094
0.26880893 0.24503577 0.47469977 0.35146964 0.43958685 0.22041227 0.22380574 0.22885501
0.22043681 0.31618324 0.3005154 0.37778825 0.33006492 0.36127275 0.51088184 0.2204345
0.3006546 0.27554926 0.40654522 0.29748124 0.20121476 0.3537176 0.2790286 0.29597118

weight f4 [84, 120]
00000000: 1980 713d e648 3fbe 0ade 573d 8d55 ee3d
00000010: 0362 3a3e fa49 75bd 7174 123e ad78 60bd
00000020: 68ab dd3c 42a7 36be 1c6b 003d 964a ca3d
00000030: 31c3 efbd 0265 a6bd f728 bb3c 7bea 2bbe
00000040: e5ca 0dbe 0739 873d a0f8 a73d 1d3b 573e
00000050: c5d6 1a3e 451b cabc 937a 58bd 2388 31be
00000060: 0ada d4bd 74f2 2ebd 98ef 3b3c aeb2 353e
00000070: 7953 f8bc 5621 133e 2b9f c4bd f801 d1bd
00000080: 3ee5 8b3d 7f14 dcbd ade9 20be 4d35 053e
00000090: 67c8 78bd 7dae 1c3d 7f16 4ebe af03 3dbd
000000a0: c592 083e 1e1b 8f3d 9fc4 78bd 18ea 213e
000000b0: 87d2 043e e75e dd3b c54b 663c aba7 6ebd
000000c0: f6d6 3fbd 3761 22be 8d90 24bc f637 ae3c
000000d0: bf5f 073e 8181 fdbd 396b f53d ef3a 1b3e
000000e0: ea16 26bd 9a00 d63d 6ab5 553d 0a7b 1e3e
000000f0: 1072 b6bd 5b1a 63bc 525e 49bd 4cc7 ccbd
00000100: 4401 dfbd fe85 f53d 992a cdbd 9bcd d6bc
00000110: 717d d3bd b129 34bc aec4 653e 186f 6f3c
00000120: ce82 a7bd 8281 63bb 86e6 25be 4537 c7bd
00000130: 7007 27be 2ba5 09be e54a 85ba 78eb df3d
00000140: 0c8d 113d 3731 09be 4a73 e0bc bf48 343e
00000150: 62f2 9fbd 0efd 123d ee3a 04be 014c 18be
00000160: 6b00 713b 32bf 68bd 13d8 fbbd eab4 e63d
00000170: c6a5 a5bc 5953 c23d f021 103d 26df f93d
00000180: baba 413d 4939 b8bd ab84 b3bd 16dc 5ebd
00000190: 2440 263e 6f44 123e b166 19be 2ba9 473e
000001a0: 18b1 c63d 2316 bc3d a671 de3b 0e20 ffbc
000001b0: 988b 17bd 3aa5 8fbd df5f 0cbe 1815 a33d
000001c0: c20e 443d 7270 35be c2e8 1cbe 64a9 19bc
000001d0: 1e98 053e f614 0f3e 8cbe eabd 7799 c9bc
000001e0: 3633 abbd faa8 17be 8c91 533c e096 24bd
000001f0: a93e 153d 8153 c63d a00d a9bd 1ee1 a9bd
00000200: 3ee7 973d a4fd 21be 52b1 d43d d098 0fbe
00000210: 6e7a 34be 7e24 853d 48d8 d43d 5ad9 09be
00000220: 6efa 95bd e329 9ebd 6676 7e3d c433 c7bd
00000230: e945 76bd 0560 8e3c bf1c f0bd 9a74 98bc
00000240: 40c9 c73d 0ecc f43a 7b9b b2bd 9ad6 f53b
00000250: 1097 463e 8773 583d 82a7 c13d 5cde 263e
00000260: 36e1 f3bd 26d2 ffbd bacc f8bd e8c4 05be
00000270: ac5e 9fbd 3700 353c af33 813c e1ae 8dbd
00000280: 0e29 ac3c 135e a93b 2f0e 1cbe a9d0 ebbd
00000290: cf9e 333e 2491 263e c340 92bd 1ea1 8abd
000002a0: d8e3 3bbd c0eb 513e a440 5fbd f356 083e
000002b0: e1c1 22bd de83 bcbd c74b 9b3c 7b37 b83b
000002c0: f7bb 16be 3eee 2b3e 845f 183e f528 15be
000002d0: 81a6 8c3c be12 9fbd b92c 533d 7b17 6abd
000002e0: c049 4a3e 9d5c 073e 14fc 90bd bca7 113e
000002f0: c100 20be 8a27 1f3e 5163 92bd cb0b cd3d
00000300: c869 19be fb2c e53d 290b 1e3e 6af8 dfbc
00000310: 2846 97bd 40cc f43d 85cb c2bc a49e 5c3d
00000320: db0b 0f3d 956f 223e 7712 d1bb 8343 103e
00000330: 4316 293d 2bd0 febd 9aad 79bd 9af8 5bbe
00000340: 8094 c7bb e949 ec3d 575c eb3c d07c 0a3e
00000350: 720c 153e 569a 7c3d 124b fabc 2217 a9bd
00000360: dc36 39be 19de cc3d 3c0f 383e f679 6dbd
00000370: ae1d 36be 02d0 2abc 087e 21bd 4c91 163d
00000380: 71f4 37be 6024 083e b67e e4bd f47e c8bd
00000390: 9682 3f3e 9dc0 cd3d 3adb f4bd 2384 e2bd
000003a0: f41e 7dbe 953f 933d e71c f93d 3d5e 09bd
000003b0: 08a7 e7bd ab14 283e 4104 43be e5e2 1fbe
000003c0: bfc5 2dbe f812 973d c7c4 933d dd5c 4b3e
000003d0: 7371 f53d 4a11 843d 6cfe 3dbe f6fd 65bc
000003e0: 36a7 763c e42d d8bd c47a 3c3b d9d0 7abd
000003f0: 04ac 103e 93b8 3bbe 1853 fc3d 6722 b23c
0.058960054 -0.18680152 0.052701987 0.11637411 0.18201451 -0.059885003 0.14302231 -0.054802585
0.027059272 -0.17837241 0.031352147 0.098775074 -0.11707152 -0.081247345 0.022846682 -0.16788666
-0.1384693 0.06602674 0.08201718 0.21018644 0.1512099 -0.024671206 -0.05285127 -0.17337088
-0.1039315 -0.04271169 0.011470698 0.17743942 -0.03031324 0.14368185 -0.096006714 -0.10205454
0.06830834 -0.10746097 -0.1571414 0.13008614 -0.060737994 0.038252342 -0.20125769 -0.04614609
0.13337238 0.06987594 -0.060734387 0.15811956 0.12970935 0.006755698 0.014056151 -0.05826537
-0.046835862 -0.15857397 -0.010044229 0.021266919 0.13220118 -0.123782165 0.11983342 0.151592
-0.040549196 0.104493335 0.052174963 0.15476623 -0.089084744 -0.013861264 -0.049162216 -0.0999895
-0.10888913 0.119884476 -0.100178905 -0.026221087 -0.103266604 -0.010996268 0.22438309 0.014613889
-0.08179246 -0.0034714644 -0.16201219 -0.09727339 -0.16311431 -0.13441913 -0.0010169415 0.10933584
0.035534903 -0.1339768 -0.027398724 0.17605875 -0.07809903 0.035885863 -0.12913105 -0.14872743
0.003677393 -0.056822963 -0.12297072 0.11264975 -0.020220648 0.094885536 0.035188615 0.12200765
0.047297217 -0.08995301 -0.08765539 -0.05440911 0.16235405 0.14283918 -0.1498058 0.19498126
0.09701747 0.0918391 0.0067884503 -0.031143215 -0.03699836 -0.07013936 -0.13708447 0.07963008
0.047865637 -0.17718676 -0.15323165 -0.009378765 0.1304631 0.1397284 -0.11462125 -0.02460931
-0.08359377 -0.14810553 0.012913119 -0.040182948 0.03643671 0.09683896 -0.08254552 -0.08294891
0.07417153 -0.15819412 0.10385384 -0.14023137 -0.17624828 0.06501101 0.10392815 -0.1346182
-0.07323156 -0.07722833 0.062124632 -0.097266704 -0.060125265 0.01737977 -0.11724233 -0.018610287
0.09755182 0.0018676536 -0.08721062 0.007502389 0.19393563 0.05284455 0.09455778 0.16295761
-0.1190819 -0.124912545 -0.121484235 -0.13063395 -0.07781729 0.0110474145 0.015771715 -0.06918121
0.02101567 0.005168685 -0.15239786 -0.11514408 0.1754105 0.16266304 -0.071412586 -0.06769012
-0.045871586 0.20500088 -0.054505005 0.13314418 -0.03973568 -0.09204839 0.018957032 0.005621848
-0.1472014 0.16790101 0.14880186 -0.14566405 0.017169239 -0.07767247 0.051556323 -0.0571513
0.19754696 0.13218923 -0.0707933 0.14224142 -0.15625288 0.15542427 -0.07147849 0.10012015
-0.14981759 0.1119022 0.15433945 -0.027340133 -0.07386428 0.1195302 -0.023778686 0.05386223
0.034923416 0.15862878 -0.006380375 0.14088254 0.041280996 -0.12442049 -0.060956575 -0.21481553
-0.0060907006 0.11537535 0.028730555 0.13524175 0.14555529 0.061670624 -0.030553374 -0.08256365
-0.18087333 0.10003299 0.17974561 -0.05797764 -0.1778476 -0.0104255695 -0.039426833 0.03675966
-0.17964341 0.13295126 -0.11156981 -0.097898394 0.18702158 0.10046504 -0.11955877 -0.11060359
-0.24718839 0.07189862 0.12163716 -0.03353714 -0.113111556 0.16414134 -0.19044591 -0.15613897
-0.16969965 0.07376665 0.07215267 0.19859643 0.11984529 0.0644861 -0.18554085 -0.0140376
0.015054515 -0.10555628 0.0028759697 -0.06123433 0.14128119 -0.18332128 0.123205364 0.02174492

bias f4 [84]
00000000: 3ece 1b3c f49c 883c 0c2d c9bc 6372 ec3c
00000010: f4ae c53c f847 de3c 3562 d2b8 37d1 373c
00000020: 57bc 043d 8ea8 9fbc 72e1 95ba adc5 a93c
00000030: 540d 68bb b7b4 d6bb ebb7 0e3d 7036 0fbd
00000040: aa46 a33b f6b9 44bb ca07 b93a a14a 383c
00000050: 61e2 1dbc dd07 8dbc de11 47bc 23d3 993c
00000060: 290a 93bc e909 18bb 7cad 2f3d e69b eabb
00000070: 5f58 15bc 5366 5dbc fea8 d2bc a701 c93a
00000080: fe26 173d 6392 b5bb d518 863c e2e1 513c
00000090: a3ea 353c b791 123b 11ea a8bc 4774 023c
000000a0: 2570 103d af99 c53b a13d 1d3d 2ac8 7cbc
000000b0: 9574 8ebc 577b b23c 0a41 b8bc ce48 70bc
000000c0: fa3a cc3c 1f90 9a3b ca4b 1b3b 2ef5 5cbc
000000d0: 5f9e 12bb 1f53 8fbc 2700 863c 0f92 05bc
000000e0: c580 dabc dfa9 143c b7a1 0b3b ebe2 263d
000000f0: b659 0f3b 8021 083c 7268 bf3c 6a3d d23c
00000100: aaea 3a3c 6e49 38bb 1798 a73c 85d6 6fbc
00000110: 46fb 98bb ebcd 3d3d e9b9 283b dd55 a63c
00000120: d4a7 123d 5646 733c b260 3c3c 27dd 993c
00000130: bdf5 05bd 4e48 5cbc b33a 393c 267e 9f3c
00000140: 8c06 f1b9 f126 cabb b3f2 863c 145f 63bb
0.009509621 0.016676404 -0.024557613 0.028863138 0.024131276 0.027133927 -0.00010031873 0.011219314
0.032406177 -0.019489553 -0.0011434986 0.020724142 -0.0035408335 -0.0065523046 0.034843367 -0.034964025
0.004982789 -0.0030018068 0.0014116701 0.011248262 -0.0096364925 -0.017215664 -0.012150256 0.018777436
-0.01794918 -0.0023199266 0.042890057 -0.007159698 -0.009115308 -0.0135131655 -0.025715347 0.0015335575
0.03690242 -0.0055411323 0.016369263 0.012810202 0.011103305 0.0022364685 -0.020619424 0.007962293
0.0352632 0.0060302834 0.038388852 -0.015428582 -0.017389575 0.021787329 -0.02249195 -0.0146657955
0.024930466 0.0047168876 0.0023696297 -0.01348619 -0.0022372229 -0.01749569 0.016357495 -0.008152499
-0.02667273 0.009073704 0.0021306106 0.04074375 0.002187354 0.008308768 0.023365233 0.02566405
0.011408487 -0.002811994 0.020458264 -0.014638548 -0.004668626 0.046338957 0.0025745577 0.020304615
0.035804585 0.014848312 0.011497663 0.018782211 -0.032705057 -0.013444973 0.011305499 0.019469332
-0.0004597198 -0.006169193 0.01647315 -0.0034694122
