model1/model/footwear.pt (torch, 277083 bytes, 22 tensors)

weight f4 [6, 3, 5, 5]
000000 a9 6f cf 3d 74 05 3f bd da 93 98 bd c0 c0 13 3e
       0.10128719 -0.04663606 -0.074500754 0.14428997
000010 b0 69 d0 bc 59 49 93 bd b0 e3 e8 3c fd 10 75 bd
       -0.02544102 -0.07191724 0.028428882 -0.059830654
000020 8e b4 0c 3e 64 44 b2 3d fb 58 ec bd ff 7a b2 3d
       0.13740751 0.08704451 -0.11540409 0.08714866
000030 74 e6 85 b9 f3 6d d1 bb 62 4d 15 be 39 43 6a bd
       -0.00025539438 -0.006391281 -0.145803 -0.057193015
000040 cf 84 ee bd 4f 93 1a be 12 55 22 be df 80 40 3e
       -0.11646425 -0.15095256 -0.15852764 0.1879916
000050 35 8f 61 be 41 e8 74 be d2 0e 8d 3b 5a d8 32 3e
       -0.22027285 -0.23916723 0.0043047452 0.17465344
000060 f8 3c ac 3d 69 3a e4 3d ab 2e d5 39 97 91 58 ba
       0.08410066 0.11143953 0.00040661296 -0.00082614407
000070 50 43 d5 3d 4c a9 e2 bd fd 47 c2 3d e8 53 e3 bd
       0.104132295 -0.11067447 0.09486387 -0.11099988
000080 39 f2 87 bc 12 53 aa bc 1a 1b b4 bb 0f 8b a9 3d
       -0.016594993 -0.020791564 -0.005496395 0.082784764
000090 64 93 89 bd 51 95 c4 bc e8 b5 cb bd fa 47 a1 bc
       -0.06717566 -0.02399698 -0.09946805 -0.019687641
0000a0 7c 3f 60 3d 11 6f 69 bd a2 00 00 3e 0c 12 e2 bd
       0.054748043 -0.056990687 0.12500241 -0.110385984
0000b0 7b b9 0e 3e 5c c4 7d be eb f6 5e be 7c c8 0d be
       0.13937943 -0.24781936 -0.21773879 -0.1384601
0000c0 da c7 fc bd c4 d5 0b 3d 07 1c f8 3d 03 d0 0c bd
       -0.12342806 0.03413941 0.12114721 -0.034378063
0000d0 c5 ba 42 3c 13 71 3e bd ed 03 99 3d 7f f9 41 bd
       0.01188535 -0.046494555 0.07471452 -0.04735708
0000e0 43 23 09 be b4 cb 1f 3e 91 e6 26 3d a1 40 9e 3d
       -0.13392358 0.1560505 0.04074723 0.07727171
0000f0 c9 00 d0 3d 1e 2e 2d bd 82 51 14 3e 3c 9f d3 bd
       0.101564 -0.04228031 0.14484218 -0.10333106
000100 a9 67 66 bd 2c e8 31 3d b3 d8 73 bd c1 54 14 bd
       -0.0562512 0.043434307 -0.059532832 -0.03621364
000110 16 1d 2f bd d1 fe 1e 3d 0d b5 43 be 8a 2b 99 bd
       -0.042752348 0.03881723 -0.19112034 -0.074790075
000120 af 8c 03 be ec 5e df bd 5a ad 15 3e f0 05 06 3e
       -0.12846635 -0.10906777 0.1461691 0.13088202
000130 42 c9 2e 3d e0 fc 08 3e e7 97 94 3d a4 93 02 3e
       0.042672403 0.13377714 0.072555356 0.12751633
000140 29 19 08 be 14 66 aa bd 40 d5 9c 39 9a 4c e1 3d
       -0.13290848 -0.08320251 0.00029913522 0.11000939
000150 f9 71 bf 3d 7d 0b e8 3c 21 fa 02 be cd 3b d5 bd
       0.093479104 0.02832579 -0.12790729 -0.10411797
000160 dd 58 0c 3e 66 28 54 39 f0 1f 3b be 65 2f 96 3c
       0.13705774 0.00020232945 -0.18273902 0.018333146
000170 0b 7d 2a be 7f 24 52 3c 84 cb c2 3b fa 1e 37 3d
       -0.16649263 0.012826084 0.005944671 0.044707276
000180 a2 3a a3 bc e1 49 b9 3d ff 65 03 3d e3 d5 c1 3d
       -0.01992542 0.090472944 0.032079693 0.09464624
000190 85 00 c9 3d a3 fd 16 3e d0 da d1 3d 02 10 36 3e
       0.09814552 0.14745192 0.10246813 0.17779544
0001a0 4f 42 2c 3e ca 32 45 be 03 54 dd 3d 06 28 9b bd
       0.1682217 -0.19257656 0.108070396 -0.07575993
0001b0 91 db 62 bd 45 ec c2 3d 00 e1 b8 bd e7 48 d2 bc
       -0.055385176 0.09517721 -0.0902729 -0.025669528
0001c0 9c 80 61 bd ef 95 42 3d ee 63 c8 bb 51 65 3d 3c
       -0.055054292 0.04750627 -0.006115428 0.0115598
0001d0 92 54 36 3d e2 b0 d2 3c 1e e8 10 3e a6 f6 1f 3e
       0.044514246 0.02571911 0.14151046 0.15621433
0001e0 50 5b 19 be a9 df c4 3c c5 60 a7 bd 35 06 32 be
       -0.14976239 0.02403243 -0.08172754 -0.1738518
0001f0 f8 80 08 3e 94 8c 72 bd d4 78 35 bd ba 34 1a 3e
       0.13330448 -0.059216097 -0.044304684 0.15059176
000200 1e dd 91 3d 0c 01 ed 3d 94 68 b1 bd ba 40 1c 3e
       0.07122253 0.11572465 -0.08662525 0.15259066
000210 98 37 63 3d 2d 8a 5b bd 4b 55 a5 bc 59 21 9a bc
       0.05547294 -0.05359857 -0.020182272 -0.01881473
000220 d7 b6 58 bd 46 d0 f7 bc 10 cf e3 bc 43 7e 50 3d
       -0.052908745 -0.03025068 -0.027808696 0.050901663
000230 8a b7 a0 bd 6a 97 85 bd 4d 66 b7 3d 01 56 eb bd
       -0.07847507 -0.065230206 0.08955059 -0.11491013
000240 f1 74 ed 3c 16 1f 29 bd 99 6f 0c be 3d 0e e6 bd
       0.028986426 -0.04128941 -0.13714446 -0.112331845
000250 45 a0 a1 bd dd ae 2c bd 93 fd 35 3c 23 4e e7 3d
       -0.07891897 -0.04215895 0.01110782 0.112942
000260 23 3b af bd 92 ce b5 bd 95 1d ea 3d 5a 40 dd 3c
       -0.08556201 -0.08877291 0.114314236 0.027008224
000270 7f 0c 27 bd 0c 71 29 be 70 59 46 be e2 b3 cd bd
       -0.0407834 -0.1654703 -0.19370055 -0.100440755
000280 fe be 55 3d 9a 14 57 bd 23 15 46 bd b0 76 a6 bd
       0.052184097 -0.05250988 -0.04836 -0.081281066
000290 76 16 ca 3d d6 01 bd 3c 92 71 80 bc af f4 0a be
       0.09867565 0.023072165 -0.015679155 -0.13569902
0002a0 2f aa db bd 83 2d 7c 3d 44 86 cf 3d 7f db 0c 3e
       -0.10725819 0.06156684 0.10133031 0.13755606
0002b0 0b 24 9c 3d 9d c4 ff bb c5 b4 27 3e 51 2e ab 3d
       0.07624062 -0.0078054206 0.16377552 0.083584435
0002c0 0a a7 20 bd 51 41 c2 3d af fd aa bd 6c 46 13 3e
       -0.0392218 0.09485114 -0.083491676 0.14382333
0002d0 1e df 71 3d 9c 52 0e be bf 48 b4 bd 54 2f 8d bd
       0.05905067 -0.138987 -0.08802938 -0.06893793
0002e0 5f 6b 3d 3d fc 56 90 bd 0c 7e 02 3e 1c f0 17 be
       0.046244975 -0.07047841 0.12743396 -0.14837688
0002f0 e8 15 3f be af 55 69 bd f9 f8 df 3d d6 3b 30 3e
       -0.186607 -0.05696648 0.1093616 0.17210326
000300 96 07 b2 3d dd 46 99 bd 3b b8 0c 3d c2 81 9c bd
       0.08692853 -0.07484219 0.034355383 -0.07641937
000310 62 23 e0 bd 60 65 27 3e fb aa 84 3c a3 c9 a0 bd
       -0.10944249 0.16347265 0.016194811 -0.07850959
000320 6a db 2b 3c 31 30 bd bd 0c b8 fa ba bc 41 fb 3d
       0.010489324 -0.092377074 -0.0019128337 0.12268397
000330 89 e5 95 3d 57 30 a0 3d f2 65 9d bd 98 6c bd bd
       0.07319171 0.0782172 -0.0768546 -0.09249228
000340 2f eb 04 3c 8b 51 b4 bd 65 d5 8a 3d 35 50 dd 3d
       0.008112713 -0.088046156 0.06778983 0.10806314
000350 ca 09 de bd f4 cc 6f bd 28 d1 39 be d8 9b dc 3b
       -0.10841711 -0.058545068 -0.18146193 0.006732445
000360 3c 4d 11 3e 45 d8 75 3d 21 4e 31 be bb 3d 16 be
       0.14189619 0.060020704 -0.1731496 -0.14671986
000370 ba 80 e8 bc 4a 37 68 bd d0 4b fa bd 57 2b 2d bc
       -0.028381694 -0.056693353 -0.12221491 -0.010569415
000380 4c 8b d5 3c f4 06 15 be ba ec 9c 3d 6f cf 73 bd
       0.026067398 -0.14553434 0.076623395 -0.059523996
000390 cb a6 96 3d 7a e5 88 bd 4d d6 a3 3d 11 07 17 3e
       0.07356032 -0.06684394 0.07999859 0.1474879
0003a0 88 3d 3b 3a 50 cf f9 3c 4b 99 d0 3d 1d 2c 34 be
       0.0007142653 0.030494362 0.10185488 -0.17594953
0003b0 e9 10 1d be 06 4f f1 bd fb cc ea 3d 2c 54 0a 3e
       -0.15338482 -0.11782651 0.11464878 0.13508672
0003c0 67 ad 3a be 33 fc ec bd 86 30 50 bd c6 46 5f bd
       -0.1823021 -0.11571541 -0.050827526 -0.054510854
0003d0 66 9d a3 3c 2e 5c af 3d 2d 5d ae bd 4f 1a fd bc
       0.019972514 0.08562504 -0.085138656 -0.030896334
0003e0 c1 86 00 be 81 da b6 ba 53 fb 80 3b 8e f4 a2 bd
       -0.12551405 -0.0013950617 0.00393621 -0.07956801
0003f0 91 30 8a bd 12 b9 12 3e bc bb 3c be d9 f4 80 3d
       -0.067475446 0.14328411 -0.1843099 0.06296701

bias f4 [6]
000000 a2 31 51 3d a4 b5 db 3a 41 3f a5 3c 4f 04 3d bd
       0.051072724 0.0016762507 0.020171763 -0.046146687
000010 62 25 2e bd 59 9c 49 3c
       -0.04251612 0.012305343

weight f4 [6]
000000 70 a6 97 3f b6 96 58 3f 6b 82 98 3f 9c df 52 3f
       1.1847668 0.84604967 1.19148 0.8237245
000010 0d 6a 6f 3f 98 f4 8d 3f
       0.93521196 1.1090269

bias f4 [6]
000000 e5 6a a9 bd 41 ed e3 3d 65 74 29 bd 78 fe bf 3d
       -0.08272342 0.11129237 -0.041370768 0.09374708
000010 e2 bc 97 bd 74 1e a8 bd
       -0.074090734 -0.082089335

running_mean f4 [6]
000000 fb 37 73 3f 99 72 e0 be df 96 17 3f 34 ba a5 be
       0.95007294 -0.4383743 0.59214586 -0.32368624
000010 1b 07 7e bd 68 c8 85 3f
       -0.062018495 1.0451784

running_var f4 [6]
000000 8d 90 e6 3e 81 c9 98 3e 7a 9a 4d 3e ba f9 e0 3d
       0.45032158 0.29841235 0.2007846 0.109851316
000010 90 f2 5a 3d 1f 3c ed 3e
       0.053453982 0.4633493

weight f4 [16, 6, 5, 5]
000000 be df a7 3d dc 4c 94 3c 06 76 e5 3d 19 cf 8c 3d
       0.08196972 0.018103056 0.11204152 0.06875438
000010 fe 9d 20 bd 42 56 51 3c 85 32 15 3d 97 dd 66 3d
       -0.039213173 0.012776913 0.036425132 0.05636367
000020 99 60 a0 bd dc 91 1b be 6d af df 3d b9 a2 ad bd
       -0.078309245 -0.1519236 0.10922132 -0.084783025
000030 c0 bc 84 3d b0 2b 57 bc 80 d5 cb bd 58 e7 7a 3d
       0.06481314 -0.0131329745 -0.09952831 0.061255783
000040 ee 5f 82 bc bd a2 a5 bd 14 32 00 be e9 a6 9f bd
       -0.015914883 -0.080876805 -0.12519103 -0.077955075
000050 f0 94 33 3e db 41 9e bd b6 c2 e9 bb b5 87 fd 3c
       0.17537284 -0.07727405 -0.007133807 0.0309485
000060 86 bd 14 be eb e6 0d bd 69 8d 8c bd 0c 6d 8a bb
       -0.14525422 -0.03464405 -0.06862909 -0.004224425
000070 bd 24 cc 3d a6 31 51 3b 51 c5 0c bd e5 a8 69 bd
       0.09967945 0.0031920462 -0.034367863 -0.057045836
000080 be 0a 92 bd 29 ba 0f bd 7b 92 8e bd 12 a7 18 bd
       -0.07130955 -0.035089646 -0.06961533 -0.037268706
000090 10 5b 5b bd 8d 62 8b 3b e6 0a 65 3c 6d b1 d8 bd
       -0.05355364 0.0042536915 0.013979649 -0.10580716
0000a0 99 ab 84 3c b4 ab c6 bd c3 5d 17 3d a7 00 a9 bd
       0.016195105 -0.097007185 0.036954653 -0.082520775
0000b0 92 73 be bd a4 0b b7 3c 85 a5 0d bd 44 a9 9a bc
       -0.09299387 0.022344418 -0.03458168 -0.01887954
0000c0 bc 5b 10 be 9f 3f 28 3d 9c b5 d2 3d 4d c1 ca bc
       -0.14097494 0.0410763 0.102885455 -0.024750376
0000d0 8f bd ee bd 18 a4 9e bc d9 47 d0 3c a7 7c a8 3c
       -0.11657249 -0.019365355 0.025424885 0.020567251
0000e0 b5 88 83 bd 10 80 12 be af d3 9f 3b 5d 65 af bc
       -0.06422559 -0.14306664 0.0048775296 -0.021410638
0000f0 63 56 68 bd 9c 79 c2 bd 48 57 1d bc f7 9c b2 bd
       -0.05672301 -0.094958514 -0.009603329 -0.08721345
000100 0d cf fd bd 97 dc 9f bd 61 b2 fc bd 0b 64 c7 bd
       -0.123930074 -0.07805746 -0.123387106 -0.097358786
000110 65 71 80 bc c8 54 f6 bb a8 28 a2 bd 96 21 0c be
       -0.01567907 -0.007517431 -0.07917911 -0.13684687
000120 c2 ee 46 bd 65 8c 13 3c ff bb fd 3d 8c 53 6d bd
       -0.04856754 0.009005641 0.12389373 -0.057941005
000130 d8 f6 df 3b f0 2f 26 3d ec 63 55 3d 54 2a 28 3c
       0.006834846 0.04057306 0.052097246 0.010263998
000140 ec e8 1b bd fb e4 82 bc 88 d1 97 3c c0 f7 86 bd
       -0.03806393 -0.015978327 0.01853253 -0.06590223
000150 ea 37 8f 3d 6f 5b b0 bd d2 e4 09 3d 88 b9 a1 bd
       0.06993087 -0.086111896 0.033665486 -0.078967154
000160 1d 42 ff bb 2e 95 d8 bd 8c d4 d1 bc 25 8b 65 bd
       -0.0077898637 -0.10575329 -0.025614046 -0.0560409
000170 51 70 2c 3d 0c 34 94 3d a4 e5 89 bd d4 28 88 3d
       0.0420993 0.0723649 -0.067332536 0.06648412
000180 08 21 97 bc 51 6a 3c 3d d4 c7 b0 3d e1 f1 c6 3d
       -0.018448368 0.04599983 0.08631864 0.097141035
000190 8f 1e c7 3d 30 68 99 bc ae 20 9e bc c7 ae dc bc
       0.097226255 -0.018726438 -0.019302692 -0.02693881
0001a0 42 2a 90 3d 7a 0b 88 bd a8 c4 4e 3a 1f f6 1a 3d
       0.0703931 -0.06642814 0.00078875804 0.037832376
0001b0 0c ab 67 3d 4c be 11 ba fb f8 44 3d 2d 70 fc bd
       0.056559607 -0.00055596675 0.04808901 -0.12326083
0001c0 65 59 b3 3b c0 2f 8a bb a9 41 10 be 4f a1 81 3d
       0.005473303 -0.004217118 -0.14087547 0.06329595
0001d0 54 30 e9 bd 5d c9 15 be 6d 0e bf bd bd b1 a0 bd
       -0.11386171 -0.14627595 -0.093289234 -0.07846401
0001e0 1f 1c e9 bc c2 52 df bd d5 28 80 bd d6 16 14 bc
       -0.028455792 -0.10904457 -0.06257788 -0.009038648
0001f0 2e c9 ac bb d6 72 0e bd 90 a3 61 bd b7 9c e8 3b
       -0.005273006 -0.034777485 -0.055087626 0.00709876
000200 22 d3 d0 bc 3e 27 c5 bc 46 71 23 3e e2 10 d8 3b
       -0.025491301 -0.024066564 0.15961179 0.0065938095
000210 86 16 83 bd 36 72 35 bd b9 bd 03 be 03 b9 c3 3d
       -0.064007804 -0.044298373 -0.12865342 0.095567726
000220 f2 46 06 3c 79 64 23 3d 29 ae d8 bd 6e 57 3b 3d
       0.008195626 0.03989074 -0.105800934 0.045737676
000230 69 d2 95 3d 5d 58 e6 3c 3a ac 62 3d ce 26 96 bd
       0.07315523 0.028118307 0.05534003 -0.0733162
000240 52 e7 7a bd 02 6c 0a 3e 10 ed f0 3d 10 6d b4 bb
       -0.06125576 0.13517764 0.11763966 -0.0055061653
000250 6d 84 42 bd 31 82 82 3c 0a e3 3a 3e 4c ce 6d bd
       -0.047489572 0.01593122 0.18250671 -0.05805807
000260 fd 2e 30 3d 2e 8f fd bd 87 e6 0c be 9a 2c 1f 3e
       0.04301356 -0.12380825 -0.13759814 0.15544358
000270 95 0e 8d 3c 5a ce 82 bd 52 ae 06 be 2f 97 00 be
       0.017218867 -0.06387015 -0.13152435 -0.12557672
000280 fb 37 9a bb 89 74 de bd c4 5c f8 bc b9 eb b3 bd
       -0.0047063804 -0.10862071 -0.030317672 -0.08785195
000290 23 da 98 bc 1e f1 04 3e 7b 86 55 bc c1 22 46 bb
       -0.018658703 0.12982604 -0.013032551 -0.0030233117
0002a0 1d 93 e6 bb 27 1c 81 3d cc 94 1f 3e 3f b2 b3 3c
       -0.0070365802 0.06304198 0.15584105 0.02193558
0002b0 ed 34 85 3c 12 72 bb 3d af fb 46 3e 2e d8 db 3d
       0.016260589 0.091526166 0.19431947 0.107345924
0002c0 86 cd c8 bd 95 ca a9 bd 37 f2 69 3d de 5a 79 bd
       -0.098048255 -0.082905926 0.05711576 -0.060877673
0002d0 e8 07 15 bd 4e 7c 76 bc 92 7f 99 3c 11 b6 a2 3d
       -0.036384493 -0.015044285 0.018737588 0.07944883
0002e0 c4 23 96 3d db c6 90 bd ac 94 a4 bd 9c 95 9d 3d
       0.073310405 -0.07069179 -0.080361694 0.07694551
0002f0 83 1f 1e bd d8 a6 a7 3d 5f 3e 95 bc cd a0 88 3c
       -0.03860427 0.0818612 -0.018218217 0.016678238
000300 71 f6 8d 3c aa 1a b1 bb f8 02 a4 bd ff 4f 58 bd
       0.017329426 -0.00540479 -0.08008379 -0.052810665
000310 c1 d2 2d bb 30 1a d8 3b e1 87 03 bd 3e 0b 7f bc
       -0.0026523324 0.0065949187 -0.032112006 -0.015566645
000320 64 e2 02 be 39 6c a8 bd 36 30 2e 3c 64 83 49 bd
       -0.12781674 -0.08223767 0.010631612 -0.04919757
000330 ea 0b 10 3e 17 89 ec bd 1e 74 4a bc fb 12 dc 3d
       0.14067045 -0.11549585 -0.012356786 0.10745808
000340 a3 1a be bc bb 05 2b 3b 13 ab 07 3e af a3 e7 3c
       -0.02320606 0.0026095945 0.13248853 0.028276293
000350 94 a5 42 3d 11 74 36 3d 0b 21 47 3c 74 dc b5 3c
       0.04752119 0.044544283 0.012153874 0.022199847
000360 6a fc 54 3d 03 a4 86 3d 6c dd 3b 3d 31 8d 59 bc
       0.051998533 0.065742515 0.04586546 -0.013278292
000370 0d cb 20 3e cc ac 21 3e 8c f9 f9 ba ff dd 9d bd
       0.15702458 0.15788573 -0.0019071563 -0.07708358
000380 e6 2a ba bd 89 56 04 bc 17 b3 91 3d d4 61 d4 bd
       -0.090902135 -0.008077272 0.07114237 -0.10370222
000390 2b 89 cc 3d 15 c2 b4 bd df aa 0d bc a1 10 29 3d
       0.099871 -0.08826081 -0.008646696 0.041275624
0003a0 f9 ad b1 3c 73 66 ed bc 69 d1 65 bd 58 0c 13 bd
       0.021689402 -0.028979516 -0.056107912 -0.035900444
0003b0 d1 b3 5a 3d 46 57 b4 bc df f0 21 bd 7d 6e 9d bc
       0.053394143 -0.022014271 -0.039536353 -0.019217724
0003c0 bf 69 af bd b7 14 21 3d 07 c5 c4 3d db 38 da bd
       -0.08565091 0.039326396 0.096078925 -0.106553756
0003d0 7c 1e 90 3c 3b df b4 bd 03 7b 60 3d 81 0f 29 bd
       0.017592661 -0.0883164 0.054804813 -0.04127455
0003e0 d8 6c 97 3d f4 3b b9 3c 5a 06 66 3d 30 4c 17 bc
       0.07393807 0.022611596 0.0561584 -0.009234473
0003f0 20 28 94 bd 4c bd 03 bd c1 a3 a0 3d aa 2c 21 bc
       -0.07234216 -0.03216295 0.078437336 -0.009837309

bias f4 [16]
000000 2c b0 d3 3c 9e 0e de 3c 51 e3 0d 3c 7b 59 1b 3c
       0.025840841 0.02710658 0.0086601535 0.009481783
000010 21 e1 68 3a 7a 8c 78 bc 3b bc bc 3b 9f a2 c1 bc
       0.00088836445 -0.015170211 0.0057597435 -0.023637114
000020 41 f1 04 bb 83 51 c3 bc 60 86 eb 3b b3 2d 70 bb
       -0.00202854 -0.023842579 0.0071876496 -0.0036648333
000030 3c 52 0f 3d 72 84 17 3b ca c4 8f 39 85 a4 0f bd
       0.034990534 0.0023119715 0.00027421705 -0.035069007

weight f4 [16]
000000 d9 5b 89 3f a5 ad 81 3f ae b2 76 3f 70 fc 77 3f
       1.0731155 1.0131117 0.96366394 0.96869564
000010 ab 5c 78 3f 14 c1 6c 3f 67 3c 89 3f f3 10 80 3f
       0.970164 0.92482114 1.0721558 1.0005172
000020 50 d4 86 3f 93 77 82 3f 08 3b 8a 3f c6 df 86 3f
       1.0533543 1.0192741 1.0799265 1.053704
000030 8b 3d 82 3f be e2 83 3f e1 c1 5e 3f f1 3b 7b 3f
       1.0175031 1.0303571 0.87014586 0.9813834

bias f4 [16]
000000 57 0f 3c bc 31 e0 b4 bc b3 64 ac bc 92 36 b2 bd
       -0.011478267 -0.022079559 -0.02104411 -0.08701815
000010 53 34 b1 bd 37 88 ba bd 67 4c 8a bd 60 98 14 bd
       -0.08652558 -0.09108012 -0.06752854 -0.03627813
000020 48 d2 69 bd c4 0c 9d bc ed e4 24 bd 4b 4b 64 bd
       -0.057085305 -0.019171126 -0.040257383 -0.055735867
000030 ff d6 5c 3c f1 c2 02 bd 4f 8c a7 bd d1 da 01 be
       0.013478993 -0.03192419 -0.081810586 -0.12681128

running_mean f4 [16]
000000 33 6e 44 bf d3 de 84 3d c1 c7 24 bf 8e 8b 5b 3e
       -0.7673065 0.06487813 -0.643673 0.21439955
000010 88 bc fb be 39 6f 73 bf e5 84 bb be 1e 74 ee be
       -0.49167275 -0.9509159 -0.36624828 -0.46572965
000020 1d 49 c4 3e 90 cc 4e be 03 c8 66 be 24 e3 1a 3e
       0.3833703 -0.20195222 -0.22537236 0.1512571
000030 0c 88 54 3d 00 c6 56 be 5e 8b bd bf d6 09 53 3e
       0.051887557 -0.20973969 -1.4808156 0.20609221

running_var f4 [16]
000000 20 6b af 3e 50 f9 bb 3d 93 3f 92 3e 9f 3e 7e 3e
       0.34261417 0.09178412 0.28564128 0.24828576
000010 7f 7a ce 3d ef c8 f9 3e 57 08 5d 3e 2b 53 90 3e
       0.10081958 0.48786113 0.21585213 0.28188452
000020 7d 03 56 3e a2 a1 9f 3e de a8 13 3e 59 c7 89 3e
       0.20899768 0.31178004 0.14419886 0.26909903
000030 1e 6e 3d 3e ab 99 5e 3e 4e 34 e8 3e 15 2c 29 3e
       0.18499038 0.21738307 0.45352405 0.16520722

weight f4 [120, 16, 5, 5]
000000 da e6 c1 bc a1 84 f5 3c 14 81 83 3c 7b 23 03 3d
       -0.023669649 0.029970469 0.01605276 0.03201626
000010 9b ec 43 3c 81 a9 2f 3c 62 9a da 3c 83 8a bb bc
       0.011958267 0.010721565 0.026684944 -0.022893196
000020 43 ff 33 bd 04 5c 14 bc 3b f4 80 3c 02 69 94 3d
       -0.04394461 -0.009055141 0.015741458 0.07246591
000030 80 59 00 3d 7c 15 a6 3c 95 c1 d8 bc 8e 1b ad 3c
       0.031335354 0.020273916 -0.026459495 0.021131303
000040 0e fe 64 3d 7a b2 df 3b b6 96 49 3c 52 bb 58 3d
       0.055906348 0.006826696 0.012303999 0.052913018
000050 3f ba 23 3c a0 56 f3 bc 22 f7 2a bd 6d 06 5e bd
       0.009993135 -0.029704392 -0.04173959 -0.054205347
000060 71 4e 0d 3d 54 97 ae bd 36 6b 92 bd 17 a7 94 3c
       0.034498636 -0.08524957 -0.07149355 0.01814608
000070 dd 1a 8a 3c 07 ce a7 3c 03 1b 65 bd 48 3b b6 bd
       0.016858513 0.020483984 -0.055933964 -0.08898026
000080 f9 8b a5 3b 13 c4 37 3d 6f c1 2b bd 22 18 b3 bd
       0.0050520864 0.044864725 -0.04193252 -0.08744837
000090 78 d2 d0 3c 45 0a 38 3c 5e 5b 8c 3b 69 18 94 bd
       0.025490984 0.011232917 0.0042833528 -0.07231218
0000a0 42 fe 0b bc 57 c8 0d 3d da fd 6b 3b f2 95 00 3d
       -0.0085445065 0.034614887 0.0036009462 0.031393
0000b0 f9 25 a9 bb 57 a5 26 bd 00 fa 61 bd 43 b2 c0 3c
       -0.0051619974 -0.040685024 -0.05517006 0.023522502
0000c0 2d c1 44 bc 13 cc 98 bc 5c 20 3f 3d e3 79 93 3b
       -0.012008947 -0.018651998 0.04666172 0.004500614
0000d0 bc 95 24 bd 64 44 b8 3a 89 fc 25 bd 85 cc 10 bc
       -0.04018186 0.0014058468 -0.04052404 -0.008837824
0000e0 37 75 b0 bc a8 df 43 bd c3 9d 3c bd d2 f6 95 bc
       -0.021540267 -0.047820717 -0.04604889 -0.01830617
0000f0 21 bd 46 bd 9a bd f1 bb 34 ef 1d 3d 72 34 60 3c
       -0.04852021 -0.0073773386 0.0385582 0.013684379
000100 8b 90 f3 3a e1 58 bc 3c 9f a3 ed 3c 56 c7 5e 3d
       0.0018582506 0.0229916 0.029008685 0.05438932
000110 5e 62 c6 3c 2d ed 77 bb a1 c9 4d 3d d0 16 89 bb
       0.024216827 -0.0037830577 0.050241116 -0.0041836277
000120 44 4c 17 3d b1 24 2b bd 02 25 ee 3b 9d fc fb 3a
       0.036937967 -0.04178304 0.0072675953 0.0019225065
000130 af 2c 95 3b d1 b3 26 bd 49 01 8d bd 36 51 99 bd
       0.004552446 -0.04069883 -0.06885011 -0.07486193
000140 38 bf 1c 3d 9c 56 c3 bc 95 02 46 bd 48 da c3 bd
       0.038268298 -0.02384501 -0.048342306 -0.09563118
000150 9b 1d a1 bd 21 b2 25 3b 25 bf 36 bd 34 91 0f bd
       -0.07866975 0.0025283175 -0.044615883 -0.035050586
000160 a2 eb f0 3c 9c 5e b6 bd ee 6a 85 3b d8 6a 05 3d
       0.029409233 -0.08904764 0.004071585 0.032572597
000170 09 bc e6 bb 87 ed 8a 3c 2b 83 c2 bd dd 8a c2 bc
       -0.0070414585 0.016958965 -0.094976746 -0.023747856
000180 cd f3 e9 3c 8b b7 73 bc e9 f9 cd 3a ca 03 75 bd
       0.028558636 -0.014875303 0.0015714738 -0.059818067
000190 d2 bf 5a 3d 83 d4 6c 3d d2 90 3f bd 09 60 bd 3c
       0.05340559 0.057819854 -0.04676897 0.023117082
0001a0 b7 75 13 bd 38 6c e6 3c c4 1b 1d bc 63 25 b7 3b
       -0.036000933 0.028127775 -0.009589139 0.0055891736
0001b0 28 50 97 bd 2d a5 7e bd e0 66 28 3d 4c 56 df bb
       -0.073883355 -0.062169243 0.041113734 -0.0068157073
0001c0 d7 0a a4 bc 5b 68 0b bd 71 0a 0b 3c 19 47 de bc
       -0.0200247 -0.034035068 0.008486376 -0.027133511
0001d0 c5 60 8b 3d a8 a8 18 3e 01 62 8f 3d 0d 24 91 3d
       0.06805567 0.14908087 0.07001115 0.07086954
0001e0 a4 d6 8d bc 8f 9a 97 3d 0b de ad 3d 12 48 0c bc
       -0.017314263 0.074025266 0.08489617 -0.008562105
0001f0 89 dd b5 3c 7d df 1b bd 39 10 0f bd eb e0 d0 bc
       0.022200363 -0.038054932 -0.03492758 -0.025497874
000200 88 60 8e bd b3 73 5f bd 32 19 08 3b 2d a1 64 bc
       -0.069520056 -0.0545537 0.002076697 -0.013954443
000210 b9 d2 a5 bd 65 06 14 bd 30 1e 33 bd ed e9 27 bc
       -0.08096833 -0.03613891 -0.04372996 -0.010248643
000220 17 2d 80 bd 8d 53 dc bc 49 b7 57 bd 66 e7 42 bd
       -0.062586 -0.026895309 -0.05266503 -0.04758396
000230 9c f0 d7 3b 9b 1d 47 3c 7c 99 ae 3c 74 a7 24 3c
       0.006589962 0.012153055 0.021313421 0.01004969
000240 76 eb ea bc b0 45 34 bd a3 81 8e 3c ef d9 25 3c
       -0.02867673 -0.04401177 0.0173958 0.01012276
000250 0f f9 79 bc b3 54 20 bc 9b 59 a5 3d d2 32 f5 3b
       -0.015257134 -0.009785819 0.080737315 0.007482865
000260 52 63 d1 3c 3a 2d d8 3c fd 15 ae 3d a7 65 ad 3c
       0.025560055 0.026388753 0.08500288 0.021166636
000270 62 fa 27 bd bc 66 e1 3b a4 63 11 bd a5 7b 4f 3d
       -0.041010268 0.006878702 -0.035495415 0.050655026
000280 0d 6a 0b 3d 6a 2e 16 bd 99 28 12 bd d5 ae 14 bd
       0.034036685 -0.036665358 -0.03568325 -0.036299545
000290 c2 35 b7 bd 91 27 27 bd 91 c7 24 bd 45 b2 29 bc
       -0.089458 -0.040809218 -0.040229384 -0.010357444
0002a0 33 7a d0 bc 2c d6 c8 bb af db d7 bc 16 be 62 3c
       -0.025448894 -0.006129047 -0.02634987 0.013839265
0002b0 74 aa 95 3d da c4 7c bc 3c 42 d4 bc c1 5c a5 bd
       0.07307902 -0.015427792 -0.02591049 -0.08074332
0002c0 91 1f 34 3c 99 7c 9f bc 3c d3 b2 3c 66 58 bc 3c
       0.010993854 -0.019468592 0.02182924 0.02299137
0002d0 5f f2 24 bd f0 fd 81 bb 77 4a b9 bd 56 e2 a3 bc
       -0.040270206 -0.0039670393 -0.09047406 -0.020005386
0002e0 9f 89 3c bd 52 86 20 3d 83 81 d5 bc 1c 18 90 bd
       -0.046029683 0.039190598 -0.026062733 -0.070358485
0002f0 dc 75 28 3d a2 17 84 3c 44 df 5e bb 08 ee 84 bd
       0.041128024 0.01612455 -0.0034007588 -0.06490713
000300 d7 63 13 bd f5 32 ac 3c 62 66 7d bd 9a cb 3c bc
       -0.035983887 0.021020392 -0.061865218 -0.011523152
000310 a7 b4 ac 3c 84 ab e0 bd 6b 65 80 bd 19 c6 c1 bc
       0.021082236 -0.10970214 -0.06269344 -0.02365403
000320 d2 48 36 3c ee 17 9b 3b 0f af 38 3d 0c 2d 36 3c
       0.01112576 0.0047330773 0.045088824 0.011119138
000330 0b 86 2a 3d a1 84 1d 3c 62 0c 8b 3c 6a 30 74 bc
       0.04163174 0.009614141 0.016973678 -0.014904121
000340 c4 dc 07 3b 40 07 10 3d ff d4 11 bc c6 12 20 3b
       0.0020730952 0.035163164 -0.00890088 0.0024425252
000350 d5 0e a6 3d a4 eb a8 bc 9b 81 da 3d 68 64 1a 3c
       0.08108298 -0.020620175 0.106692515 0.009423353
000360 a1 e3 90 bd 46 9b e5 3b 05 fc 8b bc ad 2e bd 3c
       -0.07074667 0.0070070354 -0.017087946 0.023093546
000370 60 e6 70 bb 95 79 66 3d 1f 54 01 bd 2c e5 a0 3d
       -0.0036758408 0.056268293 -0.031574365 0.07856211
000380 21 09 05 3d 64 14 20 3c 9a 75 c2 3d 87 b8 56 3c
       0.03247941 0.0097704865 0.09495087 0.013105518
000390 e2 c7 f8 3c f4 1d ff 3c 4e c7 50 3c b7 73 d0 bb
       0.030368749 0.031142212 0.01274283 -0.0063614505
0003a0 28 1e 1e 3d 03 90 a5 3c 62 9d 64 3c 9e d2 94 bd
       0.038602978 0.020210272 0.013953539 -0.072667345
0003b0 46 86 1c bd cd 15 8d 3d 54 4f 16 3d 77 5a 4e bd
       -0.03821399 0.06888924 0.036696747 -0.050379243
0003c0 33 15 e8 bd ea ca 0d bd c6 98 49 bd 51 5a ec bc
       -0.113321684 -0.034617342 -0.04921796 -0.02885166
0003d0 3f b4 26 bc 4c ad 16 bd e4 51 0c be 0a d3 c3 bd
       -0.01017481 -0.036786363 -0.13703114 -0.09561737
0003e0 03 83 99 bd d7 9a 91 b8 b7 ed 9e bc 6a 1d 5c bd
       -0.074956916 -6.94298e-05 -0.01940046 -0.05373899
0003f0 13 a2 96 bd c7 1f 44 bd 50 53 6f bc e1 00 c4 bc
       -0.07355132 -0.047881868 -0.014607266 -0.0239262

bias f4 [120]
000000 2b af 02 bb a1 1a 07 ba 98 56 96 3b 5f 0e e9 3b
       -0.0019940834 -0.00051538093 0.0045879595 0.007112309
000010 2a 89 b7 ba 5a 26 52 bb 65 a3 dd 39 df 9a ce 3b
       -0.001400267 -0.0032066316 0.00042274143 0.006305083
000020 ad ca a8 3b 52 e9 8f 3b 76 ee 28 3a b7 17 d4 3b
       0.005151114 0.0043918276 0.0006444225 0.0064725536
000030 2a 30 43 3b 3b 35 8c bb 32 1a 88 bb e2 4b 85 3a
       0.0029783347 -0.0042788065 -0.0041535133 0.001016971
000040 9e ef b3 bb 2c 8d 8f 3b 7b 4f 74 ba 83 92 92 bb
       -0.005491211 0.0043808427 -0.0009319705 -0.004473032
000050 33 d5 a8 ba 55 6b 9b 3b b1 95 0d 3b e3 cf bf 3a
       -0.0012880921 0.0047430196 0.0021604116 0.0014634099
000060 4c 87 45 ba eb a2 ff 3b 42 bc 26 3c 93 57 66 3b
       -0.00075351144 0.0078014038 0.01017672 0.0035147413
000070 8c 6e 03 3b 3a 15 da bb 49 a0 6a b9 3f d7 33 b8
       0.0020054905 -0.0066553624 -0.0002237569 -4.287739e-05
000080 af 41 a1 b8 b0 b8 92 b9 3e 52 09 bc 88 83 2f ba
       -7.689313e-05 -0.00027984893 -0.0083814245 -0.000669532
000090 1a 56 d1 3a c7 50 fd 3b 4c 4d bf b9 27 b4 c5 3b
       0.0015971095 0.0077305767 -0.0003648795 0.0060334387
0000a0 d5 55 a6 39 56 63 c0 ba 71 1e 31 3b e9 6e dd b7
       0.00031725937 -0.0014678042 0.00270262 -2.63969e-05
0000b0 30 5f c9 3b c9 8a 8e 3b 84 c7 ab 3b 74 01 16 3c
       0.0061453804 0.0043500406 0.00524229 0.00915562
0000c0 b8 c4 b1 bb 65 c4 ab 3b 8f 8c 24 bb d4 82 b8 bb
       -0.005425062 0.005241918 -0.0025108194 -0.0056308303
0000d0 63 ab d8 3b f0 34 66 bb 03 48 ca 3b c6 4a fe ba
       0.0066122278 -0.0035126768 0.0061731352 -0.0019400946
0000e0 7e b5 fb 39 f8 40 b0 ba ce 89 ab bb 86 4b 10 3b
       0.00048009673 -0.0013447097 -0.0052349335 0.0022017672
0000f0 f5 be 30 bb b1 c9 a5 bb 15 69 4d bc c4 7d b4 3a
       -0.0026969288 -0.005059444 -0.012537261 0.0013770391
000100 6f d5 e9 bb c6 0a 62 bb b3 64 a6 3b 7c e6 2f bb
       -0.007136039 -0.0034491285 0.0050779223 -0.002684026
000110 b5 8d 5a 3b 30 b7 e3 3b e2 c7 c1 3b 5e ef 35 bb
       0.0033348624 0.006949328 0.0059137205 -0.0027761082
000120 92 95 f6 3b 47 f4 90 bb 17 08 83 3b fa 60 79 3b
       0.0075251544 -0.0044236514 0.003998767 0.0038052187
000130 26 4f 85 bc db 07 22 bc 7a 63 0a 3c 73 d4 25 3c
       -0.016273092 -0.009889568 0.008446569 0.010121453
000140 74 cc 19 bb 7f 61 21 3c fb 72 c9 3b 80 8c 2a 3b
       -0.002346781 0.009849905 0.00614774 0.0026023686
000150 4f f5 42 3b b1 4f 6a bb a0 d0 aa 3b 17 3f dc 3a
       0.0029748266 -0.0035753066 0.0052128583 0.001680347
000160 5a 4d 5d bb b1 bf c3 ba ef 3b cc bb c8 e2 3c 3b
       -0.003376803 -0.0014934448 -0.0062327306 0.0028821696
000170 e6 38 a9 bb 03 35 b0 3b 47 dd 51 3b 47 12 2c 3c
       -0.0051642535 0.0053774132 0.003202276 0.0105024045
000180 0b 28 69 bc 68 93 43 3c 53 7d c7 3a e3 35 7a 3b
       -0.014230738 0.011937 0.0015219845 0.0038179092
000190 42 5e 32 bb 25 60 65 3b c6 a0 90 3a b0 eb 3b 3b
       -0.0027216827 0.0034999934 0.0011034242 0.0028674416
0001a0 0a bc 06 b9 47 6e 04 3b f9 e1 93 39 88 4d dd 3b
       -0.00012849286 0.0020207332 0.00028206388 0.006753627
0001b0 43 7d 53 ba 3e b9 86 bb 38 87 a6 3b 28 98 b9 b8
       -0.00080676767 -0.004111438 0.0050820373 -8.849829e-05
0001c0 08 d0 50 ba ae 2c 86 ba b2 94 1d ba 7f bb 56 3c
       -0.00079655694 -0.0010236704 -0.0006011232 0.013106226
0001d0 47 11 3d 3b 9e 84 3e bc 6e 60 4e 3c 52 35 f1 3b
       0.002884941 -0.011628298 0.012596233 0.0073610926

weight f4 [120]
000000 0d 5f 83 3f a7 84 81 3f b3 08 84 3f 8f 86 85 3f
       1.0263382 1.0118607 1.0315155 1.0431689
000010 cf 9a 80 3f ca 67 7e 3f ed 3c 82 3f b3 fc 81 3f
       1.0047244 0.9937712 1.0174843 1.0155243
000020 f0 d5 8c 3f 40 88 83 3f 5c 4d 83 3f 7a 11 8e 3f
       1.1002789 1.0275955 1.0257983 1.1099083
000030 8d 4a 86 3f a8 ed 8c 3f cc 2a 84 3f 5b 00 81 3f
       1.0491501 1.1010027 1.032556 1.0078233
000040 99 26 84 3f d7 a3 83 3f 78 7a 7d 3f 34 38 87 3f
       1.0324279 1.0284375 0.99015 1.0564027
000050 88 14 7c 3f 86 47 88 3f 68 f7 80 3f 1a b2 84 3f
       0.9846883 1.0646827 1.0075502 1.0366852
000060 6d a3 84 3f e7 38 83 3f 2c ee 8e 3f 95 7a 82 3f
       1.0362374 1.025174 1.1166434 1.0193659
000070 c4 44 80 3f ae 00 86 3f f3 25 83 3f 7f 29 84 3f
       1.0020986 1.0468957 1.0245956 1.0325164
000080 65 ab 7f 3f 0d 82 82 3f cd a2 84 3f da 68 83 3f
       0.998709 1.0195938 1.0362183 1.0266373
000090 ab 1f 86 3f e6 fc 81 3f fc dd 80 3f 1f 9f 7c 3f
       1.0478414 1.0155303 1.0067744 0.986803
0000a0 89 64 83 3f a0 01 7f 3f 00 47 81 3f 59 1d 87 3f
       1.0265056 0.99611855 1.0099792 1.0555831
0000b0 e4 01 88 3f 7e aa 7f 3f 98 ae 80 3f 58 48 7f 3f
       1.0625577 0.99869525 1.0053282 0.9971976
0000c0 ff 20 87 3f 78 dc 82 3f 45 04 85 3f 5f e3 86 3f
       1.0556945 1.0223532 1.0391928 1.0538138
0000d0 f2 54 82 3f ba d0 82 3f ef 8f 8b 3f 07 ed 88 3f
       1.0182173 1.0219948 1.09033 1.0697335
0000e0 e9 90 8a 3f 9a a1 8c 3f 36 05 86 3f bb d9 83 3f
       1.0825473 1.0986817 1.047034 1.0300821
0000f0 d4 1a 86 3f 1f eb 7d 3f 45 66 89 3f 0a bd 87 3f
       1.0476937 0.9918689 1.0734335 1.0604565
000100 8c bc 84 3f 1c 80 7d 3f 28 46 81 3f e8 e2 8b 3f
       1.037004 0.99023604 1.0099535 1.0928621
000110 fc 12 81 3f b6 bd 88 3f a6 9c 89 3f b9 88 82 3f
       1.0083919 1.0682895 1.075093 1.0197974
000120 6f ed 80 3f 5d c2 85 3f f6 2e 89 3f b7 a5 86 3f
       1.0072459 1.044994 1.0717456 1.0519322
000130 70 5c 81 3f 25 9c 88 3f 1d fa 86 3f fe 2c 7a 3f
       1.0106335 1.0672652 1.0545079 0.977249
000140 88 aa 88 3f a4 33 88 3f 72 cb 81 3f 2b 6a 82 3f
       1.0677042 1.064076 1.0140212 1.018865
000150 30 8b 81 3f f1 80 8d 3f 57 81 81 3f 05 e2 82 3f
       1.0120602 1.1054975 1.0117596 1.0225226
000160 58 67 89 3f de e7 89 3f f0 0f 78 3f 6d c1 7e 3f
       1.0734663 1.0773885 0.9689932 0.99513894
000170 f0 a3 87 3f 6b f1 82 3f 1e 7e 85 3f a2 29 87 3f
       1.0596905 1.0229925 1.0429113 1.055958
000180 94 49 81 3f e6 01 87 3f eb df 81 3f 95 dd 8a 3f
       1.0100579 1.0547454 1.0146459 1.0848871
000190 0d 6a 80 3f ae 79 83 3f 6d 2a 81 3f 3d 10 80 3f
       1.0032364 1.0271509 1.0091072 1.0004956
0001a0 a8 34 84 3f b1 29 87 3f a5 38 88 3f a0 04 89 3f
       1.032857 1.0559598 1.0642287 1.0704536
0001b0 39 58 8a 3f 50 c1 84 3f d3 a5 8f 3f eb 80 86 3f
       1.0808173 1.0371494 1.122248 1.0508093
0001c0 65 bf 84 3f 67 af 80 3f 42 d0 81 3f 26 09 7f 3f
       1.0370909 1.0053529 1.014168 0.99623334
0001d0 43 86 84 3f 50 02 8a 3f 81 60 82 3f b3 67 85 3f
       1.0353473 1.0781956 1.0185701 1.0422271

bias f4 [120]
000000 97 f0 98 3a 3c 23 21 bd 85 ba 93 3b 81 30 05 bc
       0.0011668381 -0.039340243 0.004508319 -0.00812924
000010 45 b9 67 bd 80 f2 42 bc e1 3a 9a 39 56 2d 0a 3b
       -0.05657317 -0.011898637 0.00029417037 0.0021084151
000020 1e 6f 75 3c 5f c9 6f 3b 9c cd 9d bc ab 8d a9 3c
       0.014980106 0.0036588532 -0.019263081 0.020697435
000030 dd 0a 88 bc 41 74 af 3c 95 31 8a bc 5f fb 95 ba
       -0.016606743 0.021417739 -0.016869346 -0.0011442712
000040 6b eb 8e bc c9 27 72 3a 55 80 c9 bc 1d b3 2a 3d
       -0.01744624 0.0009237496 -0.024597326 0.041674722
000050 96 1d 01 bd 33 93 39 3b 08 8b 8a bc d8 fd 13 3c
       -0.031522356 0.0028316497 -0.016911998 0.009032689
000060 27 97 07 bc 02 27 9f bb 2a 1a 6c bc 4f 5b 91 bc
       -0.008275784 -0.004856945 -0.014410535 -0.017743735
000070 0e 15 12 bd 7f 25 d1 bb 4b bd f0 ba 19 c7 a2 bc
       -0.03566461 -0.0063826437 -0.001836696 -0.019870328
000080 60 c8 ef bc 29 b8 31 3d 16 8a 4d bc a4 ea b1 bc
       -0.029270351 0.04338852 -0.012545129 -0.02171833
000090 0b 84 ef 3c 44 ef c5 bc 7c 19 41 bd a9 af d7 bc
       0.029237768 -0.024161942 -0.047143444 -0.026328878
0000a0 5a 19 e2 3c 70 80 c7 bb b0 c8 cb bc f3 93 16 3d
       0.02759998 -0.006088309 -0.024875969 0.03676219
0000b0 03 f7 26 3d ed b9 50 3c 1f df 17 bd a7 98 d8 bc
       0.040762912 0.012739641 -0.03707802 -0.026439978
0000c0 64 d1 5d 3d 7e f8 38 bc 0c 91 ee bb fe e0 8a 3c
       0.05415477 -0.011289714 -0.0072804745 0.016952988
0000d0 eb 8a 87 bc 0f 78 0c bd 62 d6 2f 3d 49 02 4f bc
       -0.016545733 -0.034294184 0.04292906 -0.012634822
0000e0 3c d0 91 3c d6 8c 74 3c 30 75 38 bc f5 22 40 bb
       0.01779949 0.014926156 -0.011258408 -0.002931771
0000f0 10 9c ea bb 95 a8 26 bd 84 87 87 3c 23 74 83 bc
       -0.0071597174 -0.040688116 0.016544111 -0.01604659
000100 76 5e 98 3c 52 9b 70 bc f5 2a 15 bd ec 89 56 3c
       0.01859973 -0.014685469 -0.03641792 0.013094407
000110 47 d6 c4 bc aa 6d 67 3d 05 96 15 3d ba 20 94 bc
       -0.024027957 0.05650107 0.036520023 -0.018082011
000120 5b 7e c2 bc a3 d1 32 bc df 68 03 3c df b6 91 bb
       -0.023741892 -0.010914239 0.008020609 -0.0044468488
000130 39 21 43 bd f8 94 18 ba 84 c6 37 bc 1b ff 98 bc
       -0.047639105 -0.0005820538 -0.011216763 -0.018676331
000140 3c 0e e8 3c 2f 2d 42 3b 4b 31 22 bd 76 60 6c 3c
       0.0283271 0.0029628982 -0.03959779 0.014427295
000150 74 31 87 3b 26 0c 90 bb b8 bd c8 ba 21 d3 56 bb
       0.0041257683 -0.0043959795 -0.001531533 -0.0032779651
000160 66 3b 12 3d d1 5f 19 bd 99 1a e4 bc 66 e4 09 bd
       0.035701178 -0.037444893 -0.027844714 -0.033665083
000170 1a 61 49 3c 81 89 ee bc ab 6d 60 bb 0a d4 96 3c
       0.012291217 -0.029118301 -0.0034245055 0.018411655
000180 d7 af 8b 3b 82 8b ba 3c 8a 76 86 3c d1 9b 0b 3d
       0.004262905 0.0227716 0.016413946 0.034084145
000190 22 a0 08 bd bf b9 ed 3b c7 a3 60 3c d6 3f 0d bd
       -0.03335584 0.0072548087 0.013710923 -0.034484707
0001a0 68 f0 20 bc 5c 5b 1c bc 8a 4f 26 3d cf 78 8f 3c
       -0.009822942 -0.009543266 0.040603198 0.01751366
0001b0 aa d0 9f 3b 33 09 d0 3c 43 c5 de 3c 3e 15 0b bd
       0.0048771696 0.025395012 0.027193671 -0.033955805
0001c0 c4 b0 97 3c 57 9b cd bc 93 e8 5b 3a 58 75 d3 bc
       0.018516906 -0.025098486 0.0008388843 -0.02581279
0001d0 02 81 2e bb 42 a3 aa 3a e2 2f 45 bd 2f 42 04 3d
       -0.0026627188 0.0013018625 -0.048141368 0.03228968

running_mean f4 [120]
000000 be 5e 6e be 8a fd 07 3f d4 b3 05 bf 07 8f bf 3b
       -0.23278329 0.53121245 -0.5222752 0.0058459076
000010 7b bc 1e 3e f1 df ea 3e 8d 6d db 3e ae 04 a8 3e
       0.15501587 0.4587398 0.42857018 0.3281607
000020 52 2e 69 3e 09 59 df 3c b6 34 72 bf f3 7d 2e bf
       0.22771576 0.027264135 -0.9461168 -0.68160933
000030 8e 88 1f 3f 18 67 38 3e 31 c1 df 3e 56 19 28 3e
       0.6231774 0.18008077 0.4370208 0.16415915
000040 32 6d 53 3c ab 57 92 3e db bf aa 3e 4f ca 97 be
       0.012904452 0.2858251 0.333495 -0.29646537
000050 cf 0d 05 3f a2 84 8d be 94 5f 35 be 0a 83 96 3d
       0.51974195 -0.27640253 -0.17712241 0.073492125
000060 3a 51 d5 be 3f 27 dc 3d a4 47 eb 3e cc 01 7c be
       -0.41663533 0.10749673 0.45953095 -0.2461006
000070 ea e9 05 3f e8 d4 a4 be 6d 50 4d bf e8 87 d6 be
       0.5231005 -0.32193685 -0.80200845 -0.41900563
000080 32 e5 b2 3d 1d 65 09 3f a1 ed 3b bf 3a 64 72 bf
       0.08735122 0.5366991 -0.7340947 -0.94684184
000090 b3 1f 8d bd 62 42 a0 be ed fc 98 bf ac bd 8f be
       -0.06890812 -0.31300646 -1.1952187 -0.28074396
0000a0 c1 0f 23 3f 4f d1 07 3f d7 ba fb 3d 90 7a 36 be
       0.63695914 0.53053755 0.12291496 -0.17820191
0000b0 84 1b 38 3f dd 07 90 be e7 6f 9c 3e 0d 6a 52 be
       0.71916986 -0.28131 0.30554125 -0.20548268
0000c0 0c bd a1 be f8 39 1e 3e 16 9f 9c 3e 9e 73 06 bf
       -0.31589544 0.15451801 0.30590123 -0.5252017
0000d0 ad f9 40 3e 38 5f 84 3e 0b 9a 92 3d 31 85 e9 be
       0.18845244 0.25853896 0.071582876 -0.4560943
0000e0 52 fa 33 be d6 70 51 bf fa 3a 60 be 2f 93 7d 3e
       -0.17575958 -0.818128 -0.21897498 0.24763177
0000f0 d2 68 82 3d f7 ae 0f 3f 5a 13 33 3e 93 f6 65 3e
       0.06367649 0.5612635 0.17487851 0.22457342
000100 f3 4e 0f 3f 3b 8e 9c 3e 12 e7 06 bf 36 3f e2 3d
       0.5597984 0.30577263 -0.52696335 0.11047213
000110 10 32 2d be ee eb dc bd 75 98 8e 3e b0 e9 52 be
       -0.16913629 -0.107871875 0.2785069 -0.20596957
000120 93 2f 06 bf 37 39 20 3f 80 40 2b 3d a3 24 8e be
       -0.5241634 0.625873 0.04180956 -0.27762327
000130 fc fe c5 bf ee 63 25 3f 68 d4 18 3f 44 b9 d9 3e
       -1.546844 0.64605606 0.59699106 0.4252416
000140 91 55 a7 3e e1 29 ae be be 8c e7 3e 40 48 03 bf
       0.3268247 -0.34016326 0.45224565 -0.5128212
000150 24 d1 12 3f 70 56 9d 3e 9e 96 9f be 48 c3 e6 3e
       0.57350373 0.3073001 -0.311696 0.45070863
000160 3e 3a dd be 59 ef 6a 3d df 51 1c bf 45 4e 9f 3e
       -0.43208498 0.057357166 -0.61062425 0.31114402
000170 3c d1 cc 3d 07 cb 11 3f 2a 77 dd 3e 05 c0 0e bf
       0.10000846 0.5695042 0.43254977 -0.5576175
000180 95 88 93 bf d3 3e 54 be 20 63 a4 3d ca 06 3f bd
       -1.1526057 -0.2072709 0.08026719 -0.046637334
000190 63 f7 25 bf f0 8d a9 bf 14 e9 8d 3e f6 09 76 3f
       -0.6483061 -1.3246441 0.27716887 0.9610895
0001a0 f6 5e 40 3f 01 e7 aa 3e a5 32 e7 be 31 8d 55 bf
       0.751449 0.33379367 -0.45155826 -0.83418566
0001b0 b0 cc ba 3e c3 f7 9b 3c 0e e6 cc 3d 92 b2 cb 3c
       0.3648429 0.01903904 0.10004817 0.024865422
0001c0 0c d6 f8 3e 0a b0 2b 3f 64 e8 f4 3e 61 22 85 3f
       0.48600805 0.6706549 0.4783355 1.0401117
0001d0 80 06 93 bd a9 da ba 3e 25 13 a8 3d 18 73 4e 3d
       -0.07178974 0.3649495 0.082067765 0.05040273

running_var f4 [120]
000000 47 08 bd 3e 36 b3 0d 3e fc 87 86 3e cd c7 a4 3e
       0.36920378 0.13837895 0.26275623 0.32183686
000010 9a 45 8f 3e 60 3e ac 3e 56 cd 67 3e c3 5f b0 3e
       0.2798279 0.33641338 0.22636923 0.3444806
000020 23 a3 d8 3e 45 7f 8f 3e 41 01 c7 3e 94 57 c0 3e
       0.42311963 0.28026786 0.38868144 0.37566817
000030 fe 2e 87 3e 4e 38 a2 3e 72 fc 4e 3e 8b 94 69 3e
       0.2640304 0.31683582 0.20213488 0.22810571
000040 78 6d 90 3e 9c ad f0 3e bc 17 d7 3e 05 71 c7 3e
       0.28208518 0.47007453 0.42010295 0.38953415
000050 41 12 9f 3e f6 3d 9b 3e 96 60 99 3e f9 8e 65 3e
       0.31068614 0.3032071 0.29956502 0.22417821
000060 b9 72 87 3e 99 a1 85 3e fd 6d 92 3e 35 a6 ca 3e
       0.26454714 0.26099852 0.2859954 0.3957993
000070 33 3b d2 3e e7 55 46 3e 64 ae 56 3f 8f d3 68 3e
       0.4106079 0.19368707 0.8385985 0.22736953
000080 5d 1f ac 3e dc 1b 8a 3e e3 d8 a2 3e 92 66 94 3e
       0.33617678 0.2697438 0.31806096 0.28984505
000090 03 7e 92 3e 8a d0 a7 3e ab ef ae 3e 4d 5f de 3e
       0.28611764 0.3277629 0.34167227 0.43432084
0000a0 19 9f b4 3e 4d 8a 86 3e 2d 75 98 3e 98 a3 9e 3e
       0.35277632 0.2627739 0.29776898 0.30984187
0000b0 a3 2d 8d 3e 10 d0 45 3e 30 52 41 3e a3 53 a1 3e
       0.2757388 0.19317651 0.18879008 0.31509122
0000c0 89 77 36 3e d9 b2 9d 3e a6 95 a1 3e 14 dc 83 3e
       0.17819037 0.30800512 0.31559485 0.25753844
0000d0 fc 35 fb 3d 6a b5 b7 3e b4 e2 55 3e 63 b3 6b 3e
       0.12266156 0.35880595 0.20887262 0.2301765
0000e0 d5 55 b3 3e 52 d2 c1 3e 23 2b 6b 3e 44 9b 66 3e
       0.35026422 0.37855774 0.22965674 0.22520167
0000f0 19 ac c3 3e 92 fe 35 3e 7e a5 94 3e da 03 79 3e
       0.38217238 0.17772892 0.2903251 0.24317876
000100 15 31 8b 3e 90 8b 88 3e f9 b7 7e 3e 5e e8 5a 3e
       0.27185884 0.26668978 0.24874867 0.21377704
000110 10 4e 47 3e 44 25 96 3e 72 a3 a7 3e de 6f 7d 3e
       0.19463372 0.29325306 0.32741886 0.24749705
000120 42 2c 75 3e 23 17 a7 3e 50 27 84 3e c4 96 af 3e
       0.23942664 0.3263484 0.25811243 0.34294713
000130 59 8a 9c 3e e8 e6 66 3e 14 cc 3d 3e 3f ef 6b 3e
       0.305743 0.22549021 0.18534881 0.23040484
000140 58 ab 53 3e d4 a7 90 3e 14 57 4f 3e 5a b9 4e 3e
       0.20670831 0.28253043 0.20248061 0.20187894
000150 05 a0 a3 3e 04 73 ae 3e fd ee 31 3e 99 2a 8f 3e
       0.31958023 0.34072125 0.17376323 0.27962187
000160 68 91 76 3e f2 ee 61 3e 86 aa 92 3e 09 b5 87 3e
       0.24078906 0.22063807 0.28645724 0.26505306
000170 df 48 e0 3e 9b f1 63 3e 0a b4 95 3e e3 57 8a 3e
       0.43805596 0.22260134 0.2923892 0.27020177
000180 d4 01 a4 3e f1 8d 31 3e 93 b4 7c 3e 82 08 03 3f
       0.32032645 0.17339303 0.24678259 0.51184857
000190 1c d6 5f 3e e0 ec cb 3e 91 7f 92 3e da 42 97 3e
       0.2185902 0.3982916 0.2861295 0.2954319
0001a0 a4 dc da 3e 77 bb 61 3e e8 9e cf 3e 5f 6e 9b 3e
       0.4274646 0.22044168 0.40550923 0.30357644
0001b0 29 48 6c 3e 1b 18 17 3f 21 a0 9b 3e a1 65 cd 3e
       0.23074402 0.5902116 0.30395606 0.401166
0001c0 ef a8 84 3e 5f 73 7d 3e 23 51 96 3e b0 83 2d 3e
       0.25910136 0.24751042 0.29358777 0.16944766
0001d0 4e c6 9c 3e 97 a3 8c 3e 60 bb 6a 3e a0 a5 69 3e
       0.30620044 0.2746856 0.2292304 0.22817087

weight f4 [84, 120]
000000 92 3c fa 3a ed e5 ed bd 59 a6 cd bc 5f c6 57 be
       0.0019091538 -0.116161205 -0.025103735 -0.21071766
000010 1c c1 1b be 43 1a c8 bd 76 31 a4 3d d5 5f 16 3e
       -0.15210384 -0.09770634 0.080172464 0.14684995
000020 21 2d 49 be 45 d5 8f 3d 94 fa 1a be 54 bd 2d 3d
       -0.19646122 0.070231 -0.1513465 0.042416885
000030 d2 30 1a be 9c 1a 27 3d 40 8a 96 3c bf ea 34 be
       -0.15057686 0.04079686 0.01837647 -0.17667674
000040 c3 7c 3a bd 48 ee 2b 3e 15 67 52 3e 00 ea 0b bd
       -0.04552914 0.16790116 0.20547135 -0.034158707
000050 84 3d b5 bd 35 d2 e5 3d bc 0e a1 3c dd 42 2b be
       -0.08849624 0.112217344 0.019660346 -0.16724725
000060 26 db f2 bc c9 c7 dd bd d3 6a 58 bd 8c a5 e1 3d
       -0.029645514 -0.108291216 -0.05283625 0.11017904
000070 45 f0 64 3d 14 b7 3c 3c b4 ba fd 3d 53 08 1b be
       0.0558932 0.011518259 0.123891264 -0.15139894
000080 a2 26 8d be dc 95 05 3e 6d ab 0d bd ce e2 12 be
       -0.27568537 0.13045448 -0.034587312 -0.14344332
000090 ec dd ba 3d df ba 48 be a7 19 0c be f6 32 35 be
       0.091243595 -0.19602536 -0.1368166 -0.17695221
0000a0 56 ed 5e be 90 f1 0b 3e e9 fc 72 3b 6e ed 67 bd
       -0.21770224 0.13666368 0.0037077016 -0.056622915
0000b0 b1 e0 4c 3e dc bb 03 be db 0e c5 3d f0 61 d0 3d
       0.20007588 -0.12864631 0.09621974 0.1017493
0000c0 06 bc 80 bd db 98 11 3e 47 d7 86 3d d7 85 8b bd
       -0.062858626 0.14218466 0.0658403 -0.06812637
0000d0 8e 87 0f 3e 21 37 d8 3d 3d 6b 5b 3d de d5 cc bd
       0.14016554 0.1055739 0.053569067 -0.100017294
0000e0 5c d0 eb bd 80 10 4e 3e b0 49 36 3e 53 90 af 3d
       -0.11514351 0.20123482 0.17801547 0.085724495
0000f0 6c 29 c3 3c 23 05 ac bc c5 0a 43 3c 98 48 2f 3e
       0.023823462 -0.020998543 0.011904423 0.17117536
000100 83 26 65 3e 58 ce 85 bc a6 c1 e0 bd dd 48 c8 bd
       0.22377972 -0.016333744 -0.109744355 -0.097795226
000110 b4 ff 38 3d ef d5 39 be 6d 4b d7 3d e7 c9 c3 bb
       0.045165733 -0.18148015 0.10512433 -0.0059749964
000120 56 bf 14 3c 05 91 4e 3e 72 6c 01 be fd a3 50 3e
       0.009078821 0.20172508 -0.12639025 0.20375057
000130 cb ad 90 bd 59 bf 6d be 3f 43 a5 bd 65 a9 1f be
       -0.070643984 -0.23217525 -0.08069467 -0.15591963
000140 00 38 83 3d a3 8e ae 3d b4 63 18 3c e2 28 71 bd
       0.064071655 0.085232995 0.009301115 -0.05887688
000150 02 0f ea bd 9d 38 d9 bd cd a7 06 3d d0 1e d1 3c
       -0.11428644 -0.10606501 0.03287487 0.025527388
000160 1c b0 4c be d6 fe 3b 3d 69 79 7d bd 01 e2 30 3e
       -0.19989055 0.045897327 -0.061883364 0.17273714
000170 f1 14 29 bd 60 ae 16 3c 18 64 71 3e 29 38 88 bc
       -0.041279737 0.009196848 0.23573339 -0.016628342
000180 9c 18 44 bd 32 8d 34 be e1 40 13 3e 25 c9 18 be
       -0.04787503 -0.17631987 0.14380218 -0.1492048
000190 ca d3 39 bd 3c 19 2a 3e d1 e3 59 bd 02 e4 29 be
       -0.045367993 0.16611189 -0.05319578 -0.16590884
0001a0 ab 65 1c be a4 37 5c 3e 8e 1d 45 3e de f8 46 3e
       -0.15273158 0.215056 0.19249555 0.19430873
0001b0 28 bf 32 be 4f 40 77 be 01 b1 18 3e 97 5d b3 3d
       -0.17455733 -0.24145626 0.14911272 0.08758085
0001c0 5c a8 4b bd 4b ba 09 3c 78 17 d9 bd 06 ae 06 be
       -0.049721107 0.008406232 -0.106001794 -0.13152322
0001d0 c1 cb bc 3d 3d 3d 5e 3d 87 de aa 3c f0 a8 9a 3d
       0.092185505 0.05425762 0.020858062 0.075517535
0001e0 fe 86 76 3d 14 ca 59 be d8 6d 3d 3d d5 5b ed 3d
       0.060187332 -0.21268493 0.046247333 0.11589781
0001f0 8c c9 8f 3d 62 8d 83 3d 83 0b d6 3d 3d ed c9 bd
       0.07020864 0.06423451 0.104514144 -0.09859703
000200 ae 80 e4 bd bc 49 14 be 05 bc 15 be b4 98 79 b8
       -0.11157356 -0.14481252 -0.14622505 -5.9508442e-05
000210 a2 1a 38 3d c2 41 24 3e af 06 2b be 6c b6 06 3d
       0.044947274 0.1604071 -0.16701768 0.032888815
000220 e2 96 1c 3b 67 ce 57 3c 67 71 50 3c 73 c8 d8 3d
       0.0023893644 0.013171769 0.01272235 0.10585108
000230 cf bf 52 3d 8e ea 50 3d 9e 48 c8 bd 9d d2 38 bd
       0.051452454 0.05100494 -0.09779476 -0.04512273
000240 f6 05 01 3d 81 ae 94 bc bc d5 04 3d 2e 30 ec 3d
       0.031499825 -0.018149616 0.032430395 0.11532627
000250 87 7d 0b 3e 3e d0 84 3c 2f 90 ae 3a ec 09 d4 3c
       0.13622104 0.016212579 0.0013318117 0.025883637
000260 32 77 e8 3d 7f 9c ed bd 31 a7 89 bc 79 7a d0 bd
       0.1135086 -0.11602115 -0.016803356 -0.1017961
000270 a6 64 3f 3e 4d 78 9b bc 02 05 d0 3d a0 52 c6 3c
       0.18690738 -0.018978262 0.10157205 0.02420932
000280 21 b0 4c 3e d0 88 fa 3c 96 62 44 3d 76 73 6a 3e
       0.19989063 0.030582815 0.04794558 0.22895607
000290 44 a2 c6 3d 34 b5 6a bd 5b af 41 3e 59 fb eb 3d
       0.096989185 -0.057301715 0.18914549 0.1152255
0002a0 91 81 5a 3e 6b 0b 01 3e 7d 4d 3c 3d 49 4d 32 be
       0.21338488 0.12602012 0.045972336 -0.17412294
0002b0 0d ae 4b 3e c2 75 fc 3c 36 30 0b be f5 a8 30 3e
       0.19890614 0.03081787 -0.1359261 0.17251952
0002c0 8a 9e 0a 3e bb 7c e6 bd dc 8e 4f be 15 72 1e bd
       0.1353704 -0.11254259 -0.2026934 -0.038683016
0002d0 de 8d 32 3e c2 e9 86 3d a3 14 2a bc 9e 8b 65 be
       0.1743693 0.065875545 -0.010380897 -0.22416541
0002e0 2e c7 05 3d 42 05 a3 3d ca 70 f1 bd aa 5a 1c be
       0.032660656 0.07959987 -0.11789091 -0.1526896
0002f0 62 89 20 be 2f 6f 88 3b 6d d5 74 bd 78 dd d5 3d
       -0.15677407 0.0041636447 -0.05977385 0.104426324
000300 96 c4 1d be 3e ea 31 bb b0 51 f8 3d 35 1a bf bd
       -0.15407023 -0.0027147676 0.12124956 -0.093311705
000310 22 96 c9 bd f5 a4 0b be 6c 52 26 3e 26 1b fe bc
       -0.09843089 -0.13637145 0.16242379 -0.031018805
000320 3b 24 26 be 88 9c 14 be 4d 44 21 be 67 d1 2b 3e
       -0.16224758 -0.14512837 -0.15748711 0.167791
000330 11 d5 18 be 79 db cd 3d 1c f9 b3 bc 33 84 cf bd
       -0.14925028 0.10051627 -0.02196937 -0.10132637
000340 60 68 59 3e a8 0d 03 be bb 13 ec 3c a1 d6 fd bc
       0.21231222 -0.12798178 0.028818002 -0.030986132
000350 21 c5 2e 3e 69 42 e6 3c 55 83 90 3d 76 fc ad bd
       0.17067386 0.028107839 0.070562996 -0.08495419
000360 6a 23 1f bd b7 ac 57 3e 22 df 35 3d 24 55 33 3e
       -0.038852133 0.21061979 0.04440225 0.17512947
000370 ce 0d f7 3d 89 55 73 bc ce 84 34 3e ab 44 0f be
       0.1206318 -0.014851936 0.17628786 -0.13991039
000380 d1 9c aa bd 0a da d8 bd a0 d0 8e 3d bd d8 30 be
       -0.083306916 -0.10588463 0.06973386 -0.17270179
000390 b6 9c 2c 3e 49 83 5c 3e d7 e7 8c bd 2d ea e5 3d
       0.16856655 0.21534456 -0.068801574 0.11226306
0003a0 bc ce 5e 3e 82 ed 57 bc 1e ef ab bd 76 b3 26 be
       0.2175855 -0.013179185 -0.08395217 -0.16279396
0003b0 88 19 33 bc 64 dc ba bd 1f 5b b6 3c 78 73 3a bc
       -0.01093138 -0.091240674 0.022260247 -0.011380069
0003c0 ca 7e fd bc a4 81 8c bd 73 b5 e0 bd 46 19 f8 3d
       -0.030944247 -0.068606645 -0.10972109 0.121141955
0003d0 c9 64 f7 3c 2d b2 1e be 16 3b c7 3d 55 e2 0c 3e
       0.030199425 -0.15497656 0.097280666 0.13758214
0003e0 62 3d 81 3d 1c 1f 93 3d 5a 79 5c bd 1e f4 9d 3d
       0.06310536 0.07183668 -0.053826667 0.07712577
0003f0 7c 85 5c 3d 9e ee 0b be 72 62 d5 bd 17 a1 b2 3d
       0.053838238 -0.13665244 -0.104191676 0.08722132

bias f4 [84]
000000 47 73 7a bc 9c 6c f9 3c 80 e5 b4 bc 50 30 33 bc
       -0.015286273 0.030447297 -0.02208209 -0.010936812
000010 b6 8b f0 3c b3 48 36 3c c9 0c 71 bb 00 fb e6 3a
       0.029363494 0.011125731 -0.0036781302 0.0017622411
000020 6a a8 f4 3c ed 8e a0 3b 6c 7c cb 3b 74 9d 91 ba
       0.029865462 0.0048998506 0.0062099006 -0.0011109547
000030 04 4e cb ba 4a f4 09 bd 14 f2 59 bc af d8 10 3c
       -0.0015510921 -0.033680238 -0.013302345 0.008840724
000040 dc 75 0e 3c 7f 9b 93 bc d2 d6 a2 3c 59 14 09 3c
       0.008695092 -0.018018482 0.019877825 0.008366668
000050 ef e1 bb bc b3 15 f0 ba 59 60 bf 3a 81 67 88 3c
       -0.022934882 -0.0018317014 0.0014600857 0.016650917
000060 0d 9d c0 bb a8 52 19 3d 40 c0 56 3b d0 38 91 bb
       -0.005878097 0.037432343 0.0032768399 -0.0044318214
000070 95 07 8f 3c d9 8d a6 bc a6 b8 5f 3c 18 68 d0 3c
       0.01745967 -0.02033131 0.013654863 0.02544026
000080 51 34 f1 3c d5 5d 26 bc 57 7a 35 bb 98 61 96 3b
       0.029443892 -0.010154207 -0.0027691328 0.004589271
000090 f7 d7 7c 3c 2b 3f 81 3c 68 4a bf 3c 19 75 16 3c
       0.015432349 0.015777191 0.02335091 0.009183192
0000a0 e3 56 3b bb e3 09 6e 3c dc dd 6b 3c 39 5e 9d bb
       -0.0028585724 0.014528724 0.014396157 -0.004802492
0000b0 c6 65 ff 3b 8b f2 ee bb 28 49 b5 3c 98 37 d6 3b
       0.0077941148 -0.007292097 0.02212961 0.006537389
0000c0 2d f1 b8 3b c8 f4 b3 3c c1 57 34 bc ce b5 44 bb
       0.005643985 0.021967307 -0.01100725 -0.003001559
0000d0 9f 3e b6 3c de e5 66 3d 41 71 5f 3c 27 fa c6 3c
       0.022246657 0.056371562 0.013637842 0.024289204
0000e0 ad 39 60 bc 14 01 9e bc a0 68 92 ba 0e f6 5c 3c
       -0.013685626 -0.019287623 -0.0011170097 0.013486398
0000f0 6f e3 43 3c ca 3d 21 3c f5 72 d7 3b 51 55 49 3c
       0.01195608 0.009841392 0.0065749832 0.012288407
000100 5b 8b 36 bc ff da f8 bb 72 e0 84 3c d9 eb 49 3c
       -0.011141623 -0.0075944657 0.016220305 0.012324297
000110 a2 38 ab 3c 1f 70 90 3b 95 90 a6 3c ec 9b bc bc
       0.020901028 0.004407897 0.020332614 -0.023023568
000120 fe 72 fa 3c 72 37 96 3c 02 a7 ab bb 64 32 65 bb
       0.03057241 0.018336985 -0.0052384147 -0.0034972662
000130 2c a5 17 3c 72 1f bf bc ff 6a e6 3c d9 ad 0b bc
       0.009255689 -0.023330424 0.028127192 -0.008525335
000140 04 de cd 3c 44 88 ad bc 9e 82 cb 3a 5b 34 2e 3c
       0.02513028 -0.02118314 0.0015526598 0.0106326
