model1/model/model.pt (torch, 279427 bytes, 22 tensors)

weight f4 [6, 3, 5, 5]
0	0xbe979328	-0.2960446
1	0x3df3aa24	0.11897686
2	0x3d74b36b	0.05974142
3	0xbe2dd8f7	-0.16977297
4	0x3dcd529f	0.10025524
5	0xbe09ee7e	-0.13469884
6	0x3d428b94	0.047496393
7	0xbca096b0	-0.019603103
8	0x3da46a2f	0.080280654
9	0x3da72c0a	0.08162697
10	0x3dcf7684	0.10130027
11	0xbdc6e7de	-0.09712194
12	0x3cb0d36d	0.02158519
13	0xbd77d78b	-0.060508292
14	0xbd27d462	-0.04097403
15	0xbe10cca3	-0.14140563
16	0x3d8382ab	0.06421407
17	0x3dfc8858	0.12330693
18	0x3d18f81d	0.037345994
19	0x3d8a7eb9	0.06762452
20	0xbde619cd	-0.1123539
21	0xbd3c97e7	-0.046043303
22	0x3d29a700	0.04141903
23	0x3d2f5f89	0.04281572
24	0xbcbc623d	-0.022996062
25	0xbe3bf5be	-0.18355462
26	0xbe1e13d1	-0.15437247
27	0xbc61d942	-0.013784708
28	0xbe2c2f3b	-0.16814892
29	0x3c394593	0.011308092
30	0xbe1e8d9f	-0.15483712
31	0x3d95c3a6	0.073127076
32	0x3e353644	0.17696482
33	0x3dbf38ea	0.09337027
34	0x3b2f1e5a	0.0026720972
35	0xbdd6aa65	-0.10481719
36	0x3e2ff8fc	0.17184824
37	0x3d8c9fcc	0.06866416
38	0x3bc8d8ac	0.006129345
39	0x3d8eb4e4	0.06968096
40	0xbd2177e0	-0.039420962
41	0x3b978b67	0.0046247724
42	0x3cdff4f9	0.027338492
43	0x3c5c1afa	0.013434166
44	0xbd1ba9c1	-0.038003687
45	0xbdbcd10b	-0.09219559
46	0xbd94ba9f	-0.07262158
47	0x3e0961c8	0.13416207
48	0xbdf70093	-0.120606564
49	0xbcdd534e	-0.027017262
50	0xbedb4ea5	-0.4283344
51	0xbded8c59	-0.11599035
52	0xbd65216f	-0.055940088
53	0x3c2f975a	0.010717237
54	0x3d9dac45	0.076988734
55	0xbe01b7a7	-0.12667714
56	0xbd99c781	-0.075087555
57	0x3e29f537	0.16597448
58	0x3e00e1e7	0.12586175
59	0x3e25c0d7	0.16186844
60	0xbde51f43	-0.11187603
61	0x3e2e0b43	0.16996484
62	0x3e030c1d	0.1279759
63	0x3bd05311	0.0063575585
64	0xbe05b52d	-0.13057394
65	0xbe3180f3	-0.17334346
66	0x3cda37ca	0.02663793
67	0xbde7d7bc	-0.11320445
68	0x3d661e14	0.05618103
69	0x3dacefce	0.084441766
70	0x3da88005	0.08227543
71	0x3dec9fe4	0.11553934
72	0x3c58a0e5	0.013221954
73	0xbd915765	-0.07096747
74	0x3cc7fc00	0.024412155
75	0x3d12aff9	0.03581235
76	0x3e754402	0.23951724
77	0x3d98cc81	0.07460881
78	0xbc5c5ee0	-0.013450354
79	0x3da5131e	0.08060287
80	0xbbc62e7a	-0.006048021
81	0x3e08a292	0.13343266
82	0x3e04fefd	0.12987895
83	0xbc7b9b81	-0.015356899
84	0xbe31b6ff	-0.17354964
85	0xbea1b95a	-0.31586725
86	0x3dd97183	0.10617354
87	0xbe3fecc1	-0.18742658
88	0xbe41b400	-0.18916321
89	0xbe2bd09f	-0.16778801
90	0x3cba48db	0.022739818
91	0x3e3940c5	0.18091114
92	0x3e0bf8d7	0.13669144
93	0x3e15ae07	0.14617167
94	0xbd8be41e	-0.06830619
95	0xbe172da0	-0.14763498
96	0x3e24ad07	0.1608163
97	0x3d6c58c4	0.05770184
98	0x3d6aad1b	0.057293992
99	0xbc290afb	-0.010317559
100	0x3c081ef9	0.008308166
101	0x3deda09f	0.11602902
102	0x3d32e275	0.043672998
103	0x3d9c169d	0.07621501
104	0xbcceb3cd	-0.02523222
105	0x3b863fd1	0.004096963
106	0xbcdc0d32	-0.02686176
107	0x3dda602c	0.106628746
108	0xbd83989f	-0.064255945
109	0x3c8a43f1	0.0168781
110	0xbe774159	-0.24146022
111	0xbc2f3f05	-0.010696177
112	0xbe1579e6	-0.14597282
113	0xbdc5ea68	-0.0966385
114	0xbe0118d0	-0.12607121
115	0x3c95dcba	0.018293727
116	0x3e3e4a26	0.18582973
117	0x3e0b8dfc	0.13628381
118	0x3d5dd8e5	0.054161925
119	0x3c2d28f3	0.010568845
120	0xbde52dd7	-0.11190384
121	0xbe069d09	-0.13145842
122	0x3e7a47e2	0.24441484
123	0x3da9e8ea	0.08296378
124	0xbd92d4ae	-0.07169472
125	0x3d81f812	0.06346144
126	0x3e2f06d7	0.17092453
127	0x3dc05e11	0.09392942
128	0x3e2d49c2	0.16922668
129	0x3db698a0	0.0891583
130	0x3b9ad2f5	0.004724855
131	0x3d022575	0.031774003
132	0x3e1759d8	0.14780366
133	0x3cb22343	0.02174533
134	0xbe02078c	-0.12698191
135	0xbe51dbd5	-0.20494016
136	0xbd835f10	-0.06414616
137	0x3ba56209	0.005047087
138	0x3c8bac8f	0.017050056
139	0xbdadd5b1	-0.08488024
140	0x3d0e1974	0.034692243
141	0xbdf16484	-0.1178675
142	0x3e16acd7	0.1471437
143	0xbc8ba6b9	-0.017047273
144	0xbe2d06ca	-0.16897121
145	0x3c7d61f0	0.015465245
146	0x3ab0552d	0.0013453119
147	0x3db6a816	0.089187786
148	0x3d9511bd	0.07278774
149	0x3cb12212	0.021622691
150	0xbda42af2	-0.08016004
151	0xbc80164c	-0.015635632
152	0xbe93e708	-0.288872
153	0xbe9cd22f	-0.30629107
154	0xbdcdb4c3	-0.10044243
155	0x3d4c74ee	0.0499162
156	0x3d161eaf	0.036650356
157	0xbe02b909	-0.12765898
158	0xbddc41d4	-0.10754743
159	0xbe06b759	-0.13155879
160	0x3e1a00fe	0.15039441
161	0xbdc63630	-0.09678304
162	0xbd07c2dd	-0.03314482
163	0xbc3746c3	-0.0111863045
164	0x3d14df85	0.036345977
165	0x3d7d760c	0.061880156
166	0xbddb87e2	-0.10719277
167	0x3c93a433	0.018022632
168	0xba0dac9a	-0.0005404443
169	0x3e38e863	0.18057398
170	0x3ce5b9af	0.028042642
171	0x3c11c7ac	0.008897703
172	0xbd221513	-0.03957088
173	0xbd8d9f85	-0.069151916
174	0x3e31f39b	0.17378084
175	0x3d073842	0.033012636
176	0x3de32232	0.110905066
177	0xbe0777ac	-0.13229245
178	0xbeeab582	-0.45841604
179	0xbe28eb7b	-0.16496079
180	0x3e2c673a	0.16836253
181	0xbd3f390e	-0.04668527
182	0xbda52316	-0.08063333
183	0xbe450f15	-0.19244035
184	0xbe34f6bd	-0.17672248
185	0xbc8cbba6	-0.017179321
186	0x3db0f657	0.086407356
187	0xbd7e1af9	-0.062037442
188	0x3de865f5	0.11347572
189	0x3c9ea2bd	0.019364709
190	0xbc889401	-0.016672136
191	0x3c956eb0	0.018241256
192	0xbdbac263	-0.091191076
193	0x3e182b43	0.14860253
194	0xbbfde526	-0.007748264
195	0xbd055f3a	-0.03256152
196	0x3d286782	0.041114338
197	0xbd0d3d5a	-0.034482338
198	0x3d2dad61	0.042401675
199	0xba3f07d8	-0.00072872406
200	0xbdbca3b8	-0.092109144
201	0xbc119573	-0.008885729
202	0xbe812b19	-0.25228193
203	0xbf23739e	-0.6384829
204	0xbe9bc7c1	-0.30425838
205	0x3cda8153	0.026672995
206	0xbdb26750	-0.087111115
207	0x3d167428	0.03673187
208	0xbe7ef338	-0.24897468
209	0xbe5abfae	-0.21362182
210	0x3da55592	0.08072962
211	0xbd1e24e3	-0.038609397
212	0xbd88f76c	-0.06687817
213	0x3c553514	0.013013143
214	0x3ce14c43	0.027502185
215	0x3e1ff0ca	0.15619197
216	0x3d2cacb0	0.042156875
217	0x3c76badd	0.0150592
218	0x3dba5cd9	0.090997405
219	0x3d9a946f	0.07547843
220	0x3d5b990f	0.053612765
221	0x3db05a9c	0.08611032
222	0xbda290a9	-0.07937748
223	0xbc9482ef	-0.01812884
224	0x3dc659f3	0.09685125
225	0xbe36bbca	-0.17845073
226	0xbe8fb6f1	-0.2806926
227	0xbbd5a819	-0.006520283
228	0x3e48b2df	0.19599484
229	0x3d270901	0.04078007
230	0xbd53f1f4	-0.051744416
231	0xbe492a4a	-0.19645038
232	0xbb9db36e	-0.0048126495
233	0x3e5dd228	0.216622
234	0x3d88150c	0.066446394
235	0x3bd684b1	0.0065465798
236	0xbdbb1ad8	-0.091359794
237	0xbdefed6a	-0.11715205
238	0xbe05f55f	-0.13081883
239	0x3d5726bc	0.052527174
240	0x3e3716f3	0.17879848
241	0x3d492d9f	0.049115773
242	0xbd8627b9	-0.06550545
243	0xbd011f67	-0.03152409
244	0xbe02d4e3	-0.12776522
245	0xbcfee1f1	-0.031113597
246	0x3c0550d4	0.008136947
247	0xbdcbf9be	-0.09959744
248	0x3da2eb26	0.07955007
249	0x3e1e9415	0.15486176
250	0xbed7fefc	-0.42186725
251	0xbeb39dd4	-0.3508135
252	0xbd94279e	-0.07234119
253	0xbe0308f9	-0.12796392
254	0x3e0cba7f	0.13743018
255	0xbe9cb30b	-0.3060535

bias f4 [6]
0	0x3da9613c	0.08270499
1	0xbca8a904	-0.020588405
2	0xbdaf0bf1	-0.085471995
3	0xbd9ae161	-0.07562519
4	0xbce84aec	-0.028356038
5	0x3d3b6d37	0.045758452

weight f4 [6]
0	0x3f6e5c72	0.9310981
1	0x3eefdf33	0.46849975
2	0x3f8b73a0	1.0894661
3	0x3f8f03a6	1.1172988
4	0x3f41dcec	0.75727725
5	0x3f87e38a	1.0616314

bias f4 [6]
0	0xbd8d2aae	-0.06892906
1	0xbe27a745	-0.16372402
2	0xbed2ecaf	-0.411962
3	0xbf156089	-0.58350426
4	0x3c0f8e7d	0.008761999
5	0xbee1794d	-0.44037858

running_mean f4 [6]
0	0x3edc9b72	0.43087345
1	0xbecf8710	-0.40532732
2	0x3fb03df9	1.3768913
3	0x3fc20223	1.5156902
4	0x3bac905b	0.005266232
5	0x3f51ae5e	0.8190669

running_var f4 [6]
0	0x3eb85c4f	0.36007926
1	0x3ea4b88b	0.32172045
2	0x4046761c	3.1009588
3	0x404a27b2	3.1586728
4	0x3e23f506	0.16011438
5	0x3f67d4ea	0.90559256

weight f4 [16, 6, 5, 5]
0	0x3db0edd2	0.086391106
1	0xbdbd836f	-0.092535846
2	0x3ceb590d	0.028728986
3	0xbd690b05	-0.056895275
4	0x3de3f7ee	0.11131273
5	0x3c5fa6a0	0.013650566
6	0xbe1a3fb1	-0.15063359
7	0xbe098e2e	-0.13433143
8	0xbcf88f6b	-0.030341825
9	0xbd3bac63	-0.045818698
10	0x3d3602c7	0.044436242
11	0xba727432	-0.0009248882
12	0xbdfc779e	-0.12327503
13	0x3d2e027d	0.04248284
14	0x3e010950	0.12601209
15	0x3c221aec	0.009894114
16	0xbe20ca65	-0.15702207
17	0xbe1564b7	-0.14589201
18	0x3bda5c31	0.006663822
19	0x3e460bc3	0.19340424
20	0xbc6964ac	-0.014245193
21	0xbe731656	-0.23738989
22	0xbe994ed2	-0.29942948
23	0x3d009e39	0.031400893
24	0x3e3a8415	0.18214448
25	0x3c3ec419	0.011643433
26	0xbdd4945a	-0.10379858
27	0x3cf80d98	0.03027992
28	0xbe0a4300	-0.13502121
29	0x3c3cf053	0.011531907
30	0x3ca59ac5	0.020215401
31	0x3d9e6510	0.0773412
32	0xbdedf9b1	-0.116198905
33	0x3dadcff9	0.08486933
34	0xbdeca873	-0.11555567
35	0xbce7e635	-0.028308013
36	0xbce99158	-0.028511688
37	0xbd1477d7	-0.0362471
38	0x3d808d27	0.06276923
39	0x39fb4ade	0.0004793023
40	0x3d80cbb2	0.06288852
41	0xbc7c3d44	-0.015395466
42	0xbdfad87d	-0.12248323
43	0x3ba144b2	0.004921519
44	0x3d818217	0.06323641
45	0xbd0ef23a	-0.034898974
46	0xbd86a578	-0.065745294
47	0xbdfbe494	-0.12299457
48	0x3cb9ca79	0.022679554
49	0xbd0cd6fa	-0.034384705
50	0x3d18f13e	0.03733944
51	0x3c8c069e	0.017093
52	0xbcbb6abf	-0.022878049
53	0xbd81bc2b	-0.06334718
54	0x3d773cc6	0.060360692
55	0xbdc0a6b6	-0.094067976
56	0x3cef6800	0.029224396
57	0xbb3ae751	-0.0028519223
58	0x3dcc0abe	0.099629864
59	0x3d957584	0.07297805
60	0x3c934d0b	0.017981073
61	0xbce032b9	-0.027367936
62	0x3dde5137	0.10855334
63	0x3e12e8bd	0.14346595
64	0xbc9cfff3	-0.019165015
65	0x3bb8c8c1	0.005639166
66	0xbcd06712	-0.025439773
67	0x3d65461d	0.05597507
68	0x3d7a113c	0.061051592
69	0xbe1bb38b	-0.15205209
70	0xbe33cbdb	-0.17558233
71	0xbdda7bf8	-0.106681764
72	0xbb417a74	-0.002952245
73	0x3dad488c	0.08461103
74	0xbd2d622a	-0.042329945
75	0x3ca95dac	0.020674549
76	0xbe0dd68d	-0.13851376
77	0xbb81a3ea	-0.0039563077
78	0x3d1ff114	0.03904827
79	0x3deb3140	0.11484003
80	0x3c532d4f	0.01288922
81	0xbd7fc30c	-0.06244187
82	0xbd457b6c	-0.048213407
83	0xbc49fec2	-0.012328805
84	0x3dfaf964	0.12254599
85	0xbdcbe52f	-0.09955823
86	0x3cf2167b	0.029551735
87	0x3daac95c	0.083391875
88	0x3df56fde	0.119842276
89	0x3e1c19ba	0.15244189
90	0xbe1fd1e8	-0.15607417
91	0x3c09c8d4	0.008409698
92	0x3ca588dc	0.020206861
93	0x3e205775	0.15658362
94	0x3d1e7010	0.03868109
95	0x3b1a055a	0.0023501725
96	0xbe283294	-0.16425544
97	0xbde28396	-0.11060254
98	0x3dace6b7	0.08442443
99	0x3e0c46db	0.13698904
100	0x3d938fef	0.072051875
101	0x3c91db86	0.017804872
102	0xbdb2a89b	-0.08723565
103	0x3e0501f1	0.12989022
104	0x3db2544a	0.08707483
105	0xbce3b8c4	-0.027798064
106	0xbd8f1105	-0.06985668
107	0xbd267400	-0.04063797
108	0xbd8d2cb3	-0.06893291
109	0x3da7e853	0.08198609
110	0xbda383d0	-0.079841256
111	0xbd8968ca	-0.0670944
112	0x3d659299	0.05604801
113	0x3ccd673e	0.025073644
114	0xbdbb288a	-0.091385916
115	0xbdaa2e4a	-0.0830961
116	0xbba1afb5	-0.004934276
117	0x3decd00b	0.115631185
118	0xbd208e94	-0.039198473
119	0xbdd85d04	-0.10564616
120	0x3bc3aa03	0.0059711947
121	0x3d1cccf0	0.03828138
122	0x3d8af437	0.067848615
123	0x3d039ddc	0.03213297
124	0x3c9f1687	0.019419922
125	0x3ce393ce	0.02778044
126	0x3ba02bca	0.0048880326
127	0xbcf5bd60	-0.029997528
128	0x3d81a5f7	0.063304834
129	0xbd38ef37	-0.045150008
130	0xbddd8358	-0.108160675
131	0x3cdc7f33	0.026916122
132	0x3d25ccb2	0.040478416
133	0x3d586af6	0.05283638
134	0x3ce4bfb3	0.02792344
135	0xbe288086	-0.16455278
136	0x3cf8c6e9	0.030368285
137	0x3d9a8ee1	0.07546783
138	0x3d9c6f5e	0.07638429
139	0x3e025fb0	0.12731814
140	0xbe2cf42c	-0.16890019
141	0xbd494594	-0.04913862
142	0xbd056dcf	-0.032575425
143	0x3c5c05c5	0.01342911
144	0x3e2bd2dc	0.16779655
145	0xbde2d524	-0.110758096
146	0xbe19b943	-0.15012078
147	0xbdd6e5ca	-0.104930475
148	0x3e175021	0.1477666
149	0x3daf5846	0.08561759
150	0x3c986507	0.018602861
151	0xbdb84552	-0.08997597
152	0xbdd3a363	-0.10333898
153	0x3d81c9a7	0.0633729
154	0xbd90ead6	-0.070760414
155	0xbdff8f2d	-0.124784805
156	0xbe2baf6b	-0.16766135
157	0x3cc134b5	0.023584703
158	0x3db17622	0.0866511
159	0x3ccaff40	0.024779916
160	0xbdc63af7	-0.096792154
161	0xbdb9538d	-0.09049139
162	0xbe2d3a24	-0.1691671
163	0x3d88cad3	0.06679311
164	0xb83e9ad8	-4.544374e-05
165	0xbe1e4400	-0.15455627
166	0xbe44c2d2	-0.19214943
167	0xbd6909aa	-0.056893982
168	0x3cfba049	0.030716078
169	0x3e01e2b9	0.12684144
170	0xbdcdd9f2	-0.100513354
171	0xbe167769	-0.14693989
172	0x3a76c4b8	0.00094134687
173	0xbe06405a	-0.13110486
174	0x3e07f1ec	0.1327588
175	0x3dade52e	0.08490978
176	0xbc8d899f	-0.017277537
177	0xbd181395	-0.03712805
178	0x3db2ba25	0.087269105
179	0x3d761b3a	0.06008456
180	0xbce3dcab	-0.027815184
181	0xbdf7e9ea	-0.121051624
182	0xbda19cef	-0.07891261
183	0x3da58439	0.0808186
184	0x3d5965d0	0.05307561
185	0x3cfa0247	0.030518664
186	0xbda307b0	-0.07960451
187	0xbe1f7ce4	-0.15574986
188	0xbdd33525	-0.10312871
189	0xbdb6111a	-0.088899806
190	0xbcb27244	-0.021783002
191	0xbd9e1203	-0.07718279
192	0xbdc2aa28	-0.09505111
193	0xbdfa5ba3	-0.122245096
194	0x3a1f2f77	0.00060724415
195	0xbdf82a39	-0.12117428
196	0xbd30104f	-0.042984303
197	0xbe4b1484	-0.19832045
198	0x3cdc172c	0.026866518
199	0xbd1535de	-0.036428325
200	0xbd25f033	-0.040512275
201	0xbe025b78	-0.12730205
202	0xbe092a0f	-0.1339495
203	0x3b86b397	0.0041107642
204	0x3d81540e	0.0631486
205	0xbc633034	-0.013866473
206	0x3d56bddb	0.052427154
207	0x3e14d620	0.14534807
208	0xbdafd490	-0.08585465
209	0xbd55649b	-0.052097898
210	0x3c1ffbfa	0.009764666
211	0x3ddd4fb3	0.10806217
212	0x3e124387	0.14283572
213	0x3d5c9416	0.053852163
214	0x3d366c53	0.0445369
215	0xbcd61b9e	-0.026136216
216	0x3e32fd58	0.17479455
217	0x3d458965	0.048226733
218	0xbd452bd4	-0.0481375
219	0xbe08b3e3	-0.13349871
220	0x3c14bfb2	0.009078907
221	0x3e1cbe3c	0.15306944
222	0xbd589aaf	-0.052881893
223	0xbddbd8cb	-0.10734709
224	0xbe1bef32	-0.15227965
225	0xbcbfa91b	-0.023396065
226	0xbca77efe	-0.020446297
227	0xbd97d1ea	-0.07413085
228	0xbdbe130d	-0.092809774
229	0xbe26ed72	-0.16301516
230	0xbe0bc0be	-0.13647744
231	0x3d9d8bf4	0.076927096
232	0x3dc97590	0.098368764
233	0x3e1a9b86	0.1509839
234	0x3db4bbcb	0.08824881
235	0x3d128956	0.035775505
236	0xbd3fcaa1	-0.0468241
237	0x3d07a7db	0.033119064
238	0x3c549d49	0.012976953
239	0xbda20f72	-0.07913102
240	0xbd4d75b8	-0.050161093
241	0xbba3f6b0	-0.0050037727
242	0x3db349af	0.087542884
243	0x3e309fa7	0.17248403
244	0xbd878a69	-0.066181965
245	0xbcaa8081	-0.020813229
246	0x3e0318d8	0.12802446
247	0x3db29563	0.087198995
248	0x3d6ae0e6	0.057343386
249	0xbe0f3897	-0.13986431
250	0xbe23a095	-0.15979226
251	0x3df066da	0.117383674
252	0x3d2d37e8	0.042289644
253	0x3cdd9ae8	0.027051404
254	0x3d950b38	0.072775304
255	0xbde9ee98	-0.11422461

bias f4 [16]
0	0x3d6fd7cf	0.05855542
1	0xbdb3c0f0	-0.08777034
2	0xbd15a41d	-0.036533464
3	0x3be46ccc	0.0069709774
4	0x3dcb0189	0.09912402
5	0xbd1f5ff8	-0.038909882
6	0x3c6064be	0.013695894
7	0x3d1c08b9	0.038094256
8	0x3d7708cb	0.06031112
9	0xbd16b4e5	-0.03679361
10	0x3dbfc8bd	0.0936446
11	0xbc46865b	-0.012116994
12	0x3b613b28	0.0034367535
13	0xbdcd7e1f	-0.10033821
14	0xbd71ed6e	-0.05906432
15	0xbd4c362a	-0.049856342

weight f4 [16]
0	0x3f7a8393	0.97857016
1	0x3f805da7	1.002858
2	0x3f7aad4a	0.9792067
3	0x3f899544	1.0748677
4	0x3f511603	0.8167421
5	0x3f8a708b	1.0815595
6	0x3f4b85ee	0.79501235
7	0x3f5b594c	0.8568313
8	0x3f7ab752	0.97935975
9	0x3f7399df	0.95156664
10	0x3f652727	0.89512867
11	0x3f8083ef	1.0040263
12	0x3f8531f1	1.0405866
13	0x3f93275b	1.1496385
14	0x3f86076c	1.0471015
15	0x3f9474d8	1.1598158

bias f4 [16]
0	0xbe135281	-0.14386941
1	0xbe425db9	-0.18981065
2	0xba53f243	-0.0008085111
3	0xbe1a9099	-0.15094222
4	0xbe99292f	-0.29914233
5	0xbdd69f2e	-0.1047958
6	0xbe634104	-0.2219277
7	0xbe7e2ac3	-0.24821
8	0xbe7e45cd	-0.24831314
9	0xbe36ca38	-0.17850578
10	0xbe601972	-0.21884707
11	0xbe7ed380	-0.24885368
12	0xbe52a3a3	-0.20570235
13	0xbda9cbf9	-0.08290858
14	0xbe254bbe	-0.16142175
15	0xbeb142c3	-0.34621248

running_mean f4 [16]
0	0xbe4c9b76	-0.19981179
1	0xbef877e0	-0.48528957
2	0xbe3eb8ce	-0.18625185
3	0xbdba5b8a	-0.09099491
4	0x3e201da6	0.1563631
5	0xbea9ab6f	-0.33138606
6	0x3e9f3490	0.3109479
7	0x3e134cc3	0.14384751
8	0x3dc130e0	0.0943315
9	0xbe9ef719	-0.31047896
10	0xbda63b11	-0.08116735
11	0xbe5165ba	-0.20448962
12	0xbe072b0f	-0.1320002
13	0xbef77cb1	-0.4833732
14	0xbee1be55	-0.44090524
15	0xbe460522	-0.19337896

running_var f4 [16]
0	0x3eb8898f	0.3604245
1	0x3eaf52d1	0.3424287
2	0x3de8098d	0.11329947
3	0x3de65a98	0.11247748
4	0x3ebf63f8	0.37380958
5	0x3ec93551	0.3929849
6	0x3e5807da	0.21096745
7	0x3e0d1666	0.13778076
8	0x3db65281	0.08902455
9	0x3e588cad	0.21147414
10	0x3da66188	0.08124071
11	0x3e066548	0.13124573
12	0x3dd87c3a	0.10570569
13	0x3ed3f2b8	0.41396117
14	0x3e891920	0.2677698
15	0x3dd0b791	0.101912625

weight f4 [120, 16, 5, 5]
0	0xbdd7682e	-0.105179176
1	0x3cdf3f86	0.02725197
2	0x3d4feff3	0.050765943
3	0xbdae4d71	-0.085108645
4	0xbcac8219	-0.02105813
5	0xbd7b3a37	-0.061334815
6	0x3e121828	0.14267027
7	0xbca72cd9	-0.020407127
8	0xbdb45404	-0.08805087
9	0xbc56c84b	-0.013109277
10	0xbe116a23	-0.14200644
11	0x3dce9e4b	0.10088786
12	0xbca90bac	-0.020635448
13	0xbcb48e61	-0.022040548
14	0x3cd62514	0.026140727
15	0xbe0d336d	-0.13789149
16	0xbd3f7e78	-0.04675147
17	0x3d448240	0.04797578
18	0x3da50aad	0.08058677
19	0x3d877a96	0.06615178
20	0xbdba9884	-0.09111121
21	0x3c5a268e	0.013314856
22	0x3ce5dbac	0.02805885
23	0xbd43b128	-0.04777637
24	0xbde8c05c	-0.11364815
25	0x3c5f8b22	0.013644012
26	0x3d15d729	0.036582146
27	0x3dddf3c5	0.10837511
28	0x3b837bdf	0.0040125693
29	0xbe0e2fed	-0.1388547
30	0x3d06574f	0.032798108
31	0x3ba2905f	0.004961058
32	0xbc6f9328	-0.014622487
33	0xbdfd3421	-0.123634584
34	0x3dd343e8	0.103156865
35	0x3ac6956c	0.0015150732
36	0xbd0c0010	-0.034179747
37	0xbce6815a	-0.028137852
38	0x3cb9cae9	0.022679763
39	0x3db095b7	0.08622306
40	0x3d523bae	0.051326446
41	0xbd928c62	-0.07155682
42	0x3ba6cb0b	0.0050901226
43	0xbd87a714	-0.066236645
44	0x3d7fb0bb	0.062424403
45	0x3cee57cc	0.0290946
46	0xbc9925e0	-0.018694818
47	0x3d5236c9	0.05132178
48	0xbbc458f7	-0.0059920507
49	0x3d82facc	0.06395492
50	0xbe001739	-0.12508859
51	0xbb734653	-0.0037120774
52	0x3e2c3740	0.16817951
53	0xbd39b54d	-0.045338918
54	0xbcd10e18	-0.025519416
55	0x3d64cb08	0.05585769
56	0xbdc4d9ab	-0.09611829
57	0xbdf4c2eb	-0.1195124
58	0xbd34061e	-0.043951146
59	0xbc6ab586	-0.014325505
60	0x3b45d2d6	0.0030185482
61	0xbd814718	-0.06312388
62	0xbd5cc260	-0.053896308
63	0x3ddba5f3	0.10725012
64	0x3d024997	0.031808462
65	0x3d1384e5	0.03601541
66	0x3d3ca205	0.04605295
67	0xbd8a22c9	-0.06744916
68	0x3d3fb9ab	0.046807926
69	0x3abb4e23	0.0014290254
70	0x3d3b5fc2	0.04574562
71	0xbb81aec5	-0.0039576017
72	0x3c06b03f	0.008220731
73	0xb7635b62	-1.3551531e-05
74	0xbd490540	-0.049077272
75	0xbd685845	-0.056724805
76	0x3d391ae8	0.045191675
77	0xbdc3fe83	-0.09570029
78	0xbe5e2ae7	-0.21696053
79	0x3cdcd114	0.026955165
80	0xbcbd0544	-0.0230738
81	0xbc81cd60	-0.015845
82	0xbd42dc1b	-0.04757319
83	0xbd79e8c2	-0.06101299
84	0x3d7a544b	0.061115544
85	0xbe0f6264	-0.14002377
86	0x3c033e9f	0.0080105355
87	0x3ba4a786	0.005024853
88	0xbca07e2b	-0.019591412
89	0x3cb0d841	0.021587493
90	0xbd9d9fbf	-0.07696485
91	0xbd0fce1d	-0.035108674
92	0x3d73960f	0.05946928
93	0xbd57dba5	-0.052699704
94	0xbc9edb43	-0.019391662
95	0xbe083414	-0.13301116
96	0xbdb5328c	-0.08847532
97	0x3d488221	0.048952226
98	0x3d909261	0.070591696
99	0x3ce7de76	0.02830432
100	0xbc861412	-0.016366992
101	0x3d82a272	0.0637864
102	0xbc342210	-0.010994449
103	0xb9fc4254	-0.00048114604
104	0x3d45672e	0.048194103
105	0xbd01afb9	-0.031661723
106	0x3d7ffe86	0.06249859
107	0x3d083413	0.033252787
108	0x3c9c0779	0.019046532
109	0xba9653fd	-0.0011469122
110	0xbd392e22	-0.04521001
111	0xbc91a98b	-0.01778104
112	0x3c848b6a	0.016179759
113	0x3d87786c	0.066147655
114	0x3c23cc2e	0.009997411
115	0xbd4a3343	-0.049365293
116	0xbdb066bd	-0.08613346
117	0x3c0b0de1	0.008487196
118	0xbd9ffbb9	-0.07811684
119	0xbd621516	-0.05519589
120	0xbd721318	-0.05910024
121	0xbe139731	-0.14413144
122	0xbdc3d381	-0.095618255
123	0xbdf6c7be	-0.120498165
124	0xbd9a1921	-0.07524324
125	0xbe232726	-0.15932903
126	0xbe955398	-0.2916534
127	0xbd5c0e88	-0.053724796
128	0xbd9bb3eb	-0.07602676
129	0xbe031ca8	-0.128039
130	0x3d03a129	0.032136116
131	0xbe3994db	-0.1812319
132	0xbd9c737a	-0.07639213
133	0x3d8c55fc	0.06852338
134	0x3d33b002	0.043869026
135	0x3e08dbde	0.13365123
136	0x3ca2f64a	0.01989283
137	0x3ac34710	0.0014898498
138	0xbccce56e	-0.025011744
139	0xbda50fb7	-0.08059638
140	0xbcf95021	-0.030433716
141	0x3cbb1b8e	0.022840288
142	0xbc8f9571	-0.017527314
143	0x3aa79655	0.0012785891
144	0xbd633523	-0.055470597
145	0xbc789f88	-0.015174754
146	0x3d007097	0.031357374
147	0x3d99c3fb	0.075080834
148	0x3dd3208d	0.10308943
149	0xbc78623e	-0.0151601415
150	0xbc68c525	-0.014207159
151	0x3dbd8878	0.09254545
152	0xbd5b5447	-0.05354717
153	0xbe2a3a9f	-0.16623925
154	0x3d5b75d0	0.05357915
155	0xbd85c06e	-0.06530844
156	0x3c7481fe	0.014923571
157	0xbd87426c	-0.06604466
158	0xbe0fb6ac	-0.14034528
159	0x3cce9568	0.025217727
160	0xbd5ccd4e	-0.05390673
161	0x3c8b363f	0.01699364
162	0xbb0ec84c	-0.0021786867
163	0xbd006c58	-0.031353325
164	0xbcb2a0cf	-0.021805195
165	0x3cd5bdc1	0.026091458
166	0x3b17543d	0.0023090981
167	0x3d1f76c8	0.038931638
168	0xbd8f21a8	-0.06988841
169	0xbd188d42	-0.03724409
170	0xbd6b9f4d	-0.057524968
171	0x3c1fa2cf	0.009743406
172	0xbd1cdef9	-0.03829858
173	0xbe0624a9	-0.13099922
174	0xbc18aec9	-0.009319016
175	0x3d0ffd92	0.035153933
176	0x3dce5afe	0.10075949
177	0xbcf29b8f	-0.029615192
178	0xbd2118b0	-0.039330184
179	0xbd8847d7	-0.06654327
180	0x3b9bf92b	0.0047599277
181	0xbc13fb88	-0.009032138
182	0xbd002f84	-0.031295314
183	0xbc99f32b	-0.01879271
184	0x3c81ce58	0.015845463
185	0xbc06efde	-0.0082359
186	0x3c9862cf	0.018601803
187	0x3c85d75a	0.01633804
188	0x3c90da79	0.0176823
189	0xbc395d43	-0.011313739
190	0x3c96e6a0	0.018420517
191	0x3b2cd682	0.0026372974
192	0xbdbdf681	-0.092755325
193	0xbd33f7fb	-0.043937664
194	0xbdbea0d3	-0.093080185
195	0xbdb5de5c	-0.08880302
196	0x3d8caba8	0.06868678
197	0xbd7cc529	-0.061711464
198	0xbd2f745c	-0.04283558
199	0x3d86e348	0.06586319
200	0xbd87390b	-0.06602677
201	0xbd0f2408	-0.03494647
202	0xbd02fb8d	-0.03197818
203	0x3e0d4253	0.13794832
204	0x3dccc39e	0.099982485
205	0x3d888299	0.066655345
206	0xbd382dd0	-0.044965565
207	0x3a7e7270	0.00097063836
208	0xbcf18170	-0.029480666
209	0xbb88a349	-0.0041698557
210	0x3db487d2	0.08814968
211	0x3c25ee32	0.010127591
212	0xbcb95aac	-0.022626244
213	0xbdd1e0d5	-0.102479614
214	0x3bbea1d4	0.0058176313
215	0x3bfb05db	0.00766061
216	0x3d94aa7c	0.0725908
217	0xbc8dff07	-0.01733352
218	0xbcbd2f7e	-0.023093935
219	0x3c27bba7	0.010237611
220	0xbe03e916	-0.12881884
221	0x3d81a795	0.06330792
222	0x3cbd0b2e	0.02307662
223	0xbb031153	-0.001999934
224	0xbbf4c72a	-0.0074700313
225	0xbe35904e	-0.17730829
226	0xbe1d4bec	-0.15360993
227	0xbb426dae	-0.0029667425
228	0x3d000594	0.03125532
229	0x3d2968b0	0.041359603
230	0xbd0823b5	-0.033237178
231	0x3d645c24	0.055751935
232	0x3d0c31f3	0.034227323
233	0xbe0e4df5	-0.13896926
234	0xbd94fe19	-0.07275028
235	0xbce2e14c	-0.02769532
236	0xbd1def05	-0.038558025
237	0x3ce03c01	0.027372362
238	0x3a9a91d9	0.0011792734
239	0x3c7efd50	0.015563324
240	0xbd0c064d	-0.034185696
241	0xbdb845a4	-0.08997658
242	0x3b90f20f	0.004423387
243	0x3cb4770c	0.022029422
244	0x3d66e220	0.056367993
245	0x3dc8dc1c	0.098076075
246	0xbd98ece7	-0.074670605
247	0x3d77596b	0.06038801
248	0x3d0899c8	0.033349782
249	0xbc55da87	-0.013052589
250	0xbdc2e606	-0.0951653
251	0xbaa2ba0b	-0.0012415064
252	0xbd8eebee	-0.06978594
253	0x3d33cc17	0.043895807
254	0x3d1047e5	0.035224814
255	0x3d198c2a	0.037487186

bias f4 [120]
0	0xbc8226e7	-0.01588769
1	0x3c671281	0.014103533
2	0xbc263bb4	-0.01014607
3	0xbba0012f	-0.0048829536
4	0x3c6c764b	0.0144325
5	0xbca08c34	-0.019598104
6	0x3c298e28	0.010348834
7	0x3ba0e254	0.004909793
8	0x3c01b11e	0.007915763
9	0xbbf109a8	-0.0073558874
10	0x3c2bd139	0.010486894
11	0xba9d3b30	-0.0011995789
12	0xbbadc863	-0.005303429
13	0xbc25d657	-0.010121903
14	0xbcccd170	-0.025002211
15	0xbbcc878b	-0.006241744
16	0xbc84b66e	-0.01620027
17	0xbbbe0d0e	-0.005799896
18	0xbbbce277	-0.0057643014
19	0xb983e6a0	-0.00025158096
20	0x3bd30bda	0.006440622
21	0x3ab27bef	0.0013617257
22	0xbc2579fb	-0.010099883
23	0xbbb58f10	-0.005540736
24	0xbb1e88f4	-0.0024190517
25	0x3c27453c	0.010209378
26	0x3bee90e4	0.007280456
27	0xbb79526d	-0.0038043514
28	0x3bf9f8d3	0.007628539
29	0x3c44dd3d	0.012015638
30	0x3bd9ccdb	0.006646735
31	0x3ba08530	0.0048986897
32	0xbc2ee77c	-0.010675307
33	0xbb0eda53	-0.0021797612
34	0xbb085987	-0.0020805316
35	0x3b2d2dd9	0.0026425032
36	0x3c758b05	0.014986758
37	0xbc0c421c	-0.008560684
38	0xbcca2ded	-0.024680102
39	0xbb6b67ab	-0.0035919945
40	0xbb429a44	-0.0029694
41	0xbaa24980	-0.0012381524
42	0xbbb1e941	-0.0054294174
43	0x3c69f328	0.014279164
44	0x3a273895	0.0006378976
45	0x3c1cf844	0.0095806755
46	0x3b842e30	0.0040338263
47	0x3becc786	0.0072259335
48	0x3c6bf003	0.014400485
49	0xbb9fd1ed	-0.00487732
50	0xbc73dbd3	-0.014883953
51	0x3b618f3a	0.0034417645
52	0x3ab214b2	0.001358649
53	0x3bb00c75	0.0053725787
54	0xbc2ce113	-0.010551709
55	0x3b74e561	0.0037368166
56	0x3b88d15d	0.0041753487
57	0xbaa6b1fc	-0.0012717838
58	0x3b52a08f	0.0032139157
59	0xba919971	-0.0011108351
60	0x3b692faa	0.0035581389
61	0x3a87788a	0.0010335606
62	0xba0242a2	-0.00049690355
63	0xbb35a65d	-0.0027717568
64	0xbca168a2	-0.019703213
65	0x3abf136b	0.001457793
66	0xbc8e899a	-0.017399598
67	0xbb0ec18b	-0.002178284
68	0xbc407482	-0.011746528
69	0x3b728165	0.0037003395
70	0xbce9855d	-0.028505975
71	0x3bdda414	0.0067639444
72	0xbc80d965	-0.015728662
73	0x3c35dbf8	0.011099808
74	0x3c5df366	0.0135468
75	0x3bd2045b	0.0064092106
76	0xbb8e9444	-0.0043511707
77	0xbbeda12c	-0.007251879
78	0xbc83c5f0	-0.016085595
79	0xbbdce12e	-0.0067407107
80	0xbc5f3da3	-0.013625535
81	0x3ba6969d	0.0050838725
82	0x3b8a0f21	0.0042132293
83	0x3b844a28	0.0040371604
84	0x3c848c07	0.016180051
85	0x3b00a469	0.0019629246
86	0xb80bfd95	-3.337635e-05
87	0xbc39cbae	-0.011340065
88	0x3b83519c	0.0040075313
89	0xbc86e3e9	-0.016466098
90	0x3b539ce9	0.003228957
91	0x3c05f08e	0.0081750285
92	0xba9c7bbf	-0.0011938735
93	0x3c05759b	0.008145715
94	0xbbceb3a3	-0.0063080355
95	0xbbaec94b	-0.0053340546
96	0xbab0d2d5	-0.0013490567
97	0xbc87096b	-0.016483983
98	0xbc8349ee	-0.016026463
99	0x3cb98385	0.022645721
100	0x3c0e6459	0.008690917
101	0x3c61618f	0.01375617
102	0x3bceefbf	0.006315201
103	0x3c3d9e22	0.011573346
104	0x3c2a0602	0.010377409
105	0x3b5192bb	0.0031978327
106	0xbc3ea1ef	-0.011635288
107	0x3c1620ef	0.009163125
108	0xbb6eb451	-0.0036423395
109	0xbb9b0e27	-0.0047319117
110	0x3bc58a23	0.00602843
111	0x3c0f79f6	0.008757105
112	0xbc171e42	-0.009223523
113	0xbbd70f0d	-0.0065630735
114	0xbc3dcc18	-0.011584304
115	0x3c05ef17	0.008174679
116	0x39d251d5	0.0004011529
117	0x3b806eb0	0.003919445
118	0xbc9b5707	-0.018962396
119	0xbc3e3058	-0.011608206

weight f4 [120]
0	0x3f9799c4	1.18438
1	0x3f844db5	1.0336214
2	0x3f90d570	1.1315136
3	0x3f88bd77	1.068282
4	0x3f95aa13	1.1692528
5	0x3f961875	1.1726214
6	0x3f8e0c2c	1.1097465
7	0x3f8f3ca3	1.119038
8	0x3f8ff8f0	1.1247845
9	0x3f7eb98a	0.9950186
10	0x3f8742c3	1.0567249
11	0x3f8e374e	1.1110628
12	0x3f8740b6	1.0566623
13	0x3f88681e	1.0656774
14	0x3f93679c	1.1515994
15	0x3f8da7be	1.1066816
16	0x3f80a215	1.0049464
17	0x3f90686c	1.1281867
18	0x3f9e7597	1.2379636
19	0x3f918dd8	1.1371412
20	0x3f9050f2	1.1274703
21	0x3f94d57d	1.1627651
22	0x3f8f1a1b	1.1179842
23	0x3f8a9b05	1.0828558
24	0x3f7a062e	0.9766568
25	0x3f8cc54f	1.0997714
26	0x3f83b66f	1.0290049
27	0x3f89d2fd	1.0767514
28	0x3f8cf59a	1.1012452
29	0x3f8e24e1	1.1105005
30	0x3f9df6f1	1.2340986
31	0x3f8cd330	1.1001949
32	0x3f89c416	1.0762966
33	0x3f962d09	1.1732494
34	0x3f87a830	1.0598202
35	0x3f83f978	1.0310507
36	0x3f74c895	0.95618564
37	0x3f8a2a75	1.0794207
38	0x3f8be89a	1.0930359
39	0x3f88c8d1	1.0686284
40	0x3f8fe321	1.1241189
41	0x3f7a1054	0.97681165
42	0x3f8b4e51	1.0883275
43	0x3f847f83	1.0351413
44	0x3f917140	1.1362686
45	0x3f97d6b9	1.1862403
46	0x3f85545d	1.0416371
47	0x3f8d8238	1.1055365
48	0x3f929aad	1.1453453
49	0x3f87a303	1.0596622
50	0x3f938c8e	1.1527269
51	0x3f933d1f	1.1503028
52	0x3f9496d8	1.1608534
53	0x3f8b300c	1.0874038
54	0x3f9bc208	1.2168589
55	0x3f835214	1.0259423
56	0x3f8c51b9	1.096244
57	0x3f95d775	1.1706377
58	0x3f8033b3	1.0015777
59	0x3f98c501	1.1935121
60	0x3f836b9e	1.0267217
61	0x3f89851c	1.0743747
62	0x3f950606	1.1642463
63	0x3f8abe08	1.0839243
64	0x3f907f4c	1.1288848
65	0x3f87b4ca	1.0602047
66	0x3f8d4e2c	1.1039481
67	0x3f8a188b	1.078874
68	0x3f99531d	1.1978489
69	0x3f86f3c7	1.0543145
70	0x3f9087c7	1.1291436
71	0x3f89cc15	1.0765406
72	0x3f978e71	1.1840345
73	0x3f87040f	1.0548114
74	0x3f8f5743	1.1198505
75	0x3f7d142c	0.98858905
76	0x3f86a52f	1.051916
77	0x3f8d6d31	1.1048948
78	0x3f8441a7	1.0332536
79	0x3f852719	1.0402557
80	0x3f84990b	1.0359205
81	0x3f8f62d9	1.1202041
82	0x3f8bada4	1.0912366
83	0x3f898b18	1.0745573
84	0x3f8e83ca	1.1133969
85	0x3f96940c	1.176393
86	0x3f875c3d	1.0575024
87	0x3f9ace1e	1.2094152
88	0x3f8d25be	1.1027143
89	0x3f8594b2	1.0436003
90	0x3f8c87f0	1.0978985
91	0x3f977844	1.1833577
92	0x3f942beb	1.1575903
93	0x3f8ea43a	1.1143868
94	0x3f8dafa6	1.1069229
95	0x3f8ffaaf	1.1248378
96	0x3f8fc4f4	1.123198
97	0x3f8e61bc	1.1123576
98	0x3f877288	1.0581827
99	0x3f920302	1.1407168
100	0x3f993c53	1.1971534
101	0x3f984b3e	1.1897962
102	0x3f84b03c	1.0366282
103	0x3f90ecd5	1.1322275
104	0x3f8bedb5	1.0931917
105	0x3f8f7d3b	1.1210092
106	0x3f817d29	1.0116321
107	0x3f8cebfe	1.1009519
108	0x3f9216b3	1.1413177
109	0x3f8fa2dc	1.1221576
110	0x3f88aaaa	1.0677083
111	0x3f8b67e8	1.0891085
112	0x3f7c0c71	0.98456484
113	0x3f9a31bb	1.2046427
114	0x3f88b1e1	1.0679284
115	0x3f88fc6d	1.0702034
116	0x3f949aaf	1.1609706
117	0x3f9b42ef	1.2129802
118	0x3f87a065	1.0595824
119	0x3f90a176	1.1299274

bias f4 [120]
0	0x3cf22472	0.029558394
1	0x3cf44cbf	0.029821752
2	0x3ccc5c88	0.024946466
3	0x3d33212c	0.043732807
4	0xbda1c5ac	-0.07899031
5	0x3a48e584	0.0007663595
6	0xbd4cce7c	-0.050001606
7	0xbdf2c101	-0.11853219
8	0xba62e088	-0.00086546736
9	0x3bdce93b	0.0067416704
10	0x3c6db52d	0.014508528
11	0x3ded30ec	0.11581597
12	0xbdad774a	-0.08470018
13	0xbbbbbc87	-0.0057292613
14	0x3d460748	0.048346788
15	0x3c5191ed	0.012791139
16	0x3d905163	0.07046773
17	0xbc54972a	-0.012975493
18	0xbbc655d7	-0.0060527134
19	0x3c1f62a7	0.00972811
20	0xbda447ba	-0.08021493
21	0xbc2eadf0	-0.010661587
22	0x3d15d2aa	0.036577858
23	0x3c2341d1	0.009964422
24	0x3b6aaede	0.0035809795
25	0x3d057aab	0.03258769
26	0xbd197ab1	-0.037470523
27	0x3cd23cc4	0.025663741
28	0xbc05deb5	-0.008170773
29	0x3a8d2723	0.001076911
30	0x3b202be4	0.0024440223
31	0x3db6b291	0.089207776
32	0x3c67b1af	0.014141484
33	0xb911786d	-0.0001387314
34	0x3cb7464e	0.022372391
35	0xbd515de8	-0.051114947
36	0xbda49c6c	-0.080376476
37	0xbd6e1c39	-0.058132384
38	0x3d03ee55	0.032209713
39	0x3c01609a	0.007896567
40	0xbd4930ce	-0.04911881
41	0xbc52ff36	-0.01287823
42	0xbcebaa56	-0.028767746
43	0x3d12a7a0	0.03580439
44	0xbcbfb419	-0.023401307
45	0x3d33b2bf	0.043871637
46	0x3c268f9f	0.010166078
47	0x3d104ef1	0.035231534
48	0x3d3acee5	0.045607466
49	0xbb3c5de2	-0.0028742482
50	0xbcd2feaf	-0.025756208
51	0x3d8b90b8	0.06814712
52	0xbd518e84	-0.051161304
53	0xbd648101	-0.05578709
54	0x3d077b4f	0.03307658
55	0x3d5aa953	0.053384136
56	0xbb71d924	-0.0036903108
57	0xbdac6efc	-0.08419606
58	0x3d1715dd	0.036886085
59	0xbc3a5885	-0.011373644
60	0xbc33c16d	-0.010971409
61	0xbd620033	-0.05517597
62	0x3daaf9d5	0.08348433
63	0x3e00eb79	0.12589826
64	0x3b286e3c	0.002570047
65	0x3d3d1230	0.046159923
66	0x3d2704b1	0.04077596
67	0x3dbb078c	0.09132299
68	0x3d21a8d1	0.039467636
69	0x3cbfc071	0.023407193
70	0x3d0fb3d4	0.035083607
71	0x3ce1c207	0.02755834
72	0x3e04a673	0.1295412
73	0xbd4c69b6	-0.0499055
74	0x3d5cb7f3	0.053886365
75	0x3cbb11fc	0.022835724
76	0xbd885ee1	-0.06658722
77	0x3d869fc8	0.065734446
78	0xbdafcd7e	-0.085841164
79	0xbd5f8b17	-0.054576006
80	0x3c3f1d7c	0.0116647445
81	0xbcda7a78	-0.026669726
82	0x3db93ade	0.09044431
83	0xbcc65e71	-0.024214955
84	0xbd825f30	-0.06365812
85	0xbcd3b0ff	-0.025841234
86	0x3ccbfb7a	0.024900187
87	0x3dc79249	0.097446986
88	0x38df656b	0.00010652359
89	0xbc80c24e	-0.015717652
90	0x3d030032	0.03198261
91	0x3ce48b4a	0.02789845
92	0xbd8daa03	-0.06917193
93	0xbd341c81	-0.043972496
94	0xbdaf5e08	-0.08562857
95	0xbc22822f	-0.0099187335
96	0xbc5c1ac1	-0.013434113
97	0x3dc45b0f	0.095876805
98	0xbbbd5fe3	-0.005779253
99	0xbc89b0a5	-0.016807863
100	0x3ccb2aba	0.024800647
101	0x3cb0b802	0.021572117
102	0xbd537581	-0.051625732
103	0xbb3795c5	-0.0028012854
104	0x3c62d692	0.013845103
105	0xbd958955	-0.07301585
106	0xbd3e5a01	-0.046472553
107	0x3ccf1412	0.025278125
108	0x3b084264	0.0020791525
109	0x3daf72fd	0.08566854
110	0xbdba7693	-0.091046475
111	0x3ca1372e	0.019679632
112	0xbd1af47f	-0.037830826
113	0xbc27a0de	-0.010231225
114	0x3dd4c620	0.10389352
115	0x3dd4c8c5	0.10389856
116	0xbce50790	-0.027957708
117	0x3c03c82e	0.008043332
118	0x3ca28221	0.01983744
119	0xbca43116	-0.020042937

running_mean f4 [120]
0	0xbf332d25	-0.6999076
1	0xbed38c82	-0.41318136
2	0xbf207131	-0.62672716
3	0xbddefd7d	-0.10888193
4	0xbf2ffa45	-0.68741256
5	0xbf1f9dbe	-0.6235007
6	0xbea00971	-0.31257203
7	0xbefc425e	-0.49269384
8	0xbf80edb8	-1.0072546
9	0xbfd22e0f	-1.6420306
10	0xbeb1bcd1	-0.34714368
11	0x3d895539	0.06705708
12	0x3edf5990	0.43623018
13	0x3f2b7ad0	0.6698427
14	0xbf836f61	-1.0268365
15	0xbef3704d	-0.47546616
16	0x3e573977	0.21018015
17	0x3f69fac1	0.91398245
18	0x3e818ea0	0.25304127
19	0xbf08a93f	-0.5338325
20	0xbe9a0875	-0.30084577
21	0x3d69b10f	0.05705362
22	0xbe8ce966	-0.2752182
23	0xbf83ebfc	-1.0306392
24	0xbe8eb9b9	-0.2787607
25	0x3e0b1d55	0.13585408
26	0xbfb82108	-1.438508
27	0x3e03d04e	0.1287243
28	0x3f674331	0.903369
29	0xbe2baf39	-0.16766061
30	0xbf199e89	-0.6000753
31	0xbf95018b	-1.1641096
32	0x3ec2f1f1	0.38075212
33	0xbf2ca523	-0.6743948
34	0xbeb24393	-0.3481718
35	0xbead8fa2	-0.33898646
36	0x3fae25f1	1.3605329
37	0x3ee4132e	0.44545883
38	0xbe81e110	-0.25367022
39	0xbf2a4811	-0.66516215
40	0xbe38480c	-0.17996234
41	0xbed92ce6	-0.42417067
42	0xbf91fd37	-1.14054
43	0xbfae241f	-1.3604773
44	0x3e9a4664	0.3013183
45	0xbfe6f95e	-1.8044851
46	0xbe811cee	-0.25217384
47	0xbef6021c	-0.48048484
48	0x3f2dbf68	0.6787019
49	0xbf1fc280	-0.6240616
50	0xbf73a3aa	-0.95171607
51	0x3ea8c75c	0.329646
52	0xbf20a6c5	-0.6275447
53	0xbf2b5290	-0.66922855
54	0x3e65a9fb	0.22428124
55	0xbd1240e2	-0.03570641
56	0x3e844de7	0.25840685
57	0xbe0cc133	-0.13745575
58	0x3e89cf4c	0.26915967
59	0xbee3414f	-0.44385764
60	0xbeac445c	-0.33645904
61	0xbfa68002	-1.3007815
62	0xbf170924	-0.5899832
63	0x3ea9de26	0.33177298
64	0x3ee90a7f	0.4551582
65	0xbf85954a	-1.0436184
66	0x3eebdce5	0.46066967
67	0xbf3cb0b2	-0.73707116
68	0xbe32c6ec	-0.17458695
69	0xbf11fcca	-0.5702635
70	0xbf0daa80	-0.5533829
71	0xbfbbe2c8	-1.4678583
72	0x3f4b6896	0.7945646
73	0xbf690ef2	-0.9103843
74	0x3e9271bd	0.286024
75	0x3f44c763	0.7686674
76	0xbf5596ef	-0.8343343
77	0xbe25febd	-0.16210456
78	0x3e58cb80	0.21171379
79	0x3ed49037	0.41516277
80	0xbe9005cd	-0.28129426
81	0xbe76df65	-0.24108656
82	0xbf09312a	-0.53590643
83	0x3f9920be	1.1963117
84	0xbe392db8	-0.18083847
85	0x3e1e7b63	0.15476756
86	0xbc1ed7be	-0.009694992
87	0xbf8e1471	-1.1099988
88	0x3e86bdac	0.26316583
89	0x3da47290	0.080296636
90	0xbe7a2408	-0.24427807
91	0xbf0bb2aa	-0.54569495
92	0xbeae320b	-0.34022555
93	0xbf572344	-0.84038186
94	0xbe645ee9	-0.2230183
95	0x3e86e122	0.26343638
96	0xbf172ed1	-0.5905581
97	0xbf1315c6	-0.574551
98	0xbdf9862e	-0.12183796
99	0xbf5978bf	-0.8494987
100	0x3e4f2e3a	0.20232478
101	0xbf636dc4	-0.88839364
102	0xbf2dae8e	-0.67844474
103	0xbfdf89b8	-1.7463903
104	0xbf377290	-0.71659184
105	0xbea24ec9	-0.31700733
106	0xbf335108	-0.7004552
107	0x3f3ecd41	0.7453194
108	0xbf89ca49	-1.0764858
109	0xbf06659e	-0.52498806
110	0x3e9f4422	0.3110667
111	0xbf0834b4	-0.5320542
112	0x3f2fe177	0.6870341
113	0xbd920f5b	-0.07131835
114	0x3d9e2fa1	0.07723928
115	0x3e7b135f	0.24519108
116	0xbf532463	-0.82477397
117	0xbe2ab22e	-0.16669533
118	0xbf932014	-1.1494164
119	0x3e1a17b5	0.15048106

running_var f4 [120]
0	0x3eda5c23	0.4264842
1	0x3f306a10	0.6891184
2	0x3ee7320d	0.45155373
3	0x3ebce445	0.36892906
4	0x3f26fe59	0.65231854
5	0x3f31cc7e	0.69452655
6	0x3ee184b4	0.44046557
7	0x3f4c776a	0.7986971
8	0x3f302e43	0.6882059
9	0x3f37143e	0.7151526
10	0x3f71441e	0.94244564
11	0x3f538d00	0.82637024
12	0x3f15bf49	0.58495003
13	0x3f03ac7d	0.5143507
14	0x3f292b36	0.6608156
15	0x3f293f89	0.6611257
16	0x3f46eba9	0.7770334
17	0x3edddfc0	0.4333477
18	0x3ec168cf	0.37775275
19	0x3f015792	0.50524247
20	0x3ef6c729	0.48198822
21	0x3eb2d972	0.34931523
22	0x3eb44783	0.3521081
23	0x3f1b5508	0.6067662
24	0x3edbccf9	0.4292982
25	0x3ef212e7	0.47280046
26	0x3f07b49a	0.5300995
27	0x3f5acb52	0.8546649
28	0x3ee59fea	0.44848567
29	0x3ea01219	0.31263807
30	0x3f0a7c0a	0.5409552
31	0x3f0689bb	0.5255391
32	0x3f05be1e	0.5224322
33	0x3f04af9d	0.51830465
34	0x3ef84259	0.4848812
35	0x3eb3edae	0.35142273
36	0x3f175f93	0.5913021
37	0x3edac506	0.42728442
38	0x3f157845	0.5838664
39	0x3f55a20a	0.83450377
40	0x3f2305dd	0.6368082
41	0x3eb527d8	0.3538196
42	0x3ef4a922	0.47785288
43	0x3ef584b5	0.4795281
44	0x3f838049	1.0273525
45	0x3f5a3f2b	0.85252637
46	0x3ebdbd4b	0.37058482
47	0x3f0edee2	0.5580884
48	0x3f0383e1	0.51373106
49	0x3ec8c64c	0.39213789
50	0x3f0f527b	0.5598523
51	0x3f3503a5	0.70708686
52	0x3f30168e	0.68784416
53	0x3f1ea212	0.6196605
54	0x3eaf9b72	0.34298283
55	0x3f042be2	0.5162946
56	0x3f5e3190	0.86794376
57	0x3ee52334	0.4475342
58	0x3f059e91	0.5219508
59	0x3eadd526	0.33951682
60	0x3f1da612	0.6158153
61	0x3edaf1ac	0.42762506
62	0x3eaf9102	0.3429032
63	0x3f2d9523	0.6780569
64	0x3ecbbece	0.3979401
65	0x3edf6d58	0.4363811
66	0x3f1707c1	0.58996207
67	0x3f126935	0.57191783
68	0x3eea2f31	0.4573913
69	0x3f5a151d	0.85188466
70	0x3ef13dcb	0.47117457
71	0x3f53abd5	0.8268407
72	0x3ec9c300	0.39406586
73	0x3ee43ab7	0.44576046
74	0x3f325220	0.6965656
75	0x3eb0afdf	0.3450918
76	0x3f22a678	0.6353526
77	0x3f46eeaf	0.7770795
78	0x3ec51c03	0.38497934
79	0x3f0b9df7	0.5453791
80	0x3f003ffb	0.50097626
81	0x3eda3427	0.42617914
82	0x3f271df4	0.6528008
83	0x3f6b1b1e	0.9183825
84	0x3ea06935	0.31330267
85	0x3eb8d0da	0.3609684
86	0x3f346cd8	0.7047858
87	0x3f573692	0.8406764
88	0x3f3d578f	0.7396173
89	0x3ec2b3dd	0.3802785
90	0x3f18c937	0.5968203
91	0x3ede64dd	0.43436328
92	0x3f1784c0	0.59186935
93	0x3f04f50c	0.5193641
94	0x3ebcdacb	0.36885676
95	0x3eead1fd	0.45863333
96	0x3f065152	0.52467835
97	0x3ebfbfee	0.37451118
98	0x3f19d478	0.60089827
99	0x3f14e748	0.5816541
100	0x3ea519a3	0.32246122
101	0x3f16effc	0.5895994
102	0x3ed6be08	0.41941857
103	0x3f50787d	0.8143385
104	0x3eb9421e	0.36183256
105	0x3eeacc58	0.45859027
106	0x3eebbfc1	0.46044734
107	0x3ed4cdbb	0.4156321
108	0x3f30a110	0.6899576
109	0x3f342133	0.7036316
110	0x3e9e685d	0.30938998
111	0x3f06e0be	0.5268668
112	0x3e924794	0.28570235
113	0x3f3a2639	0.72714573
114	0x3f487804	0.7830813
115	0x3f031a1d	0.5121172
116	0x3ed9b3c4	0.42519963
117	0x3ee8282d	0.45343152
118	0x3ee71d12	0.45139366
119	0x3f4c469d	0.7979525

weight f4 [84, 120]
0	0xbd08e91f	-0.033425447
1	0xbc091707	-0.008367307
2	0xbd0e1353	-0.034686398
3	0xbe058679	-0.13039578
4	0x3e2f440b	0.171158
5	0x3dace433	0.08441963
6	0x3d349d71	0.04409546
7	0xbe290a7f	-0.1650791
8	0x3c842ffd	0.016136164
9	0x3e1d7463	0.1537643
10	0x3e1a57cf	0.15072559
11	0xbdcf0f56	-0.10110347
12	0x3dc810c5	0.097688235
13	0xbdc1328d	-0.0943347
14	0xbdb6f575	-0.08933536
15	0xbe01a609	-0.12660994
16	0x3c8276ea	0.015925843
17	0x3e437dfa	0.19091025
18	0xbd192667	-0.03739014
19	0xbb7b4f1d	-0.0038346716
20	0xbe6be4a5	-0.2303644
21	0x3e012523	0.12611823
22	0x3d264050	0.040588677
23	0xbe29d373	-0.16584568
24	0xbce60e01	-0.02808285
25	0x3d8cbed5	0.06872336
26	0xbd519a0d	-0.051172305
27	0x3da1fceb	0.079095684
28	0xbda7c078	-0.081910074
29	0x3e22c070	0.15893722
30	0xbd4037bd	-0.046928156
31	0xbd9b089f	-0.07570004
32	0xbd9e8c27	-0.07741576
33	0x3e2ba257	0.16761146
34	0x3d21aec0	0.039473295
35	0x3d1e8bd8	0.038707584
36	0xbe41b601	-0.18917085
37	0x3d68c292	0.05682618
38	0xbe55c3a1	-0.20875408
39	0x3e769188	0.24078953
40	0xbeb6b27b	-0.35683045
41	0x3d9120b4	0.07086316
42	0x3b9d6edf	0.0048044766
43	0x3e2a49e1	0.16629745
44	0xbe62c2d5	-0.22144635
45	0x3e647000	0.2230835
46	0xbe106fdc	-0.14105171
47	0x3e51148c	0.20417994
48	0xbd8a3eaa	-0.067502335
49	0x3e54374d	0.2072422
50	0x3da6a662	0.08137204
51	0xbd2b3074	-0.041794255
52	0x3db5cfaa	0.088774994
53	0xbdd8bae6	-0.10582523
54	0x3db7d3a8	0.08975917
55	0x3c38c962	0.011278482
56	0xbdaf34d9	-0.08555002
57	0x3e4a3e2e	0.19750282
58	0x3d089966	0.033349417
59	0xbe80f6b4	-0.2518822
60	0xbe031164	-0.12799603
61	0x3e65cd3a	0.22441569
62	0x3da56d47	0.080774836
63	0xbd8060e7	-0.06268483
64	0xbdbf9fc0	-0.09356642
65	0xbe91ddac	-0.28489435
66	0x3d7336a6	0.05937829
67	0xbdb18af7	-0.086690836
68	0x3dd200aa	0.10254033
69	0xbd073b1b	-0.03301535
70	0x3d320543	0.04346205
71	0xbd809958	-0.06279248
72	0x3e1caa54	0.1529935
73	0x3e2625b5	0.16225322
74	0x3b867fd7	0.004104595
75	0x3db74920	0.08949494
76	0xbe1bb47e	-0.15205571
77	0x3d30f60a	0.04320339
78	0xbe167bf1	-0.14695717
79	0x3de7a968	0.113116086
80	0x3db5bf36	0.08874361
81	0x3e3c6e7c	0.18401521
82	0xbd363c3f	-0.04449105
83	0x3e171b8d	0.14756604
84	0xbc3dd17d	-0.01158559
85	0x3d2990b9	0.041397784
86	0xbdf41144	-0.11917356
87	0x3e8c3b17	0.27388832
88	0x3d5a90ae	0.053360634
89	0x3d9038ca	0.07042082
90	0x3e694b59	0.22782649
91	0x3d3961cc	0.045259282
92	0xbe1216c5	-0.14266498
93	0x3dc8ca68	0.09804231
94	0x3d97e8fb	0.074174844
95	0x3e5c6036	0.21521077
96	0xbc9c0e95	-0.019049922
97	0x3dc7076a	0.09718211
98	0x3df86aa8	0.12129718
99	0xbd73e54a	-0.05954484
100	0xbcd961d7	-0.026535911
101	0x3db26f7e	0.08712672
102	0x3b366073	0.0027828484
103	0x3e527b2e	0.20554802
104	0x3d5c36c2	0.05376316
105	0xbe6dfa94	-0.23240119
106	0xbdc2e265	-0.095158376
107	0x3c906f70	0.017631263
108	0x3c7eb232	0.015545415
109	0x3d5989fe	0.053110115
110	0xbe4e0826	-0.20120296
111	0x3db20f45	0.08694319
112	0x3b89a92e	0.004201076
113	0x3d1b7dec	0.037961885
114	0x3d9fbc09	0.07799537
115	0xbcbcfea0	-0.023070633
116	0xbe7df57d	-0.24800678
117	0x3dd63f3c	0.1046128
118	0xbde2f314	-0.1108152
119	0x3e301a80	0.17197609
120	0x36dc866c	6.5721597e-06
121	0x3e1dc92c	0.15408772
122	0xbc54a94e	-0.0129798185
123	0x3e2ce00a	0.16882339
124	0xbc593508	-0.013257273
125	0x3bb2ebc7	0.0054602358
126	0xbd0634b9	-0.032765124
127	0x3cef7233	0.02922926
128	0xba8a14b5	-0.0010534736
129	0xbd74e2fd	-0.059786785
130	0x3c692948	0.014231034
131	0xbe56ffa9	-0.20995964
132	0xbde5ab06	-0.11214261
133	0x3daa9e05	0.08330921
134	0xbcd93bde	-0.026517805
135	0xbc2ca385	-0.010537033
136	0x3deba4cc	0.11506042
137	0xbda18c4d	-0.078880884
138	0xbd3e3d89	-0.046445403
139	0x3dc5f88d	0.09666548
140	0xbac1f5de	-0.0014798006
141	0xbe10a8a8	-0.14126837
142	0x3e2967d5	0.16543515
143	0xbc20b1d2	-0.009808021
144	0x3e080283	0.13282208
145	0xbe82c83b	-0.2554339
146	0x3e67851c	0.22609371
147	0xbe09d978	-0.13461864
148	0xbcd79a13	-0.026318586
149	0x3d8a0024	0.06738308
150	0xbb9be9c9	-0.004758094
151	0x3db27f82	0.087157264
152	0xbdad47ce	-0.08460961
153	0x3d6bceb9	0.057570193
154	0x3e0c9ef3	0.1373251
155	0x3bfeeb13	0.007779488
156	0x3c805db8	0.015669689
157	0xbdd66163	-0.10467794
158	0x3dde7722	0.108625665
159	0x3ddc840b	0.10767373
160	0x3c9a5519	0.018839406
161	0xbe752cda	-0.23942891
162	0x3d485653	0.04891045
163	0x3e67c361	0.22633125
164	0xbdbd1c8f	-0.09233963
165	0x3e00a9b5	0.12564738
166	0xbe35d37d	-0.17756458
167	0x3d8903a7	0.0669015
168	0x3d6ff7a4	0.058585778
169	0x3dd80540	0.10547876
170	0xbdc7b2fc	-0.097509354
171	0x3cf66d61	0.030081453
172	0xbcc0d891	-0.023540767
173	0x3e633bdc	0.22190803
174	0xbd435be7	-0.047695067
175	0xbdd2b66f	-0.10288703
176	0xbdcc75c3	-0.09983399
177	0xbe78f832	-0.24313429
178	0xbd5208e3	-0.051278006
179	0x3dfa8aab	0.1223348
180	0x3e00990c	0.12558383
181	0x3e1381cc	0.14404982
182	0xbe4753fa	-0.19465628
183	0xbd835d73	-0.064143084
184	0x3e0c82ce	0.13721773
185	0x3def24b8	0.116769254
186	0x3e2f0f97	0.17095791
187	0x3e4dbef2	0.20092371
188	0xbac7f9d8	-0.0015256954
189	0xbca961ef	-0.020676581
190	0x3c0510c3	0.008121672
191	0x3d9008c2	0.070329204
192	0x3d32fe86	0.043699764
193	0xbdcfa731	-0.10139311
194	0xbd8e471b	-0.06947156
195	0xbd880ba9	-0.06642849
196	0x3dee7ade	0.11644529
197	0x3e3be5ac	0.18349332
198	0xbdb68f42	-0.08914043
199	0xbd231b16	-0.039820753
200	0xbda6f303	-0.081518196
201	0x3e810941	0.25202373
202	0x3cd44836	0.02591334
203	0xbd6d214f	-0.057893094
204	0x3e21b85f	0.15792988
205	0xbd407d54	-0.046994522
206	0x3e76d1a1	0.24103405
207	0x3e5a8045	0.21337993
208	0x3e06416a	0.13110891
209	0x3d3fc842	0.04682184
210	0xbe79d217	-0.24396549
211	0xbc60f281	-0.013729692
212	0xbe14fa16	-0.14548525
213	0x3c666af5	0.0140635865
214	0xbd058a26	-0.03260245
215	0xbe002f68	-0.12518084
216	0x3e63bfd7	0.2224115
217	0x3e2f2614	0.1710437
218	0x3e2c93e6	0.16853294
219	0x3c8ae6ce	0.01695576
220	0xbe034ed4	-0.1282304
221	0x3dd9c2d5	0.106328644
222	0x3e4c680c	0.19961566
223	0xbd0af74e	-0.033927254
224	0xbd304048	-0.043030053
225	0xbb0d4e14	-0.002156143
226	0x3d32a6dc	0.04361616
227	0x3d91e644	0.07123998
228	0x3dfaaa13	0.1223947
229	0x3e269da7	0.16271077
230	0xbd91c5ac	-0.07117781
231	0xbdc3ab70	-0.095541835
232	0xbe1fb09f	-0.1559472
233	0xbc346822	-0.011011155
234	0xbe6260d2	-0.22107247
235	0x3e0fd316	0.14045367
236	0x3c4ca879	0.012491339
237	0xbe107676	-0.1410769
238	0xbc7fb65b	-0.015607442
239	0x3e534901	0.20633318
240	0x3c22bc45	0.009932582
241	0xbe65ce8d	-0.22442074
242	0xbe56575e	-0.20931765
243	0x3d9cf892	0.076645985
244	0x3e27b44e	0.16377375
245	0x3d8d81cd	0.06909523
246	0xbe2c5540	-0.16829395
247	0x3d910eb2	0.07082881
248	0x3db2b5a8	0.087260544
249	0x3dc17602	0.09446336
250	0xbd8ff8b7	-0.070298605
251	0x3e5d643a	0.21620265
252	0x3d826765	0.06367377
253	0x3cd910c8	0.02649726
254	0xbd17ed20	-0.037091374
255	0x3d6cac9a	0.057781793

bias f4 [84]
0	0x3cf1597d	0.029461617
1	0x3da48b3e	0.08034371
2	0x3d37772d	0.04479139
3	0x3d494a48	0.049143106
4	0xbce1b122	-0.027550284
5	0x3cad0d85	0.02112461
6	0xbd39412a	-0.04522816
7	0x3c97bf24	0.01852376
8	0x3bcbeedf	0.006223544
9	0x3c91d69b	0.017802527
10	0x3d50d064	0.050979987
11	0xbd2afccf	-0.041745003
12	0x3db23e38	0.087032735
13	0xbd07d7e2	-0.033164866
14	0x3cd10e22	0.025519434
15	0x3d0e03c7	0.03467157
16	0x3d3e2208	0.046419173
17	0x3ccd586b	0.025066575
18	0xbbfd379d	-0.007727577
19	0x3d228bd4	0.03968413
20	0x3d8f0673	0.06983652
21	0x3cbcd7e2	0.02305216
22	0xbc71fe40	-0.014770091
23	0x3c012923	0.007883343
24	0xbd855b4d	-0.06511555
25	0x3d5aa0cc	0.053376004
26	0x3ca03e3f	0.019560931
27	0x3b379397	0.0028011554
28	0x3cac545f	0.021036325
29	0x3cfdb284	0.030968912
30	0x3d32c63b	0.04364608
31	0x3d0de649	0.034643445
32	0xbbd6d15c	-0.0065557193
33	0x3c7f38af	0.015577479
34	0xbab0b120	-0.0013480522
35	0x3d5e6d2c	0.054303333
36	0x3d3d9080	0.046280384
37	0x3d2740a8	0.040833145
38	0x3d1ca54a	0.03824357
39	0x3d19cb48	0.03754738
40	0x3c0ff667	0.008786774
41	0x3c1e4f7e	0.009662507
42	0x3d030b92	0.031993456
43	0x3c0061e2	0.007835837
44	0xba325fc0	-0.0006804429
45	0x3bd8d0aa	0.0066166716
46	0x3cfb2d56	0.030661266
47	0x3b15db15	0.0022866179
48	0x3d8bc0f9	0.06823916
49	0xbd538d94	-0.05164869
50	0x3d0f631d	0.03500663
51	0x3c9599a8	0.018261746
52	0xbb5b95ea	-0.0033506104
53	0x3d0cb234	0.034349635
54	0x3d7b674f	0.06137782
55	0xbd936f32	-0.07198943
56	0x3d167dec	0.036741182
57	0x3ccddd94	0.02513007
58	0x3cea89d4	0.028630175
59	0x3c455109	0.012043246
60	0x3d9c1860	0.07621837
61	0x3d0caa8f	0.034342345
62	0xbc14a659	-0.0090728635
63	0x3b31b224	0.0027114237
64	0x3d249ff8	0.04019162
65	0x3d4f80ac	0.05065982
66	0x3d3dffbe	0.046386473
67	0x3d90aa00	0.07063675
68	0x3d26c4e6	0.04071512
69	0x3d419d26	0.04726901
70	0x3d992114	0.07477012
71	0x3c74f6cb	0.014951418
72	0x3a0ae227	0.00052979816
73	0xbc9311c4	-0.017952807
74	0x3d15fa87	0.036615875
75	0x3cde8b9c	0.02716618
76	0x3ce89059	0.028389143
77	0x3d637ae7	0.05553713
78	0x3bc02455	0.005863706
79	0x3d86a8b3	0.065751456
80	0x3c091018	0.008365653
81	0x3d6a6f51	0.057235066
82	0xbb4671a6	-0.0030280142
83	0x3da81915	0.08207909
