model1/model/model.pt (torch, 279427 bytes, 22 tensors)

weight f4 [6, 3, 5, 5]
0	0xbe838987	-0.25690863
1	0x3dfa5ee8	0.12225133
2	0x3d4ab67f	0.049490448
3	0xbe2e1546	-0.17000303
4	0x3dc64163	0.0968044
5	0xbe0198d2	-0.12655953
6	0x3c9b42e4	0.018952794
7	0xbd5d667b	-0.05405281
8	0x3d834fa6	0.06411676
9	0x3da67a4c	0.08128795
10	0x3dcbf5af	0.0995897
11	0xbdd64d17	-0.104639225
12	0x3c88d0c5	0.016701112
13	0xbd6243d8	-0.055240482
14	0xbcd5bfa7	-0.026092364
15	0xbe11e2d4	-0.14246684
16	0x3d9e0a5a	0.07716818
17	0x3e0ed263	0.13947444
18	0x3d561229	0.052263413
19	0x3d9ee3f8	0.07758325
20	0xbddf43bd	-0.10901592
21	0xbd00ec2d	-0.031475235
22	0x3d4a6cc6	0.04942014
23	0x3d2a26d3	0.041540932
24	0xbd0b874f	-0.034064587
25	0xbe005e11	-0.12535883
26	0xbe0e4d6a	-0.13896719
27	0xbc59ef18	-0.013301633
28	0xbe220b10	-0.15824533
29	0x3cb894e3	0.022531932
30	0xbe0c3d74	-0.13695318
31	0x3d3e7289	0.046495948
32	0x3e154871	0.14578415
33	0x3da9676b	0.082716785
34	0x3c6863b8	0.014183931
35	0xbdd16f06	-0.10226254
36	0x3e26ce4f	0.16289638
37	0x3d87a762	0.066237226
38	0x3c823104	0.015892513
39	0x3dba73b6	0.09104101
40	0xbd2abaae	-0.041681938
41	0x3c6a5449	0.014302322
42	0x3d32ccca	0.043652333
43	0x3ce476bd	0.02788865
44	0xbcdaca2e	-0.026707735
45	0xbdb54fcd	-0.088531114
46	0xbd630ccd	-0.05543213
47	0x3e149834	0.14511186
48	0xbdfd28ce	-0.123612985
49	0xbd314fba	-0.043288924
50	0xbeafb77d	-0.34319678
51	0xbdb016a8	-0.08598071
52	0xbd65dfd9	-0.05612168
53	0x3c005985	0.007833843
54	0x3d8aeb40	0.067831516
55	0xbdb21d5a	-0.086970046
56	0xbdbf0fbb	-0.09329172
57	0x3e02ec82	0.12785533
58	0x3dc686d7	0.096936874
59	0x3e1a0ac1	0.15043165
60	0xbdcb952b	-0.09940561
61	0x3e212290	0.15735841
62	0x3de3a182	0.111147895
63	0xbba7e20c	-0.0051233824
64	0xbe0671f7	-0.13129412
65	0xbe2f61ce	-0.17127153
66	0x3cfdac69	0.030966
67	0xbde1475f	-0.10999941
68	0x3d593940	0.053033113
69	0x3da29336	0.079382345
70	0x3dbd95da	0.092570975
71	0x3e0ac653	0.13552217
72	0x3cb23a7c	0.021756403
73	0xbda5d67b	-0.080975495
74	0x3ad65ad5	0.0016353974
75	0x3d127146	0.035752557
76	0x3e496a50	0.19669461
77	0x3cc5d33e	0.02414858
78	0xbd2f83a9	-0.04285017
79	0x3dc9cdcd	0.098537065
80	0x3c0bb143	0.008526149
81	0x3e0244e6	0.12721595
82	0x3e03d549	0.1287433
83	0xbc1de01e	-0.009635953
84	0xbe07a688	-0.1324712
85	0xbe979ade	-0.29610342
86	0x3de93e73	0.11388864
87	0xbe33594f	-0.17514537
88	0xbe340912	-0.17581585
89	0xbdff27ad	-0.124587394
90	0x3cf1f49a	0.02953558
91	0x3e2fdf4f	0.17175029
92	0x3e018b07	0.12650691
93	0x3e0b5da4	0.1360994
94	0xbd4e26f8	-0.050330132
95	0xbe0a228e	-0.13489744
96	0x3e204b53	0.15653734
97	0x3d411664	0.047140494
98	0x3d429e45	0.04751422
99	0x3c14f868	0.009092428
100	0x3c59c1a5	0.013290797
101	0x3d9f2680	0.07771015
102	0xbbf2293a	-0.0073901685
103	0x3d51af4a	0.05119256
104	0xbb69de29	-0.0035685396
105	0x3c7f335d	0.015576211
106	0xbd2a69b2	-0.041604705
107	0x3dc4418c	0.095828146
108	0xbd7825e6	-0.060583018
109	0x3d5f2f75	0.054488618
110	0xbe6c3b55	-0.23069508
111	0xbc935ff4	-0.01799009
112	0xbe18677c	-0.14883226
113	0xbdbbf7f2	-0.09178151
114	0xbdb18d29	-0.08669502
115	0x3c982beb	0.01857563
116	0x3e27512d	0.1633956
117	0x3de5681e	0.112014994
118	0x3d127173	0.035752725
119	0x3ce9d416	0.028543513
120	0xbdcce1b9	-0.10003991
121	0xbe0f8550	-0.14015698
122	0x3e6a56c6	0.22884664
123	0x3d948639	0.072521634
124	0xbd3b9a92	-0.045801707
125	0x3da4924e	0.08035718
126	0x3e1ac016	0.15112337
127	0x3d6e9905	0.0582514
128	0x3e1c927e	0.15290257
129	0x3de67348	0.11252457
130	0x3ce14462	0.027498428
131	0x3d0740d8	0.033020824
132	0x3e18b0be	0.14911172
133	0x3d02da03	0.031946193
134	0xbdb67f2d	-0.089109756
135	0xbe3e9887	-0.18612872
136	0xbd7d8644	-0.061895624
137	0x3c24ad86	0.010051137
138	0x3cd26523	0.025682991
139	0xbd43714a	-0.047715463
140	0x3d1ce6b6	0.03830596
141	0xbe0841ee	-0.133064
142	0x3e060954	0.13089496
143	0xbd04a28a	-0.03238157
144	0xbe1e9b21	-0.15488864
145	0x3cdba2d8	0.026811048
146	0xbb67bb3e	-0.0035359408
147	0x3da04468	0.078255475
148	0x3d7d1117	0.061783876
149	0x3d269aa3	0.040674817
150	0xbd91f4cf	-0.07126772
151	0xbad78507	-0.0016442843
152	0xbe6f5c83	-0.23375134
153	0xbe3175ec	-0.1733014
154	0xbd136e55	-0.035993893
155	0x3d77397a	0.06035755
156	0x3ce5a822	0.028034274
157	0xbe1bc4eb	-0.15211837
158	0xbdd4b0fa	-0.10385318
159	0xbe111962	-0.14169839
160	0x3e2a271a	0.16616479
161	0xbdd7925b	-0.10525962
162	0xbd8ecf5f	-0.06973147
163	0xbd3e9210	-0.046526015
164	0xbb9be4f1	-0.0047575166
165	0x3d9c0f51	0.07620109
166	0xbdded72d	-0.10880885
167	0x3b2ac39d	0.0026056536
168	0xbc327498	-0.010892056
169	0x3e286868	0.16446078
170	0x3d021b7e	0.0317645
171	0x3c438fa1	0.011936099
172	0xbd1bc133	-0.038026046
173	0xbd80dc9d	-0.06292079
174	0x3e32821c	0.17432445
175	0x3ced7993	0.028988635
176	0x3ddedca1	0.108819254
177	0xbdcae25b	-0.09906455
178	0xbeaa06e7	-0.3320839
179	0xbdc49dfc	-0.09600446
180	0x3e234f73	0.15948276
181	0xbd922d4b	-0.07137545
182	0xbdf63fc2	-0.120238796
183	0xbe49fd8b	-0.19725625
184	0xbe420dc5	-0.18950565
185	0xbc53c986	-0.012926465
186	0x3d9cf351	0.076635964
187	0xbdbeb4ae	-0.09311806
188	0x3db0c3a3	0.08631065
189	0xbc26ebff	-0.010188102
190	0xbc00eb48	-0.007868595
191	0x3cb87c9b	0.022520354
192	0xbdc51528	-0.09623176
193	0x3e18b2a8	0.14911902
194	0xbc5aeb1e	-0.01336172
195	0xbd08672b	-0.033301514
196	0x3d4e216d	0.050324846
197	0xbcbc6169	-0.022995668
198	0x3d725e70	0.059172094
199	0x3c02ec2b	0.007990877
200	0xbdd639c5	-0.104602374
201	0xbbdd20d7	-0.0067482996
202	0xbe438248	-0.19092667
203	0xbee91dd0	-0.45530558
204	0xbe42ed53	-0.19035845
205	0x3bcff733	0.006346607
206	0xbdde9a23	-0.10869243
207	0x3cbebdf3	0.023283934
208	0xbe538c86	-0.20659074
209	0xbe3fefd9	-0.18743838
210	0x3d9a0e0d	0.07522211
211	0xbd439047	-0.047745015
212	0xbdb4be9a	-0.08825417
213	0x3ad4ee17	0.0016245273
214	0x3c85f00e	0.016349819
215	0x3e23e6da	0.16006032
216	0x3d365023	0.044510018
217	0x3c03bda3	0.008040818
218	0x3db88876	0.09010403
219	0x3d93a59d	0.072093226
220	0x3d52b8f1	0.051445905
221	0x3dbbc184	0.091677696
222	0xbd9e5cfe	-0.077325806
223	0xbc4d9dfd	-0.012549874
224	0x3dc80c75	0.09768001
225	0xbde4a9cb	-0.11165198
226	0xbe73a66d	-0.23793955
227	0xbd271969	-0.040795717
228	0x3e355a08	0.17710125
229	0x3d01e7a9	0.03171507
230	0x3bcda133	0.00627532
231	0xbe040700	-0.12893295
232	0xbc5f226f	-0.013619049
233	0x3e53f580	0.2069912
234	0x3d828100	0.06372261
235	0xbc23cb38	-0.009997182
236	0xbda867ab	-0.08222898
237	0xbdeac85d	-0.114639975
238	0xbe036cf3	-0.1283453
239	0x3d6532ab	0.055956524
240	0x3e2d3035	0.16912921
241	0x3d46b470	0.048511922
242	0xbd87cf8c	-0.06631383
243	0xbcf56f72	-0.029960368
244	0xbdfc16d4	-0.123090416
245	0xbc71a92c	-0.014749806
246	0x3cc6175e	0.024181064
247	0xbdb0e65f	-0.0863769
248	0x3dbea905	0.09309582
249	0x3e29e10e	0.16589758
250	0xbea0091b	-0.31256947
251	0xbe8af608	-0.27140832
252	0xbdc15767	-0.09440499
253	0xbe098b5a	-0.13432065
254	0x3e118c09	0.14213575
255	0xbe735375	-0.23762305

bias f4 [6]
0	0x3dc53de3	0.096309446
1	0xbd5e221f	-0.05423176
2	0xbce6ca42	-0.028172616
3	0xbc028c86	-0.007968074
4	0xbd1c98b5	-0.03823157
5	0xbc36372a	-0.011121551

weight f4 [6]
0	0x3f822f66	1.0170715
1	0x3f097091	0.5368739
2	0x3f87b1c9	1.0601131
3	0x3f8ca5ed	1.0988137
4	0x3f5655c7	0.83724636
5	0x3f89b5cc	1.0758605

bias f4 [6]
0	0xbd417629	-0.047231827
1	0xbe55d8fa	-0.20883551
2	0xbeb38747	-0.35064146
3	0xbef48fe3	-0.47766027
4	0xbcaafe4e	-0.020873215
5	0xbebd93b9	-0.37026766

running_mean f4 [6]
0	0x3ebc6f22	0.36803538
1	0xbea1eed4	-0.31627524
2	0x3f9cdb86	1.2254493
3	0x3f927a37	1.1443547
4	0x3cf42d17	0.029806657
5	0x3f3855f4	0.72006154

running_var f4 [6]
0	0x3e797328	0.24360335
1	0x3e1f6477	0.15565668
2	0x4001a4ca	2.025683
3	0x3fbb34dd	1.4625508
4	0x3dfb8cd4	0.1228272
5	0x3f32cee3	0.69846934

weight f4 [16, 6, 5, 5]
0	0x3d188be3	0.03724278
1	0xbdf9b579	-0.12192816
2	0x3cb25c1b	0.021772435
3	0xbd8b2ab6	-0.06795256
4	0x3e007a18	0.12546575
5	0x3c382a5a	0.011240566
6	0xbddfa1b9	-0.10919518
7	0xbdfba95d	-0.12288163
8	0xbc0712e6	-0.008244252
9	0xbc46c516	-0.01213195
10	0x3d548877	0.051887956
11	0x3d14668b	0.036230605
12	0xbdf055dd	-0.11735127
13	0x3d5f7f38	0.054564685
14	0x3e026fab	0.1273791
15	0x3cb13949	0.021633761
16	0xbe0a57d2	-0.13510063
17	0xbdf4a137	-0.11944812
18	0x3c4d40b5	0.012527634
19	0x3e21f0eb	0.15814559
20	0xbd80ea7e	-0.06294726
21	0xbe6d5e3c	-0.23180479
22	0xbe6a3abb	-0.22873966
23	0x3d18a866	0.037269972
24	0x3e03d99b	0.12875979
25	0x3c7f9e6f	0.015601738
26	0xbdac3ea5	-0.08410386
27	0x3d7cac62	0.061687835
28	0xbdf7abc9	-0.12093312
29	0x3cfcd848	0.03086485
30	0xbb689051	-0.003548641
31	0x3d9f8341	0.077887066
32	0xbde330cc	-0.11093292
33	0x3db70aec	0.0893763
34	0xbdce1da7	-0.100642495
35	0xbd301174	-0.042985395
36	0xbc903f36	-0.017608266
37	0xbc9d0e05	-0.019171724
38	0x3da7355d	0.08164475
39	0x3c38db09	0.011282691
40	0x3d54c4bc	0.051945433
41	0xbacb8ca0	-0.001552958
42	0xbdc2ef29	-0.095182724
43	0x3cc2e9e1	0.023793163
44	0x3d85e2e1	0.06537414
45	0xbd36d548	-0.044636995
46	0xbd5c292c	-0.053750202
47	0xbdb3aedc	-0.08773586
48	0x3d214669	0.03937379
49	0xbd3cfe33	-0.04614086
50	0x3d1f546f	0.03889888
51	0xbc1c8f83	-0.0095557
52	0xbd1e0831	-0.03858203
53	0xbdaa0fff	-0.08303832
54	0x3afa5f39	0.0019101865
55	0xbda7ff90	-0.082030416
56	0x3cec8619	0.028872536
57	0x3c13609a	0.0089952
58	0x3de352f8	0.110998094
59	0x3d732186	0.059358142
60	0x3c43ed6f	0.011958464
61	0xbd0622f0	-0.032748163
62	0x3deb7098	0.11496085
63	0x3e14dd6e	0.14537594
64	0xbc999048	-0.018745556
65	0xbb594c80	-0.003315717
66	0xbd3e69b5	-0.04648753
67	0x3d4321fe	0.04763984
68	0x3d99a9ac	0.075030655
69	0xbdedca10	-0.11610806
70	0xbe2612fd	-0.16218181
71	0xbdda7df0	-0.10668552
72	0xbc247d8e	-0.0100397
73	0x3dbffa0d	0.09373865
74	0x3c3c117a	0.011478776
75	0x3b850aa0	0.0040601045
76	0xbdd1e0b2	-0.10247935
77	0x3b95e85f	0.00457482
78	0x3cf0ad55	0.029379526
79	0x3de1285a	0.109940246
80	0xbc1b4adf	-0.0094783
81	0xbd41ee9e	-0.047346704
82	0xbd389e07	-0.04507258
83	0xbc8bf002	-0.017082218
84	0x3df7fcf6	0.12108795
85	0xbdcad740	-0.09904337
86	0x3d0efff0	0.03491205
87	0x3d926910	0.07148945
88	0x3de1b774	0.11021319
89	0x3e1d6d82	0.15373805
90	0xbe0c3fb8	-0.13696182
91	0x3cf35cd4	0.02970735
92	0x3c5dfbb0	0.0135487765
93	0x3e046c4d	0.12931938
94	0x3d0816ce	0.033224873
95	0x3badc187	0.0053026113
96	0xbdf479dd	-0.11937306
97	0xbda7c2aa	-0.08191426
98	0x3d94ee8e	0.07272063
99	0x3dfb0ed4	0.122586876
100	0x3d77eb9d	0.060527433
101	0x3d2171a7	0.039415028
102	0xbdb25d2f	-0.087091796
103	0x3ddf60b1	0.10907114
104	0x3d648438	0.055790156
105	0xbc7c8ec5	-0.015414898
106	0xbd2adf05	-0.041716594
107	0xbd53c394	-0.05170019
108	0xbd9d845a	-0.0769126
109	0x3dae4e67	0.08511048
110	0xbd5b581a	-0.053550817
111	0xbcf0a6de	-0.029376443
112	0x3d185e74	0.037199453
113	0x3b99df72	0.004695826
114	0xbd9bac9c	-0.07601282
115	0xbdaa13c7	-0.083045535
116	0x3bea099f	0.00714226
117	0x3daf95b6	0.08573477
118	0xbd7053bc	-0.058673605
119	0xbda6dddf	-0.08147787
120	0xbbb415c0	-0.005495757
121	0x3c9d8364	0.019227691
122	0x3ca1892b	0.019718727
123	0x3c1e16e5	0.009649013
124	0x3d18c0da	0.037293293
125	0x3d006bba	0.031352736
126	0x3b3928fe	0.0028253193
127	0xbd2b58c8	-0.041832715
128	0x3d6e9bbd	0.058253992
129	0xbd24f6e9	-0.040274534
130	0xbdffa40e	-0.12482463
131	0x3c1b3cd9	0.009474956
132	0x3d09c89c	0.03363858
133	0x3d7fd36e	0.062457494
134	0x3ce0a53c	0.02742254
135	0xbe0f3ee6	-0.13988838
136	0x3d113e65	0.035459895
137	0x3d74ed12	0.0597964
138	0x3d8b8304	0.068120986
139	0x3e103b02	0.1408501
140	0xbe296d15	-0.16545518
141	0xbcdf1b27	-0.027234627
142	0xbcfa9798	-0.030589864
143	0x36dfe186	6.6721723e-06
144	0x3e21b4f9	0.15791692
145	0xbdb57888	-0.0886088
146	0xbdeab4d5	-0.11460272
147	0xbdcdd72d	-0.10050807
148	0x3df94829	0.121719666
149	0x3d839d4e	0.06426488
150	0xbc791ece	-0.015205098
151	0xbd9fb885	-0.07798866
152	0xbdcd1eb9	-0.100156255
153	0x3d6cb332	0.05778808
154	0xbd85b725	-0.06529073
155	0xbe1233b9	-0.14277543
156	0xbe1310e4	-0.14361912
157	0x3c839a61	0.016064825
158	0x3d98e562	0.07465626
159	0x3cf099b1	0.02937016
160	0xbddc4b40	-0.1075654
161	0xbd4b93df	-0.049701568
162	0xbe21cbe0	-0.15800428
163	0x3da94b8f	0.08266365
164	0x3cb3d786	0.021953356
165	0xbe274a88	-0.16337025
166	0xbe1ff65a	-0.1562132
167	0xbd2c6a6d	-0.042093683
168	0x3d2d7638	0.04234907
169	0x3df8345c	0.12119362
170	0xbddb1e7b	-0.10699173
171	0xbdfaa1bd	-0.122378804
172	0x3b65c35e	0.0035059075
173	0xbe0d78ce	-0.13815615
174	0x3deec20d	0.11658106
175	0x3d74fe6f	0.05981296
176	0x3bde32ee	0.0067809736
177	0xbcceec25	-0.025259087
178	0x3d8d79ea	0.06908019
179	0x3dc39652	0.09550156
180	0xbd786cb9	-0.06065056
181	0xbd9bf61c	-0.07615301
182	0xbd2eeac4	-0.04270436
183	0x3dabd6a0	0.08390546
184	0x3da8a37a	0.08234306
185	0x3ba46d6a	0.005017926
186	0xbc826339	-0.015916454
187	0xbdc31356	-0.095251724
188	0xbdb0e61e	-0.08637641
189	0xbd933098	-0.07187003
190	0xbce9ab06	-0.028523933
191	0xbcbd640f	-0.023119
192	0xbd179d44	-0.037015215
193	0xbdcb9c36	-0.09941904
194	0x3cfe818b	0.03106763
195	0xbdf25251	-0.11832107
196	0x3c311871	0.01080905
197	0xbdfe6890	-0.124222875
198	0x3d6c4835	0.05768605
199	0xbc1a649b	-0.0094234
200	0xbcf96f9b	-0.030448725
201	0xbdd4e0ed	-0.10394464
202	0xbde9ac43	-0.114098094
203	0x3c856fcc	0.01628866
204	0x3d0756d7	0.0330418
205	0xbd01317f	-0.031541344
206	0x3d24d1d6	0.040239178
207	0x3e0303f8	0.12794483
208	0xbda80040	-0.08203173
209	0xbd6ea27a	-0.05826042
210	0xbd0b8f40	-0.03407216
211	0x3d85b313	0.06528296
212	0x3dcc7b85	0.09984497
213	0x3d5dca23	0.05414785
214	0x3d33e231	0.043916885
215	0xbd7cad86	-0.061688922
216	0x3e187f6d	0.14892359
217	0x3cd57862	0.02605838
218	0xbd03d63f	-0.032186743
219	0xbe031ba9	-0.1280352
220	0xbd06d5e7	-0.032918837
221	0x3e02e742	0.1278353
222	0xbd48390b	-0.048882525
223	0xbd93fab2	-0.07225551
224	0xbe084090	-0.13305879
225	0x3cb81978	0.022473082
226	0x3cbbac13	0.0229092
227	0xbd2f82e2	-0.04284943
228	0xbd7cf9be	-0.06176161
229	0xbe032c83	-0.12809949
230	0xbddeaeca	-0.10873182
231	0x3da628d1	0.08113254
232	0x3dc7e534	0.09760514
233	0x3e0a2fff	0.13494872
234	0x3db6e48f	0.08930313
235	0x3d4b7091	0.0496679
236	0xbd521ec8	-0.051298887
237	0x3d343d60	0.044003844
238	0xbbd47a1a	-0.006484282
239	0xbd982b7a	-0.074301675
240	0xbd14676d	-0.036231447
241	0xbabb7385	-0.0014301395
242	0x3dd9830b	0.106206976
243	0x3e30951b	0.17244379
244	0xbd306840	-0.04306817
245	0xbc1748ac	-0.009233635
246	0x3e015a4a	0.12632099
247	0x3d87a351	0.06622947
248	0x3d09762c	0.033559963
249	0xbe012b77	-0.12614237
250	0xbe17b529	-0.14815201
251	0x3dba2bce	0.09090386
252	0x3bfee9a8	0.007779319
253	0xbb45d4d0	-0.003018666
254	0x3dc3dd1b	0.09563657
255	0xbdbdc93f	-0.092669

bias f4 [16]
0	0x3b89b3a5	0.0042023235
1	0xbd703606	-0.05864527
2	0xbc7ba4e2	-0.015359135
3	0x3cb36912	0.021900687
4	0x3d017c73	0.031612825
5	0xbce811e5	-0.028328845
6	0x3b8fc633	0.004387641
7	0x3cb8bb69	0.022550302
8	0x3bae65f4	0.0053222124
9	0xbbbad77b	-0.005701957
10	0x3d0ef373	0.03490014
11	0x3c932bdf	0.017965255
12	0x3c8b0df2	0.016974423
13	0xbd321681	-0.043478493
14	0xbd00c5f5	-0.031438787
15	0xbcf8ba2d	-0.030362213

weight f4 [16]
0	0x3f840610	1.031435
1	0x3f810365	1.0079161
2	0x3f8031f0	1.001524
3	0x3f8bebf4	1.0931382
4	0x3f594249	0.8486677
5	0x3f850f79	1.0395347
6	0x3f58fc5d	0.84760076
7	0x3f669bd9	0.90081555
8	0x3f7f1d3c	0.99653983
9	0x3f6fc336	0.93657243
10	0x3f6ab1b6	0.91677415
11	0x3f76981f	0.9632587
12	0x3f81d6e6	1.0143707
13	0x3f8f5868	1.1198854
14	0x3f89a3c3	1.0753101
15	0x3f90e900	1.1321106

bias f4 [16]
0	0xbd9859a6	-0.07438974
1	0xbe10f1e0	-0.14154768
2	0x3afa0c5f	0.0019077173
3	0xbda08d33	-0.078394316
4	0xbe8b5a6b	-0.2721742
5	0xbd5902bb	-0.05298112
6	0xbe35c8cf	-0.17752384
7	0xbe5f4fb3	-0.21807747
8	0xbe4bdc4a	-0.19908252
9	0xbe09b511	-0.13447978
10	0xbe2a4e53	-0.16631441
11	0xbe6416ce	-0.22274324
12	0xbe287a8b	-0.16452996
13	0x3cce2086	0.025161993
14	0xbdc70ec3	-0.097196124
15	0xbe71585b	-0.23568861

running_mean f4 [16]
0	0xbe66b142	-0.22528556
1	0xbeb34259	-0.35011557
2	0xbe16c579	-0.14723767
3	0xbde8b166	-0.11361961
4	0x3e793a17	0.24338566
5	0xbe871b5d	-0.26388064
6	0x3e6043ed	0.21900912
7	0x3db652a2	0.0890248
8	0x3da46a86	0.0802813
9	0xbe67e887	-0.22647296
10	0xbd047f67	-0.032348063
11	0xbe52d89c	-0.20590442
12	0xbdf438b6	-0.11924879
13	0xbebbf718	-0.36711955
14	0xbebb303b	-0.36560234
15	0xbdfde3ba	-0.12396951

running_var f4 [16]
0	0x3eb8575d	0.36004153
1	0x3eade4b6	0.33963555
2	0x3dd34626	0.10316114
3	0x3df517a0	0.11967397
4	0x3ecda52c	0.4016508
5	0x3ea0008d	0.3125042
6	0x3e354d3a	0.17705241
7	0x3e033683	0.12813763
8	0x3ddbafc0	0.10726881
9	0x3e85ce50	0.26133966
10	0x3d94341f	0.07236504
11	0x3e0cdf19	0.1375698
12	0x3df8cfc2	0.12149002
13	0x3eb39172	0.35071903
14	0x3e84f5de	0.25968832
15	0x3df45ab9	0.119313665

weight f4 [120, 16, 5, 5]
0	0xbe08c820	-0.13357592
1	0x3a83285b	0.0010006534
2	0x3d7559f0	0.059900224
3	0xbc946495	-0.018114367
4	0xbd1c1b2e	-0.038111858
5	0xbd56f112	-0.052475996
6	0x3d9bbbc2	0.07604171
7	0xbbc3837a	-0.005966601
8	0xbd8b128e	-0.067906484
9	0xbcd1b225	-0.025597641
10	0xbe050999	-0.12991942
11	0x3d4a9c61	0.04946554
12	0x3c2a5e8a	0.010398516
13	0xbd1d5cc3	-0.038418543
14	0x3c772e84	0.015086774
15	0xbdd89315	-0.10574929
16	0xbd79377b	-0.060843926
17	0x3d4dcef2	0.050246187
18	0x3d1a7f11	0.037718836
19	0x3d72020c	0.059083983
20	0xbd41520a	-0.04719738
21	0x3cc153b0	0.023599476
22	0x3b829e0b	0.0039861253
23	0xbd044ce2	-0.032299884
24	0xbd9e2328	-0.07721549
25	0xbcade453	-0.021227038
26	0xbc5a6f36	-0.013332179
27	0x3dcbb6ee	0.099470004
28	0x3cc896ed	0.02448603
29	0xbe0fabe2	-0.14030412
30	0x3c56e616	0.01311638
31	0xbcf19efc	-0.029494755
32	0x3bd1b8f9	0.0064002243
33	0xbdd912a1	-0.10599256
34	0x3d9b63d5	0.07587401
35	0x3cab6e20	0.020926535
36	0xbd186b12	-0.037211485
37	0x3b061886	0.0020461394
38	0xbb671a12	-0.0035263342
39	0x3da49dfb	0.08037945
40	0x3d0428d1	0.032265488
41	0xbd38b0f3	-0.045090627
42	0x3c36e9a2	0.011164101
43	0xbd949c1a	-0.072563365
44	0x3d80fd64	0.062983304
45	0x3b1dbf25	0.002407023
46	0xbce30769	-0.027713494
47	0x3cccf5e2	0.02501959
48	0x3b0ccdf1	0.0021485055
49	0x3d769a95	0.060206015
50	0xbda163e5	-0.078803815
51	0x3be62b15	0.0070241787
52	0x3e0453af	0.12922548
53	0xbd62b6ae	-0.05535
54	0xba73e4a0	-0.0009303782
55	0x3d489eae	0.048979454
56	0xbca64aa3	-0.020299261
57	0xbde23e45	-0.11047033
58	0xbd2e16cd	-0.042502213
59	0xbc710182	-0.014709832
60	0x3ca22fcf	0.019798188
61	0xbd243eb4	-0.04009886
62	0xbcc50025	-0.02404792
63	0x3daae667	0.08344727
64	0x3d44ce06	0.04804804
65	0x3d80e651	0.06293929
66	0x3cde36e6	0.027125787
67	0xbd346ac8	-0.044047147
68	0x3cdf0396	0.02722339
69	0x3a9fa40e	0.0012179629
70	0x3cf04e8e	0.029334333
71	0xbc908a8e	-0.017644193
72	0x3cf6fc82	0.030149702
73	0xbcd07a69	-0.025448995
74	0xbce45d70	-0.027876586
75	0xbcddf47c	-0.027094118
76	0x3d52dfa2	0.051482804
77	0xbd588e01	-0.0528698
78	0xbe4ea472	-0.20179918
79	0x3c8a6057	0.016891642
80	0xbd5a0a54	-0.053232506
81	0xbc580be2	-0.013186427
82	0x3a12f9a4	0.00056066574
83	0xbd0e9fb3	-0.03482027
84	0x3d6daf68	0.05802861
85	0xbd8591d7	-0.06521957
86	0xbcae073e	-0.021243688
87	0xbc20df8f	-0.0098189255
88	0x3b9d8ed3	0.0048082857
89	0x3b1e2a28	0.0024134014
90	0xbdb56bf7	-0.08858483
91	0xbd9841a9	-0.07434399
92	0x3d891e21	0.066952
93	0xbc4f55d4	-0.01265474
94	0xbbd88ef7	-0.0066088396
95	0xbd9f1bbe	-0.07768963
96	0xbd8ebda4	-0.06969765
97	0x3c82dd7c	0.015974753
98	0x3cc8f658	0.024531528
99	0x3d32a55c	0.04361473
100	0xba3286a6	-0.00068102253
101	0x3d43d826	0.047813557
102	0xbca4c5cc	-0.020113848
103	0xba7413c5	-0.0009310807
104	0x3d387792	0.045035906
105	0xbcb0446e	-0.021517005
106	0x3d7165db	0.058935028
107	0x3d2b476d	0.041816164
108	0x3c0bc3ed	0.008530599
109	0xbbc1de27	-0.005916375
110	0xbcc47534	-0.023981668
111	0xbc91ad63	-0.017782873
112	0xb9b8318b	-0.00035132127
113	0x3d2865ef	0.041112836
114	0xbb9d6a24	-0.0048039127
115	0xbd13531c	-0.03596793
116	0xbd94b010	-0.07260144
117	0x3c18835f	0.009308665
118	0xbd5f862f	-0.054571327
119	0xbd6c32ca	-0.057665624
120	0xbd942732	-0.072340384
121	0xbdaf24c9	-0.08551938
122	0xbd521c9f	-0.051296826
123	0xbda61e51	-0.08111251
124	0xbd963438	-0.07334179
125	0xbdc58fe2	-0.09646584
126	0xbe60df24	-0.21960121
127	0x3c786645	0.015161102
128	0xbca22e8f	-0.019797591
129	0xbe16930f	-0.14704536
130	0x3d662d1a	0.056195356
131	0xbe0837af	-0.13302492
132	0xbd384caa	-0.044994988
133	0x3d8e9cee	0.06963526
134	0x3ca527f2	0.020160649
135	0x3dd2e80e	0.10298167
136	0x3c672d0f	0.014109864
137	0x3c3dce68	0.011584856
138	0xbc9da28a	-0.019242544
139	0xbb1f4ec6	-0.0024308427
140	0xbcffce4c	-0.0312263
141	0x3c8036a6	0.015651058
142	0xbb2d2b7d	-0.0026423626
143	0x3bb1d6fb	0.005427239
144	0x3b9e9ff9	0.0048408476
145	0xbcef7f7f	-0.0292356
146	0x3c2be563	0.010491702
147	0x3c02687b	0.00795948
148	0x3d17c575	0.037053544
149	0xbd765bf5	-0.06014629
150	0x3a040096	0.00050354877
151	0x3da484e8	0.08033162
152	0xbb839383	-0.0040153875
153	0xbe27d627	-0.16390286
154	0x3b8ceff1	0.004301064
155	0xbd71b304	-0.059008613
156	0x3bafaafc	0.005360959
157	0xbd9a4a96	-0.075337574
158	0xbdfc911e	-0.123323664
159	0x3d6abeaa	0.057310738
160	0xbd9e589c	-0.07731745
161	0x3b02de40	0.0019968897
162	0x3be5b809	0.007010464
163	0xbcfc3ced	-0.03079077
164	0x3caf02a7	0.02136357
165	0x3c158a11	0.009127156
166	0x3a9f34c5	0.0012146464
167	0x3cf2ce11	0.029639276
168	0xbd7cd17d	-0.06172322
169	0xbcd91a9a	-0.026501942
170	0xbd64c44e	-0.055851273
171	0x3cbfe0bb	0.02342259
172	0xbd92808d	-0.07153425
173	0xbda03de0	-0.07824302
174	0xbb71f138	-0.003691746
175	0x3d7c0649	0.06152943
176	0x3dbb412b	0.09143289
177	0xbd13a2b2	-0.03604383
178	0xbd6f43a7	-0.058414128
179	0xbd6c8a84	-0.057749286
180	0x3c5654dd	0.013081756
181	0x3c77141f	0.015080481
182	0x3acae964	0.0015480933
183	0xbc59d549	-0.01329548
184	0x3ca8f203	0.020623213
185	0xbae761f5	-0.0017653095
186	0x3ce35112	0.027748618
187	0x3c57cb66	0.013171053
188	0x3cf39172	0.02973244
189	0xbbdf8a90	-0.006821938
190	0x3c85ae04	0.016318329
191	0xbb5f301b	-0.0034055773
192	0xbd7b2acc	-0.06132011
193	0x3c57bdd9	0.013167822
194	0xbdbfe1c0	-0.0936923
195	0xbd28415c	-0.041077957
196	0x3d8d863f	0.06910371
197	0xbd15b2bc	-0.036547408
198	0x3c9ace4a	0.018897194
199	0x3d44a302	0.04800702
200	0xbd374ada	-0.04474912
201	0xbd350b6d	-0.04420035
202	0xbd3682a4	-0.044558182
203	0x3dfb0407	0.122566275
204	0x3dfeb581	0.12436963
205	0x3db6e081	0.089295395
206	0xbd32e365	-0.04367389
207	0xbbe47470	-0.0069718882
208	0xbd1a0454	-0.037601784
209	0x3a685839	0.0008863244
210	0x3d826eb5	0.06368772
211	0xbc0b5104	-0.008503202
212	0xbd0ed1b4	-0.034867957
213	0xbdb014b8	-0.08597702
214	0xbbcc6048	-0.0062370636
215	0x3c80c7b7	0.015720231
216	0x3d85352e	0.06504284
217	0xbd2a3547	-0.041554715
218	0x3c8f4061	0.017486753
219	0x3b9a5877	0.004710253
220	0xbd8e96cd	-0.06962357
221	0x3d06e426	0.032932423
222	0xbd0620d7	-0.032746162
223	0x3aabe51c	0.0013114545
224	0x3c91b147	0.017784728
225	0xbe110dc9	-0.14165415
226	0xbe1421ac	-0.1446597
227	0xbca7b142	-0.020470265
228	0x3d8a4644	0.06751683
229	0x3d42ff7c	0.04760693
230	0x3a8d1acd	0.0010765434
231	0x3d3c97cb	0.0460432
232	0x3d1ecd9c	0.038770303
233	0xbd891008	-0.06692511
234	0xbd886adb	-0.06661006
235	0xbd2ffa08	-0.042963058
236	0xbbe4090a	-0.0069590854
237	0x3d4da14a	0.050202645
238	0x3aa1cbc5	0.0012344053
239	0xbc39887f	-0.011324047
240	0xbca824e2	-0.0205254
241	0xbd3faf75	-0.04679819
242	0xbc9402fb	-0.018067827
243	0xbac753d7	-0.0015207481
244	0x3cf32e84	0.029685266
245	0x3d99cbec	0.07509598
246	0xbd497f10	-0.049193442
247	0x3b6c3fc8	0.0036048759
248	0x3c9412c2	0.01807535
249	0xbd419fb4	-0.047271445
250	0xbdd46e1d	-0.10372565
251	0x3c34d560	0.011037201
252	0xbd3ca27e	-0.046053402
253	0x3cf443a7	0.029817415
254	0x3c8c40d1	0.01712075
255	0x3cf68c6d	0.030096257

bias f4 [120]
0	0xbcc14c63	-0.023595994
1	0x3c2627d5	0.010141333
2	0xbc29074f	-0.010316684
3	0x3b4b4cda	0.003102115
4	0x3bc0fa31	0.0058892
5	0xbbae3232	-0.0053160423
6	0x3c08f797	0.008359811
7	0x3b96e4ae	0.0046048975
8	0x3c02893e	0.007967291
9	0xbc4a5d13	-0.012351292
10	0x3c03322b	0.008007566
11	0xbc161333	-0.009159851
12	0xbb837997	-0.0040122974
13	0xbb4534aa	-0.0030091205
14	0xbc344699	-0.01100316
15	0xbc17bfd5	-0.009262045
16	0xbc7705e6	-0.01507709
17	0xbc4be4a3	-0.012444648
18	0x3845ffc5	4.7206664e-05
19	0x382626af	3.961351e-05
20	0x3ba95784	0.0051679034
21	0x3b71292b	0.003679822
22	0xbbf52951	-0.007481732
23	0xbc2d95a9	-0.010594764
24	0xbb7b1758	-0.0038313475
25	0x3c448d11	0.0119965235
26	0x3c29fd1c	0.010375287
27	0x3afe6c10	0.0019410867
28	0x3ba5eab1	0.005063378
29	0x3c7c299e	0.015390782
30	0x3a8af179	0.0010600529
31	0x399db5ff	0.0003008097
32	0xbc47b2b3	-0.012188601
33	0x3b2d3c61	0.0026433694
34	0xbb49e987	-0.003080936
35	0xb8c6e454	-9.483905e-05
36	0x3c150d26	0.009097373
37	0x3b820ce8	0.0039688237
38	0xbc44fc51	-0.012023048
39	0x3ba18c9b	0.0049300916
40	0xbb1df9a6	-0.00241051
41	0x3b332b29	0.0027338958
42	0xbb78f855	-0.0037989814
43	0x3bc29518	0.0059381835
44	0xbb242151	-0.0025044272
45	0x3c74b00c	0.014934551
46	0x3bd9e1dd	0.0066492395
47	0x3c6633cb	0.014050434
48	0x3c150f5f	0.009097903
49	0xbb0f0ea1	-0.0021828788
50	0xbb03184a	-0.002000349
51	0xbbc4870d	-0.0059975446
52	0x3c032b78	0.008005969
53	0x3c3b9da8	0.011451162
54	0xbc34a065	-0.011024569
55	0x3a443fea	0.00074863306
56	0xbbb50951	-0.0055247922
57	0xbb4d2ab1	-0.0031305964
58	0xb960b103	-0.00021428247
59	0xbb0154e4	-0.0019734437
60	0xb9d722ec	-0.00041034014
61	0x39ff81e3	0.00048734163
62	0x3b3fc5de	0.0029262225
63	0xba989009	-0.0011639606
64	0xbc670fb4	-0.014102865
65	0xbadfcffc	-0.0017075534
66	0xbc585955	-0.013204892
67	0xbb45d29d	-0.003018535
68	0xbc2f74e2	-0.010709019
69	0x3bd57f8f	0.0065154503
70	0xbc120093	-0.00891127
71	0x3b12ecdd	0.0022419014
72	0xbc4e6d1c	-0.012599256
73	0x3c29633d	0.010338602
74	0x3c1c29e5	0.009531473
75	0x3b58361f	0.0032991243
76	0xb906b6d7	-0.00012847349
77	0xbb694979	-0.0035596772
78	0xbc36298a	-0.011118302
79	0xbb807a73	-0.003920847
80	0xbc394649	-0.011308261
81	0xbb980059	-0.0046387133
82	0x3b8ceb84	0.0043005366
83	0xbb77c2a5	-0.0037805226
84	0xbbd22e0f	-0.006414182
85	0x3c176168	0.009239532
86	0x3b61e96b	0.0034471403
87	0xbc5911d8	-0.013248883
88	0x3b34670d	0.0027527243
89	0xbc1279da	-0.0089401845
90	0x3c4d9050	0.012546614
91	0x3c18962f	0.00931315
92	0x3ad564ea	0.0016280685
93	0x3c7ba768	0.015359737
94	0xbb81c0af	-0.0039597373
95	0xb96adce4	-0.00022398267
96	0xb86540ba	-5.4658136e-05
97	0xbc6575f8	-0.014005177
98	0xbc3a60b3	-0.011375594
99	0x3c6ff812	0.014646547
100	0x3c2b3ac8	0.010451026
101	0x3c38a81f	0.011270552
102	0x3c0ab724	0.008466516
103	0x3c0f1c01	0.008734704
104	0x3c4c481e	0.012468366
105	0x3b8a562d	0.0042216987
106	0xbc30b9bb	-0.010786469
107	0x3c49f0a1	0.012325437
108	0xbc481dfa	-0.012214178
109	0xba3dc519	-0.00072391477
110	0x3bac9da1	0.0052678143
111	0x3c4cf9b3	0.012510705
112	0xbbbc5717	-0.0057476866
113	0xba81a001	-0.0009889604
114	0xbc59f904	-0.013303999
115	0x3bc92f63	0.006139682
116	0xbbc1aa18	-0.0059101693
117	0x3ba350d0	0.004983999
118	0xbc5ced97	-0.01348438
119	0xbbb522bf	-0.0055278237

weight f4 [120]
0	0x3f9110e3	1.1333278
1	0x3f8747b5	1.0568758
2	0x3f8a9598	1.0826902
3	0x3f87bc04	1.0604253
4	0x3f8b6113	1.0889
5	0x3f909828	1.1296434
6	0x3f88aa33	1.0676941
7	0x3f890897	1.0705746
8	0x3f8c1055	1.0942484
9	0x3f7ff2fb	0.99980134
10	0x3f880e23	1.0629314
11	0x3f8d0c6d	1.1019417
12	0x3f837187	1.0269021
13	0x3f850435	1.0391909
14	0x3f8d39dd	1.1033283
15	0x3f8b40e8	1.0879183
16	0x3f82a6b2	1.0207121
17	0x3f8d22c2	1.1026232
18	0x3f961ea4	1.1728101
19	0x3f8b331c	1.0874972
20	0x3f8b6fae	1.0893457
21	0x3f8e6660	1.1124992
22	0x3f8bda51	1.0926
23	0x3f897a65	1.0740477
24	0x3f7a6c1b	0.97821206
25	0x3f859305	1.0435492
26	0x3f80bee6	1.0058258
27	0x3f85f191	1.0464345
28	0x3f8bb984	1.091599
29	0x3f88d3dc	1.0689654
30	0x3f97176d	1.1804024
31	0x3f89e0ba	1.0771706
32	0x3f865903	1.0495914
33	0x3f900f6c	1.1254706
34	0x3f86422b	1.0488943
35	0x3f7f59f4	0.9974663
36	0x3f7178a6	0.9432472
37	0x3f87c1f4	1.0606065
38	0x3f86e535	1.0538698
39	0x3f84f5aa	1.0387471
40	0x3f8fdfd1	1.1240178
41	0x3f7788f7	0.96693367
42	0x3f8a664c	1.0812469
43	0x3f853ba0	1.0408821
44	0x3f8f19b4	1.1179719
45	0x3f931ad9	1.1492568
46	0x3f848587	1.0353249
47	0x3f8b0300	1.086029
48	0x3f8d2622	1.1027262
49	0x3f84b3c0	1.0367355
50	0x3f8d83c3	1.1055835
51	0x3f909c26	1.1297653
52	0x3f9294ec	1.1451697
53	0x3f884abf	1.0647811
54	0x3f939fcd	1.1533142
55	0x3f81fb3b	1.0154794
56	0x3f89730c	1.0738235
57	0x3f90470b	1.127168
58	0x3f7f6019	0.9975601
59	0x3f919fa8	1.1376848
60	0x3f839b92	1.0281851
61	0x3f89b4f3	1.0758346
62	0x3f8f5919	1.1199065
63	0x3f8b6b2e	1.0892084
64	0x3f89e051	1.0771581
65	0x3f87eecd	1.0619751
66	0x3f8a4a23	1.0803875
67	0x3f87b7b8	1.0602942
68	0x3f9180f5	1.136748
69	0x3f836539	1.0265266
70	0x3f8cd48a	1.1002362
71	0x3f85d350	1.0455112
72	0x3f957546	1.1676414
73	0x3f86a7e7	1.051999
74	0x3f8afe01	1.0858766
75	0x3f7d9229	0.9905115
76	0x3f83c84b	1.02955
77	0x3f88914d	1.0669342
78	0x3f7ab194	0.9792721
79	0x3f7d52fd	0.98954755
80	0x3f81e58c	1.0148177
81	0x3f8898fd	1.0671688
82	0x3f8581c4	1.0430226
83	0x3f88dcf7	1.0692433
84	0x3f897567	1.0738953
85	0x3f8adb49	1.084817
86	0x3f874690	1.0568409
87	0x3f93845f	1.1524771
88	0x3f89bf11	1.0761434
89	0x3f82b17e	1.0210416
90	0x3f88c27f	1.0684355
91	0x3f9141cc	1.1348205
92	0x3f8f3909	1.1189281
93	0x3f88eed5	1.0697886
94	0x3f8809d4	1.0627999
95	0x3f85d0dc	1.0454364
96	0x3f8a8498	1.0821714
97	0x3f8c6a5b	1.0969957
98	0x3f85414c	1.0410552
99	0x3f8f541d	1.1197544
100	0x3f8ced51	1.1009923
101	0x3f930ac3	1.1487659
102	0x3f812d93	1.0092033
103	0x3f8bfe2e	1.0936944
104	0x3f8a79af	1.0818385
105	0x3f8b8cc5	1.0902334
106	0x3f80c3d1	1.0059758
107	0x3f8bb19e	1.091358
108	0x3f8dfd9a	1.1093018
109	0x3f8e4d9c	1.1117435
110	0x3f88c417	1.0684842
111	0x3f87a7e2	1.0598109
112	0x3f7bfc0d	0.98431474
113	0x3f913c80	1.1346588
114	0x3f88bf8e	1.0683458
115	0x3f888c8b	1.066789
116	0x3f8c67dd	1.0969197
117	0x3f9705c4	1.1798635
118	0x3f84b229	1.036687
119	0x3f9086fd	1.1291195

bias f4 [120]
0	0x3d0ad9de	0.03389918
1	0x3d3778bb	0.044792872
2	0x3c6554dd	0.013997284
3	0x3ce798e3	0.028271144
4	0xbd8085b0	-0.06275499
5	0x3c25bf34	0.010116387
6	0xbc9d989b	-0.019237807
7	0xbd571950	-0.052514374
8	0x3cbf42f1	0.02334735
9	0x3c913339	0.01772462
10	0x3d12a3b8	0.035800666
11	0x3dcb9f91	0.09942544
12	0xbd94c703	-0.07264521
13	0x3b9ce1f0	0.004787676
14	0x3d38ccb5	0.0451171
15	0xbc0a948e	-0.00845827
16	0x3d95d6cf	0.07316362
17	0x3cb5ff20	0.02221638
18	0xbc23936f	-0.009983881
19	0x3af1eb00	0.0018456876
20	0xbd5b15e4	-0.053487673
21	0x3b28b5d8	0.0025743153
22	0x3d8478da	0.06468363
23	0x3d1a194a	0.037621774
24	0x3b546eee	0.0032414752
25	0x3c4b1dea	0.012397269
26	0xbd10c16b	-0.035340708
27	0x3cab8f59	0.020942377
28	0xbcaff981	-0.021481277
29	0x3cee7ceb	0.0291123
30	0x3cb1897e	0.021672007
31	0x3d7dd7f9	0.061973546
32	0x3bea8ac5	0.007157656
33	0x3cfb3228	0.030663565
34	0x3cd93ffa	0.026519764
35	0xbd21495b	-0.039376598
36	0xbd8a4f68	-0.06753427
37	0xbd045665	-0.032308955
38	0x3d98e9a6	0.0746644
39	0x39810639	0.00024609434
40	0xbca6bdfc	-0.020354263
41	0x3bcdd3e0	0.006281361
42	0x3beb8bc7	0.0071882936
43	0x3d3a4b0c	0.045481727
44	0x3c8a60fd	0.01689195
45	0x3d74b158	0.05973944
46	0x3d4249f6	0.047433816
47	0x3d1c7a9e	0.038202874
48	0x3d2cad39	0.042157385
49	0x3ce36fa3	0.027763193
50	0xbcf2992d	-0.029614056
51	0x3d7bb9a4	0.061456338
52	0xbbfee684	-0.0077789444
53	0xbc869371	-0.016427727
54	0x3cc887ed	0.024478877
55	0x3d2ced9f	0.0422188
56	0xba21fff9	-0.00061798055
57	0xbceeabbf	-0.02913463
58	0x3d091f96	0.03347739
59	0x3ad6ed71	0.0016397667
60	0x3bd54a66	0.006509113
61	0xbd26218d	-0.04055934
62	0x3dd9d44c	0.106361955
63	0x3ddd3e36	0.108028814
64	0x3bb803c3	0.005615683
65	0x3d9825ec	0.07429108
66	0x3d5ba1fe	0.053621285
67	0x3daa4bd4	0.08315244
68	0x3cb9ffcc	0.022704981
69	0x3ac16b44	0.0014756699
70	0x3d3fa72a	0.04679028
71	0x3cc2c125	0.02377374
72	0x3dc45a26	0.09587507
73	0xbd04292d	-0.03226583
74	0x3d1358ee	0.03597348
75	0x3cbb2251	0.022843512
76	0xbd4b3f2f	-0.049620803
77	0x3d4e8fa6	0.050429963
78	0xbda983d9	-0.08277101
79	0xbd47c719	-0.04877386
80	0x3b56b3f5	0.0032761071
81	0xbb01c939	-0.0019803776
82	0x3da70351	0.081549294
83	0xbc449342	-0.011998
84	0xbd1045a4	-0.035222664
85	0xbcf938a2	-0.030422512
86	0x3cf85862	0.030315582
87	0x3d263adc	0.040583476
88	0x3c9a35c6	0.01882447
89	0xbc0c4360	-0.008560985
90	0x3cb929f5	0.022603014
91	0x3c9e96cc	0.019359015
92	0xbcae4860	-0.021274745
93	0xbc87db7e	-0.016584154
94	0xbda1a6cd	-0.07893143
95	0xbcda379d	-0.026637847
96	0xbcc4761e	-0.023982104
97	0x3dba3268	0.090916455
98	0x3c769078	0.0150490925
99	0x3c22c928	0.009935655
100	0x3cd345eb	0.025790175
101	0x3d0107ac	0.031501457
102	0xbccf49bf	-0.02530372
103	0x3c9ffdc6	0.019530188
104	0x3ce87b81	0.028379204
105	0xbce1967b	-0.027537575
106	0xbcb2b8b1	-0.021816583
107	0x3d3c4aa3	0.045969617
108	0x3ce113de	0.027475294
109	0x3dbe3870	0.09288108
110	0xbc5a4a32	-0.013323354
111	0xbad40508	-0.0016175816
112	0xbb1e6e9e	-0.002417482
113	0xbcd4eba7	-0.025991274
114	0x3db4c7ee	0.08827196
115	0x3d9f1da0	0.077693224
116	0xbc88382c	-0.016628347
117	0x3cf59c65	0.029981801
118	0x3c9bdd80	0.019026518
119	0x3d076bff	0.033061977

running_mean f4 [120]
0	0xbf4b1558	-0.7932944
1	0x3dbcdaf7	0.09221452
2	0xbe15296f	-0.14566587
3	0xbe78c357	-0.24293266
4	0xbf729ebf	-0.9477348
5	0xbe65a77d	-0.22427173
6	0xbc9e9683	-0.019358879
7	0xbf491ebc	-0.7856252
8	0xbf239060	-0.63892174
9	0xc003a1c4	-2.0567484
10	0xbe481e84	-0.19542891
11	0xbeb9b6b5	-0.36272207
12	0x3f300f1b	0.6877305
13	0x3f3ceec1	0.7380181
14	0xbf35eee6	-0.71067655
15	0x3db395ef	0.08768832
16	0x3e889587	0.2667658
17	0x3f27108c	0.65259624
18	0xbe30c3cb	-0.17262189
19	0xbf0dbaa5	-0.5536292
20	0xbe9baef7	-0.30406925
21	0x3e066cf6	0.13127503
22	0xbeeb301a	-0.45935136
23	0xbfc3f431	-1.5308896
24	0xbee2b9cd	-0.4428238
25	0x3ec28c0c	0.37997472
26	0xbfc84e4c	-1.5648894
27	0x3d5e898f	0.054330405
28	0x3f043f1f	0.51658815
29	0x3da69f27	0.08135825
30	0xbebcdc24	-0.36886704
31	0xbfbacb47	-1.4593285
32	0x3e3aabf9	0.18229665
33	0xbf3e08a8	-0.7423196
34	0xbe00437c	-0.12525743
35	0x3e813c52	0.25241333
36	0x3faa82c7	1.332116
37	0x3ded623c	0.11591002
38	0xbefdd04b	-0.49572977
39	0x3e128de3	0.14311938
40	0x3e9b9d2b	0.30393347
41	0x3ebf12b5	0.3731896
42	0xbf838996	-1.0276363
43	0xbfa338b9	-1.2751685
44	0x3e759e9f	0.2398629
45	0xbfa262f8	-1.2686453
46	0x3e57bac2	0.21067336
47	0xbeca5b55	-0.39522806
48	0x3f128c2f	0.57245153
49	0xbda50585	-0.080576934
50	0xbf49df45	-0.7885631
51	0xbe18e094	-0.1492942
52	0xbf4d171b	-0.8011338
53	0xbfa70ec6	-1.3051383
54	0x3e76ece3	0.24113803
55	0xbe8c514b	-0.27405772
56	0x3f4de6da	0.80430377
57	0xbea8afd5	-0.3294665
58	0x3f128c0f	0.5724496
59	0xbf2cfb57	-0.67571014
60	0x3d4c0c04	0.049816146
61	0xbfd4c2ad	-1.662191
62	0xbeabf99e	-0.3358888
63	0x3f085c44	0.53265786
64	0x3f3794ca	0.7171141
65	0xbe807527	-0.2508938
66	0x3f6702eb	0.9023883
67	0xbf715f1c	-0.9428575
68	0xbe2f262f	-0.1710441
69	0x3d1077d3	0.035270523
70	0xbf93891d	-1.1526219
71	0xbf8fb814	-1.1228051
72	0x3f3dbaca	0.7411314
73	0xbf478e59	-0.7795158
74	0x3f480651	0.7813464
75	0x3f816892	1.0110037
76	0xbf1496af	-0.58042425
77	0xbe9f0553	-0.3105875
78	0xbe0c7515	-0.13716538
79	0x3f1cf728	0.6131463
80	0x3eb4fc6b	0.3534883
81	0xbf387863	-0.72058696
82	0xbf571ee3	-0.84031504
83	0x3f1db177	0.61598915
84	0xbf0329c1	-0.51235586
85	0xbe37e14c	-0.17957038
86	0x3db4be10	0.08825314
87	0xbfa330c1	-1.2749254
88	0x3dfd4e66	0.12368469
89	0xbf07ea5f	-0.53091997
90	0xbf02a654	-0.51035047
91	0xbebf4cc7	-0.37363264
92	0x3c0d59c6	0.008627361
93	0xbf7b7cb8	-0.9823718
94	0xbf21ad22	-0.63154805
95	0x3f67ef72	0.9059974
96	0xbf422bc4	-0.7584803
97	0xbefdb790	-0.4955411
98	0xbb0015ce	-0.0019544247
99	0xbf80fc63	-1.0077022
100	0x3e637016	0.22210726
101	0xbf5d0796	-0.863397
102	0xbf95a748	-1.1691675
103	0xbfcef339	-1.6167976
104	0xbec3ba98	-0.38228297
105	0xbe80f7bf	-0.25189015
106	0xbf32f391	-0.699029
107	0x3e9f6ad6	0.31136197
108	0xbf791d52	-0.97310364
109	0xbefd0d16	-0.49424046
110	0x3e556e19	0.2084278
111	0xbf03aba6	-0.5143379
112	0x3ef31444	0.474764
113	0xbdfc5558	-0.123209655
114	0xbe613bfe	-0.21995541
115	0xbeeb13fc	-0.45913684
116	0xbf44f80a	-0.7694098
117	0x3e248c10	0.16069055
118	0xbfc160d2	-1.5107672
119	0xbe05c0eb	-0.13061874

running_var f4 [120]
0	0x3edc0c1b	0.42977986
1	0x3f3d2d54	0.7389729
2	0x3ef8b896	0.48578328
3	0x3e96e16b	0.29468855
4	0x3efd6972	0.4949451
5	0x3f11d0b7	0.569591
6	0x3ed76f64	0.42077172
7	0x3f3334b6	0.70002306
8	0x3f045d14	0.51704526
9	0x3f57d2f8	0.8430629
10	0x3f0a6e9f	0.54075044
11	0x3f216c51	0.630559
12	0x3f0606f4	0.5235436
13	0x3f0c336c	0.54765964
14	0x3eea44b5	0.45755544
15	0x3f488ac2	0.7833673
16	0x3f337226	0.7009605
17	0x3ec0198d	0.37519494
18	0x3f21aef9	0.6315761
19	0x3f192c26	0.5983299
20	0x3ec1a56c	0.3782152
21	0x3f060cb3	0.5236313
22	0x3f07f5c4	0.53109384
23	0x3f303cae	0.6884259
24	0x3ededcfb	0.4352797
25	0x3f13bf37	0.57713646
26	0x3f371497	0.7151579
27	0x3f455751	0.7708636
28	0x3eae0ff1	0.33996537
29	0x3eb0faa2	0.34566218
30	0x3f1114f3	0.5667259
31	0x3f053119	0.5202804
32	0x3ee480c0	0.44629478
33	0x3f08af4a	0.5339247
34	0x3f077cc0	0.5292473
35	0x3e9dc0ae	0.30811065
36	0x3eeb8674	0.46001017
37	0x3edb93fc	0.4288634
38	0x3f02e6d4	0.51133466
39	0x3f26c593	0.65145224
40	0x3f1eac58	0.61981726
41	0x3ee35f8e	0.4440884
42	0x3edbc182	0.42921072
43	0x3ef3a800	0.4758911
44	0x3f58ea5f	0.8473262
45	0x3f28c6e9	0.6592851
46	0x3ef8e911	0.48615316
47	0x3efb1c51	0.4904504
48	0x3f39eb9d	0.7262514
49	0x3ee13bdc	0.43990982
50	0x3ec952db	0.39321026
51	0x3ef42d61	0.4769087
52	0x3f24b82d	0.6434353
53	0x3f421a5b	0.75821465
54	0x3eaa55eb	0.33268675
55	0x3eda53ee	0.42642158
56	0x3f53bd56	0.8271078
57	0x3ec0f150	0.37684107
58	0x3f1901cf	0.59768385
59	0x3e8c6a2d	0.27424756
60	0x3ef41889	0.4767497
61	0x3f122107	0.57081646
62	0x3e9e2b95	0.30892625
63	0x3f218b54	0.6310322
64	0x3ebed960	0.3727522
65	0x3ee884bf	0.45413777
66	0x3f0d3843	0.55163974
67	0x3f2688f3	0.6505272
68	0x3ee58aad	0.44832364
69	0x3f5f240d	0.87164384
70	0x3f125c3c	0.5717199
71	0x3f340ab3	0.70328826
72	0x3ed08e7b	0.40733704
73	0x3f1691b4	0.58816075
74	0x3f0f1cdd	0.55903417
75	0x3e8c792a	0.2743619
76	0x3eda01ab	0.42579398
77	0x3f05b899	0.522348
78	0x3ebc4e21	0.36778358
79	0x3ef2f55f	0.47452828
80	0x3efc6915	0.4929892
81	0x3ed0131d	0.40639582
82	0x3ed8e398	0.4236114
83	0x3f58d041	0.8469277
84	0x3ea76d99	0.32700804
85	0x3ed92412	0.42410332
86	0x3f5e6bbf	0.8688316
87	0x3f3d5e5c	0.73972106
88	0x3f59dc38	0.8510165
89	0x3ececac3	0.4038907
90	0x3f19eb8d	0.60125047
91	0x3eeace30	0.45860434
92	0x3f108191	0.564477
93	0x3edce752	0.43145233
94	0x3ee5d40b	0.44888338
95	0x3f031976	0.51210725
96	0x3eae6508	0.34061456
97	0x3f082b26	0.5319084
98	0x3f206b2a	0.6266352
99	0x3f0b41ba	0.54397166
100	0x3e8be3d6	0.27322263
101	0x3f11d8c0	0.5697136
102	0x3f0017cf	0.5003633
103	0x3f45a758	0.7720847
104	0x3ec88edb	0.3917149
105	0x3ef1bd67	0.47214815
106	0x3eda0f9e	0.4259004
107	0x3eb9eba7	0.363126
108	0x3f091300	0.53544617
109	0x3f3f879e	0.7481631
110	0x3e9c567b	0.3053473
111	0x3f0a4c36	0.5402254
112	0x3eb0bcb0	0.34518957
113	0x3f3df862	0.7420713
114	0x3f0b2714	0.54356503
115	0x3ee90308	0.45510125
116	0x3f001544	0.5003245
117	0x3ecd39e0	0.40083218
118	0x3f051f2c	0.5200069
119	0x3f200360	0.6250515

weight f4 [84, 120]
0	0xbd874019	-0.066040225
1	0x3af27609	0.0018498312
2	0xbd53ed3b	-0.051739912
3	0xbdcf600e	-0.10125743
4	0x3e2e7356	0.17036185
5	0x3db56e77	0.0885896
6	0x3d99a336	0.07501833
7	0xbe1804b2	-0.14845541
8	0x3bad25f8	0.0052840672
9	0x3e0e111e	0.13873717
10	0x3e072b4b	0.13200109
11	0xbdb36064	-0.087586194
12	0x3d974f66	0.07388191
13	0xbd5aabf7	-0.053386655
14	0xbddeb2cd	-0.10873947
15	0xbe0a5cbf	-0.13511942
16	0x3d4b9b65	0.049708743
17	0x3e284d94	0.16435844
18	0xbd11cad8	-0.035593837
19	0xbb8272ca	-0.003980969
20	0xbe4e4771	-0.2014444
21	0x3dd87e00	0.105709076
22	0x3ca9a673	0.020709252
23	0xbe30f627	-0.172814
24	0xbcbe588b	-0.02323558
25	0x3d8b656e	0.068064556
26	0xbd5bccbc	-0.053662047
27	0x3d81e7d7	0.06343048
28	0xbdea9c96	-0.11455648
29	0x3df79c1d	0.12090323
30	0xbd819b80	-0.063284874
31	0xbd6b083d	-0.057380904
32	0xbdc4917f	-0.09598064
33	0x3e079b09	0.13242735
34	0x3c9e1f28	0.019301966
35	0x3c036372	0.008019315
36	0xbe139800	-0.14413452
37	0x3da5e961	0.08101154
38	0xbe3827d1	-0.17983939
39	0x3e632425	0.22181757
40	0xbe9c5658	-0.30534625
41	0x3d1c68cf	0.03818589
42	0x3ba7c258	0.005119603
43	0x3e07f40a	0.13276687
44	0xbe406830	-0.18789744
45	0x3e66f01b	0.2255253
46	0xbe0c097d	-0.13675494
47	0x3e1fa98f	0.15592025
48	0xbd97f8e1	-0.07420517
49	0x3e1846ef	0.14870809
50	0x3de19009	0.11013801
51	0xbd1daada	-0.038493015
52	0x3dbe6af4	0.092977434
53	0xbe159450	-0.14607358
54	0x3d935dcb	0.07195624
55	0x3c043d31	0.00807123
56	0xbd954ebf	-0.0729041
57	0x3e538eee	0.20659992
58	0xbc009acc	-0.007849406
59	0xbe5d2e0a	-0.21599594
60	0xbe1e5af6	-0.15464386
61	0x3e5d4848	0.21609604
62	0x3d6fa2d4	0.058504894
63	0xbcd37694	-0.025813378
64	0xbd42ba6a	-0.04754106
65	0xbe62a6bb	-0.22133915
66	0x3dded2b9	0.10880036
67	0xbdb8478c	-0.089980215
68	0x3dafef2d	0.08590541
69	0xbc71f9d1	-0.0147690335
70	0xbb723b0e	-0.003696147
71	0xbd9206ed	-0.07130227
72	0x3e271564	0.16316754
73	0x3e0f3319	0.13984336
74	0x3b120f7e	0.0022287066
75	0x3db41bf9	0.08794398
76	0xbdceadbe	-0.100917324
77	0x3d301699	0.0429903
78	0xbe1b3f05	-0.15160759
79	0x3d9526cb	0.0728279
80	0x3dbf20da	0.09332438
81	0x3e257ed1	0.16161658
82	0xbd7e9bbf	-0.06216025
83	0x3e0cab11	0.13737132
84	0xbcc2bf08	-0.023772731
85	0x3d217aa1	0.03942359
86	0xbde67c3d	-0.11254165
87	0x3e809a7c	0.25117862
88	0x3cebc430	0.028780073
89	0x3cfb5387	0.030679477
90	0x3e415bcd	0.18882675
91	0x3ce4dfb6	0.027938705
92	0xbe0387e7	-0.12844811
93	0x3d55d550	0.052205384
94	0x3dccea0b	0.10005578
95	0x3e50f157	0.20404564
96	0xbd4d5fb7	-0.05014011
97	0x3de1cd24	0.110254556
98	0x3e137087	0.14398395
99	0xbdb551e9	-0.08853514
100	0xbd9a28de	-0.07527326
101	0x3d042b94	0.03226812
102	0x3c904dc3	0.017615205
103	0x3e444a22	0.19168904
104	0x3dcd5311	0.10025609
105	0xbe5f0a7d	-0.21781345
106	0xbdbafe22	-0.09130503
107	0x3ccc5a6c	0.02494546
108	0xbd13d221	-0.036089066
109	0x3d6a7f05	0.05725004
110	0xbe4c67a8	-0.19961417
111	0x3dac83d1	0.084235795
112	0xbc226b9c	-0.009913351
113	0x3d2409ab	0.040048283
114	0x3d77c216	0.06048783
115	0xbcdc3e94	-0.026885308
116	0xbe4fb9f7	-0.20285784
117	0x3de48a29	0.111591645
118	0xbdc02eb7	-0.0938391
119	0x3e1eeea2	0.15520719
120	0x3cbdfb75	0.023191193
121	0x3e39a565	0.181295
122	0xbc47f2a6	-0.012203848
123	0x3e0894d8	0.1333803
124	0xbc9c08e7	-0.019047214
125	0xb871f048	-5.7682657e-05
126	0xbd503319	-0.05082998
127	0x3c38beea	0.011275986
128	0x388ae768	6.6234556e-05
129	0xbd11871c	-0.03552924
130	0xbbf3b0a8	-0.0074368306
131	0xbe434817	-0.19070469
132	0xbe0c41cb	-0.13696973
133	0x3ddd6afc	0.10811421
134	0xbd6a7d12	-0.057248183
135	0xbc2ab218	-0.010418437
136	0x3db366e3	0.087598585
137	0xbd8d3d00	-0.068964005
138	0xbd11d9a6	-0.035607956
139	0x3d8188e9	0.06324942
140	0x3cbce9e3	0.023060745
141	0xbe266ce2	-0.16252473
142	0x3e07718c	0.13226908
143	0xb9f238b8	-0.00046200096
144	0x3e03b7f1	0.12863137
145	0xbe1a2459	-0.15052928
146	0x3e6b5303	0.22980885
147	0xbdfcc6de	-0.123426184
148	0xbc0d3b2e	-0.008620067
149	0x3dd1b019	0.10238666
150	0x3cdff4bf	0.027338384
151	0x3da703d9	0.08155031
152	0xbd91ec01	-0.07125092
153	0x3db0739a	0.08615799
154	0x3e0d01f0	0.1377027
155	0x3d2180e4	0.03942956
156	0x3d1f25f3	0.03885455
157	0xbcdebb10	-0.027188808
158	0x3dce5c94	0.100762516
159	0x3d9c4b94	0.07631603
160	0x3d043cf3	0.03228469
161	0xbe65ab43	-0.22428612
162	0x3d267bff	0.040645596
163	0x3e680dec	0.22661561
164	0xbd9d98b6	-0.07695143
165	0x3e0ea464	0.13929898
166	0xbe2bcf7c	-0.16778368
167	0x3d8f76b1	0.070050605
168	0x3cdffbd0	0.027341753
169	0x3dd92aea	0.10603888
170	0xbdd207d3	-0.102553986
171	0x3cebb0ac	0.028770767
172	0xbc842731	-0.01613197
173	0x3e452192	0.19251087
174	0xbd388ce1	-0.045056228
175	0xbdf85668	-0.12125856
176	0xbe09d1f1	-0.13458993
177	0xbe2cc7c2	-0.16873077
178	0xbd5a3e90	-0.05328232
179	0x3db3542d	0.0875629
180	0x3de743e3	0.11292245
181	0x3e115d2d	0.141957
182	0xbe543c62	-0.20726159
183	0xbd5138e6	-0.051079653
184	0x3de41c12	0.111381665
185	0x3e0002a4	0.12501007
186	0x3e2c6dea	0.16838804
187	0x3e40d214	0.18830138
188	0xbca6b2ae	-0.020348873
189	0xbc94dcac	-0.01817163
190	0x3c0e7426	0.008694684
191	0x3d595dcd	0.05306797
192	0x3c8b93b7	0.01703821
193	0xbdcf74b7	-0.101296835
194	0xbd84542e	-0.064613685
195	0xbd8241af	-0.063601844
196	0x3da428bb	0.08015581
197	0x3e2461c6	0.16052923
198	0xbd98f6c4	-0.07468942
199	0xbdadb511	-0.08481801
200	0xbdfad182	-0.12246992
201	0x3e7d2b23	0.24723487
202	0x3c69c55b	0.014268245
203	0xbd8b58d3	-0.06804051
204	0x3e22d742	0.15902427
205	0xbce341ca	-0.027741332
206	0x3e6f7e44	0.2338801
207	0x3e50eb83	0.2040234
208	0x3da3c03f	0.079956524
209	0x3d7b9ed8	0.061430782
210	0xbe54c0e2	-0.20776704
211	0x3bdf65e7	0.0068175676
212	0xbe03959f	-0.12850045
213	0xbcb75f7c	-0.022384398
214	0x3bfed6a3	0.0077770515
215	0xbdcd542c	-0.1002582
216	0x3e46da55	0.19419225
217	0x3e155468	0.1458298
218	0x3e28f90e	0.16501257
219	0x3d040ef2	0.032240815
220	0xbe0060e4	-0.12536961
221	0x3ddb6efb	0.10714527
222	0x3e5796e1	0.2105365
223	0xbb8447af	-0.0040368657
224	0xbdb80dc6	-0.08987002
225	0x3cde274e	0.027118351
226	0x3cbf34d6	0.023340624
227	0x3d8e6bd1	0.06954158
228	0x3d9a6097	0.07537954
229	0x3e10beff	0.14135359
230	0xbdcdd6e0	-0.1005075
231	0xbd8fde3b	-0.07024809
232	0xbe2a336c	-0.16621178
233	0x3cc8c9bd	0.024510259
234	0xbe6b1068	-0.22955477
235	0x3e0bb8e8	0.13644755
236	0xbc33920a	-0.010960111
237	0xbe20d3b1	-0.15705754
238	0xbd2b682e	-0.0418474
239	0x3e377759	0.17916621
240	0xba0a8b29	-0.00052850187
241	0xbe636ed0	-0.2221024
242	0xbe4ccfdf	-0.20001172
243	0x3db0f839	0.08641095
244	0x3e13d3e7	0.14436303
245	0x3d7f4acc	0.06232719
246	0xbe0f4e7f	-0.13994788
247	0x3d80210e	0.06256305
248	0x3dd27272	0.10275735
249	0x3e0016cc	0.12508696
250	0xbddb43ab	-0.10706266
251	0x3e4aa2d7	0.19788681
252	0x3d04cbcd	0.032420922
253	0x3c6731fa	0.014111036
254	0xbc93d5bd	-0.018046254
255	0x3d250036	0.040283404

bias f4 [84]
0	0x3c769379	0.015049809
1	0x3d84a1a3	0.06476142
2	0x3d394f19	0.04524145
3	0x3d12cac5	0.035837907
4	0xbce7907f	-0.028267143
5	0x3ca64aeb	0.020299396
6	0xbca133cf	-0.019678025
7	0xbb841866	-0.004031229
8	0xbc67eee9	-0.014156082
9	0x37482035	1.1928428e-05
10	0x3cf861ea	0.030320127
11	0xbcf07022	-0.029350344
12	0x3d80e6ed	0.062940456
13	0xbd178cbc	-0.03699945
14	0x3ca9e3be	0.020738479
15	0x3c6c4985	0.014421825
16	0x3cf5dd0d	0.030012632
17	0x3ca4ffc4	0.02014149
18	0xbb8f032d	-0.0043643923
19	0x3d092aca	0.033488072
20	0x3d62ef9e	0.055404298
21	0x3c86315e	0.016380962
22	0x3ab79747	0.0014006876
23	0x3b226871	0.002478149
24	0xbd5aac93	-0.053387236
25	0x3d2e9bf9	0.042629216
26	0x3c9f31fa	0.01943301
27	0xbca6d33c	-0.020364396
28	0x3c87187a	0.016491164
29	0x3cdbea8d	0.026845241
30	0x3c8a8667	0.016909791
31	0x3cd010f8	0.025398716
32	0xbc279f41	-0.01023084
33	0x39866b8b	0.00025638597
34	0xbc80950f	-0.015696077
35	0x3d29ae1b	0.041425806
36	0x3d316e29	0.043317948
37	0x3d1f8baa	0.038951553
38	0x3d129155	0.03578313
39	0x3cb6336d	0.022241319
40	0xbb23c189	-0.0024987182
41	0x3bf8617a	0.0075799795
42	0x3cafab32	0.021443937
43	0x3ba25ffb	0.0049552894
44	0x3bdbed0a	0.006711607
45	0x3b68205b	0.0035419676
46	0x3ca32e69	0.019919591
47	0xb886fe47	-6.436981e-05
48	0x3d43ee6b	0.047834795
49	0xbd324993	-0.043527197
50	0x3d075ac2	0.033045538
51	0x3c5dfe95	0.013549467
52	0xbc5bc44c	-0.0134135
53	0x3cdc546a	0.02689572
54	0x3d44d9ea	0.04805938
55	0xbd8e722d	-0.06955371
56	0x3cbfe7ec	0.023426019
57	0x3cbf7983	0.023373371
58	0x3cf79e02	0.030226711
59	0xbb34a9d8	-0.0027567055
60	0x3d79eedc	0.06101881
61	0x3c93815e	0.018006023
62	0xbc47b19e	-0.012188343
63	0xbb0575dc	-0.002036444
64	0x3cf890af	0.030342428
65	0x3d0ce5c7	0.03439882
66	0x3d2e5359	0.042559955
67	0x3d5b5353	0.05354626
68	0x3cba2603	0.022723204
69	0x3d03c7ce	0.03217297
70	0x3d377e81	0.044798378
71	0x3cdd42a7	0.027009321
72	0xbb877126	-0.0041333614
73	0xbca83abf	-0.020535825
74	0x3cba779b	0.02276211
75	0x3c9d870e	0.019229438
76	0x3c6f801e	0.014617948
77	0x3d04e609	0.03244594
78	0x3b6fc100	0.0036583543
79	0x3d71a6ca	0.058996953
80	0xbc0ba38a	-0.0085228775
81	0x3d1a09ca	0.03760699
82	0xbc5a9e57	-0.013343415
83	0x3d7402ff	0.05957317
