model1/model/model.pt (torch, 279427 bytes, 22 tensors)

weight f4 [6, 3, 5, 5]
0	0xbe0de407	-0.13856517
1	0xbd163207	-0.036668804
2	0x3e23de5f	0.16002797
3	0xbc051573	-0.00812279
4	0x3d203242	0.03911043
5	0x3d8a19b8	0.06743187
6	0xbe103464	-0.14082485
7	0x3dfad572	0.12247743
8	0x3dbd50f1	0.09243954
9	0xbe186202	-0.14881137
10	0xbcfa8cf9	-0.0305848
11	0x3c69b2e4	0.014263842
12	0xbec0e446	-0.3767416
13	0xbd92b9fe	-0.071643814
14	0xbe399d4d	-0.18126412
15	0xbe10fbdf	-0.14158581
16	0xbd98d91e	-0.07463287
17	0xbda1a6ed	-0.07893167
18	0xbcd30881	-0.02576089
19	0x3c762f42	0.015025916
20	0x3d8665d0	0.06562388
21	0x3e2d3742	0.1691561
22	0x3d312885	0.043251533
23	0x3dbbb7d8	0.09165925
24	0x3e4c671c	0.19961208
25	0xbd25b75b	-0.040458065
26	0x3d80b7bb	0.06285044
27	0x3cac4d56	0.02103297
28	0x3bb2adc3	0.005452843
29	0xbd91eeaf	-0.071256034
30	0x3d1c5878	0.038170308
31	0x3e0ce7c0	0.1376028
32	0xbe59a250	-0.21253324
33	0x3cea0d74	0.028570868
34	0xbe06b6d4	-0.13155681
35	0xbbff876d	-0.0077981264
36	0xbe6dcd16	-0.23222765
37	0xbe0b2963	-0.13590007
38	0xbded8e97	-0.115994625
39	0xbe60c421	-0.21949817
40	0xbd61063b	-0.054937582
41	0xbc54d37c	-0.012989875
42	0xbd8e33a2	-0.06943442
43	0x3d55a63e	0.052160494
44	0x3da575ab	0.08079084
45	0x3cb08a6c	0.02155038
46	0xbd0f0c17	-0.03492364
47	0x3e370f9b	0.17877047
48	0xbdac2f16	-0.084074184
49	0x3d686d78	0.056745023
50	0x3d57a171	0.052644197
51	0x3db21e96	0.0869724
52	0xbd3f084e	-0.04663878
53	0x3e73073a	0.23733225
54	0x3e346f08	0.1762048
55	0x3dc6cf00	0.09707451
56	0x3d0bfe93	0.034178328
57	0xbe54e854	-0.20791751
58	0xbe1da132	-0.15393522
59	0x3a4aedd7	0.00077411294
60	0xbdcaa87f	-0.09895419
61	0xbd932832	-0.07185401
62	0xbea0ca88	-0.3140452
63	0xbe3856e1	-0.18001892
64	0xbe2084f5	-0.15675719
65	0xbd5d67e5	-0.05405416
66	0xbdcc69b1	-0.099810965
67	0xbe90b72f	-0.28264758
68	0x3cd1b524	0.02559907
69	0x3d5f5ec4	0.054533735
70	0xbcc43f99	-0.023956107
71	0x3d93b296	0.07211797
72	0xbcf626cc	-0.030047797
73	0x3c353ce2	0.011061879
74	0xbdcb8fab	-0.09939512
75	0xbdd107ac	-0.102065414
76	0x3db94ea2	0.09048201
77	0x3dd568d5	0.10420386
78	0x3e0fd72f	0.1404693
79	0x3e1bf940	0.152318
80	0x3cbbd0c3	0.022926694
81	0x3deb9442	0.11502887
82	0xbd38fd3e	-0.045163386
83	0xbe120fb3	-0.14263801
84	0x3d0c80df	0.03430259
85	0x3dfb4685	0.1226931
86	0xbc06e689	-0.008233675
87	0x3d7dd1e1	0.061967734
88	0x3d341fbb	0.043975573
89	0xbd4da15b	-0.05020271
90	0x3d930e75	0.07180492
91	0xbdb01dd5	-0.0859944
92	0x3d1c0d12	0.038098402
93	0xbe212482	-0.15736583
94	0xbe035905	-0.12826927
95	0x3de2c476	0.11072628
96	0x3dc67385	0.09690002
97	0xbbf224a6	-0.0073896227
98	0xbe6c7c06	-0.23094186
99	0xbe607413	-0.21919279
100	0xbdd253d2	-0.10269894
101	0x3da78982	0.081805244
102	0x3e416b39	0.18888558
103	0x3d29a007	0.04141238
104	0x3d7853d1	0.06062681
105	0x3d0ea076	0.034820996
106	0x3e19194a	0.14951053
107	0x3da236cd	0.07920609
108	0x3dd46a44	0.10371831
109	0xbd802a05	-0.062580146
110	0xbdfcb136	-0.12338488
111	0x3dd6da8a	0.10490902
112	0x3d1b9bad	0.03799026
113	0xbdfc0405	-0.12305454
114	0x3d03470b	0.032050174
115	0xbd9e097c	-0.07716653
116	0xbe0fc865	-0.14041288
117	0x3de455e7	0.11149197
118	0xbe5110cc	-0.20416564
119	0xbe7f450c	-0.24928683
120	0x3e2951b2	0.1653507
121	0xbd368f2e	-0.04457014
122	0x3d26feb0	0.040770233
123	0xbe2b2333	-0.16712646
124	0xbba71eb4	-0.0051000956
125	0x3ddcab05	0.10774807
126	0xbd90dddc	-0.07073566
127	0x3e43a7f4	0.19107038
128	0x3e0ce5a1	0.13759471
129	0x3db6ea81	0.08931447
130	0xbd658c11	-0.05604178
131	0xbd8372da	-0.064183906
132	0xbdc650c5	-0.09683374
133	0x3d2dda11	0.042444292
134	0x3dfd6b2e	0.123739585
135	0xbdc10135	-0.09424058
136	0x3e146138	0.14490211
137	0x3da59490	0.08084977
138	0x3d8f394b	0.0699335
139	0xbe5be7f6	-0.21475205
140	0x3ddcab62	0.10774876
141	0x3da0bfbd	0.07849071
142	0xbdb1b6ba	-0.086774305
143	0xbe0f37a8	-0.13986075
144	0xbce80068	-0.028320506
145	0xbde43d0c	-0.11144456
146	0x3d1907ba	0.037360884
147	0xbd448bda	-0.047984935
148	0xbd7cd9ca	-0.061731137
149	0xbe4cff4c	-0.20019263
150	0xbd065511	-0.03279597
151	0xbc1c781b	-0.00955012
152	0xbd238f34	-0.03993149
153	0xbebc9d85	-0.36838928
154	0xbe5f4663	-0.21804194
155	0x3db57237	0.088596754
156	0x3de0fbac	0.109855026
157	0x3d26c09d	0.040711034
158	0xbe1f9703	-0.1558495
159	0x3d54b88a	0.051933803
160	0x3db6e1bb	0.089297734
161	0xbe036ebe	-0.12835214
162	0x3e0da82a	0.13833681
163	0x3dc05a68	0.093922436
164	0xbe067ebf	-0.13134287
165	0xbd8fd8c4	-0.07023767
166	0x3cf16f0c	0.029471897
167	0x3d98f242	0.07468082
168	0xbd55eeb8	-0.052229613
169	0xbd227226	-0.03965964
170	0x3dbb0dcc	0.09133491
171	0xbbd84e69	-0.006601144
172	0xbbc7b32d	-0.0060943575
173	0xbe0cc47a	-0.13746825
174	0x3e1a6557	0.1507772
175	0x3d298ec0	0.041395903
176	0xbd70ae1c	-0.058759794
177	0xbdbc7b94	-0.09203258
178	0xbe44b220	-0.19208574
179	0xbe74a698	-0.23891675
180	0x3d016190	0.031587183
181	0x3cf938e9	0.030422645
182	0xbb836e67	-0.0040109637
183	0xbe1d9ddf	-0.15392254
184	0xbd5757f9	-0.05257413
185	0x3de89d9f	0.11358189
186	0x3c8193a2	0.015817467
187	0x3daa8809	0.08326728
188	0x3e1f2606	0.15541849
189	0xbce959b1	-0.028485151
190	0xbe0b63e2	-0.13612321
191	0xbdff10eb	-0.12454399
192	0xbcfb1574	-0.030649878
193	0xbc24253c	-0.010018643
194	0x3e20ab74	0.15690404
195	0x3de48567	0.11158257
196	0x3d6a453c	0.057194933
197	0x3d7fed35	0.062482078
198	0xbe0fa17b	-0.14026444
199	0x3c27fe8b	0.010253559
200	0x3c4561a1	0.012047202
201	0x3d864877	0.0655679
202	0xbe306f04	-0.17229849
203	0xbedeaaa4	-0.43489563
204	0xbedcb6d8	-0.4310825
205	0x3e522cfc	0.20524973
206	0x3e18b47d	0.14912601
207	0xbdf7d0e9	-0.12100393
208	0x3c81a5bf	0.015826104
209	0xbe7ccf74	-0.24688512
210	0x3d36053b	0.044438582
211	0x3db1ba0d	0.086780645
212	0xbca2a5a8	-0.019854382
213	0xbd621b9d	-0.055202115
214	0xbd349593	-0.044087958
215	0x3e061a67	0.13096009
216	0xbd1d614c	-0.038422868
217	0xbd9110df	-0.07083296
218	0x3c26476f	0.010148867
219	0x3dfcf316	0.123510525
220	0xbde370b6	-0.11105482
221	0xbd609e9b	-0.054838758
222	0xbd410003	-0.04711915
223	0x3d8eac07	0.06966405
224	0x3e418024	0.18896538
225	0xbbb0ea87	-0.0053990516
226	0x3e279cae	0.16368362
227	0xbd760f51	-0.0600732
228	0x3d3b4adf	0.0457257
229	0x3daba9e9	0.08382017
230	0xbd44cf49	-0.048049245
231	0x3db873b7	0.09006446
232	0x3d82337a	0.063574746
233	0x3d7438d3	0.059624504
234	0xbe457025	-0.19281061
235	0xbe02573e	-0.12728593
236	0x3d63209b	0.055451017
237	0xbc10a672	-0.008828746
238	0x3e0dd5f7	0.13851152
239	0xbe0e8ab8	-0.13920105
240	0xbd4375cf	-0.047719773
241	0x3d88ee1e	0.06686042
242	0xbdb80ba5	-0.08986596
243	0x3ca02ea5	0.019553492
244	0xbe78906a	-0.2427384
245	0x3d912c62	0.070885435
246	0x3e234046	0.15942487
247	0x3d464d46	0.048413537
248	0x3d254e57	0.040357914
249	0xbc00c643	-0.007859769
250	0xbdace21c	-0.084415644
251	0x3e663d15	0.22484238
252	0x3e24bc6b	0.16087501
253	0x3e07ce27	0.13262235
254	0xbd79a38e	-0.060946994
255	0x3d6b777d	0.057487

bias f4 [6]
0	0xbd512366	-0.05105915
1	0xbb3ac91a	-0.0028501214
2	0x3bef6bbf	0.0073065455
3	0xbdcd1a89	-0.10014827
4	0x3cc53d4d	0.024077082
5	0x3dacaf31	0.084318526

weight f4 [6]
0	0x3f72aac3	0.9479181
1	0x3f4d95d5	0.8030675
2	0x3f9cdc2a	1.2254689
3	0x3f0bd47d	0.54621106
4	0x3f4b4321	0.79399306
5	0x3f8fef27	1.1244859

bias f4 [6]
0	0xbeedd030	-0.46447897
1	0x3d0c9f3d	0.03433155
2	0xbebae8c6	-0.36505717
3	0xbe17908e	-0.14801237
4	0xbbb42469	-0.0054975045
5	0xbef77480	-0.4833107

running_mean f4 [6]
0	0x3f80ee00	1.0072632
1	0x3d34215d	0.04397713
2	0x3f555e01	0.83346564
3	0xbf0abb04	-0.54191613
4	0x3d798de1	0.060926322
5	0x3f765a34	0.9623139

running_var f4 [6]
0	0x3fcf9a95	1.621905
1	0x3ec363f4	0.38162196
2	0x3f9da10c	1.2314773
3	0x3f1203cb	0.5703704
4	0x3e72e419	0.23719825
5	0x3facaae0	1.3489647

weight f4 [16, 6, 5, 5]
0	0xbdc2df07	-0.09515195
1	0xbdd63435	-0.104591765
2	0xbe38e123	-0.18054633
3	0xbe5a4447	-0.21315108
4	0xbd9af878	-0.07566923
5	0xbe2ec15d	-0.1706595
6	0xbd9fa267	-0.07794648
7	0xbdba07be	-0.09083508
8	0xbdb058af	-0.08610665
9	0xbcb24149	-0.021759646
10	0x3a4f3863	0.00079048256
11	0x3d8f7838	0.07005352
12	0x3da08b66	0.07839088
13	0xbc0bea4c	-0.008539747
14	0xbd856b11	-0.06514562
15	0xbd242fab	-0.040084522
16	0x3da72e6c	0.08163151
17	0x3e28e422	0.16493276
18	0x3e1cff9d	0.15331884
19	0x3dcd9b77	0.10039418
20	0x3de88686	0.11353783
21	0x3e79a4e6	0.2437931
22	0x3e7e3cf2	0.24827936
23	0x3e5e7da7	0.2172762
24	0x3e0afa55	0.13572057
25	0x3dcaf73c	0.099104375
26	0xbd8c391c	-0.0684683
27	0xbd3c45a3	-0.04596485
28	0x3d744904	0.059639946
29	0x3cd265b3	0.02568326
30	0x3db14a85	0.086567916
31	0xbc84a272	-0.016190741
32	0x3d35e2e9	0.04440585
33	0xbdab8ada	-0.08376093
34	0x3d9d2268	0.07672578
35	0x3d1706d3	0.036871742
36	0xbd8ad3c1	-0.0677867
37	0xbb36270c	-0.002779427
38	0xbd6a7393	-0.057239126
39	0x3d4ee991	0.050515715
40	0xbd3c12ea	-0.045916475
41	0xbd8b169a	-0.0679142
42	0xbc566031	-0.013084457
43	0xbe01bc85	-0.1266957
44	0xbd4d60dd	-0.050141204
45	0x3e0f83e5	0.14015158
46	0x3cc368fe	0.023853775
47	0x3ddf8b67	0.10915261
48	0x3d1207ce	0.035651974
49	0xbd145615	-0.036214907
50	0x3d6ab10d	0.057297755
51	0xbd74e82d	-0.059791733
52	0xbd8fe913	-0.07026877
53	0x3a58fc03	0.0008277299
54	0xbd778390	-0.060428202
55	0xbd17291c	-0.03690444
56	0xbe4963b4	-0.1966694
57	0xbe5ff66b	-0.21871345
58	0xbe1f2f09	-0.15545286
59	0xbda44b6e	-0.080221996
60	0xbbd2e8e0	-0.0064364523
61	0x3d2179db	0.03942285
62	0xbe1d64f6	-0.15370545
63	0xbd3a6999	-0.045510862
64	0xbdf6033d	-0.120123364
65	0x3e17b355	0.14814503
66	0xbd8cb940	-0.06871271
67	0x3c543c4d	0.01295383
68	0x3d80749c	0.062722415
69	0xbd816ff8	-0.063201845
70	0x3d867d5a	0.06566878
71	0x3af45660	0.0018641464
72	0x3de96e46	0.11397986
73	0xbdfae3ca	-0.122504786
74	0xbdcc8666	-0.09986572
75	0x3c0c7c89	0.008574613
76	0xbe01d033	-0.12677078
77	0x3d7345d3	0.05939276
78	0x3baf10bc	0.005342571
79	0x3ce15af5	0.027509192
80	0xbc786188	-0.015159972
81	0xbd0d47d1	-0.034492318
82	0xbddc3ab0	-0.10753381
83	0x3d0cf73e	0.034415476
84	0xbcf6c340	-0.0301224
85	0x3e04d30d	0.12971134
86	0x3d523451	0.051319424
87	0xbdf06996	-0.11738889
88	0x3d4cd8f5	0.050011594
89	0x3d9ce8fd	0.076616265
90	0xbdd11187	-0.10208421
91	0x3ce3d5ca	0.027811904
92	0x3cf992b3	0.03046546
93	0x3aef7624	0.0018269462
94	0x3dc05ee4	0.09393099
95	0x3d016c71	0.03159756
96	0xbdb720bb	-0.0894179
97	0xbd4af7c7	-0.049552705
98	0x3d85bdab	0.06530317
99	0x3dac195c	0.084032744
100	0x3db42449	0.08795983
101	0xbcfac31e	-0.030610617
102	0x3d8634f5	0.065530695
103	0x3c803c51	0.015653761
104	0xbd604c4b	-0.05476026
105	0xb9eaaa05	-0.00044758632
106	0x3ca55ea3	0.020186728
107	0x3d90153f	0.07035302
108	0xbb90ef14	-0.0044230316
109	0x3caba0a7	0.020950628
110	0x3d7be5ef	0.06149858
111	0x3cef5f41	0.029220225
112	0x3cb5bf46	0.022185933
113	0x3c9932f6	0.018701058
114	0xbe39d623	-0.18148093
115	0xbd0dcc4b	-0.034618657
116	0x3e0a2a0e	0.13492605
117	0xbc2f2808	-0.010690697
118	0xbe42804d	-0.18994255
119	0xbe63b435	-0.22236712
120	0x3c2b0f19	0.010440611
121	0x3e031f5a	0.12804928
122	0x3d2c2893	0.042030882
123	0xbdeb9778	-0.115035
124	0xbe7782c1	-0.24170972
125	0xbdb0b0b4	-0.086274534
126	0x3ccaba88	0.024747148
127	0xbe0aa255	-0.13538487
128	0xbcfbbf0d	-0.030730749
129	0xbdb5436c	-0.0885075
130	0xbe2a7ed6	-0.16649947
131	0xbdccd629	-0.10001785
132	0x3c183212	0.009289281
133	0xbdcfe041	-0.10150195
134	0xbd0af1fc	-0.03392218
135	0x3cedaccb	0.029013058
136	0x3dc83144	0.09775022
137	0x3da8f8d1	0.08250583
138	0xbc1c2fb7	-0.0095328605
139	0x3da1422e	0.07873951
140	0xbdbec637	-0.0931515
141	0x3d0de6cc	0.034643933
142	0x3d0076b7	0.031363215
143	0xbdaccd17	-0.08437555
144	0x3d59f175	0.053208787
145	0x3ab59f58	0.0013856692
146	0x3e8abd01	0.27097324
147	0x3ea0db1c	0.31417167
148	0x3e37612a	0.17908159
149	0x3ce14ec4	0.027503379
150	0xbe09b6d3	-0.13448648
151	0xbd9665b7	-0.07343619
152	0x3e4f9264	0.20270687
153	0x3d9691e8	0.07352048
154	0x3dfba89b	0.12288018
155	0xbe4e32aa	-0.20136514
156	0xbc4bb5d8	-0.012433492
157	0xbd826597	-0.06367033
158	0xbd292659	-0.041296337
159	0x3e2c3b4c	0.16819495
160	0xbe46796e	-0.19382259
161	0xbd8859e6	-0.06657772
162	0x3e06524d	0.13117333
163	0x3dcd4da0	0.100245714
164	0xbc18b509	-0.009320506
165	0xbe4ccfbf	-0.20001124
166	0x3ceb81b8	0.028748378
167	0x3e1a4efc	0.15069193
168	0x3d8bda36	0.0682873
169	0x3d9c157d	0.07621286
170	0xbda03813	-0.07823195
171	0xbc40761e	-0.011746911
172	0x3ce3aa7b	0.027791252
173	0x3e156445	0.14589031
174	0xbd852cd8	-0.06502694
175	0xbc9ca087	-0.019119514
176	0x3ce8c507	0.028414262
177	0xbcbc1b7c	-0.022962324
178	0xbda407c3	-0.08009293
179	0x3ce28e9d	0.027655894
180	0x3dae8a42	0.08522464
181	0x3e12efb5	0.14349253
182	0x3d4acb4a	0.049510278
183	0xbe04c97b	-0.12967484
184	0xba3cef6c	-0.00072073075
185	0xbddd138d	-0.10794745
186	0x3d6befad	0.05760162
187	0xbc770393	-0.015076536
188	0xbda090b4	-0.078401
189	0x3db2d5ee	0.0873221
190	0x3d9aab00	0.07552147
191	0x3cc97d49	0.024595873
192	0x3d2c2d8c	0.042035624
193	0x3cb83601	0.022486689
194	0xbd76d11f	-0.060258027
195	0xbdad7177	-0.08468907
196	0xbd851f58	-0.06500119
197	0x3dc806d6	0.09766929
198	0xbe052145	-0.13000973
199	0xbe0b35e3	-0.13594775
200	0xbd2a1da9	-0.041532192
201	0x3d388bf0	0.04505533
202	0x3d766a48	0.06015995
203	0x3e1e9620	0.15486956
204	0x3e42c733	0.19021301
205	0xbd7a7612	-0.061147757
206	0xbd08b4f3	-0.03337569
207	0xbda960e7	-0.08270436
208	0x3d319027	0.043350365
209	0x3e6b1d4c	0.22960395
210	0xbd69cabe	-0.057078116
211	0x3dc85c30	0.09783208
212	0xbdefb232	-0.1170391
213	0xbdf297dd	-0.11845372
214	0x3e22b03d	0.15887542
215	0xbdc41c9c	-0.09575769
216	0x3e135e1e	0.14391372
217	0x3d1bc587	0.038030174
218	0xbdde327f	-0.10849475
219	0x3c4de7e0	0.01256749
220	0x3c47bc06	0.012190824
221	0x3e12d34b	0.14338414
222	0x3bbb3808	0.0057134666
223	0xbd107ea8	-0.03527704
224	0xbe1709fa	-0.147499
225	0xbd15103d	-0.03639244
226	0xbd5fc566	-0.054631613
227	0xbd8df06b	-0.06930622
228	0xbd1ce6d5	-0.038306076
229	0x3d6265ed	0.055272985
230	0xba60979f	-0.0008567515
231	0xbd917c1d	-0.07103751
232	0xbdae7390	-0.085181355
233	0xbdd9e4d6	-0.1063935
234	0x3ccd0bfd	0.02503013
235	0xbcfee5c7	-0.031115426
236	0xbdc4ce78	-0.09609693
237	0xbe04bf84	-0.12963682
238	0x3bbae671	0.0057037403
239	0xbd3d0b4d	-0.046153355
240	0x3caed512	0.021341834
241	0x3caabb46	0.020841252
242	0xbca6a4c6	-0.020342242
243	0xbb3baf4f	-0.0028638428
244	0x3c29480d	0.01033212
245	0xbd9231a3	-0.07138374
246	0xbc83ddcb	-0.01609697
247	0x3dae4b8b	0.085105024
248	0x3c68d9e0	0.014212102
249	0x3c00dfdc	0.007865872
250	0xbd5f9779	-0.054587815
251	0x3cfdfa01	0.031003
252	0xbd299cd4	-0.04140933
253	0x3d025dca	0.031827725
254	0x3cdaa536	0.026690107
255	0xbd7a7b07	-0.061152484

bias f4 [16]
0	0x3d0c0450	0.0341838
1	0xbcbde7d2	-0.02318183
2	0xbdd91f43	-0.10601666
3	0xbb816580	-0.0039488673
4	0xbc23163a	-0.00995403
5	0xbd394db8	-0.045240134
6	0x3ca65bf4	0.020307519
7	0xb809e2a8	-3.2874435e-05
8	0x3cec256a	0.028826434
9	0x3b92eefe	0.0044840565
10	0xbd822022	-0.06353785
11	0xbcb1340f	-0.021631269
12	0xbc16b5e2	-0.009198638
13	0xbda415be	-0.080119595
14	0xbb8de4ac	-0.0043302383
15	0xbcecd962	-0.02891225

weight f4 [16]
0	0x3f666f84	0.9001391
1	0x3f767ca1	0.9628392
2	0x3f60ef1d	0.8786486
3	0x3f7a24b3	0.9771225
4	0x3f6344ba	0.88776743
5	0x3f67c7b3	0.9053909
6	0x3f65e748	0.8980603
7	0x3f782f1e	0.96946895
8	0x3f8fb98d	1.1228501
9	0x3f6be877	0.9215159
10	0x3f831794	1.024157
11	0x3f84008a	1.0312665
12	0x3f8fedb1	1.1244413
13	0x3f7c0fa4	0.98461366
14	0x3f99a36e	1.2003
15	0x3f861998	1.047656

bias f4 [16]
0	0xbde7929f	-0.11307263
1	0xbdf3c732	-0.11903228
2	0xbe57e506	-0.2108346
3	0xbe1145cc	-0.14186782
4	0xbdde5e73	-0.108578585
5	0xbe8bbb19	-0.27291182
6	0xbeb14997	-0.34626457
7	0xbddf9314	-0.10916725
8	0xbe738507	-0.23781215
9	0xbe5a6b21	-0.21329929
10	0xbea7d704	-0.3278123
11	0xbe1d53f3	-0.15364055
12	0xbe7fa1ba	-0.24964038
13	0xbe014f05	-0.126278
14	0xbe240abd	-0.16019721
15	0xbe06d561	-0.13167335

running_mean f4 [16]
0	0xbe963959	-0.29340628
1	0xbe889fac	-0.2668432
2	0xbaf7eb35	-0.0018914702
3	0xbe289fd2	-0.16467217
4	0xbec5826c	-0.38576066
5	0xbe4145c6	-0.18874273
6	0x3db5677d	0.088576294
7	0xbd75c0a8	-0.059998184
8	0xbe80fdcc	-0.25193632
9	0xbeca178b	-0.39471087
10	0xbe43f409	-0.19136061
11	0xbed0fd12	-0.40818077
12	0xbe132e26	-0.14373073
13	0xbf0979d0	-0.53701496
14	0xbea27374	-0.3172871
15	0xbe90464b	-0.2817863

running_var f4 [16]
0	0x3ec90791	0.39263585
1	0x3e78b32a	0.24287096
2	0x3e5a27b1	0.21304204
3	0x3e425060	0.18975973
4	0x3edaf2a2	0.4276324
5	0x3dd5a0ef	0.10431086
6	0x3e7471fd	0.23871608
7	0x3e69af1d	0.22820707
8	0x3e872b02	0.264
9	0x3ea2867e	0.31743234
10	0x3e08f0aa	0.13373056
11	0x3ec1c3b2	0.37844616
12	0x3e1dc159	0.15405788
13	0x3ed383c4	0.41311467
14	0x3e8b33c4	0.27187932
15	0x3e8b9a31	0.27266076

weight f4 [120, 16, 5, 5]
0	0xbcc3984a	-0.023876328
1	0xbdad3639	-0.08457608
2	0xbcf01a94	-0.029309548
3	0xbc05940a	-0.008152971
4	0xbc9f58b8	-0.019451484
5	0x3bc6c6ae	0.006066165
6	0x3c02f0a6	0.007991945
7	0x3be5e3ec	0.007015696
8	0x3bc54598	0.006020259
9	0x3d233b97	0.03985175
10	0xbd193132	-0.037400432
11	0xbdafd3f5	-0.085853495
12	0x3cc6d6c6	0.024272334
13	0xbc185513	-0.009297627
14	0x3d615dd7	0.055021133
15	0xbddd3c35	-0.10802499
16	0xbc788a1e	-0.015169648
17	0xbce206d4	-0.027591147
18	0xbc05476c	-0.008134704
19	0xbc87be15	-0.01657013
20	0x3ca7379d	0.02041226
21	0xbd0dac40	-0.0345881
22	0xbdff5802	-0.12467958
23	0xbdde3311	-0.10849584
24	0xbd7a2603	-0.061071407
25	0x3b78ac62	0.0037944545
26	0x3d334569	0.043767367
27	0x3cd24538	0.025667772
28	0x3c764fd7	0.015033684
29	0xbda959c2	-0.08269073
30	0xbcb5da7d	-0.02219891
31	0x3b4d2490	0.003130231
32	0xbdae41f0	-0.0850867
33	0x3b45e46d	0.0030195967
34	0xbd17f3b0	-0.037097633
35	0xbdac87e2	-0.08424355
36	0xbd6f2f04	-0.058394447
37	0xba2dd0ea	-0.0006630557
38	0x3d804923	0.0626395
39	0x3c270c4a	0.010195801
40	0xbdc04d0e	-0.09389697
41	0xbc2d22a0	-0.010567337
42	0xbca2c0cc	-0.019867323
43	0x3e472817	0.19448887
44	0x3d12bbe0	0.035823703
45	0x3e4352eb	0.190746
46	0x3d93818e	0.07202445
47	0x3e02b74b	0.12765233
48	0x3d952eff	0.072843544
49	0x3cbecad7	0.023290081
50	0x3d60a501	0.05484486
51	0xbdbafd35	-0.09130327
52	0x3d0746b3	0.03302641
53	0x3cfab27e	0.03060269
54	0xbd14b108	-0.036301643
55	0x3c25b797	0.010114572
56	0xbdd3452b	-0.10315927
57	0xbcb0cb13	-0.021581208
58	0xbcb44307	-0.022004617
59	0x3ca20afd	0.01978063
60	0x3c76a9b1	0.015055106
61	0xbd12a152	-0.03579838
62	0xbdb26904	-0.087114364
63	0x3b9398e0	0.004504308
64	0x3e1d883b	0.15383999
65	0xbd33cee5	-0.043898482
66	0xbd75a924	-0.05997576
67	0xbda1a03f	-0.07891893
68	0x3c9444e5	0.018099258
69	0x3dde58bb	0.10856768
70	0xbc827a54	-0.015927471
71	0xbbe96367	-0.0071224454
72	0xbd9048dc	-0.07045147
73	0xbdf792ec	-0.1208857
74	0x3d7be9c7	0.061502244
75	0xbd663280	-0.056200504
76	0xbcab0fa7	-0.020881487
77	0xbbd973df	-0.0066361274
78	0xbda924a4	-0.08258942
79	0x3dced8cb	0.10099944
80	0xbc81c00e	-0.01583865
81	0xbd9470c1	-0.072480686
82	0xbd321324	-0.043475285
83	0x3a8f29f4	0.0010922537
84	0xbdf7fbba	-0.1210856
85	0xbdc4f95b	-0.09617873
86	0xbd60962b	-0.05483071
87	0x3b25a112	0.0025273007
88	0x3c0d065b	0.008607472
89	0xbca7f2f2	-0.020501588
90	0xbc888d93	-0.01666907
91	0x3d8ff2a9	0.070287056
92	0xbb24b443	-0.0025131858
93	0x3cecd34a	0.028909344
94	0x3dc634da	0.096780494
95	0xbe0322d0	-0.12806249
96	0xbd8bd029	-0.06826813
97	0xbd42cb77	-0.04755732
98	0x3d7670b0	0.06016606
99	0x3df94e62	0.121731535
100	0xbdbb7495	-0.09153096
101	0xbd71f992	-0.0590759
102	0x3cd7589c	0.02628737
103	0xbdb44a0d	-0.088031866
104	0xbd018bc6	-0.03162744
105	0xbca5a615	-0.020220796
106	0xbc5a4f87	-0.013324625
107	0x3d832b11	0.06404699
108	0xbd1a546b	-0.037678163
109	0xbc7e6acb	-0.015528391
110	0x3d59b9b2	0.05315561
111	0xbbab4ef5	-0.0052279183
112	0xbb81ff3c	-0.003967194
113	0xbb675dbf	-0.003530368
114	0xbd102be5	-0.03519811
115	0x3d5c4870	0.05378002
116	0xbd1dd84e	-0.038536362
117	0xbdb5c3c3	-0.08875229
118	0xbdd72a1e	-0.1050608
119	0xbd48f93d	-0.049065817
120	0xbd2d9f55	-0.04238828
121	0xbe374605	-0.17897804
122	0xbe5144ef	-0.20436452
123	0xbe51c569	-0.20485462
124	0xbde3a8de	-0.11116193
125	0x3e0b6fc6	0.13616857
126	0x3ddf6f3f	0.109098904
127	0xbd934504	-0.07190898
128	0x3d51852d	0.051152397
129	0x3c8a0393	0.016847407
130	0x3c6b729f	0.0143705895
131	0x3cb6656a	0.022265155
132	0x3d1b50a4	0.0379187
133	0x3bbf3f45	0.0058363997
134	0xbd48adda	-0.048993923
135	0xbdbe0428	-0.092781365
136	0x3d66baa2	0.05633033
137	0xbc7e3dfa	-0.015517706
138	0x3bb8e574	0.0056425873
139	0xbd27c7a5	-0.04096188
140	0x3cfe8a86	0.031071912
141	0xbd552849	-0.052040372
142	0xbcf4b101	-0.029869558
143	0x3d30153c	0.042989
144	0x3dbd7841	0.09251452
145	0xbcf59aca	-0.029981036
146	0x3d63c778	0.05561015
147	0xbd18a488	-0.037266284
148	0x3bea5ba9	0.00715204
149	0x3d3a278d	0.045447875
150	0x3ccefcaf	0.025266973
151	0x3cb8ec89	0.022573726
152	0x3d367107	0.044541385
153	0x3d4ffb28	0.05077663
154	0x3c0e37d7	0.008680305
155	0x3d994a14	0.074848324
156	0x3cbc5058	0.02298753
157	0x3d216c97	0.0394102
158	0xbc688af8	-0.014193289
159	0xba884049	-0.0010395135
160	0x3dd9a18c	0.10626516
161	0x3d9554f3	0.072915934
162	0xbda32197	-0.07965391
163	0xbda78d15	-0.08181206
164	0x3d9f41ae	0.07776199
165	0xbd1e1b7c	-0.03860043
166	0x3c9ad4a2	0.01890022
167	0xbd8d60e1	-0.06903244
168	0x3c085c6c	0.008322816
169	0x3daa1aeb	0.083059154
170	0xbcb7c913	-0.022434747
171	0xbdc08363	-0.0940006
172	0xbd8351bc	-0.06412074
173	0xbd3b6b11	-0.045756403
174	0xbccfa353	-0.025346434
175	0x3d32e2d4	0.04367335
176	0x3e038d95	0.12846978
177	0xbd9445bb	-0.072398625
178	0xbd8dcc32	-0.06923713
179	0xbdbac01a	-0.09118672
180	0x3dbe0483	0.09278204
181	0x3db0ac42	0.086266056
182	0xbd2dcc97	-0.04243144
183	0x3c0b3108	0.008495577
184	0x3db9d870	0.09074485
185	0x3d406f54	0.04698117
186	0x3a6161e4	0.00085976557
187	0xbca2ebb0	-0.019887775
188	0x3c23f65f	0.01000747
189	0xbbea216c	-0.0071450975
190	0xbc5521f3	-0.013008582
191	0x3cc6d78e	0.024272706
192	0xbcad4ca8	-0.021154717
193	0x3c3f0bc5	0.011660521
194	0x3d5ef4bd	0.05443262
195	0xbe1f079f	-0.15530251
196	0xbd4006c6	-0.04688146
197	0x3d3709bf	0.04468703
198	0xbd821f10	-0.06353581
199	0x3d341847	0.043968465
200	0x3d6f3834	0.05840321
201	0x3e0889ff	0.13333891
202	0x3e1774ff	0.14790724
203	0x3d68623e	0.056734316
204	0x3d503030	0.050827205
205	0xbe445237	-0.19171987
206	0xbc174aef	-0.009234174
207	0x3ddf2c2b	0.10897096
208	0x3e01da63	0.12680964
209	0xbdb602bf	-0.088872425
210	0xbd23a593	-0.039952826
211	0xbd622661	-0.055212382
212	0xbe46e112	-0.19421795
213	0xbd1f037e	-0.03882169
214	0xbde6d2a4	-0.11270645
215	0x3de97074	0.11398402
216	0x3c8b941c	0.017038397
217	0xbdd3c548	-0.10340363
218	0xbb531591	-0.00322089
219	0x3d8e97bf	0.06962537
220	0xbcd1e5b9	-0.025622236
221	0xbc28a6f3	-0.01029371
222	0xbd37fd19	-0.044919107
223	0x3c8d56a7	0.017253233
224	0x3dfc189f	0.123093836
225	0xbde0b5ef	-0.10972201
226	0xbaf59c0d	-0.0018738523
227	0xbc6806c7	-0.014161772
228	0x3d696aaa	0.05698649
229	0x3d5b9029	0.05360428
230	0x3d8e1141	0.06936885
231	0x3db4e0fa	0.088319734
232	0xbbaa5668	-0.0051982887
233	0xbd0457d4	-0.032310322
234	0x39693bb6	0.00022242856
235	0x3b3aa97b	0.0028482366
236	0xbc96c4de	-0.01840442
237	0xbd1a32e0	-0.037646174
238	0xbde2df1a	-0.110777095
239	0x3c7d5a31	0.015463398
240	0xbcb5570d	-0.022136236
241	0xbdaa98d3	-0.0832993
242	0xbcef9191	-0.029244216
243	0xbca800b8	-0.020508155
244	0xbd356655	-0.044287045
245	0xbe028294	-0.12745124
246	0xbd5f857f	-0.05457067
247	0xbdcb077b	-0.09913536
248	0xbc7631b5	-0.0150264995
249	0x3c905f71	0.017623635
250	0x3dae4c75	0.08510677
251	0x3c218d44	0.0098603405
252	0x3da2382d	0.07920871
253	0xbd168582	-0.036748417
254	0x3d4aa05b	0.049469333
255	0xbe2e103c	-0.1699838

bias f4 [120]
0	0x3cc66e95	0.024222651
1	0xbae8f8b4	-0.0017774315
2	0xbc5d5d85	-0.013511066
3	0x3b868180	0.004104793
4	0x3ccfefef	0.025382964
5	0x3be370ed	0.006940952
6	0x3bfb8263	0.0076754554
7	0xbca1e00d	-0.019760156
8	0xbb7d9889	-0.0038695654
9	0xbc03dddf	-0.008048504
10	0x3b3573e3	0.0027687482
11	0xba68f7dc	-0.00088870316
12	0x3aa103f3	0.0012284502
13	0x3c63e979	0.013910645
14	0xbc15847f	-0.009125828
15	0xbc0c274c	-0.008554291
16	0xbcbda7d6	-0.02315132
17	0x3b9792d6	0.0046256585
18	0x3c6cf333	0.01446228
19	0x3c5b52ac	0.01338641
20	0xbbba9c88	-0.0056949295
21	0xbb779d94	-0.0037783133
22	0xb94225cd	-0.00018515364
23	0xbc21438c	-0.009842765
24	0xbb85c76f	-0.004082612
25	0xbc37a2ad	-0.0112082185
26	0x3c6b2f7e	0.014354585
27	0xbc746a49	-0.0149179185
28	0xbac4f36f	-0.0015026162
29	0x3b0af6db	0.0021204266
30	0x3be79e7d	0.007068454
31	0x3baf2de8	0.0053460486
32	0x3c86728c	0.016412042
33	0xbc1006ad	-0.008790654
34	0xbc100968	-0.008791305
35	0x3bd3bca2	0.006461696
36	0x3b116e4c	0.0022190986
37	0x3cc3b291	0.023888858
38	0xbb91ddb0	-0.004451476
39	0xbc8cbfae	-0.017181244
40	0x3c8079b7	0.015683038
41	0xbc892242	-0.016739968
42	0x3b93e7ac	0.0045137014
43	0x3c2c959e	0.010533718
44	0xbc1a0bb8	-0.009402208
45	0xbc587153	-0.013210612
46	0xbbc9d41e	-0.0061593195
47	0xbbb12026	-0.0054054437
48	0x3c3c430c	0.011490595
49	0xbc09377f	-0.008375048
50	0xbc503064	-0.01270685
51	0x3bd062e6	0.006359446
52	0xbb8650f9	-0.004099008
53	0x3be392eb	0.006945004
54	0x3ab2ea8a	0.001365022
55	0x3bfd356c	0.0077273156
56	0x3c1f973c	0.009740647
57	0xbbfe6f07	-0.0077647003
58	0xbb14d007	-0.0022707002
59	0x3bb8577b	0.005625663
60	0x3bb688de	0.005570515
61	0xbc9089c5	-0.017643819
62	0x3c8e0045	0.017334113
63	0x3c550221	0.013000996
64	0x3cbc9715	0.02302126
65	0x3c853ac2	0.01626337
66	0xbca5ca80	-0.020238161
67	0x3b3adb09	0.0028511903
68	0x3c49e900	0.012323618
69	0x3b70ef40	0.0036763698
70	0xbb4d57ef	-0.003133293
71	0x3b7bbd9f	0.0038412584
72	0xbc229c16	-0.009924909
73	0x3c6713dc	0.014103856
74	0xbc509e88	-0.012733109
75	0xbc857e04	-0.01629544
76	0x3c510e68	0.012759782
77	0xbbb0f10c	-0.005399829
78	0x3bf733a9	0.007544
79	0x3c38e0e8	0.011284091
80	0xbbb30b23	-0.005463974
81	0xbc1532a3	-0.009106311
82	0xba32ef41	-0.0006825813
83	0xbbf37299	-0.0074294326
84	0xbc990341	-0.01867831
85	0xbc89a81b	-0.016803792
86	0x3cc692be	0.024239894
87	0x3c4ea3d5	0.012612303
88	0x3a1c393c	0.00059594563
89	0xbb89962b	-0.0041988096
90	0xbbe97c90	-0.0071254447
91	0x3c837172	0.016045306
92	0x3b604f38	0.0034226906
93	0xbcb1baa2	-0.021695439
94	0xbc1d05a3	-0.009583863
95	0xbbd55b00	-0.006511092
96	0xba119fcf	-0.00055551244
97	0xba57bc89	-0.0008229693
98	0x3c0aaacc	0.008463573
99	0xbb84b227	-0.0040495577
100	0xbd0c39f1	-0.034234945
101	0x3b07df87	0.0020732598
102	0xbcb5561a	-0.022135783
103	0xbc5683e1	-0.013092966
104	0x3a2bb7d3	0.0006550524
105	0x3a474f50	0.0007603066
106	0x3c32a3d7	0.01090332
107	0xba216a61	-0.0006157514
108	0x3cfc4189	0.030792968
109	0x3b217751	0.0024637769
110	0x3a245f4f	0.00062703056
111	0x3b9defd6	0.0048198504
112	0xbb3eb09c	-0.0029096967
113	0xbcbaa1c5	-0.022782216
114	0x3bc5d815	0.006037722
115	0x3bd8f463	0.00662093
116	0xbb8c5e39	-0.004283693
117	0x3c445dec	0.011985283
118	0xbbf78d3c	-0.0075546782
119	0xbb60beb3	-0.0034293353

weight f4 [120]
0	0x3f933fdb	1.1503862
1	0x3f82e8c6	1.0227287
2	0x3f84850d	1.0353104
3	0x3f8dc497	1.107562
4	0x3f869488	1.0514078
5	0x3f82fc27	1.0233201
6	0x3f856555	1.0421549
7	0x3f840f3c	1.0317149
8	0x3f928e09	1.1449596
9	0x3f8b3e6e	1.0878427
10	0x3f8ef55b	1.1168627
11	0x3f9af971	1.2107373
12	0x3f9723ee	1.180784
13	0x3f8ecb11	1.1155721
14	0x3f90c20c	1.1309218
15	0x3f87c746	1.0607688
16	0x3f880a00	1.0628052
17	0x3f886c05	1.0657965
18	0x3f959ec0	1.1689072
19	0x3f820062	1.0156367
20	0x3f8a1577	1.07878
21	0x3f868d9d	1.0511967
22	0x3f86a927	1.0520371
23	0x3f87888b	1.0588545
24	0x3f9242d2	1.1426642
25	0x3f8ba98f	1.091112
26	0x3f9d4f10	1.2289753
27	0x3f8ad7a4	1.0847058
28	0x3f86d9a0	1.0535164
29	0x3f8ac8a4	1.0842481
30	0x3f88be17	1.0683011
31	0x3f8bda8e	1.0926073
32	0x3f8e7cb2	1.1131804
33	0x3f8f4da8	1.1195574
34	0x3f926888	1.143815
35	0x3f931340	1.149025
36	0x3f967e79	1.1757346
37	0x3f865a62	1.0496333
38	0x3f8ba18e	1.0908678
39	0x3f9887d9	1.1916457
40	0x3f87c35c	1.0606494
41	0x3f982325	1.1885725
42	0x3f90ddcf	1.1317691
43	0x3f898a11	1.074526
44	0x3f8d79e3	1.1052822
45	0x3f8f8dbf	1.1215132
46	0x3f91189d	1.1335636
47	0x3f85ee40	1.0463333
48	0x3f929e58	1.1454573
49	0x3f91abfc	1.138061
50	0x3f97d40d	1.1861588
51	0x3f92f6eb	1.1481603
52	0x3f8be1ab	1.0928243
53	0x3f87610c	1.0576491
54	0x3f8f8e36	1.1215274
55	0x3f8e1404	1.1099858
56	0x3f7a4674	0.9776375
57	0x3f89e297	1.0772275
58	0x3f891fa2	1.0712779
59	0x3f9d1c9a	1.2274354
60	0x3f88811c	1.0664401
61	0x3f8d7ffc	1.1054683
62	0x3f919034	1.1372132
63	0x3f8b314d	1.087442
64	0x3f938e8b	1.1527876
65	0x3f83885d	1.027599
66	0x3f9dc246	1.2324913
67	0x3f9e92b8	1.2388525
68	0x3f912bf4	1.1341538
69	0x3f8a0c0b	1.0784925
70	0x3f865df2	1.049742
71	0x3f8a56b6	1.0807712
72	0x3f8c8036	1.0976627
73	0x3f9443d8	1.1583204
74	0x3f8bc8a3	1.0920604
75	0x3f95669c	1.1671939
76	0x3f8f9698	1.1217833
77	0x3f9cd439	1.2252265
78	0x3f826bbf	1.0189131
79	0x3f80baa7	1.0056962
80	0x3f91da2b	1.1394705
81	0x3f8d264a	1.102731
82	0x3f8acd13	1.0843834
83	0x3f9094e9	1.1295444
84	0x3f8d292d	1.1028191
85	0x3f831866	1.0241821
86	0x3f8dfb79	1.1092368
87	0x3f91fe84	1.1405797
88	0x3f86730c	1.050386
89	0x3f84db36	1.0379398
90	0x3f909710	1.1296101
91	0x3f8d4481	1.1036531
92	0x3f851f8f	1.0400256
93	0x3f83cd29	1.0296985
94	0x3f90a278	1.1299582
95	0x3f8ffb3e	1.1248548
96	0x3f923aea	1.1424229
97	0x3f8f5e70	1.1200695
98	0x3f8dd846	1.1081626
99	0x3f90943f	1.1295241
100	0x3f8d5c09	1.1043712
101	0x3f993f66	1.1972473
102	0x3f947cac	1.1600547
103	0x3f8650e6	1.0493438
104	0x3f896898	1.0735044
105	0x3f8ed8aa	1.1159871
106	0x3f9032e4	1.126553
107	0x3f8baa6b	1.0911382
108	0x3f905db3	1.1278595
109	0x3f80288f	1.0012378
110	0x3f826fa6	1.0190322
111	0x3f870b24	1.0550275
112	0x3f872083	1.0556797
113	0x3f9267a4	1.1437879
114	0x3fa9b599	1.3258544
115	0x3f90c199	1.1309081
116	0x3f867a38	1.0506048
117	0x3f92948c	1.1451583
118	0x3f86046c	1.04701
119	0x3f8f779b	1.1208376

bias f4 [120]
0	0x3b4ae5a6	0.0030959635
1	0xbd9f528d	-0.07779417
2	0x3c100c7a	0.008792037
3	0x3e0ca635	0.13735278
4	0x3cefccd0	0.029272467
5	0xbd219f88	-0.03945878
6	0xbc7b5df6	-0.015342226
7	0xbd1c87d8	-0.03821549
8	0x3bc64b66	0.0060514687
9	0xbd3a075b	-0.04541717
10	0x3dd808c3	0.10548546
11	0x3dfc3937	0.123156
12	0xbcbb2583	-0.022845035
13	0x3c8dc423	0.01730544
14	0xbcc19888	-0.023632303
15	0xbd26fa39	-0.040765975
16	0xbd643328	-0.05571285
17	0x3c2724ea	0.010201672
18	0x3d940a63	0.072285436
19	0x3cb38a45	0.021916518
20	0xbda6f248	-0.0815168
21	0xbd741cc8	-0.05959776
22	0x3d27d00b	0.04096989
23	0xbd3dd9de	-0.046350352
24	0xbdbf5292	-0.09341921
25	0xbc7b3b97	-0.015334032
26	0xbc82ecd2	-0.015982065
27	0x3d53a622	0.05167211
28	0xbce7a306	-0.028275978
29	0x3dc637e7	0.09678631
30	0xbc785fec	-0.015159588
31	0x3d469b1b	0.048487764
32	0x3b824bd0	0.0039763227
33	0xbc87014f	-0.016480116
34	0x3cb8de80	0.022567034
35	0x3da1c78b	0.07899388
36	0xbc484f76	-0.012225976
37	0xbdc9b71e	-0.0984938
38	0xbbea71cb	-0.0071546785
39	0xbc76ae68	-0.01505623
40	0x3d9497f4	0.07255545
41	0x3c11b801	0.008893968
42	0xbc475199	-0.0121654505
43	0x3c057cc8	0.008147426
44	0xbd361b49	-0.044459615
45	0xbca557cd	-0.020183468
46	0xbd72dea6	-0.059294365
47	0xbd894186	-0.06701951
48	0x3cca76cf	0.024714855
49	0x3dbde52c	0.09272227
50	0xbd86b739	-0.06577916
51	0xbbb00d54	-0.0053726826
52	0x3c977263	0.018487161
53	0xbc1353fc	-0.008992191
54	0xbd3f2dfe	-0.04667472
55	0x3c3c1e66	0.011481857
56	0xbd62240a	-0.05521015
57	0x3c0e2d04	0.008677725
58	0x3c324d66	0.010882711
59	0x3cec29bd	0.028828496
60	0xbc843538	-0.016138658
61	0xbd4382d4	-0.04773219
62	0xbcd20d38	-0.025641069
63	0xbcf3a0e7	-0.02973981
64	0x3c1bf7d6	0.009519538
65	0xbda51c97	-0.08062094
66	0x3da99e21	0.08282114
67	0x3d87118c	0.06595144
68	0xbc0422f8	-0.008064978
69	0x3d7dcdd7	0.061963882
70	0x3cf6356e	0.030054774
71	0xbbe0e58c	-0.0068633016
72	0x3d884354	0.06653467
73	0x3dcf2775	0.10114948
74	0xbc918805	-0.017765054
75	0xbdf0ab1a	-0.11751385
76	0xbb552b9d	-0.0032527216
77	0x3d310fd9	0.043228004
78	0xbca54098	-0.020172402
79	0xbd0b346d	-0.033985544
80	0xbd601117	-0.0547038
81	0x3d04292d	0.03226583
82	0xbd4599ef	-0.048242506
83	0xbc563265	-0.013073538
84	0x3d01f306	0.031725906
85	0x3d393b14	0.045222357
86	0xbdaa0862	-0.0830238
87	0x3daffa71	0.0859269
88	0xbd6f29b5	-0.058389384
89	0x3dc68044	0.096924335
90	0x3d4ea8a9	0.050453816
91	0xbd2be961	-0.041970614
92	0x3bc0f46d	0.005888513
93	0xbd89781c	-0.06712362
94	0x3c2afe0e	0.010436548
95	0x3e1cf0c7	0.15326224
96	0xbdbba58f	-0.09162437
97	0xbc70ad56	-0.014689764
98	0x3ce42723	0.027850693
99	0xbd789ec0	-0.06069827
100	0x3c94b2c2	0.018151645
101	0xbbf35352	-0.007425704
102	0x3da7692d	0.081743576
103	0xbd96865b	-0.07349845
104	0x3d16553d	0.036702383
105	0xbcc3253d	-0.023821468
106	0x3df82b4d	0.12117634
107	0xbd675958	-0.05648169
108	0xba5cdf83	-0.000842564
109	0xbd6353ca	-0.05549983
110	0x3cb22717	0.021747155
111	0xbc947bef	-0.018125502
112	0x3c6c8496	0.014435908
113	0x3b891edf	0.0041845883
114	0x3d349d48	0.044095308
115	0x3c3967d9	0.011316263
116	0x3a2bb23f	0.0006549693
117	0xbcc42e5c	-0.023947887
118	0xbc5b8f89	-0.013400921
119	0xbd677aee	-0.05651372

running_mean f4 [120]
0	0xbdf2cac0	-0.11855078
1	0xbe4c56be	-0.19954965
2	0x3e38759d	0.18013616
3	0x3f18b4db	0.59650964
4	0xbf72906a	-0.9475161
5	0xbf7f0ec7	-0.99631923
6	0xbf278aed	-0.6544636
7	0xbef9365e	-0.4867429
8	0xbf6824ad	-0.9068096
9	0x3f0bdef0	0.5463705
10	0x3e2729dc	0.16324562
11	0x3dbc68e9	0.091996975
12	0x3ebff0c0	0.37488365
13	0xbf201fbb	-0.62548417
14	0x3ec12104	0.377205
15	0xbf926ab7	-1.1438817
16	0xbf5b9350	-0.85771656
17	0xbf0db0b2	-0.5534774
18	0x3ea3e217	0.3200843
19	0xbd92d77f	-0.07170009
20	0x3d875381	0.06607724
21	0x3eb9a54d	0.36258927
22	0x3e871791	0.26385167
23	0xbf38d572	-0.7220069
24	0xbf0fb169	-0.5613008
25	0xbeb52754	-0.35381567
26	0xbe67f540	-0.22652149
27	0x3ebcd223	0.36879072
28	0xbdb8899e	-0.090106234
29	0xbf1c9cb3	-0.61176604
30	0xbf98399f	-1.1892585
31	0xbef6ce8c	-0.48204458
32	0x3df81e9d	0.12115214
33	0xbed96814	-0.42462218
34	0x3f134b9c	0.57537246
35	0xbf9302ac	-1.148519
36	0x3e96c55f	0.29447457
37	0xbeb6ef08	-0.3572924
38	0x3f6e3ed4	0.9306462
39	0x3e149df2	0.14513376
40	0x3e93267a	0.28740293
41	0xbf2829d7	-0.6568884
42	0xbf87a18e	-1.0596178
43	0x3f081573	0.5315773
44	0xbed262e8	-0.41091084
45	0x3ec473f5	0.38369718
46	0xbe334844	-0.17508036
47	0xbf9afea0	-1.2108955
48	0xbf573f71	-0.8408118
49	0xbfb439bc	-1.4080119
50	0x3ea80eea	0.3282388
51	0x3e95d3b2	0.29263073
52	0xbecb9203	-0.39759836
53	0xbf44a49c	-0.76813674
54	0xbe9b33d1	-0.3031297
55	0xbf86d2d6	-1.0533092
56	0x3eef4c08	0.46737695
57	0xbeab363b	-0.33439812
58	0xbde5f9f4	-0.112293154
59	0x3dab3b32	0.083609
60	0xbedd9462	-0.4327727
61	0xbf14eaec	-0.5817096
62	0xbf15123a	-0.58230937
63	0xbf152af0	-0.5826864
64	0x3dd9ce54	0.10635057
65	0xbed92480	-0.4241066
66	0xbe921cee	-0.28537697
67	0xbeb7b88d	-0.3588299
68	0xbf24d5b9	-0.64388615
69	0xbfc6909f	-1.5512885
70	0x3ee29bd3	0.4425951
71	0xbec9c29f	-0.39406297
72	0xbfc20244	-1.5156941
73	0xbed7bb8a	-0.42135268
74	0xbf1906e1	-0.5977612
75	0x3d8ef89a	0.06981011
76	0xbf1781a0	-0.5918217
77	0xbe30d622	-0.17269185
78	0xbf57891e	-0.841936
79	0x3d5fac95	0.054607946
80	0xbf8fd572	-1.1237013
81	0x3e87791f	0.26459596
82	0xbf7ebe86	-0.99509466
83	0xbe8a810d	-0.27051583
84	0xbf64771d	-0.8924425
85	0xbf8f5a41	-1.1199418
86	0xbf4f526f	-0.8098516
87	0x3c2b08ec	0.010439139
88	0xbe9e6604	-0.30937207
89	0xbeb96d9f	-0.36216447
90	0x3e71184d	0.23544426
91	0xbf7b4e8a	-0.98166716
92	0x3e8771cb	0.26454005
93	0xbf24d651	-0.6438952
94	0xbe33ffc1	-0.17578031
95	0xbd29a434	-0.041416362
96	0xbf45b2b5	-0.7722581
97	0x3e8f54bc	0.27994335
98	0xbe3fdc10	-0.18736291
99	0xbf9123be	-1.1339033
100	0x3b77eb9d	0.0037829645
101	0xbf066915	-0.5250409
102	0x3e641683	0.22274213
103	0x3fa7f32e	1.3121088
104	0x3e2d3b91	0.16917254
105	0x3e1c6502	0.15272906
106	0x3fd1e037	1.639655
107	0x3f5af548	0.8553052
108	0xbf5a7a53	-0.853429
109	0x3e79e281	0.2440281
110	0x3f40ec72	0.75360787
111	0xbf900901	-1.1252748
112	0x3d8c71e8	0.068576634
113	0xbfa49211	-1.2857076
114	0xbf8d309f	-1.1030463
115	0x3cf5d06f	0.030006615
116	0x3dc84876	0.09779446
117	0xbecd8dff	-0.40147397
118	0x3b2ac22e	0.0026055682
119	0xbf99e44a	-1.2022793

running_var f4 [120]
0	0x3ef14f23	0.4713069
1	0x3ea96bc5	0.33090034
2	0x3f12f944	0.574116
3	0x3f2a74a0	0.66584206
4	0x3f21b5f1	0.63168246
5	0x3eda944b	0.42691264
6	0x3f15b386	0.58477056
7	0x3f2b805c	0.66992736
8	0x3eac4907	0.33649465
9	0x3f0fee51	0.56223017
10	0x3eaafdeb	0.3339685
11	0x3efac80b	0.48980746
12	0x3e7a4283	0.24439435
13	0x3eef1563	0.46696004
14	0x3ee096fc	0.43865192
15	0x3f1c34e6	0.61018217
16	0x3ed16217	0.4089515
17	0x3ec2b750	0.3803048
18	0x3ed5f5ae	0.41789
19	0x3eed76f1	0.46379808
20	0x3f26acae	0.6510724
21	0x3f4bf0e8	0.7966447
22	0x3ed9638f	0.4245877
23	0x3ecc4ea1	0.3990374
24	0x3ef40df1	0.47666886
25	0x3e9a6628	0.30156064
26	0x3f02b321	0.5105458
27	0x3f521cd2	0.82075226
28	0x3f1936ab	0.5984904
29	0x3f01f44b	0.50763386
30	0x3f086978	0.5328593
31	0x3f0833a6	0.5320381
32	0x3f1b2f79	0.6061931
33	0x3eddcad9	0.43318823
34	0x3f1a7af6	0.60343874
35	0x3f08b871	0.53406435
36	0x3ede7fc9	0.43456867
37	0x3ee41805	0.44549575
38	0x3eed2e69	0.4632447
39	0x3ee940ae	0.4555716
40	0x3f26c5ec	0.65145755
41	0x3ec82cd2	0.39096695
42	0x3edc72b9	0.43056276
43	0x3ecca0ed	0.39966527
44	0x3e9d22c9	0.306906
45	0x3ee7f295	0.45302263
46	0x3f0d0e0a	0.55099547
47	0x3f0e9728	0.55699396
48	0x3f219ce9	0.6313005
49	0x3f4a48f3	0.7901756
50	0x3eeaa04f	0.4582543
51	0x3ee6d444	0.4508382
52	0x3edd24b7	0.43192074
53	0x3f146065	0.57959586
54	0x3f0d15fd	0.55111676
55	0x3f021227	0.5080895
56	0x3ee47e42	0.44627577
57	0x3ee2a042	0.44262892
58	0x3f2c96e0	0.67417717
59	0x3ea90de4	0.3301841
60	0x3eddc5d6	0.43315
61	0x3f388654	0.7207997
62	0x3eb82712	0.35967308
63	0x3f2240f5	0.63380367
64	0x3f35c285	0.7099994
65	0x3ee6a9d9	0.45051458
66	0x3ec3863c	0.3818835
67	0x3ed610ed	0.41809788
68	0x3ed474c4	0.41495335
69	0x3edbbb7c	0.42916477
70	0x3f5f7bb5	0.87298137
71	0x3ee3763f	0.44426152
72	0x3f105395	0.56377536
73	0x3f3df099	0.7419525
74	0x3ef418f5	0.4767529
75	0x3ee4ea26	0.4470989
76	0x3eeee787	0.46661016
77	0x3f0353c0	0.5129967
78	0x3ef9f276	0.48817796
79	0x3f0e0d0b	0.5548865
80	0x3eac4406	0.33645648
81	0x3f1ae6c2	0.6050836
82	0x3ed7efd7	0.4217517
83	0x3efbbea2	0.4916888
84	0x3eca7218	0.39540172
85	0x3ee3b206	0.4447176
86	0x3eee74ee	0.46573585
87	0x3f080bb7	0.53142875
88	0x3ee7e16e	0.45289177
89	0x3f15f021	0.5856953
90	0x3f4bd10b	0.7961585
91	0x3ef9ddb5	0.48801962
92	0x3ed7405c	0.4204129
93	0x3ed4bf91	0.41552404
94	0x3ed482e7	0.4150612
95	0x3f1cb4a1	0.6121312
96	0x3f3f5b65	0.7474883
97	0x3f046ec8	0.5173154
98	0x3ef7094a	0.48249274
99	0x3edd6224	0.43238938
100	0x3eabcafb	0.335533
101	0x3f16bfc9	0.5888639
102	0x3e914591	0.28373387
103	0x3ec351cf	0.38148353
104	0x3ef65a33	0.48115692
105	0x3f0b0bc4	0.5431483
106	0x3f19aac6	0.60026205
107	0x3f15aeae	0.58469665
108	0x3eb181fe	0.3466949
109	0x3f021784	0.5081713
110	0x3f04ce81	0.518776
111	0x3ef321f5	0.47486845
112	0x3ee96d44	0.45591176
113	0x3ef51b74	0.47872508
114	0x3f4ee842	0.8082315
115	0x3ecd1b44	0.40059865
116	0x3f082639	0.53183323
117	0x3edaca11	0.4273229
118	0x3f1bdbe6	0.60882413
119	0x3f3fd9dc	0.749418

weight f4 [84, 120]
0	0xbdb64050	-0.088989854
1	0x3e835cd3	0.25656757
2	0x3d582a52	0.052774735
3	0x3e2fadb0	0.171561
4	0xbdc22962	-0.094805494
5	0xbdb58541	-0.08863307
6	0x3e368992	0.17825916
7	0xbd3bc01c	-0.045837507
8	0x3e09ac9f	0.13444756
9	0x3dcc58af	0.099778526
10	0x3d569291	0.05238587
11	0xbe26f49e	-0.16304252
12	0x3e63f691	0.22262026
13	0x3db6c781	0.08924771
14	0xbe2bb75b	-0.16769163
15	0x3e431202	0.19049838
16	0xbe5a7953	-0.21335344
17	0x3dfa19e3	0.12211969
18	0xbddd7b0e	-0.108144864
19	0x3e3d46c3	0.18484025
20	0x3ddf1ca1	0.108941324
21	0xbe12cd26	-0.1433607
22	0xbd1f9fba	-0.038970686
23	0xbd87f0f7	-0.06637757
24	0xbd92548b	-0.071450315
25	0xbe1b3204	-0.15155798
26	0x3e075f30	0.13219905
27	0xbde7b8c4	-0.11314538
28	0x3ce594b4	0.028025009
29	0x3e1bcbc1	0.15214445
30	0xbd325b66	-0.043544196
31	0xbe6bc52e	-0.23024437
32	0x3e26d973	0.16293888
33	0x3e0e8ff2	0.13922098
34	0x3e35cc87	0.17753802
35	0x3e353dfa	0.17699423
36	0xbc930ff6	-0.017951947
37	0xbc8d08ef	-0.017216174
38	0xbe05aad3	-0.13053446
39	0x3e667061	0.22503807
40	0x3e513312	0.20429638
41	0xbd67d79c	-0.056602105
42	0xbd6343f7	-0.05548474
43	0xbdb746c5	-0.08949045
44	0x3e101fd8	0.14074647
45	0xbdf032fb	-0.11728474
46	0x3e15493c	0.14578718
47	0xbd049e86	-0.032377742
48	0xbc3fe23d	-0.011711654
49	0xbe17bc7a	-0.14817992
50	0x3e720853	0.23635988
51	0xbd9f7036	-0.077850744
52	0x3d8492e9	0.064733334
53	0x3d2889b8	0.041146964
54	0x3e2c08bb	0.16800205
55	0xbe8ce78c	-0.27520406
56	0x3d81f6ae	0.063458785
57	0x3d9ae0f1	0.075624354
58	0xbd92f649	-0.071758814
59	0xbd3617b2	-0.04445619
60	0xbe21a7b0	-0.15786624
61	0x3ea1f529	0.31632355
62	0x3e08d401	0.13362123
63	0xbe28a64c	-0.16469687
64	0x3b51a859	0.0031991212
65	0x3e3a836f	0.182142
66	0xbd6108a8	-0.054939896
67	0x3e4465e0	0.19179487
68	0x3def190f	0.116747014
69	0x3e591c96	0.21202311
70	0x3da6e590	0.08149254
71	0xbca11540	-0.019663453
72	0x3dc53319	0.09628887
73	0xbe23a2d3	-0.15980081
74	0xbe1164e2	-0.1419864
75	0x3e79e8bf	0.24405192
76	0x3e8a647f	0.27029797
77	0x3da630a7	0.081147484
78	0x3e2af018	0.16693151
79	0x3daf5729	0.08561546
80	0xbe02f196	-0.1278747
81	0xbd9e6ecc	-0.077359766
82	0x3de90e8d	0.113797285
83	0xbd9fc58b	-0.0780135
84	0xbe403052	-0.18768433
85	0xbc8fd051	-0.017555388
86	0x3d8ca8c2	0.068681255
87	0x3e276cd7	0.16350113
88	0x3cd62220	0.026139319
89	0xbcc2c2bf	-0.023774503
90	0xbd62878c	-0.05530505
91	0xbe6930a6	-0.22772464
92	0xbc10fb63	-0.008848998
93	0x3e08bc4b	0.13353078
94	0xbdd06f15	-0.10177437
95	0xbde7150b	-0.112833105
96	0x3b98c488	0.0046621
97	0xbe3654af	-0.17805742
98	0x3dbc698e	0.091998205
99	0x3e745190	0.23859239
100	0xbb8ee57a	-0.004360852
101	0x3e71850d	0.23585911
102	0x3dd890e6	0.10574512
103	0x3dfa4ccf	0.12221681
104	0x3d871cf7	0.065973215
105	0x3df752cd	0.1207634
106	0x3d1117ed	0.035423208
107	0xbd23c160	-0.03997934
108	0xbda351f0	-0.07974613
109	0xbd84faf2	-0.064931765
110	0x3d436ac3	0.047709238
111	0x3bbbfde3	0.0057370528
112	0xbdfbbfde	-0.12292455
113	0xbdea272c	-0.11433253
114	0x3b3e319b	0.0029021266
115	0xbe194f16	-0.14971575
116	0x3ca43658	0.020045444
117	0xbdb8601f	-0.09002709
118	0xbd785c17	-0.0606347
119	0x3d22c717	0.039740648
120	0xbe320292	-0.17383793
121	0xbd6e4d75	-0.058179338
122	0xbca9751c	-0.020685725
123	0x3e7bf407	0.24604808
124	0xbc760471	-0.015015707
125	0x3cab168b	0.020884773
126	0x3e390f0a	0.18072143
127	0x3cfc77ea	0.030818898
128	0x3c73b874	0.01487552
129	0xbdefe3f7	-0.11713403
130	0xbe407e1d	-0.18798108
131	0xbd8c9d5b	-0.06865951
132	0x3d2893b3	0.041156482
133	0x3e14004a	0.14453235
134	0xbde32c88	-0.11092478
135	0x3d6adfb3	0.057342242
136	0x3e5cbe46	0.21556959
137	0x3e42992b	0.19003741
138	0xbdef5ae9	-0.116872616
139	0xbe0c74aa	-0.13716379
140	0x3e5b345b	0.21406691
141	0xbdfd1567	-0.12357598
142	0x3e148701	0.14504625
143	0x3d5e7f5e	0.054320686
144	0xbdf2d46c	-0.118569225
145	0xbe2a78a2	-0.1664758
146	0xbdf8e973	-0.12153902
147	0x3cdb693e	0.026783582
148	0x3d52e751	0.05149013
149	0xbd89adaa	-0.06722577
150	0x3da62538	0.08112568
151	0x3e542bf4	0.20719892
152	0xbdb7476a	-0.08949168
153	0xbddc8eb2	-0.107694045
154	0xbe057754	-0.13033801
155	0xbd999003	-0.07498171
156	0xbe4a61df	-0.19763897
157	0xbcc73e1f	-0.024321614
158	0x3e194719	0.14968528
159	0xbded6e05	-0.1159325
160	0xbe02637a	-0.1273326
161	0x3d32ca39	0.043649886
162	0x3e5441ac	0.20728177
163	0xbbd823db	-0.006596071
164	0xbe1bc9d0	-0.15213704
165	0x3e34004f	0.17578243
166	0x3df843eb	0.12122329
167	0xbd98441d	-0.074348666
168	0xbdfe9d40	-0.12432337
169	0x3df02d24	0.1172736
170	0x3d94935a	0.072546676
171	0x3df2d131	0.11856306
172	0xbcfb0175	-0.030640343
173	0x3a26de75	0.0006365546
174	0x3d6fdc31	0.0585596
175	0xbdedea8b	-0.11617001
176	0x3d6ada6f	0.05733722
177	0x3c588033	0.013214159
178	0xbba73e21	-0.005103842
179	0xbd8b2071	-0.06793297
180	0xbbf6c3e1	-0.007530675
181	0xbd2f8995	-0.042855818
182	0x3e80a860	0.2512846
183	0x3d15dc8a	0.036587276
184	0x3dda2aff	0.10652732
185	0xbdcb75e1	-0.09934593
186	0x3e0bcf59	0.13653316
187	0xbe43a659	-0.19106425
188	0x3dfda471	0.1238488
189	0x3dd44be2	0.10366036
190	0xbcf5dcda	-0.030012537
191	0xbe205f7e	-0.15661427
192	0xbc8f7639	-0.017512428
193	0x3e6b99b1	0.23007847
194	0xbcc724a5	-0.024309466
195	0x3e88d159	0.2672222
196	0xbbbb3faa	-0.0057143765
197	0x3e501786	0.20321473
198	0x3d8ba228	0.06818038
199	0x3c8383a5	0.016053984
200	0xbe26eea6	-0.16301975
201	0xbe32935a	-0.17439023
202	0x3e25e22b	0.16199557
203	0xbe4a0285	-0.19727524
204	0xbdff3090	-0.124604344
205	0x3e046bc4	0.12931734
206	0x3e19b453	0.15010194
207	0x3e139f29	0.14416184
208	0x3d15af37	0.03654405
209	0xbe197717	-0.14986835
210	0x3d270578	0.0407767
211	0x3e2c9ae8	0.16855967
212	0x3e880b90	0.2657132
213	0x3de517f8	0.11186212
214	0x3dee7ca2	0.116448656
215	0xbe3f3fef	-0.18676732
216	0xbe066850	-0.1312573
217	0x3d85b2dc	0.06528255
218	0x3ba6ad88	0.0050866045
219	0x3ddbcac1	0.107320316
220	0x3dcf5d5e	0.1012523
221	0x3e91794f	0.28412864
222	0x3e30adb3	0.17253761
223	0x3d220230	0.039552867
224	0xbdfda9a9	-0.12385876
225	0x3e018ddd	0.12651773
226	0x3dbc408f	0.09192001
227	0xbcf69b47	-0.030103339
228	0x3ea0761b	0.31340107
229	0x3d721fb9	0.059112284
230	0x3a2bc89a	0.0006553024
231	0xbde2fefe	-0.11083792
232	0xbe11532b	-0.14191882
233	0xbe45c4af	-0.1931331
234	0x3e681b84	0.22666746
235	0xbdc80ce4	-0.09768084
236	0xbe35640b	-0.17713945
237	0x3d3c40bd	0.045960177
238	0x3cfff1bc	0.031243198
239	0x3d2b42b7	0.04181167
240	0x3c8977a3	0.01678068
241	0x3ce9ddb7	0.028548105
242	0xbe55e4d7	-0.20888077
243	0xbe3c5812	-0.18392971
244	0x3d836d12	0.06417288
245	0x3e11cd65	0.14238508
246	0xbe3eca93	-0.18631963
247	0x3e2819b1	0.1641605
248	0x3e3524f2	0.17689875
249	0x3cb275ca	0.021784682
250	0xbd4a8664	-0.04944457
251	0x3e2291ee	0.1587598
252	0xbd0bea78	-0.034159154
253	0xbce973fe	-0.028497692
254	0x3de66484	0.112496406
255	0x3e321286	0.17389879

bias f4 [84]
0	0xbbaa8ec3	-0.005205007
1	0xbbde42d4	-0.006782869
2	0x3ceed8fa	0.029156197
3	0x3cebf721	0.028804364
4	0x3d069e54	0.032865837
5	0x3cb31b2e	0.021863546
6	0xbc9385db	-0.018008163
7	0xbbf1dc64	-0.007381009
8	0x3db58fe0	0.088653326
9	0x3d27f611	0.04100615
10	0x3d2d96a5	0.042379994
11	0x3d86db7b	0.06584831
12	0x3d2dcd4a	0.042432107
13	0xbbfc16fd	-0.00769317
14	0x3d42206a	0.047394194
15	0x3c2c9262	0.010532947
16	0x3dddc377	0.108282976
17	0xbb5714fa	-0.00328189
18	0x3ce099b4	0.027417041
19	0x3c69820c	0.014252197
20	0xbd13a9b4	-0.036050513
21	0xbc80403e	-0.015655633
22	0x3d6ce5e1	0.057836417
23	0x3d6cccf3	0.057812642
24	0xba19c06e	-0.0005865161
25	0x3d1dff9e	0.038573854
26	0xbc8f1232	-0.01746473
27	0xbc917630	-0.017756552
28	0x3d921baf	0.071341865
29	0x3d3d3b63	0.046199214
30	0x3cd35ad8	0.025800154
31	0x3cf02aee	0.029317345
32	0x3ca20763	0.019778913
33	0x3bf504f6	0.007477398
34	0x3cda6fae	0.026664581
35	0x3ca34f0e	0.019935157
36	0x3d7a2e20	0.061079144
37	0xbc16f8b8	-0.009214573
38	0xbd13dfbc	-0.03610204
39	0x3d6c608c	0.05770926
40	0x3d61633a	0.05502627
41	0x3d775a50	0.060388863
42	0x3d20a851	0.03922302
43	0x3d23c212	0.03998
44	0x3cea2871	0.028583737
45	0xbd2f898f	-0.042855795
46	0x3d948861	0.07252575
47	0xbc80ca5b	-0.01572149
48	0x3caf921c	0.021431975
49	0x3d4d795b	0.05016456
50	0x3d71aadd	0.05900084
51	0x3c45f44c	0.012082171
52	0x3d2adf04	0.04171659
53	0xbcd19a83	-0.025586372
54	0x3cc697ff	0.0242424
55	0x3d37c549	0.04486588
56	0x3cf77890	0.030208856
57	0x3c87f022	0.016593996
58	0x3cdfbd34	0.027311899
59	0x3ce3e9fe	0.027821537
60	0x3d664663	0.05621947
61	0x3d32f8ee	0.04369443
62	0x3d88d216	0.06680696
63	0x3d1c07a8	0.03809324
64	0x3d211826	0.03932967
65	0x3d1772bb	0.03697465
66	0x3cb5b5f9	0.022181498
67	0x3d78536c	0.060626432
68	0xb96601d4	-0.0002193519
69	0x3d237d76	0.03991457
70	0x3c83568e	0.016032483
71	0xbbdbf423	-0.006712453
72	0x3b2c5315	0.0026294638
73	0x3d2cfb52	0.042231865
74	0x3c05c56b	0.008164744
75	0x3d85fe80	0.06542683
76	0x3d636fe4	0.05552663
77	0xbc9eabde	-0.019369062
78	0xbcf2ce4a	-0.029639382
79	0xbc91527f	-0.017739533
80	0x3cc5517a	0.024086703
81	0xbd22b8bf	-0.03972697
82	0x3d731452	0.05934555
83	0x3cc350b1	0.023842188
