model1/model/model(88.19).pt (torch, 280072 bytes, 22 tensors)

weight f4 [6, 3, 5, 5]
-0.047706574 0.0707845 -0.10997554 -0.039854214 0.09476779 -0.096486494 -0.22352855 0.10545282
0.10893258 0.14736488 -0.05808605 -0.19565952 0.06454355 0.08916296 0.086630896 -0.010952107
-0.18769681 0.123104215 0.19820938 -0.09968911 -0.1388615 0.0055082086 0.13616215 0.105843395
-0.119214445 0.12004738 -0.04608431 -0.18729915 0.0056073177 0.08130793 -0.15906632 -0.000404532
-0.04666726 0.11123004 0.17511778 -0.11024932 -0.13153464 -0.066752754 0.11412121 0.08414388
-0.12174564 -0.03825192 -0.12923312 0.15156637 0.12464347 -0.17251515 -0.25046945 0.13197574
0.20857048 0.14672743 -0.044477474 0.042216126 -0.14062622 -0.05217277 0.0088403905 0.0883306
-0.035255514 -0.016787957 0.12920946 0.0074267415 -0.10141599 -0.107780635 -0.06849016 0.04697394
0.009857457 -0.10349086 0.060475074 -0.010487881 0.15815927 0.18431741 -0.07017738 -0.003572548
0.10483114 -0.0127931405 -0.060226634 0.18896882 0.054045536 0.14248633 0.0206441 0.08831943
0.11640584 -0.10257771 -0.058306992 -0.055730365 0.19023505 -0.110807635 -0.17536588 -0.09573813
-0.09728958 0.022548275 0.0003631842 -0.0856263 -0.16292712 -0.032812 -0.13511862 -0.07069904
-0.12778726 0.104763046 -0.05734383 0.1608406 0.11138765 0.061363406 -0.05607538 0.07165755
0.14422616 -0.042064987 0.022395387 -0.057473764 0.01511847 0.049167845 0.05418816 -0.07441403
-0.08555209 -0.05771353 -0.043535642 -0.19649374 -0.06627057 -0.04713678 -0.09531798 0.09272829
-0.06626256 -0.102790214 -0.23716596 -0.05066112 0.1539664 0.09446592 -0.09608509 -0.030928452
0.22364403 0.3598497 -0.0876752 -0.09421147 -0.10280734 0.14122991 -0.0053959573 -0.15605666
-0.14107089 -0.0885741 -0.08170062 0.06712073 -0.23977053 -0.15306355 0.028431486 -0.0726094
0.029861594 0.003174656 -0.028014371 -0.037387747 0.0027960078 -0.06080598 -0.008817396 0.13960724
0.25071764 0.031659756 0.19615039 -0.083188236 0.13770397 -0.015327438 0.1903927 -0.0064091124
-0.08524176 -0.1235068 -0.030856347 0.14982472 0.17264608 -0.11326821 0.14013469 -0.027420463
-0.14632884 0.15458874 0.0723766 -0.078491166 -0.07634278 0.03751068 -0.02397053 0.14068498
-0.08103938 0.13689479 0.358325 0.23468201 -0.17110334 -0.062618986 0.043097124 -0.009374651
0.0363681 -0.057502247 0.053988528 -0.16116269 -0.00019281913 0.08028352 -0.13384241 -0.102319635
-0.05807849 0.115395084 -0.16461426 -0.0989381 0.14338401 -0.0017471496 0.06790945 -0.016846918
0.050141178 0.102269664 0.06050507 0.28980654 0.112815045 -0.0020586888 -0.21359834 -0.17192
0.20156455 -0.06877984 -0.09696181 -0.1771005 0.095602125 0.099661216 0.12594241 -0.16939479
-0.11139453 -0.12055413 -0.10961106 -0.11990963 0.0731935 0.017596675 0.040292423 0.0598062
0.111673936 -0.20481853 0.13385078 0.06083079 0.16268249 0.20036407 0.12772924 -0.089426436
-0.02910512 0.054231312 0.0026197273 -0.071087144 0.023382349 -0.05683956 -0.15175863 -0.21944436
-0.10127524 0.16360885 -0.114702746 0.106565475 -0.11561255 0.035599083 -0.13276236 0.05889505
0.118759535 0.08517325 -0.027993903 -0.05934369 0.29674575 0.29917157 0.22329417 0.005571145
00000000: f867 43bd 77f7 903d db3a e1bd 2c3e 23bd
00000010: 9d15 c23d b69a c5bd abe4 64be a6f7 d73d
00000020: 0b18 df3d d2e6 163e a3eb 6dbd f85a 48be
00000030: 692f 843d 129b b63d 8a6b b13d 7770 33bc
00000040: 9833 40be 101e fc3d 66f7 4a3e ce29 ccbd
00000050: b631 0ebe 347e b43b 176e 0b3e 6cc4 d83d
00000060: b426 f4bd 67db f53d e7c2 3cbd 59cb 3fbe
00000070: 97bd b73b c684 a63d 48e2 22be 5e17 d4b9
00000080: 2b26 3fbd 93cc e33d 1352 333e 65ca e1bd
00000090: 04b1 06be abb5 88bd 62b8 e93d a053 ac3d
000000a0: c755 f9bd 0cae 1cbd b055 04be 3734 1b3e
000000b0: 1345 ff3d d0a7 30be 883d 80be a624 073e
000000c0: 8093 553e b73f 163e 032e 36bd d1ea 2c3d
000000d0: 5200 10be 1db3 55bd 49d7 103c ace6 b43d
000000e0: 1668 10bd e686 89bc 7c4f 043e 065c f33b
000000f0: 30b3 cfbd 18bc dcbd 9244 8cbd bf67 403d
00000100: 2c81 213c 04f3 d3bd b6b4 773d 5cd5 2bbc
00000110: 81f4 213e b4bd 3c3e 29b9 8fbd 6921 6abb
00000120: b5b1 d63d 529a 51bc 34b0 76bd 0b81 413e
00000130: da5e 5d3d f0e7 113e d11d a93c d1e0 b43d
00000140: 2f66 ee3d 4314 d2bd 50d3 6ebd 8645 64bd
00000150: facc 423e 1def e2bd 1d93 33be 5a12 c4bd
00000160: c23f c7bd 29b7 b83c c269 be39 d75c afbd
00000170: 5ed6 26be e065 06bd 895c 0abe a9ca 90bd
00000180: aada 02be 028e d63d 5de1 6abd 66b3 243e
00000190: 351f e43d 3258 7b3d 4caf 65bd 32c1 923d
000001a0: 06b0 133e 564c 2cbd 8876 b73c 9c69 6bbd
000001b0: 76b3 773c 3964 493d 67f4 5d3d 6266 98bd
000001c0: ef35 afbd 0665 6cbd 6e52 32bd a835 49be
000001d0: ddb8 87bd 7f12 41bd 1336 c3bd 54e8 bd3d
000001e0: aab4 87bd ad83 d2bd a2db 72be 0982 4fbd
000001f0: 5ea9 1d3e 5977 c13d 42c8 c4bd aa5d fdbc
00000200: f102 653e 383e b83e 0e8f b3bd f1f1 c0bd
00000210: a88c d2bd 939e 103e 92d0 b0bb 51cd 1fbe
00000220: e374 10be 5666 b5bd a852 a7bd 9876 893d
00000230: 6886 75be b1bc 1cbe 26e9 e83c 3db4 94bd
00000240: 4da0 f43c e40d 503b 657e e5bc e523 19bd
00000250: 3a3d 373b b10f 79bd d776 10bc 33f5 0e3e
00000260: 105e 803e a9ad 013d a6db 483e 985e aabd
00000270: 4502 0d3e ef1f 7bbc 4ef6 423e 8803 d2bb
00000280: 3b93 aebd 22f1 fcbd 73c6 fcbc a76b 193e
00000290: 22ca 303e 2af9 e7bd 787f 0f3e e1a0 e0bc
000002a0: 3ad7 15be 834c 1e3e 2f3a 943d fabf a0bd
000002b0: 9a59 9cbd cca4 193d d85d c4bc b90f 103e
000002c0: f9f7 a5bd 262e 0c3e 6076 b73e 7b50 703e
000002d0: b735 2fbe 623e 80bd 9c86 303d 2398 19bc
000002e0: b8f6 143d 7a87 6bbd 1323 5d3d d507 25be
000002f0: 7e2f 4ab9 b06b a43d fc0d 09be f58c d1bd
00000300: b6e3 6dbd 4254 ec3d a490 28be 0fa0 cabd
00000310: 42d3 123e 9d00 e5ba 1c14 8b3d 8c02 8abc
00000320: d660 4d3d c272 d13d 2ad4 773d 8661 943e
00000330: 930b e73d 11eb 06bb 86b9 5abe cc0b 30be
00000340: f066 4e3e 72dc 8cbd ea93 c6bd d559 35be
00000350: 0ccb c33d 2e1b cc3d 0cf7 003e d475 2dbe
00000360: d122 e4bd 15e5 f6bd c37b e0bd 2e93 f5bd
00000370: 79e6 953d e726 903c ab09 253d 59f7 743d
00000380: 4eb5 e43d f3bb 51be 2e10 093e b529 793d
00000390: 3d96 263e 3d2c 4d3e 74cb 023e 3525 b7bd
000003a0: dc6d eebc a721 5e3d bbaf 2b3b 2396 91bd
000003b0: 578c bf3c 99d0 68bd 9d66 1bbe 06b6 60be
000003c0: 6569 cfbd 1489 273e 46e9 eabd 003f da3d
000003d0: 46c6 ecbd 58d0 113d dbf2 07be f03b 713d
000003e0: 3338 f33d 506f ae3d 7853 e5bc 5e12 73bd
000003f0: 0fef 973e 042d 993e 3aa7 643e 278e b63b

bias f4 [6]
0.049592175 -0.057445355 -0.0027696395 -0.029631374 0.06419437 -0.03516632
00000000: 2a21 4b3d d24b 6bbd d782 35bb 7fbd f2bc
00000010: 5678 833d 8f0a 10bd

weight f4 [6]
0.89906937 0.6449829 1.1286502 1.0711591 1.0180887 0.96801454
00000000: 6929 663f 991d 253f 9c77 903f be1b 893f
00000010: bb50 823f cdcf 773f

bias f4 [6]
0.0066772765 -0.12584153 -0.36408836 -0.47853592 -0.060825903 -0.25442493
00000000: 0ecd da3b 9adc 00be ca69 babe a902 f5be
00000010: 9524 79bd fc43 82be

running_mean f4 [6]
0.056697246 -0.56296235 0.4869062 0.43272132 0.06544294 0.17825751
00000000: 5f3b 683d 4d1e 10bf c54b f93e a68d dd3e
00000010: f306 863d 2389 363e

running_var f4 [6]
0.83598477 1.4954911 1.2404325 0.997838 0.37936902 0.48721385
00000000: 1903 563f 416c bf3f 7ec6 9e3f 5072 7f3f
00000010: a83c c23e 1874 f93e

weight f4 [16, 6, 5, 5]
0.013462753 0.07572626 0.04470937 0.045307007 -0.07944634 0.11259722 0.058768064 0.083215795
0.08135614 -0.039390948 0.04727339 -0.029151756 -0.035505854 0.010918955 -0.015576884 -0.0138487145
0.011649021 -0.084954105 -0.016547384 -0.015222914 -0.07603736 -0.057629365 0.021910403 -0.03297169
-0.047328845 -0.031237086 0.07022602 0.071879044 -0.07686527 0.024400814 0.024392907 0.008518088
-0.08696066 0.096540205 0.110748984 0.06991761 -0.12091162 0.0337743 0.002708522 0.0043089916
-0.0932199 0.02060227 -0.011096064 0.066062555 0.035507485 -0.027649526 -0.09203475 -0.041995805
0.006386011 -0.112588614 0.051229298 -0.05350131 -0.107857466 -0.30957213 -0.102687895 -0.08811043
-0.059166472 -0.033990607 -0.10583802 -0.21646969 -0.025376622 -0.053636372 0.020999843 0.07289794
-0.07178681 0.050705984 0.043096457 -0.06327101 0.061874975 0.14831863 0.037896518 -0.052066766
0.12790197 0.10490383 0.13946663 0.09798836 -0.12517709 -0.09727454 -0.19531876 -0.23439075
-0.19857515 -0.18186761 -0.031541165 -0.15386873 -0.18013577 -0.035328776 -0.10587418 0.061978586
0.018790832 0.11983012 -0.08338798 -0.017291749 0.050178304 0.1316729 0.11026622 0.08232707
0.14560844 0.115015574 0.16628972 0.15513034 0.18084633 0.08928079 0.031981442 -0.014448209
-0.008609474 0.12254152 -0.08011959 0.08424347 0.13627778 -0.11900485 -0.047162306 0.0467314
-0.05569274 -0.067817196 -0.21756509 -0.15984276 -0.05018861 0.0625733 -0.04148584 -0.14907265
-0.017466053 -0.01823316 -0.07960512 -0.11324869 -0.22480738 0.071241744 -0.0576527 -0.09855493
0.10681352 -0.021537727 -0.09134315 -0.005403852 0.010916085 0.10136292 0.11189964 0.04590324
0.08962846 -0.015032544 0.14887533 0.030961497 -0.063396215 0.026370317 -0.075455554 0.088162586
0.1760726 0.08397175 0.0019006963 -0.09557882 0.07833404 -0.002146108 -0.18059945 -5.957089e-05
-0.00057824666 0.07085913 0.15017639 -0.036913794 0.16854993 -0.014789354 -0.06613042 0.03143721
0.019238696 0.063753024 0.045820612 0.02143155 -0.012537658 0.10513362 -0.044806473 0.012026605
0.02591438 -0.031170212 -0.071562335 0.051046524 -0.08405918 0.0073929895 -0.19049385 -0.07060703
0.004547652 -0.006551836 0.028011428 -0.056643054 -0.02505795 -0.016751945 -0.00333387 -0.10825422
0.07377513 -0.1021526 0.0273345 -0.010442928 -0.06431791 -0.06941321 -0.053211313 -0.022599202
-0.0059617753 -0.15216799 -0.00999885 -0.068560965 0.012422915 -0.0043699574 -0.1433425 -0.15773445
-0.13224337 -0.15992671 0.00832773 0.13404067 0.16304795 -0.1273865 -0.14849395 -0.11694147
0.050412152 0.035300113 -0.057857174 -0.14065437 0.016723095 0.0853417 0.05995367 0.0037671744
-0.03663527 -0.1682369 0.033451036 0.18415096 0.03055659 0.0011549055 -0.065240555 0.06258973
0.08260889 -0.1656556 -0.07498664 -0.097492054 0.03215421 0.22340152 -0.11864874 0.009346796
-0.24162737 0.042021155 0.23961008 0.13467573 -0.10404499 -0.106282696 0.046957176 0.07866833
0.11937621 -0.05143258 -0.05760069 0.085300855 0.26555148 -0.006736696 -0.00928906 -0.052287016
-0.01213921 0.0007985885 0.12119506 0.020275585 -0.0985407 -0.022609347 -0.16721915 0.03723421
00000000: e192 5c3c 5f16 9b3d 2c21 373d d793 393d
00000010: c3b4 a2bd 5f99 e63d c8b6 703d 0b6d aa3d
00000020: 0c9e a63d 6758 21bd bea1 413d aacf eebc
00000030: 966e 11bd 6be5 323c 3036 7fbc b8e5 62bc
00000040: 89db 3e3c 6bfc adbd 618e 87bc 8769 79bc
00000050: 7ab9 9bbd c50c 6cbd 727d b33c 530d 07bd
00000060: e4db 41bd ebe4 ffbc a9d2 8f3d 5235 933d
00000070: 8a6b 9dbd 37e4 c73c a2d3 c73c 738f 0b3c
00000080: 6e18 b2bd dfb6 c53d 5dd0 e23d f730 8f3d
00000090: 83a0 f7bd ec56 0a3d 7581 313b 7132 8d3b
000000a0: 13ea bebd 17c6 a83c 44cc 35bc ce4b 873d
000000b0: 4c70 113d 4281 e2bc b77c bcbd cb03 2cbd
000000c0: be41 d13b dc94 e6bd d0d5 513d 3124 5bbd
000000d0: 60e4 dcbd 3d80 9ebe 084e d2bd 3e73 b4bd
000000e0: 8b58 72bd bc39 0bbd 9bc1 d8bd 3baa 5dbe
000000f0: a2e2 cfbc d0b1 5bbd dd07 ac3c 844b 953d
00000100: f704 93bd 14b1 4f3d e985 303d 3b94 81bd
00000110: 9d70 7d3d d7e0 173e 6139 1b3d f643 55bd
00000120: bcf8 023e d2d7 d63d 57d0 0e3e 1fae c83d
00000130: 6c2e 00be e037 c7bd a401 48be 2104 70be
00000140: 4957 4bbe 813b 3abe 4f31 01bd c48f 1dbe
00000150: 8375 38be e8b4 10bd 90d4 d8bd 42dd 7d3d
00000160: 3bef 993c 7e69 f53d 51c7 aabd 6da7 8dbc
00000170: c487 4d3d 43d5 063e 42d3 e13d 189b a83d
00000180: 611a 153e 498d eb3d da47 2a3e 7dda 1e3e
00000190: c82f 393e d9d8 b63d f9fe 023d 2eb8 6cbc
000001a0: c00e 0dbc 0cf7 fa3d bd15 a4bd d787 ac3d
000001b0: 678c 0b3e d1b8 f3bd 432d 41bd 6d69 3f3d
000001c0: 121e 64bd bee3 8abd 62c9 5ebe d2ad 23be
000001d0: 9292 4dbd 6e26 803d 0eed 29bd 80a6 18be
000001e0: f814 8fbc b55d 95bc 0208 a3bd eeee e7bd
000001f0: e833 66be 31e7 913d 3d25 6cbd 2bd7 c9bd
00000200: 0cc1 da3d e36f b0bc 1e12 bbbd cc12 b1bb
00000210: 61d9 323c 5d97 cf3d a32b e53d 0905 3c3d
00000220: 208f b73d 0f4b 76bc c672 183e f7a2 fd3c
00000230: e0d5 81bd 9006 d83c 7188 9abd 968e b43d
00000240: 604c 343e 62f9 ab3d c920 f93a d4be c3bd
00000250: 996d a03d b8a5 0cbb 10ef 38be c2db 79b8
00000260: 7a95 17ba 971e 913d d7c7 193e eb32 17bd
00000270: 5a98 2c3e 0c4f 72bc 636f 87bd 4ec4 003d
00000280: 789a 9d3c f290 823d 65ae 3b3d 3891 af3c
00000290: c06a 4dbc 4c50 d73d fe86 37bd 3d0b 453c
000002a0: 654a d43c ac58 ffbc 468f 92bd 2916 513d
000002b0: 3827 acbd e440 f23b d210 43be 6b9a 90bd
000002c0: 7804 953b c9b0 d6bb 3978 e53c 8c02 68bd
000002d0: 5446 cdbc 603b 89bc 0f7d 5abb 63b4 ddbd
000002e0: 6a17 973d 6235 d1bd 9aec df3c d118 2bbc
000002f0: 1cb9 83bd 8328 8ebd 1bf4 59bd f621 b9bc
00000300: ff5a c3bb edd1 1bbe 37d2 23bc b169 8cbd
00000310: 7b89 4b3c dc31 8fbb 60c8 12be 2485 21be
00000320: ce6a 07be d4c3 23be 0871 083c f541 093e
00000330: 0bf6 263e 9b71 02be cc0e 18be 027f efbd
00000340: f97c 4e3d da96 103d a5fb 6cbd b307 10be
00000350: dffe 883c a1c7 ae3d fb91 753d b3e2 763b
00000360: dd0e 16bd 4b46 2cbe f403 093d 1292 3c3e
00000370: d051 fa3c 3360 973a d79c 85bd 0b2f 803d
00000380: da2e a93d 9fa1 29be 9892 99bd eaa9 c7bd
00000390: 22b4 033d 5ec3 643e 1cfe f2bd 4e23 193c
000003a0: 2a6d 77be 601e 2c3d 585c 753e 6fe8 093e
000003b0: 8a15 d5bd beaa d9bd 2b56 403d dd1c a13d
000003c0: 847b f43d f8aa 52bd b3ee 6bbd 37b2 ae3d
000003d0: 5df6 873e 81bf dcbb 2431 18bc e92a 56bd
000003e0: 89e3 46bc 5e58 513a 1e35 f83d fc18 a63c
000003f0: b5cf c9bd 3d37 b9bc 7f3b 2bbe e682 183d

bias f4 [16]
0.050113887 -0.028199803 -0.016006371 0.0052867844 0.04907027 -0.018005848 -0.0024956972 -0.010528938
-0.039975073 0.06085809 -0.0475181 -0.023971932 -0.025320705 -0.031929664 0.04438851 -0.035435297
00000000: 3844 4d3d 4603 e7bc cb1f 83bc c33c ad3b
00000010: e8fd 483d 0081 93bc da8e 23bb 9181 2cbc
00000020: e7bc 23bd 5546 793d 57a2 42bd c960 c4bc
00000030: 5e6d cfbc aec8 02bd bad0 353d 9a24 11bd

weight f4 [16]
1.0791098 0.86147326 0.96270317 0.9942179 1.0648897 0.9225348 1.0247036 0.8936549
1.1229959 1.1191207 0.75079525 0.9454848 1.0364709 0.8496652 1.1162802 0.9715492
00000000: 4520 8a3f 8389 5c3f b773 763f 1085 7e3f
00000010: 4e4e 883f 3e2b 6c3f 7d29 833f 91c6 643f
00000020: 54be 8f3f 593f 8f3f 1e34 403f 4b0b 723f
00000030: 14ab 843f a983 593f 45e2 8e3f 73b7 783f

bias f4 [16]
-0.1233691 -0.1182385 -0.23803502 -0.16775103 -0.19829687 -0.3711653 -0.2925216 -0.21455783
-0.28731915 -0.1832808 -0.21826589 -0.25372925 -0.25049478 -0.30629474 -0.22419307 -0.08148796
00000000: f0a8 fcbd 0727 f2bd 74bf 73be edc6 2bbe
00000010: 560e 4bbe 6109 bebe 64c5 95be 0cb5 5bbe
00000020: 7f1b 93be f6ad 3bbe 1881 5fbe cde8 81be
00000030: da40 80be aad2 9cbe de92 65be 29e3 a6bd

running_mean f4 [16]
-0.20906243 -0.27683556 -0.26252767 -0.3564316 -0.36696377 -0.097450875 -0.12167227 -0.3201425
-0.5831424 -0.6235313 -0.32427594 -0.34918398 -0.5163327 -0.09473102 -0.40960318 -0.46908155
00000000: 7614 56be 64bd 8dbe 076a 86be 347e b6be
00000010: ade2 bbbe 5394 c7bd 502f f9bd b8e9 a3be
00000020: d248 15bf bf9f 1fbf 7f07 a6be 3ec8 b2be
00000030: 612e 04bf 5602 c2bd 82b7 d1be 752b f0be

running_var f4 [16]
0.3015153 0.36706522 0.14908017 0.34115592 0.5640338 0.121522516 0.25507852 0.30382293
0.47273758 0.71836495 0.46937126 0.42622715 0.4447827 0.9691303 0.40311614 0.30990136
00000000: 3760 9a3e f9ef bb3e 79a8 183e fdab ae3e
00000010: 8564 103f cce0 f83d a799 823e ae8e 9b3e
00000020: a90a f23e c4e6 373f 6e51 f03e 723a da3e
00000030: 8fba e33e ec18 783f 3d65 ce3e 64ab 9e3e

weight f4 [120, 16, 5, 5]
0.07321552 0.09282551 0.13144857 0.19227825 0.018957075 0.07755685 -0.07923208 0.043462906
-0.004068096 0.08935709 -0.023944842 0.064038485 0.005197774 0.01132137 0.019604895 0.0346409
0.03559084 0.05877766 0.10210845 0.10578021 -0.118755214 -0.05334197 0.023575991 -0.013501405
-0.14563222 0.11761754 0.08302013 0.19100817 0.1339749 0.07009836 -0.08581163 0.060056444
0.032509003 -0.0007288434 -0.013642779 0.022548575 0.050778385 0.026395189 -0.03153217 0.048511006
0.012380475 -0.017292496 -0.0037035046 0.011604692 0.11286655 0.015721561 0.007638326 0.09241853
0.064809136 -0.017787235 -0.18241481 -0.24710375 -0.13166352 -0.17245363 -0.1755313 -0.05931457
-0.038309727 -0.10913968 -0.053681992 -0.006713295 0.00086726615 0.022037419 0.030519443 0.046677265
0.08644309 -0.015397266 -0.04512883 0.05812046 -0.019060282 -0.062786356 -0.10074409 0.016102005
0.09748466 0.12535188 0.040160324 0.13946016 0.035671625 -0.06888993 0.0064107478 0.044307917
-0.0059612812 0.003708277 -0.051537458 -0.006974938 0.045930088 0.031395137 -0.096547 -0.0028716393
0.017529795 -0.027369792 -0.041310724 -0.052104663 -0.096221626 0.051349282 0.031378318 0.05522199
0.02517651 -0.04403894 0.11735896 0.07037425 -0.023313921 0.03307499 -0.18409152 -0.09437692
-0.089631334 0.049264614 0.04863 0.065731645 0.019919634 -0.14111789 0.08242029 0.006741696
0.044829197 -0.02030209 -0.18672396 0.029968342 -0.004163287 0.054116394 -0.023912787 -0.17311868
-0.0026538868 -0.019647349 0.016487284 0.12476604 -0.08798975 -0.008242418 -0.14206569 -0.026102947
-0.03636707 0.040740874 0.047273837 0.04950937 -0.104326166 0.0039102933 -0.022208294 0.01925348
0.04774514 0.017604955 0.03708785 -0.0060424516 -0.012316171 0.08585402 0.053007685 -0.025192754
-0.03020042 0.10332597 -0.015720187 -0.044035256 -0.05849306 -0.068737894 0.019363908 0.12923257
0.0016621761 -0.116524264 0.079319656 0.0021199232 0.06347991 -0.0057953494 0.08970152 0.07648079
0.064662404 0.029621884 -0.017780377 -0.00536967 0.011374245 0.14656124 -0.06509642 -0.08559911
-0.004758003 0.10390843 0.008025452 -0.067680284 0.11279658 0.14414321 0.05491863 -0.015701886
-0.011302869 0.1993002 0.08384744 0.04322011 -0.13029014 -0.044155706 -0.0428602 -0.07819663
-0.13350086 -0.15997662 -0.0124319075 -0.009288066 0.052917197 -0.06840435 -0.0892158 0.006428913
0.06620332 0.07836675 0.03526914 -0.06289207 0.015391144 0.08323845 -0.015874963 0.010635546
-0.06178883 -0.07016662 -0.17796563 -0.04810805 0.05357986 0.029823778 0.019368216 -0.043474954
0.117173314 0.065065995 0.06562022 0.022568341 -0.07528378 0.018075148 -0.033280756 -0.006331617
0.012271196 -0.08723871 0.042730104 -0.034768216 0.108619295 0.020275865 -0.023436503 0.014846901
0.13667324 0.1030896 0.050537698 0.010588013 -0.022715736 -0.049735263 0.0985024 0.04412735
-0.055116236 -0.05629738 -0.09005996 0.08692017 0.05599721 -0.08699095 0.03407416 -0.10753696
0.029147072 0.031987794 -0.03428332 0.08309273 -0.070195176 -0.05465362 -0.1085561 -0.07802016
-0.12439952 -0.030472724 0.10486007 0.0014830721 -0.042443216 0.015630689 0.019116528 -0.029373141
00000000: 05f2 953d 4d1b be3d 749a 063e 97e4 443e
00000010: de4b 9b3c 20d6 9e3d 6e44 a2bd 2906 323d
00000020: aa4d 85bb da00 b73d f927 c4bc 9c26 833d
00000030: 1752 aa3b 447d 393c 729a a03c 9ee3 0d3d
00000040: b3c7 113d d8c0 703d 3c1e d13d 4ba3 d83d
00000050: ef35 f3bd 1c7d 5abd 7022 c13c ff34 5dbc
00000060: 9d20 15be 77e1 f03d 7506 aa3d a597 433e
00000070: b730 093e bb8f 8f3d 02be afbd bffd 753d
00000080: 2928 053d da0f 3fba f685 5fbc cab7 b83c
00000090: fffc 4f3d b93a d83c e027 01bd 7ab3 463d
000000a0: 7ad7 4a3c fea8 8dbc 7fb6 72bb 9b21 3e3c
000000b0: 9426 e73d 81ca 803c ec4a fa3b ed45 bd3d
000000c0: a7ba 843d 89b6 91bc f3ca 3abe c408 7dbe
000000d0: cdd2 06be af97 30be 7abe 33be d6f3 72bd
000000e0: a9ea 1cbd a084 dfbd a6e1 5bbd 33fb dbbb
000000f0: 3f59 633a d187 b43c e903 fa3c a930 3f3d
00000100: 1309 b13d d044 7cbc 02d9 38bd b80f 6e3d
00000110: 4f24 9cbc 2296 80bd eb52 cebd 5ae8 833c
00000120: 0aa6 c73d 3e5c 003e 277f 243d a5ce 0e3e
00000130: 691c 123d 2a16 8dbd 4011 d23b 387c 353d
00000140: da56 c3bb 9006 733b f118 53bd 058e e4bb
00000150: 3021 3c3d 3098 003d 6fba c5bd 1d32 3cbb
00000160: a59a 8f3c 9d36 e0bc 6f35 29bd b36b 55bd
00000170: d80f c5bd a053 523d 8d86 003d 7430 623d
00000180: f83e ce3c 2d62 34bd e559 f03d 6020 903d
00000190: d6fc bebc a479 073d 7d82 3cbe b048 c1bd
000001a0: a290 b7bd b1c9 493d 4030 473d 509e 863d
000001b0: 802e a33c 3581 10be f8cb a83d 72e9 dc3b
000001c0: d29e 373d 9250 a6bc 9134 3fbe 2b80 f53c
000001d0: 2f6c 88bb 27a9 5d3d c0e4 c3bc 0646 31be
000001e0: d5ec 2dbb 7af3 a0bc 5710 873c 5685 ff3d
000001f0: f833 b4bd 350b 07bc ab79 11be d9d5 d5bc
00000200: a3f5 14bd e7df 263d 36a2 413d 56ca 4a3d
00000210: f5a8 d5bd eb21 803b 2bee b5bc 79b9 9d3c
00000220: 6890 433d 4438 903c 6ee9 173d c2ff c5bb
00000230: c4c9 49bc 3cd4 af3d 961e 593d 0961 cebc
00000240: df66 f7bc 919c d33d 9fc7 80bc 505e 34bd
00000250: 6b96 6fbd 74c6 8cbd 0fa1 9e3c 8b55 043e
00000260: 60dd d93a 46a4 eebd 5872 a23d 69ee 0a3b
00000270: c101 823d eae6 bdbb 6eb5 b73d f6a1 9c3d
00000280: b96d 843d 98a9 f23c 27a8 91bc 0ff4 afbb
00000290: 0b5b 3a3c 2614 163e 4651 85bd 964e afbd
000002a0: 06e9 9bbb f1cd d43d 2f7d 033c f69b 8abd
000002b0: e501 e73d 479a 133e 5bf2 603d 3ea1 80bc
000002c0: ab2f 39bc 5a15 4c3e 35b8 ab3d 9207 313d
000002d0: c76a 05be 9ddc 34bd 2d8e 2fbd 8e25 a0bd
000002e0: 73b4 08be e9d0 23be 33af 4bbc f92c 18bc
000002f0: b4bf 583d 9417 8cbd c6b6 b6bd a2a9 d23b
00000300: 9b95 873d bf7e a03d 6076 103d 8fcd 80bd
00000310: 232b 7c3c ec78 aa3d 360c 82bc b740 2e3c
00000320: 4916 7dbd 84b3 8fbd 9f3c 36be f20c 45bd
00000330: 8e76 5b3d ff50 f43c 18aa 9e3c cb12 32bd
00000340: 90f8 ef3d 5241 853d e563 863d 3ee1 b83c
00000350: 622e 9abd 5512 943c 6751 08bd 7479 cfbb
00000360: 200d 493c 35aa b2bd c305 2f3d 1e69 0ebd
00000370: cb73 de3d 9219 a63c e9fd bfbc 6b40 733c
00000380: 12f4 0b3e a420 d33d 9e00 4f3d 5879 2d3c
00000390: 5a16 babc 34b7 4bbd a0bb c93d e1be 343d
000003a0: 90c1 61bd 1598 66bd 5b71 b8bd 3403 b23d
000003b0: 555d 653d 5028 b2bd 5991 0b3d 563c dcbd
000003c0: d7c5 ee3c a205 033d ab6c 0cbd 852c aa3d
000003d0: 7dc2 8fbd 79dc 5fbd a952 debd 09c9 9fbd
000003e0: 2dc5 febd efa1 f9bc e0c0 d63d a463 c23a
000003f0: f0d8 2dbd ee0b 803c 449a 9c3c f19f f0bc

bias f4 [120]
0.0038318918 0.004695819 0.011806217 -0.025603056 -0.0070889117 -0.015234958 0.011594522 -0.016164264
0.007704811 -0.0075373217 0.024672257 -0.009627149 -0.0016226199 -0.031540852 0.0011698952 -0.01859454
-0.0037976303 0.0049315603 0.008237194 0.01459699 0.013450212 0.0018912337 0.005239809 0.015432761
-0.018348584 0.0019450322 -0.0049584834 -0.0032167712 0.004756752 -0.008402665 0.0038289097 0.018196227
-0.007714219 0.0014726219 -0.005021599 -0.027848672 -0.0036002272 0.015055609 0.004067029 -0.016917454
0.017198475 -0.00027808017 -0.024443064 -0.045310985 0.009174741 -7.380564e-05 0.01540405 -0.014044708
-0.033824854 -0.00037262135 -0.0069291582 -0.008987184 -0.00022070494 -0.0013682231 0.011038438 -0.022864556
-0.017460655 -0.01510241 -0.009841792 -0.008846282 4.5110835e-05 -0.00025252078 0.0011349488 -0.009141007
0.0015942822 -0.017524468 -0.010110452 0.0025885263 -0.008724983 0.01945076 0.028702766 0.008358687
0.0009869331 0.01354063 -0.012253395 0.026541024 -0.008126606 0.012038274 0.010983484 0.014393235
0.012836024 -0.005127185 0.007921852 0.030322934 -0.026310852 -0.0073419423 0.022084698 -0.0036095588
0.0036986195 0.00785182 0.0013477799 -0.012638571 -0.013684682 0.001275704 0.008771537 -0.0092852125
0.0014254177 -0.0016143457 -0.0020758195 0.005167861 0.016697302 0.01285315 0.009014335 0.0030431761
0.002457483 -0.0008168403 0.007464418 -0.006374176 -0.015829513 -0.007243899 0.00913245 -0.001614413
-0.008328371 -0.0002210096 -0.011810002 0.011957293 0.025685586 -0.007244594 0.014740071 -0.01982986
00000000: 7a20 7b3b 63df 993b dd6e 413c 80bd d1bc
00000010: 1a4a e8bb 0c9c 79bc f3f6 3d3c eb6a 84bc
00000020: a478 fc3b a3fb f6bb 791d ca3c 31bb 1dbc
00000030: 17ae d4ba fb30 01bd 2b57 993a 9453 98bc
00000040: aae1 78bb ed98 a13b 4cf5 063c 3728 6f3c
00000050: 475e 5c3c 46e3 f73a b4b2 ab3b b1d9 7c3c
00000060: c54f 96bc 73f0 fe3a c67a a2bb 77d0 52bb
00000070: 87de 9b3b 55ab 09bc 72ee 7a3b 4110 953c
00000080: 8fc7 fcbb fe04 c13a 3a8c a4bb e622 e4bc
00000090: caf1 6bbb cdab 763c b644 853b 7996 8abc
000000a0: d1e3 8c3c 4acb 91b9 d23c c8bc 0398 39bd
000000b0: a751 163c 1ac8 9ab8 4561 7c3c c61b 66bc
000000c0: ee8b 0abd 645c c3b9 fe0d e3bb fb3e 13bc
000000d0: 086d 67b9 f355 b3ba 91da 343c 734e bbbc
000000e0: a609 8fbc 1970 77bc 783f 21bc ffef 10bc
000000f0: 6435 3d38 c464 84b9 90c2 943a 2ac4 15bc
00000100: 3cf7 d03a 798f 8fbc 4fa6 25bc 44a4 293b
00000110: 3bf3 0ebc 3357 9f3c 1022 eb3c e0f2 083c
00000120: fb5b 813a 85d9 5d3c 77c2 48bc 906c d93c
00000130: 7525 05bc 2e3c 453c 12f4 333c 9ad1 6b3c
00000140: 304e 523c f201 a8bb a8ca 013c cd67 f83c
00000150: db89 d7bc ad94 f0bb f8ea b43c 598e 6cbb
00000160: 8a64 723b eca4 003c fda7 b03a 0212 4fbc
00000170: b735 60bc 8635 a73a 7eb6 0f3c 0121 18bc
00000180: 15d5 ba3a 7498 d3ba 790a 08bb 2957 a93b
00000190: c8c8 883c 0596 523c ddb0 133c 0670 473b
000001a0: b90d 213b 3921 56ba 1498 f43b 77de d0bb
000001b0: e5ac 81bc 3b5e edbb 46a0 153c b69a d3ba
000001c0: b873 08bc d0be 67b9 bd7e 41bc 86e8 433c
000001d0: 946a d23c 0f64 edbb 5780 713c 3b72 a2bc

weight f4 [120]
1.201272 1.122826 1.1196094 1.1069887 1.1510452 1.1461288 1.1191176 1.1025562
1.1160225 1.0410572 1.0994562 1.0445598 1.0365591 1.1098539 1.1274881 1.101445
1.0397031 1.1240655 1.1151494 1.0339541 1.0659242 1.172521 1.1674991 1.1052412
1.1543285 1.0728717 1.1229721 1.1517452 1.0980406 1.1140602 1.0940132 1.0355501
1.0962433 1.0601066 1.1348376 1.1480992 1.1156255 1.1053708 1.1087215 1.1412023
1.1407242 1.042671 1.0601302 1.0939468 1.0845377 1.1041954 0.9947141 1.0639838
1.1984706 1.1046573 1.1948559 1.0898155 1.1236138 1.1318227 1.2349744 1.1337638
1.1435095 1.0603199 1.1809851 1.0670601 1.2063977 1.206389 1.1051801 1.1434847
1.1230993 1.1180943 1.0927988 1.1803311 1.0791124 1.0363082 1.0246987 1.1006724
1.2024533 1.141048 1.1452756 1.11445 1.1018617 1.1927032 1.1619225 1.0262415
1.0577251 1.1696824 1.0806454 1.0933479 1.0766857 1.0309604 1.1402363 1.1433251
1.1613784 1.0841261 1.1908219 1.0431364 1.2421422 1.1510216 1.0464994 1.1333169
1.1448551 1.081914 1.2251141 1.1133463 1.1637831 1.0597106 1.0850484 1.113622
1.0387131 1.127254 1.1240664 1.132326 1.0813415 1.0817194 1.155122 1.1452096
1.0520132 1.1458747 1.2589868 1.1236047 1.1408932 1.0788324 1.0977893 1.1124734
00000000: 48c3 993f c3b8 8f3f 5c4f 8f3f ceb1 8d3f
00000010: 7355 933f 59b4 923f 3f3f 8f3f 9020 8d3f
00000020: d3d9 8e3f 5d41 853f fbba 8c3f 23b4 853f
00000030: f8ad 843f b10f 8e3f 8851 903f 26fc 8c3f
00000040: fe14 853f 61e1 8f3f 37bd 8e3f 9c58 843f
00000050: 3470 883f 2b15 963f 9c70 953f 8b78 8d3f
00000060: 09c1 933f dc53 893f 8dbd 8f3f 636c 933f
00000070: 988c 8c3f 8699 8e3f a008 8c3f e88c 843f
00000080: b351 8c3f 93b1 873f 5c42 913f eaf4 923f
00000090: d1cc 8e3f ca7c 8d3f 96ea 8d3f eb12 923f
000000a0: 4003 923f 3e76 853f 59b2 873f 7306 8c3f
000000b0: 22d2 8a3f 4656 8d3f 95a5 7e3f 9f30 883f
000000c0: 7c67 993f 6965 8d3f 0af1 983f 137f 8b3f
000000d0: 94d2 8f3f 91df 903f a413 9e3f 2c1f 913f
000000e0: 855e 923f 90b8 873f 852a 973f 6d95 883f
000000f0: 3d6b 9a3f f46a 9a3f 8b76 8d3f b55d 923f
00000100: b8c1 8f3f b71d 8f3f d5e0 8b3f 1715 973f
00000110: 5b20 8a3f bfa5 843f 5429 833f d5e2 8c3f
00000120: fde9 993f dc0d 923f 6498 923f 4ca6 8e3f
00000130: ce09 8d3f 80aa 983f e0b9 943f e25b 833f
00000140: 8963 873f 27b8 953f 9752 8a3f d3f2 8b3f
00000150: d6d0 893f 83f6 833f 43f3 913f 7a58 923f
00000160: 0ca8 943f a5c4 8a3f da6c 983f 7e85 853f
00000170: 84fe 9e3f ad54 933f b1f3 853f 8710 913f
00000180: 9d8a 923f 287c 8a3f 8ad0 9c3f 2282 8e3f
00000190: d8f6 943f 99a4 873f dee2 8a3f 2a8b 8e3f
000001a0: 8df4 843f dc49 903f 68e1 8f3f 0ff0 903f
000001b0: 6669 8a3f c875 8a3f 0adb 933f 3a96 923f
000001c0: 5ea8 863f 06ac 923f 7b26 a13f 47d2 8f3f
000001d0: ca08 923f 2e17 8a3f 5c84 8c3f 8765 8e3f

bias f4 [120]
-0.10206736 0.053361915 0.037939385 0.0251741 -0.028273782 0.05609003 0.014913828 0.010552509
-0.010707886 -0.06089348 -0.05774355 0.026925856 -0.022860434 -0.03008864 0.034452125 -0.042126253
-0.0020403164 0.06386337 -0.0034309407 0.055777345 -0.047242116 0.03347402 -0.0054672435 0.031279366
-0.04153945 0.0643313 -0.003114826 0.08313478 -0.006231885 0.009568358 0.03185643 -0.024311693
0.1019844 0.016349455 0.041174274 0.0031605256 -0.022119539 -0.053069875 -0.114978164 -0.086416386
0.016599556 -0.053899657 -0.009663667 0.0031708586 0.035627354 0.09755064 -0.0063526356 -0.018918624
0.12807009 -0.05125571 0.062312376 -0.017328368 -0.07155531 -0.029681971 0.10308103 -0.04614356
-0.022078203 -0.054909643 -0.018643158 0.011865263 -0.005704959 0.021287257 -0.028381841 -0.0061418363
0.015868427 0.057753995 -0.04515481 0.13825145 -0.0018256253 -0.018805211 -0.04236503 -0.06499765
0.025293708 0.0013182528 0.026639678 0.016384488 0.023323687 0.008623658 0.035509974 -0.06437227
-0.024477076 -0.010252946 -0.012252078 0.027400035 -0.03578692 -0.04398746 0.055297866 -0.01544671
-0.009497432 -0.08123797 -0.038868222 -0.014628233 0.12006368 0.028704353 -0.006537318 0.024538247
0.018053675 -0.091024905 -0.02105891 0.02915819 0.05501419 0.02115651 -0.09975874 -0.0064632325
0.029365303 0.013828537 -0.061689287 0.0024957394 0.017078117 0.0060840184 0.019855022 -0.07850374
-0.018312158 -0.056379553 0.058291346 0.111147925 -0.058560267 -0.04640469 -0.050093807 -0.049961995
00000000: b108 d1bd 0692 5a3d 5466 1b3d ea39 ce3c
00000010: 6b9e e7bc a9be 653d 2159 743c 6ee4 2c3c
00000020: 2170 2fbc 716b 79bd 8084 6cbd 9d93 dc3c
00000030: ce45 bbbc 747c f6bc ac1d 0d3d 948c 2cbd
00000040: d4b6 05bb ccca 823d a2d9 60bb c976 643d
00000050: f380 41bd 0e1c 093d 9026 b3bb cb1e 003d
00000060: 4525 2abd 21c0 833d 1c22 4cbb 9142 aa3d
00000070: d734 ccbb 9ac4 1c3c e37b 023d 5129 c7bc
00000080: 32dd d03d 4bef 853c 5ba6 283d d220 4f3b
00000090: 0934 b5bc cc5f 59bd ac79 ebbd 13fb b0bd
000000a0: cbfb 873c e3c5 5cbd 5b54 1ebc 2ece 4f3b
000000b0: fded 113d a1c8 c73d c529 d0bb 3bfb 9abc
000000c0: ce24 033e 82f1 51bd 433b 7f3d 39f4 8dbc
000000d0: 978b 92bd 9b27 f3bc 261c d33d 0801 3dbd
000000e0: 59dd b4bc efe8 60bd 89b9 98bc 8566 423c
000000f0: aaf0 babb 9d62 ae3c 0981 e8bc 7541 c9bb
00000100: 81fe 813c 748f 6c3d 40f4 38bd ca91 0d3e
00000110: d249 efba 630d 9abc f486 2dbd 7d1d 85bd
00000120: c034 cf3c 39c9 ac3a 743b da3c c338 863c
00000130: 5111 bf3c 3e4a 0d3c e872 113d 9cd5 83bd
00000140: 2684 c8bc f9fb 27bc f1bc 48bc 0a76 e03c
00000150: 4e95 12bd 322c 34bd 0480 623d 3314 7dbc
00000160: 1e9b 1bbc 1860 a6bd 4934 1fbd 42ab 6fbc
00000170: f2e3 f53d 6425 eb3c 0037 d6bb 6f04 c93c
00000180: 4de5 933c 446b babd bc83 acbc 28dd ee3c
00000190: 8f56 613d 6b50 ad3c 4f4e ccbd 86c9 d3bb
000001a0: 818f f03c 1791 623c e8ad 7cbd 8f8f 233b
000001b0: 68e7 8b3c 725c c73b 00a7 a23c 92c6 a0bd
000001c0: 6103 96bc 3fee 66bd e8c2 6e3d 86a1 e33d
000001d0: e4dc 6fbd d812 3ebd 2a2f 4dbd f3a4 4cbd

running_mean f4 [120]
-0.03189573 -0.4196926 0.010304803 0.1204319 -0.12455664 -0.33991435 -0.937911 -0.8259761
0.012078194 -0.4777358 0.1494321 0.5764627 -0.28653753 0.2959603 -0.056058086 -0.0016293612
-1.4035549 -0.36006078 0.45453328 -0.3610554 -0.13934787 0.9697234 0.8440193 -0.7551791
-0.18773946 0.3961251 0.27454552 0.27458367 -0.68379444 -0.29608905 -0.22673738 -0.22977866
-0.2735299 -0.1495965 0.6903606 0.24271698 -0.4586305 -0.84854335 -1.460124 0.39291933
0.16327202 0.1485272 -0.08000715 -0.34549078 0.2807972 -0.57717586 0.03986798 0.04998399
-1.070623 -0.21274439 -0.40726435 -0.7639033 -0.4964084 0.6664631 -0.43714133 0.6017193
-0.23281734 0.19461706 0.018764377 -0.26907936 -0.20041876 0.80378544 -0.04448801 0.2466476
-0.16750033 0.42899483 0.46768525 0.2881325 0.91457057 -0.28084216 -0.7582735 0.4799414
-0.1974758 0.07983739 0.40619048 -0.14179224 0.107947 -0.15988128 -0.7027054 0.63466346
-0.57924026 -0.58963066 -0.7136973 -0.2168833 -1.0664847 -0.046051558 -0.67207325 -0.18280885
0.9222585 -0.3926349 0.011077744 0.6063447 0.14521478 -0.86461234 -0.8390866 0.124687254
-0.23814481 0.17278326 0.5479126 -0.37196937 -0.3806086 0.33742812 -0.4821089 -0.65831447
-0.38490725 -0.20268059 0.692847 -1.0520339 0.29374364 -0.14530323 0.13677454 -0.36322522
0.04986901 0.27566293 -0.45670244 -0.7611277 0.06430593 0.4068415 -0.98254204 -0.61798537
00000000: 19a5 02bd f3e1 d6be 7ad5 283c 00a5 f63d
00000010: 8d17 ffbd 4109 aebe ef1a 70bf 2b73 53bf
00000020: 9ee3 453c c999 f4be ba04 193e 0f93 133f
00000030: 0cb5 92be 1c88 973e 2a9d 65bd 4a90 d5ba
00000040: b0a7 b3bf e359 b8be 96b8 e83e 41dc b8be
00000050: 35b1 0ebe cb3f 783f a611 583f 6b53 41bf
00000060: c63e 40be e9d0 ca3e 3b91 8c3e 3b96 8c3e
00000070: 270d 2fbf fc98 97be d82d 68be 194b 6bbe
00000080: 1c0c 8cbe d32f 19be 79bb 303f cd8a 783e
00000090: 9ed1 eabe 233a 59bf 58e5 babf b92c c93e
000000a0: c830 273e 8417 183e cada a3bd 2be4 b0be
000000b0: a7c4 8f3e ccc1 13bf 9b4c 233d 03bc 4c3d
000000c0: 2d0a 89bf aad9 59be f484 d0be 2b8f 43bf
000000d0: 3e29 febe 539d 2a3f fdd0 dfbe 470a 1a3f
000000e0: ab67 6ebe b249 473e c0b7 993c c5c4 89be
000000f0: 933a 4dbe e2c4 4d3f 0f39 36bd 3091 7c3e
00000100: 3585 2bbe 36a5 db3e 7174 ef3e 1a86 933e
00000110: 4c21 6a3f 8bca 8fbe 361e 42bf e1ba f53e
00000120: 1937 4abe c981 a33d 33f8 cf3e fc31 11be
00000130: 5113 dd3d ebb7 23be 80e4 33bf 4e79 223f
00000140: 1749 14bf 09f2 16bf deb4 36bf a816 5ebe
00000150: 9282 88bf 8fa0 3cbd fe0c 2cbf 3e32 3bbe
00000160: 2219 6c3f 7107 c9be 6d7f 353c 6839 1b3f
00000170: 2fb3 143e 3c57 5dbf 61ce 56bf 085c ff3d
00000180: 3cdc 73be 18ee 303e 0044 0c3f c572 bebe
00000190: 21df c2be 61c3 ac3e fad6 f6be 4c87 28bf
000001a0: 9012 c5be 808b 4fbe 6c5e 313f 0ca9 86bf
000001b0: 9165 963e 5fca 14be a00e 0c3e a8f8 b9be
000001c0: 7243 4c3d b123 8d3e e7d4 e9be 44d9 42bf
000001d0: d4b2 833d 874d d03e e087 7bbf 4a34 1ebf

running_var f4 [120]
0.33338314 0.45450473 0.26371703 0.33858305 0.3893613 0.3382637 0.41197315 0.30785048
0.38776812 0.3088005 0.3555909 0.21742974 0.3219875 0.3641229 0.34551916 0.34329322
0.45080513 0.34579015 0.38680664 0.41480207 0.33659503 0.54718834 0.59786034 0.24961944
0.37857324 0.3139599 0.48588943 0.30982754 0.28312021 0.32754263 0.28566873 0.29486987
0.36193058 0.33773768 0.5082678 0.28592452 0.36799672 0.585562 0.28493828 0.32923463
0.31669044 0.454793 0.31814516 0.46106985 0.3229575 0.25524947 0.3257604 0.32561472
0.5147694 0.2871483 0.6872573 0.42474464 0.32058463 0.39545828 0.36219954 0.35343084
0.33770782 0.23481996 0.3557356 0.47404557 0.40844736 0.43171707 0.39186445 0.38340038
0.44395754 0.4571355 0.35398847 0.44971406 0.34733552 0.3718178 0.33972093 0.32231522
0.3526651 0.29299262 0.39127624 0.2077775 0.28302923 0.33844888 0.3601637 0.38075987
0.30959052 0.32509515 0.39569962 0.4706324 0.27193972 0.44297695 0.25507697 0.41953886
0.7654734 0.28353998 0.5120018 0.3382829 0.23894165 0.42826492 0.4349835 0.31885526
0.38068482 0.36383563 0.49483177 0.37144458 0.25744852 0.27033478 0.35362846 0.39222205
0.44093063 0.35669532 0.3753948 0.325925 0.3722542 0.39857867 0.4049019 0.40972725
0.25055653 0.4974361 0.3988506 0.46865058 0.31971607 0.2036685 0.26418042 0.33757126
00000000: 32b1 aa3e d8b4 e83e eb05 873e c25a ad3e
00000010: 5d5a c73e e630 ad3e 25ee d23e 949e 9d3e
00000020: 8b89 c63e 191b 9e3e 0310 b63e e7a5 5e3e
00000030: 8cdb a43e 516e ba3e e3e7 b03e 21c4 af3e
00000040: eecf e63e 680b b13e 850b c63e f060 d43e
00000050: 2f56 ac3e 8914 0c3f 600d 193f 3d9c 7f3e
00000060: 5ad4 c13e 5abf a03e 80c6 f83e b7a1 9e3e
00000070: 22f5 903e abb3 a73e 2c43 923e 2ff9 963e
00000080: f74e b93e f4eb ac3e d71d 023f b364 923e
00000090: 116a bc3e 64e7 153f 6ee3 913e 7191 a83e
000000a0: 4025 a23e a1da e83e ece3 a23e 5911 ec3e
000000b0: af5a a53e 0fb0 823e 11ca a63e f9b6 a63e
000000c0: edc7 033f 1a05 933e 18f0 2f3f 2178 d93e
000000d0: ab23 a43e 8279 ca3e 3872 b93e e3f4 b43e
000000e0: 0ae8 ac3e a574 703e fa22 b63e 1ab6 f23e
000000f0: 0320 d13e 050a dd3e 75a2 c83e 0e4d c43e
00000100: 674e e33e aa0d ea3e fa3d b53e ec40 e63e
00000110: f6d5 b13e e75e be3e e7ef ad3e 8006 a53e
00000120: 8590 b43e 2103 963e 5c55 c83e a0c3 543e
00000130: 35e9 903e 2c49 ad3e 6067 b83e f5f2 c23e
00000140: a682 9e3e df72 a63e 2499 ca3e bbf6 f03e
00000150: af3b 8b3e e0cd e23e 7399 823e cccd d63e
00000160: 11f6 433f 272c 913e 8d12 033f 6b33 ad3e
00000170: 1fad 743e 8a45 db3e 28b6 de3e ff40 a33e
00000180: 1fe9 c23e aa48 ba3e 975a fd3e fc2d be3e
00000190: 4bd0 833e 5269 8a3e ca0e b53e 54d1 c83e
000001a0: a9c1 e13e c5a0 b63e bf33 c03e a4df a63e
000001b0: 1a98 be3e 8112 cc3e 4d4f cf3e c5c7 d13e
000001c0: f248 803e f2af fe3e 2536 cc3e f8f2 ef3e
000001d0: d3b1 a33e 7a8e 503e a842 873e 24d6 ac3e

weight f4 [84, 120]
-0.07526215 0.045000497 0.026259521 0.01736628 0.25300443 0.15479904 -0.13929717 -0.054233737
-0.12785856 -0.099392384 0.030406415 0.0733279 -0.01588396 0.26301795 0.035987243 -0.09858308
0.19199826 -0.15572597 0.19768898 0.16713807 0.22960885 -0.05282051 -0.0024575726 0.27708852
-0.17009464 0.14827113 0.22730002 -0.11635293 0.012508845 -0.10300497 -0.108105995 0.17057148
0.14342308 -0.15132283 -0.19540937 0.13874058 0.068075545 0.08777725 0.1713361 -0.13460726
-0.015809705 -0.119494565 0.16179101 0.07118466 0.1973537 0.20037039 0.01985916 0.16760282
0.20226337 0.13872771 -0.00092334405 -0.17657064 -0.2133631 0.08640045 -0.12481644 -0.07698004
-0.14301527 0.09627263 0.09474856 -0.067116566 0.12963602 0.14989159 0.3229996 -0.13576065
-0.24222127 -0.045789648 0.027021147 0.13496128 -0.07080879 0.025955247 -0.068752974 -0.01027998
-0.12507011 -0.05087259 0.26987383 -0.003834831 0.11589458 0.16559426 -0.13157389 0.114830755
0.2345717 -0.03931458 -0.20602189 -0.10930697 0.088502444 0.0134365875 0.21400996 0.06706016
-0.11901276 -0.25391313 -0.018791042 0.22686258 0.0988944 0.2100046 0.00016075461 0.17360348
-0.03316581 0.009556054 -0.2757021 0.24735667 0.20555559 0.08751174 0.25583255 -0.112821735
0.1541353 0.07420661 -0.09792685 -0.03753474 -0.13230355 -0.14959727 -0.16908179 0.03861138
0.14392407 -0.1530311 -0.10617712 0.0017315438 0.14567117 0.28455287 -0.16847253 0.027554395
0.11302802 0.1110477 -0.0039678286 0.01258676 -0.28439006 0.15478921 -0.16921438 -0.14547697
0.23032427 0.09289653 0.04075643 0.1220226 -0.07497424 -0.09922028 0.0926468 0.07244593
-0.20267247 -0.03883095 -0.0527286 0.13276413 0.15943281 0.2238527 0.17621405 0.061473504
-0.09137198 0.09344065 -0.08024547 -0.07608411 0.17498848 0.20546688 -0.13037443 -0.006844019
-0.07849974 -0.17274971 0.13620779 0.13669275 0.0819521 -0.06315229 -0.1824877 0.16549125
0.056866586 -0.1252711 -0.09390276 -0.042386286 -0.097543016 0.09883485 -0.044029817 0.095222466
0.08082297 0.029126566 0.16206135 -0.26735532 0.2210269 -0.06939906 0.37896246 -0.0015802545
-0.14756744 0.1606056 0.22120398 0.09256495 0.029350806 0.06120671 -0.049004063 0.15454291
-0.043985598 -0.05001017 -0.001140269 0.18117638 -0.012380494 0.145113 -0.08502207 0.066224225
-0.028747873 -0.019630458 0.057739247 0.10753484 -0.07642197 0.17327236 -0.10032751 -0.022317383
-0.05003395 -0.06392138 0.05935942 -0.12996607 -0.094908126 -0.17775203 0.04302966 -0.2964991
-0.056540817 -0.17619851 -0.07580955 0.14249687 0.10843711 0.092725 0.07274249 0.10602794
0.1746572 -0.050779555 -0.062418405 -0.09111108 0.045145776 0.10574007 0.03263982 -0.021498892
0.15897106 -0.23849744 -0.03829591 -0.048785735 -0.021397484 0.025493652 0.19603488 0.2037546
-0.05731678 -0.033536695 -0.07574458 0.07964846 0.23672318 -0.1741962 0.0045491057 -0.13038945
0.12870684 0.07595124 0.14432742 -0.09706129 0.12748507 -0.06502441 0.07702752 -0.16992702
-0.045236953 0.06746574 0.07603436 0.1189959 -0.08772322 0.043818302 0.14259885 0.0944015
00000000: 0b23 9abd 7152 383d 351e d73c bb43 8e3c
00000010: cc89 813e a483 1e3e eba3 0ebe 3224 5ebd
00000020: 5bed 02be 3c8e cbbd e016 f93c f02c 963d
00000030: 141f 82bc 4aaa 863e 5c67 133d ede5 c9bd
00000040: 319b 443e a176 1fbe fb6e 4a3e 3e26 2b3e
00000050: 951e 6b3e 525a 58bd 3a0f 21bb 8cde 8d3e
00000060: 4a2d 2ebe 63d4 173e 56c1 683e 724a eebd
00000070: e6f1 4c3c 45f4 d2bd ad66 ddbd 4aaa 2e3e
00000080: 80dd 123e 5ff4 1abe 6519 48be 0312 0e3e
00000090: 316b 8b3d 8fc4 b33d bb72 2f3e 7cd6 09be
000000a0: 5b83 81bc 91b9 f4bd 8bac 253e 43c9 913d
000000b0: 1717 4a3e e52d 4d3e adaf a23c 13a0 2b3e
000000c0: 211e 4f3e a30e 0e3e 920c 72ba efce 34be
000000d0: db7b 5abe b8f2 b03d c39f ffbd b6a7 9dbd
000000e0: 9872 12be 962a c53d 880b c23d 6974 89bd
000000f0: 4ebf 043e 2e7d 193e 3460 a53e d704 0bbe
00000100: da08 78be ed8d 3bbd 745b dd3c 4a33 0a3e
00000110: 3304 91bd 19a0 d43c 5cce 8cbd 5c6d 28bc
00000120: 6112 00be c75f 50bd e72c 8a3e ca51 7bbb
00000130: 235a ed3d 8b91 293e 4ebb 06be 632c eb3d
00000140: 9033 703e 5308 21bd 67f7 52be 55dc dfbd
00000150: c540 b53d 2225 5c3c 6d25 5b3e d656 893d
00000160: f6bc f3bd e700 82be acef 99bc aa4e 683e
00000170: 2689 ca3d 720b 573e 3d90 2839 1cc5 313e
00000180: dfd8 07bd ff90 1c3c d328 8dbe 114b 7d3e
00000190: 2a7d 523e 5b39 b33d 7cfc 823e 150f e7bd
000001a0: a5d5 1d3e a3f9 973d df8d c8bd 07be 19bd
000001b0: 957a 07be 0730 19be c723 2dbe f726 1e3d
000001c0: d560 133e 2fb4 1cbe 6473 d9bd f8f4 e23a
000001d0: d32a 153e eab0 913e 1084 2cbe c1b9 e13c
000001e0: 3c7b e73d fa6c e33d 8f04 82bb b338 4e3c
000001f0: 939b 91be 1081 1e3e 8946 2dbe eaf7 14be
00000200: 20da 6b3e 8940 be3d 37f0 263d fce6 f93d
00000210: 188c 99bd 0134 cbbd 9bbd bd3d 885e 943d
00000220: 5f89 4fbe 340d 1fbd f2f9 57bd 52f3 073e
00000230: 5b42 233e a439 653e 7571 343e a4cb 7b3d
00000240: 3c21 bbbd d05d bf3d bd57 a4bd fcd1 9bbd
00000250: 2e30 333e e965 523e e080 05be cb43 e0bb
00000260: 79c4 a0bd 4de5 30be 0e7a 0b3e 2ff9 0b3e
00000270: 81d6 a73d fd55 81bd 0ede 3abe 8a76 293e
00000280: f0ec 683d 1147 00be 1750 c0bd 3e9d 2dbd
00000290: a2c4 c7bd ed69 ca3d 9c58 34bd ff03 c33d
000002a0: 8386 a53d d69a ee3c 69f3 253e cce2 88be
000002b0: e054 623e 1821 8ebd 5e07 c23e 8b20 cfba
000002c0: eb1b 17be cb75 243e 4c83 623e b192 bd3d
000002d0: 1a71 f03c e3b3 7a3d 7cb8 48bd 7f40 1e3e
000002e0: 3e2a 34bd 77d7 4cbd 1475 95ba 4d86 393e
000002f0: 8ed7 4abc 8198 143e 0d20 aebd 91a0 873d
00000300: a980 ebbc 0ed0 a0bc fd7f 6c3d 3a3b dc3d
00000310: 1f83 9cbd 4f6e 313e 8278 cdbd f2d2 b6bc
00000320: 66f0 4cbd 36e9 82bd dd22 733d d315 05be
00000330: 315f c2bd a104 36be de3f 303d bbce 97be
00000340: 5897 67bd 626d 34be 0a42 9bbd b3ea 113e
00000350: 4714 de3d 9be6 bd3d 04fa 943d 2d25 d93d
00000360: 56d9 323e 39fe 4fbd 71aa 7fbd 7298 babd
00000370: c7ea 383d 408e d83d 55b1 053d 721e b0bc
00000380: 4fc9 223e ac38 74be 2cdc 1cbd 8dd3 47bd
00000390: c749 afbc 10d8 d03c 5ebd 483e 0ca5 503e
000003a0: 00c5 6abd c65d 09bd f91f 9bbd bb1e a33d
000003b0: 9067 723e 7d60 32be aa10 953b d084 05be
000003c0: bacb 033e 538c 9b3d 91ca 133e 12c8 c6bd
000003d0: 728b 023e 852b 85bd 9bc0 9d3d 5901 2ebe
000003e0: 624a 39bd 7a2b 8a3d e7b7 9b3d 1fb4 f33d
000003f0: 3ba8 b3bd d27a 333d 6f05 123e 9355 c13d

bias f4 [84]
0.02364614 0.06884537 -0.06023135 0.015786279 0.033236485 0.06484269 0.019975763 0.004079764
-0.029568981 0.048551537 0.04367274 0.017136136 0.013314862 0.069621325 -0.011266587 0.10752344
-0.026313644 -0.011968131 0.024673576 -0.006724213 0.08489552 0.020120123 0.012134434 0.03934398
0.044042684 0.012569811 0.02858397 0.024213374 0.031280648 0.008635212 0.02067412 0.009537774
0.07867568 0.046809524 0.039137915 0.021044923 0.05969621 0.042020872 -0.03942254 -0.006260057
0.06846572 0.0024656144 0.018125884 0.026227314 0.030206095 0.013180989 -0.0034143545 -0.00085190363
0.06509095 0.052229434 -0.01543519 0.010096957 0.017789029 0.04175478 0.059991177 0.061058383
0.020175941 0.016754163 0.067311555 -0.00998404 0.034941833 0.033581864 0.004430069 0.0048805317
0.01497596 -0.0076198643 0.037416257 0.03141693 0.03296137 0.08897169 0.029138053 0.02781194
0.051359713 0.045578223 -0.0023478717 0.020282064 0.056544237 0.024801956 0.019642372 0.07809322
0.049450923 -0.046055414 0.06525325 -0.031315424
00000000: 8db5 c13c cdfe 8c3d 26b5 76bd 3a52 813c
00000010: fb22 083d 3fcc 843d 36a4 a33c 8aaf 853b
00000020: a63a f2bc fadd 463d 30e2 323d 1561 8c3c
00000030: 9426 5a3c a095 8e3d 7e97 38bc 4035 dc3d
00000040: b68f d7bc fb15 44bc 3d20 ca3c c956 dcbb
00000050: b4dd ad3d f5d2 a43c 81cf 463c 2727 213d
00000060: 1a66 343d 9cf1 4d3c ee28 ea3c 205b c63c
00000070: 2320 003d b47a 0d3c c65c a93c 5344 1c3c
00000080: b720 a13d 58bb 3f3d 144f 203d 6766 ac3c
00000090: 0384 743d 141e 2c3d 8879 21bd 2a21 cdbb
000000a0: c137 8c3d 2596 213b bc7c 943c aada d63c
000000b0: c672 f73c 13f5 573c 5dc3 5fbb 4952 5fba
000000c0: 674e 853d 88ee 553d e1e3 7cbc b56d 253c
000000d0: 4cba 913c 0f07 2b3d 4fb9 753d 5b18 7a3d
000000e0: 0448 a53c 0740 893c a4da 893d 1994 23bc
000000f0: 2b1f 0f3d 238d 093d 1d2a 913b deec 9f3b
00000100: bb5d 753c 0eb0 f9bb ca41 193d 0aaf 003d
00000110: 8002 073d ca36 b63d edb2 ee3c ded5 e33c
00000120: 905e 523d 3bb0 3a3d c0de 19bb 9226 a63c
00000130: ee9a 673d 792d cb3c 0ae9 a03c 57ef 9f3d
00000140: 0d8d 4a3d 9aa4 3cbd 7fa3 853d 9a44 00bd
