model1/model/top(90.04).pt (torch, 277384 bytes, 22 tensors)

weight f4 [6, 3, 5, 5]
0.10476231 0.011860519 -0.026743125 -0.14467137 -0.051003534 0.030910507 0.018305061 0.07705123
-0.102633685 -0.063324034 -0.046730332 -0.16981763 0.12631649 0.1135407 0.021570455 0.042755205
-0.00650233 0.08652925 0.038749203 0.108750604 0.1838512 0.20933403 -0.008312065 0.036711436
-0.07596751 0.08639329 -0.17391078 -0.07154048 0.045192562 -0.10975442 -0.07058234 -0.11151192
0.12170773 -0.028803578 -0.15714292 0.12045941 -0.10320192 0.020636603 0.14475285 -0.10358289
0.050049428 -0.14033473 -0.14225636 -0.006338585 0.049688917 -0.071125396 -0.099140465 0.1899083
0.054455306 0.14916107 0.13680662 -0.027262984 -0.14726529 -0.06947594 0.02720962 -0.10486611
-0.08422463 0.00013613167 -0.08983306 0.076498315 -0.029817276 -0.012890906 -0.03448132 0.11377793
-0.13038771 0.08863128 0.17007194 -0.12980402 0.047349606 -0.09882245 0.09474043 0.140384
0.20244583 0.15538912 0.0969933 0.045580026 -0.11689009 -0.05050197 -0.097294636 0.122909
0.053869516 -0.07416662 0.04513571 -0.06271316 0.1486607 -0.0657885 -0.069642 -0.020233467
-0.13973899 -0.16313232 0.08920636 -0.030868901 -0.025509892 0.05704091 -0.011106359 0.07322631
0.116610326 0.08022174 0.11329559 0.053093772 0.17329839 -0.021745203 0.15913507 0.088086255
-0.1662614 0.11791711 0.022733158 0.05763934 0.07613563 0.050045505 -0.036292832 0.08858827
-0.029640367 0.1070595 -0.18707433 0.15438235 -0.06485642 0.06576637 0.08989304 -0.15398543
-0.018100256 0.26650798 0.16499779 0.0051305117 -0.123077236 -0.12652685 0.11145111 0.12124733
-0.05576034 -0.13452868 0.13880636 -0.006479793 -0.046448056 -0.01902517 0.12106873 -0.119760424
-0.1356284 -0.051708926 -0.08555503 -0.01811362 -0.011673774 0.15779723 -0.0971158 -0.00082050863
-0.012814972 0.07682726 0.05656359 0.08769378 0.07820917 0.0122341495 -0.037810653 -0.109845184
0.14909771 -0.027870959 -0.07370071 -0.06558991 -0.076524004 0.064564705 0.05442059 0.06663502
-0.16010754 -0.09645585 -0.012908353 0.17768943 -0.06552077 0.031316917 0.039767396 0.09757335
0.09425166 0.12174258 -0.0897812 -0.06505274 -0.040927634 0.038371537 0.08123522 0.03814419
-0.15680638 0.17911802 -0.123091124 0.014193179 -0.12557763 0.026610991 0.20072912 0.15114847
-0.066910766 -0.18418203 -0.023957625 -0.015063274 0.016563496 -0.07734901 0.032848265 -0.037219185
-0.010484899 0.16873983 -0.034624398 -0.0181835 0.06819034 0.055851705 -0.10911071 0.087309554
-0.12716468 0.02484666 0.14999528 0.08459156 -0.04278935 -0.19061585 -0.0006880674 0.1444854
-0.08698967 -0.09051214 -0.12996216 -0.069723815 0.081679456 0.013308237 0.1065404 0.059574403
0.02957792 0.026622133 0.16508178 0.013486979 0.10530913 -0.07815355 -0.021119514 0.06688613
-0.17070559 0.21731248 -0.0136859575 0.068645224 0.16055614 -0.0984572 0.16160172 0.050134547
-0.03732363 -0.059998486 0.002968033 0.01808987 0.02877475 0.047801856 -0.11886527 -0.091855936
0.08669257 -0.10879167 0.113051444 -0.10589595 -0.06992022 0.04146308 -0.031006396 -0.01068201
-0.009416085 0.031788588 0.2577883 0.040476482 0.003641164 -0.0038526475 0.053974062 0.13732655
00000000: 9f8d d63d 9f52 423c 6614 dbbc bb24 14be
00000010: 15e9 50bd 0838 fd3c 7ff4 953c 09cd 9d3d
00000020: 9c31 d2bd 08b0 81bd 4e68 3fbd ace4 2dbe
00000030: 1c59 013e 0788 e83d 86b4 b03c 1520 2f3d
00000040: 7f11 d5bb 3f36 b13d 7cb7 1e3d a3b8 de3d
00000050: 7d43 3c3e a95b 563e 542f 08bc bb5e 163d
00000060: db94 9bbd f7ee b03d ab15 32be d183 92bd
00000070: d61b 393d edc6 e0bd 798d 90bd 5d60 e4bd
00000080: e741 f93d 7bf5 ebbc 13ea 20be 6cb3 f63d
00000090: 875b d3bd 180e a93c 173a 143e 4423 d4bd
000000a0: a100 4d3d e8b3 0fbe a7ab 11be e8b3 cfbb
000000b0: 9b86 4b3d 31aa 91bd 280a cbbd 5277 423e
000000c0: 870c 5f3d aebd 183e 0917 0c3e 9f56 dfbc
000000d0: b6cc 16be 6749 8ebd b6e6 de3c 0bc4 d6bd
000000e0: f67d acbd 91be 0e39 65fa b7bd 26ab 9c3d
000000f0: 5c43 f4bc 6134 53bc 493c 0dbd 6704 e93d
00000100: 5b84 05be 5184 b53d 5727 2e3e 58eb 04be
00000110: a9f1 413d 6d63 cabd 4507 c23d d3c0 0f3e
00000120: f64d 4f3e 531e 1f3e 6ca4 c63d 1fb2 3a3d
00000130: 1264 efbd 27db 4ebd 6942 c7bd b7b7 fb3d
00000140: 48a6 5c3d abe4 97bd 39e0 383d c26f 80bd
00000150: 833a 183e 1fbc 86bd 77a0 8ebd a8c0 a5bc
00000160: bd17 0fbe 290c 27be d3b1 b63d c7e0 fcbc
00000170: 1ffa d0bc bba3 693d 72f7 35bc adf7 953d
00000180: 65d1 ee3d 4c4b a43d 8507 e83d db78 593d
00000190: 2275 313e ff22 b2bc 4ef4 223e 9166 b43d
000001a0: 6e40 2abe 877e f13d e33a ba3c 3b17 6c3d
000001b0: ffec 9b3d 84fc 4c3d cba7 14bd c46d b53d
000001c0: 5bd0 f2bc 0342 db3d 6a90 3fbe 6816 1e3e
000001d0: 71d3 84bd 85b0 863d d819 b83d 5bae 1dbe
000001e0: fd46 94bc bc73 883e 2ef5 283e da1d a83b
000001f0: eb0f fcbd 4190 01be 7b40 e43d 8550 f83d
00000200: f464 64bd e3c1 09be 4123 0e3e 7254 d4bb
00000210: 5140 3ebd acda 9bbc e2f2 f73d f444 f5bd
00000220: 2ce2 0abe bdcc 53bd 7a37 afbd 0463 94bc
00000230: 5b43 3fbc 9995 213e a6e4 c6bd 6717 57ba
00000240: e3f5 51bc 9c57 9d3d 39af 673d cc98 b33d
00000250: 212c a03d be71 483c 58df 1abd 83f6 e0bd
00000260: 12ad 183e a351 e4bc 66f0 96bd 0154 86bd
00000270: 9eb8 9cbd 803a 843d 20e8 5e3d f177 883d
00000280: 3bf3 23be a58a c5bd 8e7d 53bc 38f4 353e
00000290: c12f 86bd 2b46 003d 23e3 223d 89d4 c73d
000002a0: 0407 c13d 2c54 f93d 35df b7bd 5f3a 85bd
000002b0: bca3 27bd 792b 1d3d a75e a63d 153d 1c3d
000002c0: da91 20be b76a 373e 3317 fcbd 828a 683c
000002d0: 6c97 00be 4bff d93c ef8b 4d3e aac6 1a3e
000002e0: 8308 89bd 379a 3cbe c842 c4bc f3cb 76bc
000002f0: 2bb0 873c 2869 9ebd e78b 063d 2573 18bd
00000300: dbc8 2bbc 22ca 2c3e 50d2 0dbd 90f5 94bc
00000310: 61a7 8b3d c2c4 643d 7075 dfbd 5acf b23d
00000320: 7537 02be 398b cb3c 5d98 193e 573e ad3d
00000330: e343 2fbd cd30 43be 6c5f 34ba fbf3 133e
00000340: a427 b2bd 6e5e b9bd cd14 05be 5ccb 8ebd
00000350: 8f47 a73d cb0a 5a3c da31 da3d 4a04 743d
00000360: 654d f23c a916 da3c 330b 293e 7df8 5c3c
00000370: 50ac d73d f80e a0bd d502 adbc 98fb 883d
00000380: 72cd 2ebe 2a87 5e3e 113b 60bc de95 8c3d
00000390: d468 243e eea3 c9bd ec7a 253e e259 4d3d
000003a0: aae0 18bd f9c0 75bd 5583 423b 3531 943c
000003b0: 06b9 eb3c e1cb 433d a26f f3bd f71e bcbd
000003c0: e08b b13d 2bce debd 8487 e73d fadf d8bd
000003d0: 5532 8fbd 31d5 293d 2001 febc 9903 2fbc
000003e0: ec45 1abc c034 023d d4fc 833e abca 253d
000003f0: 98a0 6e3b b37c 7cbb e813 5d3d 559f 0c3e

bias f4 [6]
-0.024452036 -0.006927478 -0.022672104 -0.052066334 -0.009327573 -0.030792726
00000000: a34f c8bc e6ff e2bb d9ba b9bc 8243 55bd
00000010: add2 18bc 0741 fcbc

weight f4 [6]
0.89222175 0.9094188 1.0178374 1.1001021 1.1006361 0.89182794
00000000: a568 643f accf 683f 7f48 823f 25d0 8c3f
00000010: a5e1 8c3f d64e 643f

bias f4 [6]
-0.184896 -0.22663476 -0.10406111 -0.14928865 -0.015572109 -0.093035966
00000000: 6155 3dbe f112 68be fe1d d5bd 20df 18be
00000010: 2922 7fbc a489 bebd

running_mean f4 [6]
0.1506793 0.2967848 0.058410317 0.09228303 0.02249545 -0.17163348
00000000: ad4b 1a3e 2df4 973e a83f 6f3d e3fe bc3d
00000010: 6148 b83c b0c0 2fbe

running_var f4 [6]
0.33571103 0.456598 0.24889922 0.4080093 0.13642618 0.39459345
00000000: 51e2 ab3e 37c7 e93e 70df 7e3e 98e6 d03e
00000010: 4eb3 0b3e 2708 ca3e

weight f4 [16, 6, 5, 5]
0.03872203 -0.031391233 -0.037846345 -0.028447002 0.060127746 -0.04193794 -0.11934063 -0.018229894
-0.1259183 -0.0118344445 -0.013562623 0.0012497338 0.04729285 -0.06507048 -0.044548847 0.070113815
0.052401777 0.021166038 0.07230272 0.042798985 -0.10087846 -0.039447226 -0.09537546 -0.10089648
0.0346454 0.052309602 -0.004501137 0.06786434 0.028785901 0.140433 -0.03909247 0.024908574
0.05027429 0.047339328 -0.0380042 -0.06447895 -0.06587696 0.055147395 -0.0014634854 -0.060382135
0.08806651 -0.035161994 0.07268798 0.11918665 -0.09392559 -0.08636926 -0.09051242 -0.105225466
-0.104542546 -0.04184377 -0.00045684417 0.06879959 0.03804852 -0.05571264 0.14988782 0.052705064
0.09145261 -0.051717192 0.019005548 0.10044083 0.024586102 0.024292009 0.052140657 -0.084611095
-0.032234415 -0.003677791 0.048879463 0.051829062 -0.068050705 -0.083379894 0.001570701 0.0125160795
-0.016410364 -0.109924376 -0.08857554 -0.06141866 0.043418165 0.14316574 0.05174919 0.08535378
-0.08038572 0.045136765 0.14900616 0.11048083 -0.09492945 -0.07882727 -0.008983411 0.06328694
-0.0013392684 -0.099741 -0.04411642 -0.07260419 0.07031381 -0.013020731 0.0002908986 -0.06024334
-0.04719476 -0.03318675 0.011137416 0.033812772 0.07521968 0.04152803 -0.10335825 0.041001733
-0.0011095573 0.03506273 -0.11136478 0.013030326 0.06573826 -0.13358569 -0.0041136327 -0.014629168
-0.06729567 0.041415215 -0.022094622 0.018803194 -0.010657275 0.07854547 0.03488966 -0.06978886
0.11070068 -0.06419061 -0.0007138024 0.09398217 -0.06883257 -0.055578496 0.042494155 0.0054775765
-0.048451733 0.0848183 -0.10216436 -0.02673365 0.034571033 -0.022859443 -0.10729583 -0.11338152
-0.0065060775 0.021254951 -0.09760415 -0.0038750486 -0.029282128 0.07671483 -0.012057125 0.090209596
0.08783538 0.073367625 0.050501917 0.033736 -0.01172915 -0.08034405 0.078835346 0.04202967
-0.076631166 -0.10118999 -0.057261728 -0.07979188 0.003693359 0.054500896 -0.019545902 -0.103987336
-0.0583099 -0.10083007 -0.012528295 -0.12329501 -0.11750042 0.034630466 0.07436788 -0.05330746
-0.008027521 0.019911747 -0.12690157 0.039240535 0.016796943 0.046830047 -0.0690196 0.0911511
0.027408786 -0.05178655 -0.11755521 0.014139785 -0.0997578 -0.0020777711 0.04850082 0.10557158
-0.108236745 -0.07394771 -0.0659141 -0.02972793 0.10661028 -0.091415495 0.0515062 0.07426489
0.13080612 0.11703396 -0.07351827 -0.10212073 -0.06032853 -0.03445121 -0.038146984 -0.12864521
-0.057731897 -0.03851314 -0.035716902 0.039810292 0.014642196 -0.08407568 0.14371179 0.031904813
-0.08956918 0.057411876 -0.06469495 0.06386242 -0.03657395 -0.07632188 -0.057448637 0.07859871
0.098649696 0.092151776 -0.018727535 -0.0131398 -0.054287907 -0.04986515 0.09295263 -0.05688557
-0.04698926 0.07788574 0.02713235 -0.05870908 -0.21969742 -0.051904213 0.03540002 0.04532513
0.046346933 0.00029862768 0.08450183 0.01363992 -0.04464437 -0.13043188 0.08628671 0.116400234
-0.04581023 0.009856199 -0.036127556 0.07786972 0.13837716 -0.15436341 -0.054005384 0.0018168512
0.07471041 0.06075733 0.07392993 -0.12930872 -0.013350264 -0.054504987 0.0929288 0.17361031
00000000: fe9a 1e3d 1894 00bd c504 1bbd b009 e9bc
00000010: 8348 763d 1ec7 2bbd dc68 f4bd dc56 95bc
00000020: baf0 00be 42e5 41bc c435 5ebc 1cce a33a
00000030: 26b6 413d ac43 85bd da78 36bd d597 8f3d
00000040: 3fa3 563d 6664 ad3c 7313 943d fd4d 2f3d
00000050: 5e99 cebd 6a93 21bd 3654 c3bd d0a2 cebd
00000060: 56e8 0d3d 9842 563d 467e 93bb 76fc 8a3d
00000070: 69d0 eb3c abcd 0f3e 6d1f 20bd 110d cc3c
00000080: 6aec 4d3d e2e6 413d 4baa 1bbd 8a0d 84bd
00000090: 80ea 86bd 3ce2 613d 6cd2 bfba 4253 77bd
000000a0: 375c b43d 0606 10bd 70dd 943d 2118 f43d
000000b0: 0f5c c0bd 5ee2 b0bd 935e b9bd 7380 d7bd
000000c0: 671a d6bd 5f64 2bbd 9684 efb9 cde6 8c3d
000000d0: c4d8 1b3d f032 64bd 317c 193e 44e1 573d
000000e0: 824b bb3d 68d5 53bd 86b1 9b3c ecb3 cd3d
000000f0: cb68 c93c 0900 c73c 7191 553d 9548 adbd
00000100: 3c08 04bd 1807 71bb d535 483d b64a 543d
00000110: 2b5e 8bbd 14c3 aabd fbdf cd3a 3e10 4d3c
00000120: 076f 86bc 0820 e1bd 1867 b5bd 2292 7bbd
00000130: 3fd7 313d 0a9a 123e f5f6 533d f6cd ae3d
00000140: 45a1 a4bd 54e1 383d 1295 183e c643 e23d
00000150: 5f6a c2bd 3170 a1bd 282f 13bc 959c 813d
00000160: 648a afba 0245 ccbd 6bb3 34bd 81b1 94bd
00000170: b000 903d e754 55bc c083 9839 b8c1 76bd
00000180: 4b4f 41bd d4ee 07bd b579 363c 437f 0a3d
00000190: c70c 9a3d 4c19 2a3d 7dad d3bd 6ff1 273d
000001a0: 916e 91ba f09d 0f3d 3813 e4bd 267d 553c
000001b0: c8a1 863d b0ca 08be a7cb 86bb 2eaf 6fbc
000001c0: 50d2 89bd 00a3 293d c8ff b4bc 2809 9a3c
000001d0: da9b 2ebc 73dc a03d 76e8 0e3d 76ed 8ebd
000001e0: 0ab7 e23d 5e76 83bd 781e 3bba b979 c03d
000001f0: 17f8 8cbd 47a6 63bd 5a0e 2e3d 3e7d b33b
00000200: 5375 46bd 38b5 ad3d 8c3b d1bd 8700 dbbc
00000210: 5b9a 0d3d ba43 bbbc ebbd dbbd 9234 e8bd
00000220: ef30 d5bb dd1e ae3c afe4 c7bd 87f4 7dbb
00000230: 13e1 efbc aa1c 9d3d 3f8b 45bc cfbf b83d
00000240: 09e3 b33d c441 963d 19db 4e3d c32e 0a3d
00000250: 9f2b 40bc 6c8b a4bd 6d74 a13d 4e27 2c3d
00000260: cdf0 9cbd b33c cfbd 468b 6abd ed69 a3bd
00000270: 480c 723b 553c 5f3d ba1e a0bc 50f7 d4bd
00000280: 5dd6 6ebd ff7f cebd 7a43 4dbc 1882 fcbd
00000290: 0fa4 f0bd add8 0d3d 304e 983d ec58 5abd
000002a0: dd85 03bc f61d a33c 7cf2 01be afba 203d
000002b0: be99 893c ddd0 3f3d 265a 8dbd 6ead ba3d
000002c0: 6488 e03c 221e 54bd c9c0 f0bd 8faa 673c
000002d0: d14d ccbd 372b 08bb cca8 463d ea35 d83d
000002e0: 3aab ddbd e671 97bd f9fd 86bd fd87 f3bc
000002f0: 7e56 da3d 0c38 bbbd 2af8 523d 3118 983d
00000300: 0af2 053e 80af ef3d bf90 96bd ac24 d1bd
00000310: 0c1b 77bd b61c 0dbd 0340 1cbd 92bb 03be
00000320: 4878 6cbd f4bf 1dbd e34b 12bd 1e10 233d
00000330: d2e5 6f3c df2f acbd 2f29 133e 9fae 023d
00000340: 0c70 b7bd b728 6b3d c97e 84bd 4dca 823d
00000350: 91ce 15bd a54e 9cbd 434f 6bbd 5cf8 a03d
00000360: da08 ca3d 12ba bc3d 7d6a 99bc 5148 57bc
00000370: ff5c 5ebd 663f 4cbd f35d be3d d800 69bd
00000380: cf77 40bd 8f82 9f3d a944 de3c ef78 70bd
00000390: 5cf8 60be 8399 54bd 9dff 103d d8a6 393d
000003a0: 48d6 3d3d 2191 9c39 4c0f ad3d f979 5f3c
000003b0: 04dd 36bd ef8f 05be 16b7 b03d 3f63 ee3d
000003c0: 82a3 3bbd e57b 213c 7dfa 13bd 297a 9f3d
000003d0: beb2 0d3e 7111 1ebe c034 5dbd 6923 ee3a
000003e0: c501 993d aedc 783d 9368 973d 8169 04be
000003f0: 11bb 5abc 9f40 5fbd 7451 be3d e7c6 313e

bias f4 [16]
-0.00016540369 -0.01602385 -0.027110321 0.01810481 0.022339359 -0.004777372 -0.0036397784 -0.03473081
-0.014149376 0.03542044 -0.00021852332 0.042532425 0.0020037289 -0.015021295 0.009353159 0.012060089
00000000: 3770 2db9 7344 83bc 7716 debc 8a50 943c
00000010: 0801 b73c 808b 9cbb 5989 6ebb e541 0ebd
00000020: c9d2 67bc 0615 113d 6823 65b9 7b36 2e3d
00000030: fe50 033b e11b 76bc fe3d 193c ae97 453c

weight f4 [16]
0.97018427 0.9053741 1.0810361 1.0846522 1.0155106 0.9861454 0.9701468 0.92309606
1.0001843 0.98377925 0.96819896 0.9966391 1.0335857 0.9803256 1.0453254 1.0579032
00000000: ff5d 783f 99c6 673f 645f 8a3f e2d5 8a3f
00000010: 40fc 813f 0674 7c3f 8a5b 783f 0650 6c3f
00000020: 0a06 803f f5d8 7b3f e3db 773f bd23 7f3f
00000030: 894c 843f 9ef6 7a3f 39cd 853f 5f69 873f

bias f4 [16]
-0.023304237 -0.120261475 -0.12309049 -0.09574095 0.012259498 -0.0863363 -0.070133835 -0.14744163
-0.058152657 -0.048438035 -0.14986204 -0.008705463 -0.05858255 -0.10632687 -0.056727964 -0.058570262
00000000: 87e8 bebc a64b f6bd de16 fcbd d513 c4bd
00000010: 10dc 483c 16d1 b0bd 54a2 8fbd f0fa 16be
00000020: 7b31 6ebd f666 46bd 6f75 19be 5ca1 0ebc
00000030: 42f4 6fbd e7c1 d9bd 955b 68bd 5fe7 6fbd

running_mean f4 [16]
-0.16673511 -0.19962259 -0.3555216 0.08950105 -0.1492018 -0.020054486 -0.27037174 0.30088294
-0.03213514 -0.15213254 -0.1451031 -0.2313103 -0.027761841 -0.04497371 -0.07242446 -0.1791926
00000000: 9cbc 2abe dd69 4cbe ed06 b6be 544c b73d
00000010: 5bc8 18be 4e49 a4bc 2a6e 8abe 540d 9a3e
00000020: 23a0 03bd a2c8 1bbe e895 14be 9bdc 6cbe
00000030: cd6c e3bc 5a36 38bd 4653 94bd 447e 37be

running_var f4 [16]
0.12539025 0.12698722 0.27508175 0.12946133 0.124784224 0.20847523 0.16201483 0.24061368
0.13361323 0.1363254 0.13922273 0.14314167 0.09115739 0.12217511 0.22875662 0.18818124
00000000: 4d66 003e f008 023e 84d7 8c3e 8391 043e
00000010: df8e ff3d 887a 553e 37e7 253e 6f63 763e
00000020: e8d1 083e e398 0b3e 6790 0e3e bb93 123e
00000030: bab0 ba3d f236 fa3d 2d3f 6a3e 95b2 403e

weight f4 [120, 16, 5, 5]
0.013107341 0.09529069 -0.07715808 -0.07323528 0.04837602 0.026351526 0.0062916786 -0.09568709
-0.030332012 0.06356211 0.03620129 0.032480814 -0.008083751 -0.008138832 -0.031622708 0.014313607
-0.04973435 -0.038417965 -0.07899736 0.009228999 -0.0069432585 -0.0026961863 -0.09531137 -0.0235584
0.0027407962 -0.07526815 -0.01903477 -0.040628754 0.036588565 -0.05817392 -0.0036532916 0.018984418
0.050663576 0.0074547413 -0.009210859 0.0050306767 0.04665475 -0.0014808826 0.01739514 0.014337489
0.047926847 -0.05415296 -0.006514644 0.0030446043 0.12139503 0.10844898 -0.06706151 0.007614586
0.022579268 0.04489301 -0.018040888 -0.036606856 -0.037041616 0.06870473 0.041822616 -0.0034972408
0.0048241755 0.024385182 -0.06252149 -0.026433947 -0.032602184 0.0053180326 -0.018796068 -0.012574813
0.00019174961 -0.024613535 0.02406356 0.059327666 0.007151133 0.017675513 -0.036316603 -0.05976326
-0.028248511 -0.0076644756 0.0074556605 -0.036466714 0.012327171 0.048790894 0.021554595 -0.03690164
0.0019736653 0.05684037 -0.021170106 -0.012407624 0.007321296 -0.07788383 -0.0058643306 -0.055803776
-0.0048554298 0.03207616 -0.09698505 0.020512495 0.008458414 0.064239495 -0.018037857 0.021763826
-0.0019148261 0.04289638 -0.0099546295 0.043628357 -0.00080394896 0.048741244 0.016781025 -0.012145342
0.039215878 -0.0069985837 0.0055841734 -0.012610482 -0.013956276 0.08306521 0.03129277 -0.021710305
-0.036864858 -0.032000367 -0.022297515 9.623785e-08 0.0347004 0.0056383135 -0.06548377 -0.09700732
0.046240192 0.09711718 0.017757213 0.029802274 -0.04934887 0.039357975 0.07033705 -0.040336553
-0.07669122 -0.00023697558 0.064597405 0.02516452 -0.028940056 0.100135505 0.03077865 -0.030459901
0.0064892275 0.004327312 -0.028672557 -0.037050553 0.0029454937 0.077887855 0.024720626 -0.007326335
-0.01618964 0.036392517 0.058733135 0.024733247 -0.00049470353 0.046433505 0.028059296 0.011911971
0.0036929753 -0.045131844 -0.107494056 0.05329259 0.052716516 -0.0041936706 0.048151564 -0.0025009084
0.03027558 0.0207995 0.022898994 -0.021473628 -0.06223731 -0.036040947 -0.012324475 -0.02444075
-0.04003512 -0.103866704 -0.08302152 0.026082948 -0.037275407 -0.048525285 -0.06288925 0.07956638
0.003411849 -0.03954232 -0.043645218 0.06273349 0.0953217 0.081067696 -0.008280167 0.07084782
0.01789989 0.061713938 0.049175113 0.019519903 -0.001473511 0.084936365 0.05795246 0.080045536
0.017722804 0.034844466 0.080010585 -0.033672396 0.040029284 -0.019823084 0.021948997 -0.020413315
0.05819418 0.0140256155 0.005257527 -0.02900132 0.11587136 -0.013108671 0.04424654 0.04137951
0.03660957 -0.024116289 -0.02954349 -0.042897113 -0.00033658693 -0.017385446 0.02971119 0.013365156
-0.00039828828 0.062008105 0.042659488 -0.028731726 -0.016974503 0.0444181 0.0220963 0.005928602
-0.041328676 -0.024796113 0.061412852 -0.06397536 0.0006658377 -0.030924842 0.051311355 0.0022019385
-0.02297801 0.052441914 0.028604236 0.027171208 0.035217512 0.020345543 -0.011066856 0.019071126
-0.017618211 0.036157634 0.050607134 0.0062761526 -0.03061728 -0.016919719 -0.0011783602 -0.049141545
-0.09532582 -0.056469534 0.06854682 0.038896542 -0.049619094 -0.075441025 0.0036188462 0.037598792
00000000: 2cc0 563c c427 c33d 0e05 9ebd 61fc 95bd
00000010: ef25 463d 28df d73c 6d2a ce3b 98f7 c3bd
00000020: d77a f8bc da2c 823d ce47 143d 9a0a 053d
00000030: b671 04bc bc58 05bc d086 01bd 9e83 6a3c
00000040: 3fb6 4bbd 285c 1dbd 5ec9 a1bd 3a35 173c
00000050: 4684 e3bb 80b2 30bb 9c32 c3bd 8cfd c0bc
00000060: ee9e 333b 3026 9abd ceee 9bbc 566a 26bd
00000070: e4dd 153d c747 6ebd 106c 6fbb 3685 9b3c
00000080: 9c84 4f3d e746 f43b 25e9 16bc 60d8 a43b
00000090: 0d19 3f3d 2d1a c2ba 4180 8e3c cae7 6a3c
000000a0: f14e 443d 7fcf 5dbd cb78 d5bb fc87 473b
000000b0: f59d f83d 801a de3d 8c57 89bd c783 f93b
000000c0: 28f8 b83c bce1 373d 7cca 93bc 12f1 15bd
000000d0: f3b8 17bd 11b5 8c3d 314e 2b3d f731 65bb
000000e0: 1e14 9e3b 6fc3 c73c 440b 80bd 018c d8bc
000000f0: de89 05bd e442 ae3b 36fa 99bc 9706 4ebc
00000100: 6510 4939 53a2 c9bc f120 c53c 9101 733d
00000110: 0d54 ea3b 3dcc 903c b8c0 14bd 52ca 74bd
00000120: 6c69 e7bc 4826 fbbb 9d4e f43b 1f5e 15bd
00000130: e7f7 493c f6d8 473d 4393 b03c 2d26 17bd
00000140: 9c58 013b 73d1 683d ee6c adbc 5949 4bbc
00000150: 7be7 ef3b 8f81 9fbd 9229 c0bb 8092 64bd
00000160: 4c1a 9fbb 4b62 033d 19a0 c6bd d209 a83c
00000170: 2995 0a3c ff8f 833d 21c4 93bc 0d4a b23c
00000180: e7fa faba 1db4 2f3d be18 23bc a6b3 323d
00000190: 1ac0 52ba e6a4 473d 5c78 893c 42fd 46bc
000001a0: d4a0 203d 6054 e5bb 71fb b63b 329c 4ebc
000001b0: dda8 64bc 181e aa3d d92c 003d cfd9 b1bc
000001c0: 9bff 16bd d112 03bd 47a9 b6bc 51ab ce33
000001d0: 0222 0e3d 9ac1 b83b 5b1c 86bd c6ab c6bd
000001e0: 5b66 3d3d 5fe5 c63d 9377 913c e623 f43c
000001f0: 0a22 4abd d435 213d df0c 903d f137 25bd
00000200: 4910 9dbd a67c 78b9 a54b 843d d325 ce3c
00000210: b213 edbc d813 cd3d 8223 fc3c 0b87 f9bc
00000220: 96a3 d43b 20cc 8d3b b6e2 eabc 52c2 17bd
00000230: 2f09 413b ab83 9f3d e982 ca3c c111 f0bb
00000240: 23a0 84bc 5210 153d 2892 703d 619d ca3c
00000250: feae 01ba 0f31 3e3d 9cdc e53c 6d2a 433c
00000260: d805 723b 2bdc 38bd d825 dcbd 5549 5a3d
00000270: 46ed 573d 0f6b 89bb 933a 453d 48e6 23bb
00000280: 7e04 f83c b763 aa3c ac96 bb3c 76e9 afbc
00000290: 8dec 7ebd ac9f 13bd 98ec 49bc f837 c8bc
000002a0: defb 23bd 11b8 d4bd 3007 aabd e8ab d53c
000002b0: 19ae 18bd 73c2 46bd 14cc 80bd b3f3 a23d
000002c0: 5499 5f3b 21f7 21bd 54c5 32bd 6a7a 803d
000002d0: 0638 c33d d206 a63d 8aa9 07bc a918 913d
000002e0: caa2 923c c1c7 7c3d d86b 493d 34e8 9f3c
000002f0: d322 c1ba 1ef3 ad3d 8f5f 6d3d eaee a33d
00000300: 6a2f 913c 12b9 0e3d 97dc a33d 11ec 09bd
00000310: bff5 233d 0564 a2bc 62ce b33c d339 a7bc
00000320: 055d 6e3d b2cb 653c 5547 ac3b 2d94 edbc
00000330: f74d ed3d c0c5 56bc dc3b 353d 907d 293d
00000340: ebf3 153d 868f c5bc 3005 f2bc e2b4 2fbd
00000350: ef77 b0b9 ec6b 8ebc e264 f33c 87f9 5a3c
00000360: 59d1 d0b9 36fc 7d3d b7bb 2e3d cc5e ebbc
00000370: 1d0e 8bbc c1ef 353d 4d03 b53c b844 c23b
00000380: 4248 29bd 3821 cbbc 0b8c 7b3d 8305 83bd
00000390: 9d8b 2e3a 1856 fdbc db2b 523d 664e 103b
000003a0: 613c bcbc 55cd 563d 6e53 ea3c 2796 de3c
000003b0: 3d40 103d b2ab a63c c251 35bc 0d3b 9c3c
000003c0: 1154 90bc 071a 143d 6d49 4f3d 2fa8 cd3b
000003d0: 17d1 fabc 399b 8abc 3573 9aba a548 49bd
000003e0: 2f3a c3bd 994c 67bd 4662 8c3d fb51 1f3d
000003f0: 643d 4bbd d380 9abd 2a2a 6d3b 3101 1a3d

bias f4 [120]
0.0008448807 -0.002666213 -0.00046192203 7.513075e-05 -0.011532858 0.0025072582 0.00021471758 -0.0069892793
0.0038679086 0.0021973285 0.0067980867 0.0026304824 -0.0026927674 0.0052399877 -0.011305002 -0.005377627
-0.0003025473 0.0032347778 0.006339772 0.0030795548 0.0063238237 0.012696667 -0.007433769 -0.004253033
0.0018106167 -0.0080297105 0.0029964931 -0.0004862353 0.013210295 0.0010846149 -0.006351664 -0.0067015835
-0.0001407391 -0.0042249532 0.0024966712 -0.0015133121 0.0029280707 0.0005089323 0.006012804 -0.013415747
0.009848933 0.020687796 0.0032550027 -0.00021323566 -0.002348968 0.0017959033 0.00032115914 -0.010885728
-0.01018985 -0.01973989 -0.006473274 0.00776622 -0.0010740405 0.0008680992 0.0027913835 0.002935269
-0.0017296283 9.825271e-05 0.013667676 -0.009720167 -0.0066951276 0.00065701414 0.0022893269 0.0011916095
0.005097926 0.0012384334 0.0048273155 0.01687703 -0.0016426069 0.0049658725 -0.003191095 2.460283e-05
-0.006341728 0.008946015 -0.0045395335 0.0052995225 -0.033530004 0.011524766 0.007147984 0.014803821
-0.014548723 0.011893588 0.0055954866 -0.009452905 -0.0070930007 -0.0020261472 0.0021335178 -0.009435384
0.0006786949 0.0027573453 -0.006795324 -0.0015269122 0.0012272499 0.005410537 -0.0014907151 0.0064523257
0.001257988 0.0034851274 -0.0005939706 0.009546896 -0.0073395055 0.010722266 -0.0076675653 0.012041971
0.0013256035 0.00033336063 -0.008153696 -0.00648069 0.010726397 -0.005254483 -0.0047677564 0.006956376
-0.00021733089 -0.009325586 -0.0061166296 0.010981232 -0.002761493 -0.012330648 -0.0074570957 -0.0076439558
00000000: fc7a 5d3a a2bb 2ebb 202e f2b9 848f 9d38
00000010: 50f4 3cbc d050 243b d025 6139 5306 e5bb
00000020: bd7c 7d3b 0e01 103b 7cc2 de3b 2c64 2c3b
00000030: 2479 30bb 34b4 ab3b 9d38 39bc ce36 b0bb
00000040: 369f 9eb9 91fe 533b ddbd cf3b 5bd2 493b
00000050: 1438 cf3b ae05 503c f996 f3bb 075d 8bbb
00000060: 3752 ed3a 0c8f 03bc d060 443b 66ed feb9
00000070: fe6f 583c a329 8e3a 9f21 d0bb f598 dbbb
00000080: 5d93 13b9 7a71 8abb 319f 233b 545a c6ba
00000090: e0e4 3f3b de69 053a 0e07 c53b b9cd 5bbc
000000a0: 6b5d 213c 7479 a93c e251 553b 0398 5fb9
000000b0: 25f1 19bb 8464 eb3a 4061 a839 0d5a 32bc
000000c0: 54f3 26bc 8db5 a1bc c21d d4bb c67b fe3b
000000d0: d2c6 8cba 2791 633a a5ef 363b a45d 403b
000000e0: b2b4 e2ba 060d ce38 63ee 5f3c 5641 1fbc
000000f0: cd62 dbbb 793b 2c3a 8808 163b c82f 9c3a
00000100: 810c a73b ee52 a23a 752e 9e3b b241 8a3c
00000110: be4c d7ba c2b8 a23b b121 51bb 2d62 ce37
00000120: 45ce cfbb 4e92 123c 5ec0 94bb 9ea7 ad3b
00000130: c256 09bd 5fd2 3c3c a339 ea3b ba8b 723c
00000140: c45d 6ebc 53dd 423c 585a b73b 5be0 1abc
00000150: 676c e8bb 1cc9 04bb 7dd2 0b3b de96 1abc
00000160: 72ea 313a 94b4 343b 4fab debb ac22 c8ba
00000170: acdb a03a e04a b13b 1964 c3ba 086e d33b
00000180: 13e3 a43a bc66 643b b1b4 1bba 966a 1c3c
00000190: 3c80 f0bb 71ac 2f3c 3340 fbbb b04b 453c
000001a0: dfbf ad3a e8c6 ae39 1497 05bc f85b d4bb
000001b0: c5bd 2f3c cc2d acbb d73a 9cbb 50f2 e33b
000001c0: 51e3 63b9 58ca 18bc 026e c8bb a0ea 333c
000001d0: 2afa 34bb 7c06 4abc a75a f4bb 267a fabb

weight f4 [120]
1.0629748 1.0199205 1.058297 1.02197 1.0239705 1.0557771 1.0117431 1.0181352
1.0031644 0.9997074 1.0768077 1.024026 1.0923969 1.0307151 1.0523063 1.0521221
1.0531803 1.0040166 1.025014 1.0500094 1.0254487 1.0163367 1.0303485 1.0034641
1.0326875 1.0131526 1.0708653 1.0341588 1.1150942 1.0145324 1.0035971 1.077472
1.1026204 1.051182 1.0215472 0.96599615 1.0441742 1.0174893 1.0625544 0.9900812
1.0724162 1.0136482 1.0873736 1.0489508 1.0628117 1.1141611 1.0002311 1.0541853
1.070365 1.0521344 1.0876606 1.009296 1.0070662 1.0200909 0.98775357 1.0103669
1.0542457 1.0368848 1.055819 1.0656304 1.1406716 1.0155216 1.0264771 1.0418922
1.11397 1.086273 1.0256362 1.0359164 1.042702 1.086145 0.9945931 1.0373807
1.0042262 1.081543 1.002969 1.0374761 1.0462823 1.0437574 1.0372593 1.0702535
1.0381225 1.0586485 1.032038 1.0287682 1.0905939 1.0023471 0.9922995 1.0582376
1.0625347 1.0689802 1.000507 1.0921283 1.031081 1.0137225 1.0561584 1.0149434
1.0942849 1.0507853 0.98931557 1.0699034 1.0589982 1.0579457 1.0035113 1.0488425
1.026801 1.0815556 1.0814339 1.0029627 1.0012238 1.0355097 1.0294734 1.0604141
1.0758563 1.0641135 0.99050444 1.0526581 0.99226934 1.0659007 1.0564063 1.124189
00000000: 8f0f 883f c18c 823f 4776 873f eacf 823f
00000010: 7711 833f b423 873f cc80 813f 4152 823f
00000020: b167 803f d3ec 7f3f d6d4 893f 4913 833f
00000030: a9d3 8b3f 79ee 833f f9b1 863f f0ab 863f
00000040: 9dce 863f 9e83 803f a933 833f b566 863f
00000050: e741 833f 5217 823f 76e2 833f 8371 803f
00000060: 1b2f 843f fcae 813f 1d12 893f 515f 843f
00000070: 68bb 8e3f 33dc 813f df75 803f 9aea 893f
00000080: aa22 8d3f 228d 863f 0fc2 823f 864b 773f
00000090: 80a7 853f 173d 823f c801 883f f675 7d3f
000000a0: ef44 893f 39bf 813f 0f2f 8b3f 0544 863f
000000b0: 370a 883f d59c 8e3f 9307 803f 8bef 863f
000000c0: b801 893f 57ac 863f 7638 8b3f 9c30 813f
000000d0: 8ce7 803f 5792 823f 6bdd 7c3f b453 813f
000000e0: 86f1 863f a4b8 843f 1425 873f 9466 883f
000000f0: 8701 923f 9dfc 813f 9a63 833f b95c 853f
00000100: 9296 8e3f fe0a 8b3f 0c48 833f e998 843f
00000110: 4277 853f cd06 8b3f a79d 7e3f e4c8 843f
00000120: 7c8a 803f 0070 8a3f 4a61 803f 04cc 843f
00000130: 94ec 853f d899 853f eac4 843f 11fe 883f
00000140: 33e1 843f cb81 873f d219 843f adae 833f
00000150: 9598 8b3f e94c 803f 5707 7e3f 5474 873f
00000160: 2301 883f 58d4 883f 9d10 803f dcca 8b3f
00000170: 76fa 833f a9c1 813f 3330 873f aae9 813f
00000180: 8711 8c3f 2280 863f c943 7d3f 98f2 883f
00000190: 418d 873f c46a 873f 0f73 803f 7940 863f
000001a0: 376e 833f 6a70 8a3f 6d6c 8a3f 1561 803f
000001b0: 1a28 803f 958b 843f c9c5 833f a6bb 873f
000001c0: a9b5 893f df34 883f b391 7d3f 80bd 863f
000001d0: 5d05 7e3f 6f6f 883f 5238 873f 6de5 8f3f

bias f4 [120]
0.011949082 -0.020849764 -0.038027927 -0.013321158 0.00061400153 0.022714322 -0.029372344 -0.028635358
-0.025394369 -0.039772276 0.0017577935 -0.004779673 0.07353273 -0.039487537 -0.059511475 0.009342046
-0.022737278 0.000790053 -0.071365304 0.03142818 -0.01098588 -0.036551077 0.008504287 -0.008065237
0.0022464336 -0.0073274667 -0.03858591 0.0041831885 -0.012515816 -0.054280452 0.009868917 -0.006748187
0.028157469 0.048616208 0.0041460968 -0.021653818 0.0047724126 0.001200076 0.020096779 -0.014911012
-0.008184923 -0.00351352 0.043301288 0.04827503 -0.005736167 0.06928218 -0.01901935 0.0033757554
-0.020043887 -0.028699873 0.053755336 0.03542735 -0.016994206 -0.021575302 0.0035764033 0.0052244784
-0.0080515295 0.00794107 -0.0031489995 -0.023998428 0.014025837 -0.05035825 0.024465278 0.001950399
-0.008069747 0.032407183 -0.0018019677 0.0015989782 -0.012793464 0.056883115 -0.025782699 0.010349242
-4.664699e-05 0.023858435 -0.019590834 -0.014591537 -0.02138984 0.023539942 0.025074968 0.016903322
0.01300901 0.036200166 -0.0034097051 0.013025533 0.061007142 -0.018080752 -0.044037443 -0.014589572
-0.012219819 0.0068240305 -0.00045176406 0.01404096 -0.00620262 -0.022996359 -0.0052538435 -0.021891473
0.058960993 0.0011592293 -0.065230705 0.04295814 0.05870492 -0.03777753 -0.038293567 -0.025672793
-0.03629147 0.041292373 -0.011188479 0.0060627908 -0.022431819 -0.0147225475 0.015486379 -0.022823427
-0.01382121 -0.0043051303 -0.05611987 -0.064940244 -0.0018683901 0.040700544 0.0413772 0.012893762
00000000: 15c6 433c 20cd aabc 2cc3 1bbd fc40 5abc
00000010: f2f4 203a 6313 ba3c 459e f0bc b394 eabc
00000020: da07 d0bc 41e8 22bd c365 e63a ce9e 9cbb
00000030: 5498 963d afbd 21bd 4ec2 73bd 620f 193c
00000040: 8743 babc 8f1b 4f3a f927 92bd d6ba 003d
00000050: 1ffe 33bc 95b6 15bd 9155 0b3c 0e24 04bc
00000060: e738 133b 3f1b f0bb 420c 1ebd 2113 893b
00000070: 230f 4dbc 2e55 5ebd 3db1 213c e51f ddbb
00000080: 7eaa e63c ca21 473d fbdb 873b 5963 b1bc
00000090: e661 9c3b de4b 9d3a 00a2 a43c 514d 74bc
000000a0: 0e1a 06bc 1543 66bb b15c 313d 0abc 453d
000000b0: 75f6 bbbb d1e3 8d3d 78ce 9bbc c73b 5d3b
000000c0: 1433 a4bc ff1b ebbc 8e2e 5c3d 451c 113d
000000d0: 6f37 8bbc b0be b0bc 1762 6a3b 1a32 ab3b
000000e0: 90ea 03bc 431b 023c 725f 4ebb 5a98 c4bc
000000f0: a0cc 653c 7444 4ebd 686b c83c 88a4 ff3a
00000100: f936 04bc 65bd 043d 0130 ecba ce94 d13a
00000110: ad9b 51bc 45fe 683d 3d36 d3bc de8f 293c
00000120: d3a6 43b8 c472 c33c f57c a0bc 5811 6fbc
00000130: bf39 afbc d6d6 c03c 056a cd3c d678 8a3c
00000140: be23 553c a046 143d 5c75 5fbb 0c69 553c
00000150: a0e2 793d 161e 94bc 9b60 34bd 1a09 6fbc
00000160: a335 48bc 1e9c df3b bfda ecb9 0e0c 663c
00000170: 593f cbbb dc62 bcbc 6f28 acbb bf55 b3bc
00000180: 1581 713d 48f1 973a ad97 85bd e0f4 2f3d
00000190: 9274 703d 9cbc 1abd b7d9 1cbd c04f d2bc
000001a0: 5da6 14bd 3122 293d e24f 37bc 60aa c63b
000001b0: efc2 b7bc d736 71bc 95ba 7d3c 32f8 babc
000001c0: 5b72 62bc 0d12 8dbb f3dd 65bd 64ff 84bd
000001d0: c5e4 f4ba 9db5 263d 247b 293d 5c40 533c

running_mean f4 [120]
0.23038262 0.23301114 0.23388371 -0.9141425 -0.44725373 0.24467449 -0.23562257 0.6076339
-0.5234323 -0.23025702 -0.1625987 -0.41325793 -0.11877405 -0.8854384 -0.15444545 -0.1509701
-0.3542012 -0.19757587 -0.39024502 -0.6289454 -0.13731037 -0.6023781 0.5082713 -0.016804278
0.7608891 0.39946935 -0.31635544 -0.33673468 0.5233274 -0.80422485 -0.23319353 0.1356974
0.50895935 -1.0045189 0.6268656 -0.077540435 1.0834173 0.07617659 0.56362474 0.19661452
-0.00403338 -0.84348553 -0.19104885 -0.45702577 -0.23739235 0.44823375 0.068612084 -0.13612716
0.18704347 -0.51063305 -0.0071419016 0.05793649 -0.41325468 -1.2433028 -1.1640487 -0.10641214
-0.8934032 0.03863528 0.7404403 -1.1688706 0.48661706 -0.40361962 -0.63567954 -0.42452434
-0.09448371 0.6749505 0.4496067 -0.38031697 -0.20675114 0.46562213 0.24506792 -0.08269505
-1.2283622 -0.4985896 -0.48730698 -0.36956155 -0.9977117 0.60166323 0.0027482065 -0.1843527
-0.12649015 -0.53251916 0.23973143 0.12846053 -0.1295428 -0.53609395 -0.5068592 0.45243087
-0.048924655 -0.060018256 0.16670237 -0.18136255 0.27758312 0.24051103 0.22849198 -0.846473
-0.1036316 0.1926638 0.12932277 -0.4633033 -0.4807354 -0.115903 0.11755625 -0.7830057
-0.018986415 -1.2352234 -0.22737093 -0.18221396 -0.2331412 -0.10997796 -0.9410987 -0.70527035
-0.34190527 0.62630063 -0.8851554 -0.38794178 0.46548915 -0.3955077 0.10876658 0.13097548
00000000: 6ce9 6b3e 799a 6e3e 367f 6f3e 3e05 6abf
00000010: 71fe e4be f38b 7a3e 0b47 71be e58d 1b3f
00000020: a9ff 05bf 7fc8 6bbe 4680 26be 8b96 d3be
00000030: cf3f f3bd 17ac 62bf f326 1ebe e897 1abe
00000040: dc59 b5be 5451 4abe 32ce c7be 9102 21bf
00000050: 179b 0cbe 7335 1abf 111e 023f 20a9 89bc
00000060: a1c9 423f 3f87 cc3e 57f9 a1be 7d68 acbe
00000070: c9f8 053f aee1 4dbf 49ca 6ebe 42f4 0a3e
00000080: 294b 023f 1394 80bf 447a 203f 85cd 9ebd
00000090: 6bad 8a3f 7902 9c3d b649 103f 5155 493e
000000a0: 722a 84bb abee 57bf 4fa2 43be 48ff e9be
000000b0: fb16 73be e57e e53e 7e84 8c3d eb64 0bbe
000000c0: 5388 3f3e d9b8 02bf 9d06 eabb d04e 6d3d
000000d0: 1e96 d3be 8c24 9fbf 8cff 94bf 9cee d9bd
000000e0: 12b6 64bf 0740 1e3d 7f8d 3d3f 8d9d 95bf
000000f0: df25 f93e 3ba7 cebe e5bb 22bf 415b d9be
00000100: ad80 c1bd 8ec9 2c3f d932 e63e e8b8 c2be
00000110: 92b6 53be 0666 ee3e 16f3 7a3e 065c a9bd
00000120: f93a 9dbf 2347 ffbe 4d80 f9be 2c37 bdbe
00000130: 096a 7fbf 9a06 1a3f 411b 343b f4c6 3cbe
00000140: a286 01be 2d53 08bf 287c 753e 288b 033e
00000150: dea6 04be 743d 09bf 86c1 01bf 05a5 e73e
00000160: 3865 48bd b4d5 75bd 07b4 2a3e 1bb7 39be
00000170: 601f 8e3e 8648 763e cdf9 693e 74b2 58bf
00000180: ce3c d4bd a949 453e 306d 043e 1736 edbe
00000190: f322 f6be 8d5e edbd 55c1 f03d 1073 48bf
000001a0: 6689 9bbc cd1b 9ebf edd3 68be 4c96 3abe
000001b0: 91bc 6ebe 203c e1bd d8eb 70bf 998c 34bf
000001c0: 350e afbe 3d55 203f 8b99 62bf 4ea0 c6be
000001d0: 9854 ee3e fc7f cabe 03c1 de3d 701e 063e

running_var f4 [120]
0.430132 0.16074106 0.2481574 0.3555713 0.30148196 0.32871562 0.18196765 0.18088119
0.2882908 0.31987268 0.2652988 0.21613692 0.29784915 0.29572016 0.3539505 0.2096455
0.24115697 0.23229972 0.33533302 0.34614342 0.23903842 0.21889947 0.24594302 0.3375478
0.29054174 0.33707845 0.23140274 0.24204777 0.2817797 0.19075216 0.32021412 0.24233663
0.31516773 0.32603484 0.21527243 0.24455217 0.23945466 0.20007452 0.44379014 0.32097492
0.21194771 0.22552142 0.21315883 0.23564857 0.24231885 0.268898 0.33244744 0.2590231
0.20893791 0.34422714 0.31614587 0.269006 0.24030507 0.46452466 0.38879207 0.24133007
0.32654598 0.25988057 0.35120162 0.37524077 0.28046152 0.25839984 0.30688396 0.2634807
0.2532431 0.4239665 0.17288043 0.3459409 0.3524867 0.21089652 0.21039148 0.33481833
0.21921924 0.31528088 0.24011935 0.22565137 0.19190069 0.2270912 0.29249465 0.26829135
0.27577394 0.30309004 0.30676267 0.3471746 0.3906971 0.2703817 0.26203984 0.15362681
0.2763813 0.26460046 0.24793106 0.25367388 0.23744364 0.24128713 0.39623156 0.45559192
0.31494164 0.2671299 0.33150128 0.30867237 0.18310288 0.16140468 0.17448516 0.25922197
0.35802165 0.3804736 0.28122798 0.12748793 0.18902396 0.17053896 0.23802964 0.15765564
0.21057728 0.21206725 0.2600411 0.29242852 0.22775649 0.26822305 0.3735992 0.28072968
00000000: 433a dc3e 4e99 243e f91c 7e3e 710d b63e
00000010: d85b 9a3e 6a4d a83e ba55 3a3e eb38 393e
00000020: da9a 933e 5ac6 a33e 3fd5 873e ff52 5d3e
00000030: af7f 983e a268 973e 0039 b53e 4fad 563e
00000040: daf1 763e fadf 6d3e c5b0 ab3e b639 b13e
00000050: 7dc6 743e 2f27 603e 7dd8 7b3e 11d3 ac3e
00000060: e3c1 943e 8c95 ac3e d7f4 6c3e 5fdb 773e
00000070: 6e45 903e 8954 433e 1bf3 a33e 1827 783e
00000080: aa5d a13e 0aee a63e 6070 5c3e e26b 7a3e
00000090: 9a33 753e 56e0 4c3e 7638 e33e d356 a43e
000000a0: d208 593e 16ef 663e 4f46 5a3e dc4d 713e
000000b0: 6f22 783e 00ad 893e 8d36 aa3e ad9e 843e
000000c0: d2f3 553e 8a3e b03e dfdd a13e 28bb 893e
000000d0: 8812 763e 2dd6 ed3e c10f c73e 3b1f 773e
000000e0: 0931 a73e 110f 853e b3d0 b33e 8f1f c03e
000000f0: a798 8f3e fc4c 843e e51f 9d3e f1e6 863e
00000100: 14a9 813e 2312 d93e 9107 313e 2a1f b13e
00000110: 2379 b43e 42f5 573e dd70 573e 4f6d ab3e
00000120: 027b 603e 7f6c a13e d9e1 753e 2711 673e
00000130: 9d81 443e 988a 683e dcc1 953e 7c5d 893e
00000140: 3e32 8d3e 9e2e 9b3e ff0f 9d3e dfc0 b13e
00000150: 7309 c83e 786f 8a3e 162a 863e 5950 1d3e
00000160: da81 8d3e b679 873e a4e1 7d3e 8be1 813e
00000170: 6d24 733e f913 773e ddde ca3e 5843 e93e
00000180: 0840 a13e 40c5 883e 89ba a93e 4e0a 9e3e
00000190: 527f 3b3e 4547 253e 3dac 323e beb8 843e
000001a0: 9d4e b73e 70cd c23e 1dfd 8f3e 328c 023e
000001b0: 7f8f 413e c4a1 2e3e 0bbe 733e 7b70 213e
000001c0: 92a1 573e 2828 593e 1b24 853e 31b9 953e
000001d0: ff38 693e 8854 893e 6548 bf3e cdbb 8f3e

weight f4 [84, 120]
-0.12365476 0.19536074 -0.13860664 -0.066941924 0.10075711 -0.07084209 -0.1411855 0.10044078
0.11635391 0.011069653 -0.1769498 -0.0976463 0.09146782 -0.2105278 -0.03793807 0.1276401
0.17816089 0.0030035684 -0.17984372 0.19637732 0.10031801 -0.028030042 0.042987205 0.050877217
-0.05104306 0.08574203 -0.12145561 0.1558552 0.06470738 -0.003346199 -0.019364247 0.17870596
0.0023477562 -0.04231319 -0.10261989 -0.10479764 0.15158878 -0.07601254 -0.093552746 -0.19921428
-0.12324878 0.14967702 -0.19604075 -0.024776373 0.13930294 0.20083766 0.10649983 -0.24495813
0.2077518 -0.25059146 -0.040503174 -0.0011379126 0.062744044 0.014992672 -0.06167391 -0.13770594
-0.1278725 0.04833485 -0.12213305 -0.23477529 0.15583599 -0.116907366 -0.0061768205 -0.12969208
0.05677018 -0.03576631 -0.004895759 0.05150263 -0.0165849 0.071735665 0.0786658 -0.19039075
0.06564106 0.012473802 -0.1539282 -0.051429268 -0.16541333 0.16845573 -0.06109066 0.11089558
0.044813216 -0.0033378075 0.1632411 0.18692021 0.11190935 -0.10281833 -0.12858754 0.084081054
0.17031881 0.1335298 0.13149297 -0.05611438 -0.06432909 0.03352045 0.09065829 -0.15169896
0.1933081 0.15508589 0.13459714 0.16457717 0.07467646 0.110684544 0.15918285 -0.068939246
0.06618601 -0.027691305 0.11595367 0.020864718 0.16393378 -0.1149909 -0.050496563 0.07078213
0.011598432 -0.018836936 -0.07415132 -0.023595212 0.024832398 -0.0038085615 0.045184292 0.094880074
0.043431696 0.022586204 -0.17477024 0.17481834 -0.021346556 -0.080936514 -0.0009908769 0.09940219
0.1517737 -0.05085533 -0.15654027 -0.0704162 0.029852021 -0.20423645 -0.065698124 0.08297874
-0.12123257 -0.07201855 0.13133922 -0.07072685 -0.09261898 0.090288945 -0.18425076 0.18709818
-0.16053185 0.13785395 0.19751161 -0.15247144 -0.18737626 0.05980036 0.13175553 -0.024925133
-0.098137476 0.02138207 -0.11192699 0.12227563 -0.16265939 -0.11272994 -0.14901614 -0.033657774
0.08562178 0.055416107 -0.11814858 0.06336486 -0.026840275 -0.16966805 0.035054553 -0.1704299
-0.20377967 -0.074549995 0.034147844 0.18592702 0.045058176 -0.04256286 0.11451587 0.09875309
0.19279586 0.17110334 0.03543169 0.08332415 -0.0667512 0.005044479 0.15966508 0.15309153
-0.08607699 -0.03583655 0.025912412 -0.21926278 -0.13738202 0.12805647 -0.07333845 0.1128121
0.14851771 -0.1406705 0.11452341 0.034433037 -0.2267852 0.06800316 -0.12072856 -0.08276109
-0.09792958 -0.20230088 0.19646288 0.09575016 0.111455694 0.19184262 0.050587405 -0.04460616
0.06667947 0.03565878 -0.15686995 0.1220776 0.03506892 -0.08796189 -0.15777177 0.008616151
-0.2048479 0.15860343 0.03631256 0.03894239 0.04484894 0.047213905 -0.11457298 0.11837029
-0.15158984 0.022004971 0.040257223 0.10127411 -0.05645447 0.018646734 -0.0620423 -0.14454275
0.025499731 0.061082795 -0.15741162 0.074835 -0.12181266 -0.11721132 -0.1843899 -0.18189141
-0.1569024 0.10841422 0.12665924 0.09978368 0.1223479 -0.08658859 0.06709443 0.034204267
-0.011658378 -0.08313273 -0.13779105 -0.095657535 0.15884703 -0.16673459 -0.09963153 0.20495145
00000000: b53e fdbd a50c 483e e6ee 0dbe d918 89bd
00000010: be59 ce3d a815 91bd ef92 10be e5b3 cd3d
00000020: f54a ee3d 7d5d 353c 5432 35be c9fa c7bd
00000030: 7b53 bb3d 9994 57be f364 1bbd 16b4 023e
00000040: cf6f 363e 84d7 443b f428 38be 2317 493e
00000050: 8773 cd3d 429f e5bc 5a13 303d a164 503d
00000060: 8712 51bd 8499 af3d b8bd f8bd 8198 1f3e
00000070: 4e85 843d e74b 5bbb c5a1 9ebc b2fe 363e
00000080: d0dc 193b 9850 2dbd 602a d2bd 25a0 d6bd
00000090: 173a 1b3e 76ac 9bbd 9598 bfbd d4fe 4bbe
000000a0: db69 fcbd ef44 193e e8be 48be d2f7 cabc
000000b0: 6ea5 0e3e 63a8 4d3e 951c da3d 4ed6 7abe
000000c0: e3bc 543e 864d 80be a8e6 25bd 0326 95ba
000000d0: f37f 803d d3a3 753c c89d 7cbd c902 0dbe
000000e0: 02f1 02be c4fa 453d e420 fabd ef68 70be
000000f0: 7893 1f3e 216d efbd ed66 cabb 00ce 04be
00000100: d987 683d b27f 12bd 9a6c a0bb 6cf4 523d
00000110: 0edd 87bc 26ea 923d 891b a13d cbf5 42be
00000120: d26e 863d eb5e 4c3c 5b9f 1dbe 7fa7 52bd
00000130: 1d62 29be a97f 2c3e 333a 7abd 391d e33d
00000140: 108e 373d 1ebf 5abb ad28 273e 0368 3f3e
00000150: bb30 e53d 6b92 d2bd 74ac 03be b032 ac3d
00000160: 0e68 2e3e 09bc 083e 18a6 063e 31d8 65bd
00000170: f8be 83bd bd4c 093d 0eab b93d f956 1bbe
00000180: 8ff2 453e d6ce 1e3e d5d3 093e eb86 283e
00000190: f9ef 983d 94ae e23d d400 233e 0530 8dbd
000001a0: 888c 873d e0d8 e2bc 1e79 ed3d 7cec aa3c
000001b0: 42de 273e 5980 ebbd 7cd5 4ebd 39f6 903d
000001c0: 5a07 3e3c eb4f 9abc a6dc 97bd bf4a c1bc
000001d0: 506d cb3c 0f99 79bb 2a13 393d 7c50 c23d
000001e0: 6fe5 313d b406 b93c f8f6 32be 9403 333e
000001f0: f9de aebc 0bc2 a5bd 50e0 81ba 6093 cb3d
00000200: 916a 1b3e ae4d 50bd 184c 20be 5e36 90bd
00000210: 3a8c f43c 5c23 51be bd8c 86bd c2f0 a93d
00000220: c848 f8bd 767e 93bd ca7d 063e 3dd9 90bd
00000230: 05af bdbd 69e9 b83d 3bac 3cbe aa96 3f3e
00000240: 7662 24be 9629 0d3e 7c40 4a3e 7921 1cbe
00000250: 90df 3fbe 39f1 743d ecea 063e cb2f ccbc
00000260: 4dfc c8bd 7329 af3c fa39 e5bd a56b fa3d
00000270: 2f90 26be f4de e6bd b097 18be bcdc 09bd
00000280: 795a af3d 00fc 623d e2f7 f1bd 70c5 813d
00000290: 23e0 dbbc 76bd 2dbe 5d95 0f3d 2d85 2ebe
000002a0: 9eab 50be abad 98bd 9cde 0b3d a763 3e3e
000002b0: ec8e 383d 6556 2ebd 4c87 ea3d 0f3f ca3d
000002c0: 476c 453e b735 2f3e d220 113d daa5 aa3d
000002d0: dab4 88bd 284c a53b 3e7f 233e 07c4 1c3e
000002e0: 2249 b0bd 59c9 12bd 4446 d43c 6c86 60be
000002f0: dfad 0cbe 3c21 033e 7832 96bd 080a e73d
00000300: 0715 183e ed0b 10be 408b ea3d a809 0d3d
00000310: 613a 68be 3e45 8b3d 8940 f7bd a57e a9bd
00000320: 4e8f c8bd f627 4fbe 912d 493e a918 c43d
00000330: e242 e43d 6472 443e bd34 4f3d f3b4 36bd
00000340: 3f8f 883d f10e 123d 84a2 20be d203 fa3d
00000350: 6ea4 0f3d 5d25 b4bd ec8e 21be c22a 0d3c
00000360: a6c3 51be f068 223e 7bbc 143d 0e82 1f3d
00000370: 86b3 373d 5e63 413d 3da5 eabd 1f6c f23d
00000380: 5e3a 1bbe c543 b43c c2e4 243d cd68 cf3d
00000390: cd3c 67bd 09c1 983c 1120 7ebd 0403 14be
000003a0: d0e4 d03c f431 7a3d 8330 21be 1843 993d
000003b0: ea78 f9bd 7d0c f0bd b5d0 3cbe be41 3abe
000003c0: 06ab 20be 4608 de3d f6b2 013e 635b cc3d
000003d0: 8991 fa3d 5c55 b1bd ce68 893d c619 0c3d
000003e0: c802 3fbc 7e41 aabd 1919 0dbe 19e8 c3bd
000003f0: cca8 223e 79bc 2abe 9e0b ccbd cbde 513e

bias f4 [84]
0.025160545 0.01421063 0.03216572 0.02824854 0.02558847 0.027686244 0.025683314 0.018804897
-0.032168303 0.022701623 0.042583186 0.0329671 -0.026231073 0.015628554 0.01227963 -0.0019852929
-0.0031842839 0.012118675 -0.022146687 0.019563997 0.0077831796 0.0023774498 0.012016424 0.04070887
-0.04340051 0.03969899 -0.0042492272 0.021286894 0.0069208485 0.01763125 -0.00017618657 -0.0001520167
0.0071891365 0.047039047 0.016057048 -0.0009783179 -0.014650816 0.0034545904 0.0020981103 0.011174749
0.0005396068 0.0037301066 0.016680997 -0.0073657637 0.0070908912 -0.0075462847 -0.004040579 0.010606243
0.018022576 0.018280623 -0.018884102 -0.0014311803 0.036274154 0.008398341 0.018808177 0.03176183
0.034277756 0.0044722185 -0.01086451 0.0028248937 -0.0007400039 0.0125359725 0.01768856 -0.010499389
0.037335496 -0.021880304 0.019087555 -0.024578024 -0.0012610322 0.019949166 -0.02910687 0.02189622
0.005892283 0.0049311058 0.018416252 0.013110392 -0.008452809 0.0011470596 0.020484662 -0.0028822187
0.0109267775 0.024329951 0.005239263 -0.022282178
00000000: 7d1d ce3c b4d3 683c 34c0 033d 7b69 e73c
00000010: e99e d13c 43ce e23c d065 d23c ba0c 9a3c
00000020: e9c2 03bd c1f8 b93c b56b 2e3d 8308 073d
00000030: 8ce2 d6bc 7407 803c 8030 493c b01b 02bb
00000040: 6baf 50bb 688d 463c f86c b5bc ad44 a03c
00000050: 0b0a ff3b fdce 1b3b 89e0 443c 58be 263d
00000060: bcc4 31bd 689b 223d 1a3d 8bbb da61 ae3c
00000070: 49c8 e23b 696f 903c b9be 38b9 ac66 1fb9
00000080: d992 eb3b 04ac 403d 128a 833c e73a 80ba
00000090: fa09 70bc 6966 623b 7380 093b 4b16 373c
000000a0: 6674 0d3a ce74 743b 96a6 883c 815c f1bb
000000b0: b55a e83b d346 f7bb d566 84bb cfc5 2d3c
000000c0: 15a4 933c 3fc1 953c d5b2 9abc 7196 bbba
000000d0: 3594 143d 3299 093c 9b13 9a3c b118 023d
000000e0: d566 0c3d b08b 923b 0f01 32bc da21 393b
000000f0: d2fc 41ba ae63 4d3c 99e7 903c a105 2cbc
00000100: 1bed 183d 533e b3bc 815d 9c3c da57 c9bc
00000110: 3849 a5ba 6f6c a33c 8871 eebc b45f b33c
00000120: 0d14 c13b 1d95 a13b aedd 963c f8cc 563c
00000130: a77d 0abc ef58 963a 73cf a73c 9be3 3cbb
00000140: 3a06 333c 9b4f c73c 20ae ab3b 1d89 b6bc
