model1/model/top(86.30).pt (torch, 277276 bytes, 22 tensors)

weight f4 [6, 3, 5, 5]
00000000: 9000 583c b4af 313e 3539 1f3e 6ff3 353e
00000010: e531 583e 7197 e73d 5d03 b3bc 4696 37bd
00000020: 15c5 38bd e836 353e 96a0 9cbd aa4f eabd
00000030: 36fd 23be 1eee 113d 441f 193e 2174 773a
00000040: eb65 fabd 9697 f2bd a844 72bd 791c 14be
00000050: fd3e e43d 943a bd3d 64ec f4bd 47f6 cfbd
00000060: fdf4 a13a de7a f23d 0caf dcbb 7bc7 0e3e
00000070: 2992 2ebd 3ce9 a8bd d28f 9d3d a42f 013d
00000080: 8cf6 0dbe 9868 903a 67d0 f5bd 287b ce3d
00000090: 6757 0fbe 918a e9bd c3a2 a53d 1393 b2bb
000000a0: be75 3bbe e311 37be ba43 0b3d 8f51 ca3d
000000b0: d5b6 93bd 9bf2 083e 6547 99bc 438c f13d
000000c0: 18fc 973d 5c12 433d 9b29 debc 4343 3f3e
000000d0: 515d 533e a19a 363e 9973 143e adb2 11be
000000e0: ba3d d4bd 773b 85bc 4455 bdbc 0874 0dbc
000000f0: 8c92 44be c7aa b53b 8d89 e43d 1778 653d
00000100: a8c4 91bd 8c72 8bbd 5a0e 703d 9a72 073d
00000110: e035 febd c594 043a cb36 0fbe 88aa 0d3d
00000120: 7a26 15bd 7291 db3d 96b0 54bd 2570 e13d
00000130: 850c 473d 2f04 72bd c11e d33d 2b56 aabd
00000140: 486e 0d3d e8b3 c93d c2d0 a13d 73f2 04be
00000150: 692a c6bc 5c39 df3d 3780 c3bd 40be 86bd
00000160: d924 9c3d ed08 263d b283 0f3d 349f 253e
00000170: 7421 4c3e 5959 e63d 456c b63d 9c84 953d
00000180: 4076 4dbd 7d09 05be 25a3 91bd 6f37 c7bd
00000190: df4b 853b babd 613c b705 3d3d 06fe 0439
000001a0: a294 39be ad69 a8bd 4556 eb3d f3d3 9ebd
000001b0: 5a96 8a3d 9482 c83d 4b79 3c3d c67a aa3c
000001c0: 35c9 bc3c e70a 25bc 0700 1b3c eff6 483d
000001d0: dc15 26bd cc26 853e 9b68 153e 1b34 403e
000001e0: 773c 49bb 7087 18bd 0909 963d 7325 e63d
000001f0: bcdb e03d ef8c 143d 9684 4ebe 6f77 563d
00000200: 4730 73bd c2ca 30be d276 b6bd 0a91 a8bb
00000210: 45f9 0c3e 5af9 f2bd 341e 48be a824 923d
00000220: 7c30 243d aa7b 9f3d 4ba4 2f3e 7346 70bd
00000230: 0442 55bc 32f0 4e3e fbd3 793e b0fd 863e
00000240: 224a 303e f829 35be d315 793d 94d9 b23c
00000250: cf68 02bd e36e db3d 5fa0 523c c2b0 06be
00000260: a6fc e5bd 7ffe b7bd 94ae 28bd 685b 0fbe
00000270: 8e8f c0bc 1050 87bd 0cca dfbd 6adb d1bd
00000280: 64ce 1e3b 81d0 babd 9c10 81bd d07e d83d
00000290: e96a 2a3c 213c 92bd 4601 e93c 82d7 8e3d
000002a0: 5d52 94bd 4d25 1d3e 428d de3d 94ad 0f3e
000002b0: 5d99 aebb 535c e93d 1a5b 3b3e 3ef4 503d
000002c0: bc60 8ebd 2a2f f13d 6e19 b73d adf6 2b3e
000002d0: e8d9 5dbe c423 a5bd c908 c23b b4a0 a4bc
000002e0: a551 ad3a aab1 32bd e54c e9bd 3b2b 20be
000002f0: 883b d3bd 568f 1e3e 8214 30be 7641 ff3d
00000300: fb46 ad3d b4a4 ce3d 1be2 61bd 1a07 0dbe
00000310: c304 8e3d a131 873d 4152 563e 3d9f 273e
00000320: f0ba 8d3d 8418 edbd 4e70 2d3d f2df d13d
00000330: 01a1 ab3d 9b41 a3bd 4977 44be ed9a 1dbe
00000340: e110 183d 5435 203d 71b6 0f3d 9f2f 633d
00000350: 2bcf ba3d 6815 bebd c244 113e 5ba7 c63d
00000360: a44f 0f3e a56a 08bd 4ccd 6abd fbc4 373e
00000370: 3b3d 06be 7637 0cbe db0e 1c3e 5ceb 1f3e
00000380: 491e 283e 4c85 b6bd d5a6 283e 153c 4c3e
00000390: 3793 b8bd 3d75 80bd 6034 433d 8303 773d
000003a0: 6170 9f3b bf85 0ebd c7b6 aa3d 531c 54bc
000003b0: e3e2 5cbd 0ed7 283e 8b21 10be 1467 e1bd
000003c0: c8b6 ce3d 3c49 98bd 6bee e5bd 5065 10be
000003d0: f034 3f3d 10bc 3f3d d3f1 55bd 295e f13d
000003e0: 8ab1 e7bd 9ba2 b43d 7dad 993d 31b8 293e
000003f0: 3384 8d3d f491 fabd 2624 80bd 7d68 2c3e
0.013183728 0.17352182 0.15549167 0.17768644 0.21112783 0.11308182 -0.02185219 -0.044821046
-0.045109827 0.17696726 -0.07647817 -0.11440976 -0.16014561 0.035627477 0.14953333 0.0009439607
-0.122264706 -0.11845319 -0.059147507 -0.14463986 0.111448266 0.092396885 -0.119591504 -0.101543956
0.0012356337 0.11839841 -0.0067347344 0.13943283 -0.042619858 -0.08247611 0.07693447 0.031539574
-0.13863581 0.00110175 -0.1200264 0.10082084 -0.13998185 -0.114033826 0.08087685 -0.0054496615
-0.18306634 -0.17877917 0.034000136 0.09878837 -0.07212607 0.13373797 -0.018710801 0.11794331
0.0742113 0.04762493 -0.027119448 0.18678002 0.20641066 0.17832424 0.14497222 -0.14228316
-0.10363336 -0.016263707 -0.023111947 -0.008633621 -0.19196528 0.00554404 0.11159048 0.05602273
-0.07117587 -0.068089575 0.058607437 0.033068277 -0.124126196 0.0005057569 -0.13985746 0.03458646
-0.036413647 0.10721101 -0.051926218 0.11007718 0.048595924 -0.05908602 0.103086 -0.083172165
0.034529 0.098487675 0.079011455 -0.12983112 -0.024190145 0.10899612 -0.095459394 -0.06579256
0.07624216 0.040535856 0.035037704 0.16174012 0.19934636 0.112475105 0.089073695 0.07300684
-0.0501616 -0.129919 -0.071111955 -0.0972737 0.0040678824 0.0137781445 0.04614803 0.00012683132
-0.18123105 -0.08223281 0.11491064 -0.0775527 0.067669585 0.09790531 0.04601411 0.020810496
0.023045162 -0.0100734 0.009460456 0.04906362 -0.04054819 0.26006162 0.14590685 0.18769877
-0.0030706206 -0.03723854 0.07325942 0.112376116 0.10979411 0.036267217 -0.20167765 0.052359995
-0.059372213 -0.17264846 -0.08909382 -0.005144243 0.13766964 -0.11863966 -0.19542772 0.07135898
0.0400853 0.07787259 0.17152517 -0.058660936 -0.013016228 0.20208815 0.2439727 0.26365423
0.1721578 -0.17691791 0.06081183 0.021832265 -0.031838235 0.10714509 0.012855618 -0.13153365
-0.112298295 -0.08984088 -0.041182116 -0.13999712 -0.023505952 -0.066070676 -0.10927209 -0.10246928
0.0024231905 -0.091218 -0.06301996 0.105710626 0.010401466 -0.07140375 0.02844299 0.069746986
-0.07242272 0.1534626 0.108667865 0.14031059 -0.005328341 0.113945626 0.18296471 0.051014178
-0.06952044 0.11776574 0.08940397 0.16793318 -0.21665156 -0.080634624 0.0059214574 -0.02009616
0.0013223185 -0.043626465 -0.113916196 -0.15641491 -0.10314089 0.15484366 -0.17195323 0.124636576
0.08460804 0.100900084 -0.05514727 -0.1377224 0.06934502 0.06601263 0.20929815 0.16369338
0.06920421 -0.115769416 0.04234343 0.10247792 0.083803184 -0.079714976 -0.19186129 -0.15391131
0.037125472 0.039113358 0.0350861 0.055465337 0.091215454 -0.09281427 0.14186385 0.09699889
0.13995224 -0.03330483 -0.057324693 0.17946236 -0.13109295 -0.13693032 0.15240042 0.15617126
0.16417803 -0.08912143 0.16469891 0.19944794 -0.09012454 -0.062723614 0.04765737 0.060306083
0.0048656915 -0.03479552 0.08335643 -0.012946206 -0.053927314 0.16488287 -0.14075296 -0.11005989
0.100934565 -0.07435843 -0.11227115 -0.14101148 0.046681345 0.04681021 -0.052232575 0.11785538
-0.1131316 0.08820077 0.075037934 0.1657417 0.069099806 -0.122348696 -0.06256895 0.16836734

bias f4 [6]
00000000: 3727 16bc 5140 3fbd 687f 82ba e0d7 42bd
00000010: 3d87 40bd 443f 4ebd
-0.009164623 -0.046692196 -0.0009956183 -0.047569156 -0.047003973 -0.050353304

weight f4 [6]
00000000: c5ba 8e3f a0d1 6d3f eef2 713f 9e6e 873f
00000010: a752 823f 0ee4 523f
1.1150748 0.9289799 0.94511306 1.0580633 1.0181473 0.82379234

bias f4 [6]
00000000: 5d89 38be 3c3d a2be e8c2 58be d333 9abd
00000010: cfb4 8fbc db1c a9bd
-0.1802115 -0.31687343 -0.21168101 -0.07529416 -0.017542271 -0.08257457

running_mean f4 [6]
00000000: 2e8e 983d 33c6 cf3e 19c0 d83d c72f 773c
00000010: 103e 4bbd 694e 4fbe
0.074489936 0.40580902 0.10583515 0.015087075 -0.049619734 -0.20244755

running_var f4 [6]
00000000: 46d6 9a3e 6130 e63f c10e 373f 8d47 af3e
00000010: ad06 ce3e 0aa8 463f
0.30241603 1.7983514 0.7150689 0.34234276 0.40239468 0.7760016

weight f4 [16, 6, 5, 5]
00000000: 17d7 ecbd cf51 e8bd c162 59bd ce46 85bc
00000010: 1d26 8c3d 0cc6 62bc b18f 20bd 8876 a2bc
00000020: 7c34 77bd e0c2 20bd f820 ebbd 63fe 013e
00000030: a086 c03c a8ec 253d 63bc 3e3d 94c0 09be
00000040: a02b 093b 01f5 75bd c188 ee3d ee97 993d
00000050: 7ff1 02be 8f9b fabd 7bd3 903d 105d 843d
00000060: a301 e53d ede1 85bc 8e47 9d3d ad61 8dbd
00000070: 94fe b13d d904 bfbd a987 d4bd fe98 a4bd
00000080: 4c03 b5bd ea67 a6bd f7e9 5cbc 9ac1 773d
00000090: 5416 afbd c2b9 55bc d77a 513d 1c76 7b3d
000000a0: a93d 203c 3702 283d 8733 9dbd 1d51 ca3d
000000b0: 0c1b 5c3d cd74 94bd 10cf 9a3d 4770 90bd
000000c0: aa77 753d 69ad 683c f300 b03d a652 be3d
000000d0: 3c02 38bd b485 ee3c 4132 5ebd a740 a53d
000000e0: 83f6 a33d 7137 ccbc ccd2 adbd 97d7 91bc
000000f0: ce36 113d 9ae0 b23d e380 a6bd 5dc7 b2bd
00000100: 0499 b1bd 4658 883d b6bd a93c 948d f2bd
00000110: 7e20 603d ef9a a9bd 56a6 b7bd c8ff 513d
00000120: a024 293c 9c71 823d 90da 9b3d 39db 503d
00000130: 24b6 773d f1bf b73c 3166 bf3d 82dd 38bd
00000140: ac80 5d3d 8670 d0bd de54 e4bc da35 573d
00000150: 03df 053d 4747 b13c 62b3 16be ac36 dc3d
00000160: d165 933b c9f8 cfbb cab8 923d 93d7 dbbd
00000170: d62f fe3d ea7a 57bc 8d5e 37bb 73b2 a5bd
00000180: 502d 85bd 0beb 23bd f4cf 6abd f713 39bd
00000190: 2118 75bd e17f 52bd 1eea 06bd 6fcf 1fbe
000001a0: 5c24 f5bd 8ceb 37b9 5e9c ad3d 0389 163d
000001b0: 9867 c33c cd8b 50bd a8c7 8dbc 0826 803d
000001c0: cd7a 8f3d 897c 9abd 1b56 9abd 04d4 1b3e
000001d0: 479e d13d a817 82bd a102 c2bc bf50 f2bd
000001e0: 382b e73d bb42 fd3c ee38 31bd 456a 96bd
000001f0: 1a62 26be 3d04 7ebd b21a 8fbd 7c50 34bd
00000200: 1163 cbbd cd82 d93c 8111 babd fb98 aebc
00000210: 9cf2 78bc a142 d7bd d923 df3d c11a 6cbd
00000220: 9b36 80bd aa14 e6bd 9dd4 87bd df2b efb9
00000230: cf66 823d f81b d6bd 272b 90ba 8006 bf3d
00000240: 5e99 e03d 6bcd 98bd 809f c4bd b469 f3bd
00000250: 368f 8abd 8fa9 ee3d 58c9 6e3d 4c11 c6bb
00000260: e95a d7bd f633 95bc 5942 023e ee18 3ebd
00000270: bc46 1bbd 81ac a1bd 1946 8dbd f175 2cbd
00000280: ae96 11be 0f19 5abd e866 a3bd 58c2 7b3c
00000290: f2fe aa3d 38e9 babd c319 a9bd 9b02 863c
000002a0: 31a4 ddbd d1a9 7bbd 1aa4 62be 3c02 bdbc
000002b0: 5af2 05be e1b6 c7bd 41a3 dabd 01a6 73bd
000002c0: 015e b23c 524d 29bd 1f54 bc3d 12e9 e63c
000002d0: b699 1b3d dec2 aa3d 78c8 a73d 6420 e7bb
000002e0: 07f7 bcbd 2765 c8ba 3ec6 c6bd a040 a33d
000002f0: f1f2 51bc 740e 98bd 7c9d bcbd d857 a2bd
00000300: c9f4 1ebd d252 12be 8698 1fbe 03de 95bd
00000310: 6607 65bd 4c1e 88bd d47f 2cbd 4c9d 00be
00000320: 1f3d bc3c 3930 7d3c ca8c 70bc 59a0 b7bc
00000330: 4cbe 583d 9129 93bd e85a e73c a631 19bd
00000340: ee61 a9bd cc25 7fbd bc80 0d3d 1ac3 ab3d
00000350: 550a abbc 40b3 673c e035 febd c9c8 163d
00000360: d6a6 74bd d8b9 52bd db89 7cbd cdba 45bd
00000370: 1841 80bd a126 78bd a800 803a 2eaa 9a3c
00000380: 2b36 e2bb 5233 3c3d 1b20 c4bc 1035 d6bb
00000390: afdc 51bc 6e93 70bd b38d 8bbc aa04 2ebd
000003a0: 930b 97bd ac08 c4bd 06ed 48be 252e c03d
000003b0: c8a7 003d ebfb d83d ca8d 033d c4da ddbd
000003c0: 831c 173d 129a ac3c c510 fbbd 1bdc f5bd
000003d0: 1cb7 42bd 0973 87bd 1b78 94bd 1b44 0bbe
000003e0: c074 a8bd 7d7d eebd e086 283d 765a 233d
000003f0: 3a55 1c3e 51ce da3d 7386 073e 8e7a bd3c
-0.11564463 -0.11343729 -0.053072695 -0.016269114 0.06843207 -0.013841163 -0.039199535 -0.01983191
-0.060352787 -0.039248347 -0.11480898 0.12694697 0.023501694 0.040508896 0.04656638 -0.13452369
0.0020930544 -0.060048107 0.116471775 0.074996814 -0.12787436 -0.12236702 0.07071587 0.06463063
0.11181953 -0.016343081 0.076796636 -0.06903396 0.08691135 -0.093270965 -0.103774376 -0.080369934
-0.088385195 -0.08125289 -0.013483516 0.060487367 -0.085491806 -0.013044776 0.05114254 0.061391935
0.009780326 0.041017737 -0.07675844 0.098787524 0.05373673 -0.072488405 0.07559025 -0.07052665
0.059928574 0.0142015 0.08593931 0.09293108 -0.044924006 0.029116489 -0.054247145 0.08068972
0.08006003 -0.02492878 -0.08487472 -0.017802997 0.035452656 0.087342456 -0.08130052 -0.08729432
-0.086717635 0.06657462 0.020720344 -0.1184341 0.054718487 -0.08281504 -0.08967273 0.051269323
0.0103236735 0.063693255 0.07610047 0.050990317 0.060476437 0.022430392 0.09345663 -0.04513312
0.05407779 -0.10177712 -0.0278725 0.05254159 0.032683384 0.021640433 -0.14716867 0.10752615
0.0044982214 -0.006346796 0.07164152 -0.10734477 0.12411468 -0.013151864 -0.002797994 -0.08090677
-0.06502783 -0.040019076 -0.057327226 -0.045185056 -0.059837464 -0.051391486 -0.032938115 -0.15606473
-0.119698256 -0.00017539988 0.0847709 0.03675176 0.023853108 -0.050914574 -0.017307118 0.06257254
0.07005844 -0.075432844 -0.075359546 0.15217596 0.10235267 -0.06352168 -0.023682894 -0.11831807
0.1128754 0.030915609 -0.043267183 -0.07344488 -0.1624836 -0.06201576 -0.069875136 -0.04402207
-0.09931005 0.026551628 -0.0908537 -0.021313181 -0.015194561 -0.10510755 0.10895509 -0.057642702
-0.06260415 -0.1123441 -0.0663235 -0.0004561832 0.063672654 -0.10454553 -0.0010999189 0.09327412
0.109667525 -0.07461055 -0.09600735 -0.11885396 -0.067655966 0.116534345 0.058297485 -0.0060445424
-0.105153866 -0.018213253 0.12720622 -0.046410494 -0.037909254 -0.07894231 -0.06898136 -0.042104665
-0.14217636 -0.053246554 -0.07978612 0.015366159 0.08349408 -0.09126514 -0.08256867 0.016358664
-0.10822333 -0.061441246 -0.22132912 -0.023072354 -0.13080731 -0.09751678 -0.106756695 -0.059484486
0.02177334 -0.041333504 0.09195732 0.028187308 0.037988387 0.08337949 0.08192533 -0.007053422
-0.09226804 -0.0015288935 -0.097057804 0.079713106 -0.012814269 -0.07424632 -0.09209725 -0.07926911
-0.038807664 -0.14289406 -0.15585527 -0.07317736 -0.05591526 -0.06646404 -0.042114094 -0.12560004
0.022978364 0.015453392 -0.014682004 -0.022415327 0.052915856 -0.071856625 0.02824159 -0.037400864
-0.08270632 -0.062291905 0.0345466 0.08386822 -0.02087895 0.014141858 -0.124126196 0.036812577
-0.05972942 -0.051446766 -0.061654907 -0.04827385 -0.06262416 -0.060583714 0.000976582 0.018879976
-0.00690343 0.04594738 -0.02394109 -0.0065370873 -0.012808963 -0.05873435 -0.01703534 -0.042484917
-0.073752545 -0.095719665 -0.19621667 0.09383801 0.03141001 0.105949245 0.032117642 -0.10832742
0.036892425 0.02106956 -0.12259058 -0.120048724 -0.047537908 -0.06613738 -0.07249471 -0.13600199
-0.08225393 -0.11645029 0.04114425 0.039881192 0.15266886 0.10683883 0.13234882 0.023129728

bias f4 [16]
00000000: 29eb b03c 5a6e 1fbd 4fab 41bb b869 d0bc
00000010: 16cf 9fbb 84c4 31bc 72f8 01bd 6c64 43bd
00000020: 8bf7 6ebd db33 38ba dd5a 81bc 18c8 ae3c
00000030: 1c4b 383c e476 a0bb df7b ad3d 2918 83bb
0.021596508 -0.0389236 -0.002955157 -0.025441036 -0.0048769815 -0.010850076 -0.031731077 -0.04770319
-0.058341544 -0.000702677 -0.015790397 0.021335647 0.011248376 -0.0048969854 0.08470892 -0.004000683

weight f4 [16]
00000000: cc3f 713f bfbe 473f fea7 6f3f b74c 743f
00000010: c0b9 813f 2ee4 893f d086 6f3f 2c41 6d3f
00000020: 4856 693f 116d 623f f851 943f 87b2 723f
00000030: 6ec5 873f 960d 943f 4854 963f 2be3 803f
0.9423797 0.7802543 0.9361571 0.9542956 1.0134811 1.077276 0.9356508 0.9267757
0.9114728 0.8844767 1.1587515 0.9480366 1.0607126 1.1566646 1.1744471 1.0069326

bias f4 [16]
00000000: e1be 4ebe e123 57be 9246 44be 7f67 9abd
00000010: 151e e7bd 4599 a3bd d7d8 1bbe 765d 6bbe
00000020: 98b0 e9bd 5c9f 8fbd 8176 b3bd 99e4 afbd
00000030: 7e36 f03c 01f9 e4bd 4871 20bd e97e 32be
-0.20190002 -0.2100978 -0.19167545 -0.075392716 -0.112850346 -0.07988218 -0.15219437 -0.22984871
-0.11410636 -0.07012817 -0.08762837 -0.085885234 0.029322859 -0.11180306 -0.039170533 -0.17431225

running_mean f4 [16]
00000000: 16f0 f0be 3686 0fbf be32 42bd 5deb 2dbe
00000010: 5802 debe 5f10 98be 6840 82be d254 173e
00000020: 2c13 4abe 099c 3ebd 801b fcbe 6893 25be
00000030: 926d 0cbe 3076 7bbe f430 7dbe 58f8 50bd
-0.4705817 -0.56064165 -0.047411673 -0.16984315 -0.43361163 -0.2969999 -0.25439763 0.1477845
-0.19733876 -0.046535525 -0.4923973 -0.16169512 -0.13713673 -0.24556804 -0.24725705 -0.05101809

running_var f4 [16]
00000000: f3d4 9e3e f2e9 b03e 8e64 8d3e bc02 3f3e
00000010: adaa bf3e 62c7 4b3e dfdb e93d 9b64 0a3e
00000020: 3aa1 253e 3f20 113e d2c0 d33e 0137 513e
00000030: 4868 343e 0426 743e b723 703e 25f8 0f3e
0.31021842 0.34553486 0.2761578 0.18653387 0.37434903 0.19900277 0.1141889 0.1351494
0.16174784 0.14172457 0.41358048 0.20431139 0.17617905 0.23842627 0.23451124 0.14059503

weight f4 [120, 16, 5, 5]
00000000: 1736 9ebd 6818 843d 1837 68bd de1c 54bd
00000010: df59 c33c 796a a2bb cf8b eb3c fe0b 80bd
00000020: 4635 90b9 c86a 92bc 3a6b 84bc e4b3 033b
00000030: 7d11 113d 021e 3d3d eabb 99bc 91ea 4fbb
00000040: 61d8 083d fbbd a1bb bc4c 133c 650d 7bbc
00000050: 8ffb d3bb bed1 db3c eae4 993c 7e0a d63c
00000060: ff2a b0bc 5243 cfba 50a6 82bb 20f9 c53c
00000070: 05e5 1f3d 06c2 53bd ee36 7dbb 57ca 7c3c
00000080: 7e7d 043d e29b d93c 0c49 103d 694c 67bc
00000090: f2a5 89bd 26fd 293d fe60 bcbc c9ce dc3b
000000a0: 68b1 97bd 01fd 4fbd aee2 1a3c 00f0 16ba
000000b0: e886 c23d 2e5c f9bd b9ce 2ebd c2c0 a03c
000000c0: 863e 95bc 0839 8f3a bf05 8cbd eeb1 d2bd
000000d0: 66ff 98bb 2dc3 9e3d d5b5 0dbe fa16 25bd
000000e0: a20a fcbc 3fbc 60bd 01e2 b0bc 5d0f 833d
000000f0: 789d 8f3c 6641 96bd 6816 60bc ff1b ebbc
00000100: ca83 713d 3036 bbbc a23e 5cbd b84c efbb
00000110: 509c 18bc 68fa c3bc bef2 fa3c 4d81 82bd
00000120: c308 3dbd 3a0e bebc fa80 febc 6706 bfbc
00000130: ecc2 8b3c 631e 14bd 5105 503d c362 5f3d
00000140: bf02 4ebd 2c25 06bd fc7c 91bd 5ff3 a0bd
00000150: 668b d53b adec 573c 0078 7e3c 75b7 89bc
00000160: 7cfc c03c af9f d1bd 71fb b83c f48d f1bc
00000170: 267a b4bd 00f9 86bd 0871 a7bd 0380 013d
00000180: e608 b73d 65fb 4bbd 80e0 723c 3a71 f3bc
00000190: 39d4 5c3d 57de 873d fece 1ebc bada 7a3d
000001a0: 1030 e8bc 7683 a53c bbc6 ebbc ea50 cc3c
000001b0: 69e1 87bc 1cee dabd 7962 883d db20 753c
000001c0: af81 7bbc f803 183d c358 45bb 728f 553d
000001d0: d5e3 d83c c5d5 56bd 7483 2f3a 7c9e 9abc
000001e0: 4ed1 a33c dc26 ea3c 453a 393d 2259 65bc
000001f0: a133 f43c 4ab0 9e3b e21f f03d b319 113d
00000200: b6c3 c03d de2b cc3c 7685 6dbc 9d5f 90bc
00000210: e8ff dfbb 65a5 e2bb 256d 363d bc4c 3d3c
00000220: 1cec 32bc 3c80 f7bb 5f8d bc3b 9f05 863d
00000230: c812 8c3d 54cf adbd 79be 923c ddca 933b
00000240: c865 053c 7dd9 04bd 1277 18bd 18d7 8bbd
00000250: 53e8 893c b991 cebc dbec f0bc 1604 b13c
00000260: f3ab d7bc aae3 99ba b8ed 9dbd e2e9 bfbd
00000270: db97 00bd e1f8 593d fe82 863c abf7 c1bd
00000280: 256c c2bd 2a0a 093b 0c0a 153c 0af1 b83c
00000290: ec45 013d 2f34 8abc 2c93 983d b828 503c
000002a0: 5e12 673b a0fb 473c d6ca 78bc cfcc 8a3c
000002b0: 6cad 1f3d 0c08 47bd 1695 adbd 894a a0bd
000002c0: 5bb7 cdbd 3be0 90bd 0759 023d 640e 0cbd
000002d0: f7d1 0cbd b901 d2bb bfa7 de3c de75 933c
000002e0: 85af 22bc 9a8b 1ebd 9b30 453d 6342 063d
000002f0: cab2 93bc 138f efbd 77a9 4cbd d9de 8c3c
00000300: 3a5d 01bc 95a9 c9bc 3f56 3cbd d2b2 23ba
00000310: 77f6 acbc 5a0e 183c 0311 f63b aa27 d73a
00000320: 343f 5bbd b19f 3e3d a523 ac3c a951 1ebd
00000330: e080 c93d 6dcb c7bd b14d 1e3d a282 e53c
00000340: daf4 59bc c8e0 843d 346b a3bb 35a1 993d
00000350: 93b7 88bd 651d 123d acf5 2c3d 46fb 493c
00000360: a6f2 593d 011b 74bd 8cc7 aa3d df8d eebc
00000370: 010e 093c 005a 803d 71bd 5cbc 7a3c 8cbc
00000380: d907 0abd d3f0 dfbc 63f6 693c 8411 9b3c
00000390: 0bec 083d e8a9 bb3c d0b3 b2bc d39b 80bc
000003a0: 4b98 a0bc 5059 5bbd f018 c9bc 7dbd 9abd
000003b0: f557 01bb c22c b93c 1ee0 0a3d f87a e23c
000003c0: e980 613c f797 183c 9c59 f03b 628f debb
000003d0: 196f c3bc 767a f13c 50de eb3a 6a01 62bc
000003e0: 7914 103c 5688 b83d 7d7b 35bc 2cbf b3bd
000003f0: 3c4a 88bd 365c 22bd 0a55 db3d e8ee a2bd
-0.077251606 0.064499676 -0.056693166 -0.051785342 0.023846565 -0.00495654 0.02875319 -0.06252287
-0.00027505512 -0.017873183 -0.01616441 0.0020096237 0.03541707 0.046171196 -0.018766362 -0.0031725506
0.03340948 -0.0049359775 0.008990463 -0.015323018 -0.006469197 0.026833411 0.018785913 0.02612805
-0.021504877 -0.001581291 -0.003987111 0.024166644 0.03903677 -0.051698707 -0.0038637477 0.015429101
0.03234624 0.026563589 0.035225913 -0.014117339 -0.06721105 0.041501187 -0.022995468 0.006738518
-0.074068844 -0.050778393 0.009453459 -0.00057578087 0.094983876 -0.12175785 -0.042677615 0.019623164
-0.01821829 0.0010927031 -0.068370335 -0.10287844 -0.0046691177 0.077520706 -0.13838895 -0.040305115
-0.030766789 -0.054867025 -0.021592142 0.06399415 0.017531142 -0.073366925 -0.013677217 -0.028699873
0.058963574 -0.022852987 -0.05377067 -0.0073028468 -0.009314612 -0.023923114 0.030633327 -0.063723184
-0.046150934 -0.023200143 -0.03106736 -0.023318483 0.01706072 -0.03616179 0.05078632 0.054537546
-0.050295588 -0.032750294 -0.07103917 -0.07858919 0.0065168617 0.0131789865 0.01553154 -0.016811112
0.023557894 -0.10235535 0.022580834 -0.029486634 -0.088123605 -0.06590462 -0.08175856 0.031616222
0.08937244 -0.049800295 0.014824033 -0.029717077 0.05391333 0.06634205 -0.0096929055 0.06124375
-0.02834323 0.020204287 -0.028781286 0.024940927 -0.016586976 -0.10689947 0.06659407 0.014961447
-0.015350743 0.03711316 -0.003011272 0.052138753 0.026475826 -0.05244996 0.0006695308 -0.0188744
0.019997265 0.028582983 0.045221586 -0.013998302 0.029809775 0.0048427926 0.11724831 0.0354249
0.09412329 0.024923261 -0.014497152 -0.017623717 -0.0068359263 -0.006916689 0.044537682 0.011553939
-0.010920551 -0.0075531285 0.0057541574 0.06544041 0.0683952 -0.0848681 0.01791309 0.004510267
0.008141942 -0.032433975 -0.03722293 -0.06828135 0.016834414 -0.02521597 -0.029409816 0.021608394
-0.026327109 -0.0011740823 -0.07711357 -0.093707815 -0.03139482 0.053215865 0.016419884 -0.09471067
-0.09493283 0.00209106 0.009096634 0.022575874 0.031560823 -0.016870586 0.07449946 0.012705021
0.003525875 0.012205988 -0.015185079 0.016943363 0.038983747 -0.04859166 -0.084757015 -0.078267165
-0.10044738 -0.070740186 0.031823184 -0.03419341 -0.034379926 -0.0064088968 0.027179597 0.01800054
-0.009929542 -0.038707353 0.048142057 0.032778155 -0.01802959 -0.11697211 -0.0499663 0.017196106
-0.007895762 -0.024616996 -0.04598069 -0.0006244603 -0.021113617 0.009280765 0.007509352 0.0016415019
-0.053527072 0.046539012 0.02101309 -0.038652096 0.09839034 -0.09755597 0.03864831 0.028016392
-0.013303006 0.06488186 -0.004987145 0.07501451 -0.06675639 0.035672564 0.04222648 0.012327975
0.053209923 -0.059596065 0.08338842 -0.029120384 0.008365155 0.06267166 -0.013472901 -0.017118681
-0.03369889 -0.027336514 0.014279935 0.01892925 0.033428233 0.022908166 -0.021814257 -0.015699303
-0.019603869 -0.053551972 -0.024548024 -0.07555673 -0.0019736264 0.02260435 0.03390514 0.027646527
0.013763645 0.009313575 0.007334901 -0.006791995 -0.023856686 0.02947734 0.0017995331 -0.013794282
0.008793944 0.09010379 -0.011076805 -0.087766975 -0.06654784 -0.03963872 0.10709579 -0.07955724

bias f4 [120]
00000000: 6f15 313c 266e bfbb ff0d ac3c 39d2 d83a
00000010: 4600 1abb a878 cbbb 57d0 213b bf8e a838
00000020: bb3c d63a 8281 2939 a9a2 a8bc 4637 103c
00000030: 3083 34bb 2353 83bb 1af4 dcbb 7d13 533c
00000040: 1149 7f3c 9bf1 033c 4709 81bc c323 663b
00000050: 53ff a3ba 6335 15ba 2b1f 0c3c c2d1 1bbc
00000060: ddd3 ffbb e0f7 833a 7262 86bb 250a 6b3c
00000070: 329d 583b a85d ddbb db92 92bb be7c b4bb
00000080: ec6a 96bb 9efb 3ebc 5d14 c8bb 90bd cc3b
00000090: 855b 05bb 6354 15bb 0952 c8ba 62b7 e03b
000000a0: 50c0 ddbb 93b7 34bc c761 d93b d744 9a3a
000000b0: 220c a63b e81a a73c ff7a c3bb 38e7 423c
000000c0: 3428 5b3b 18e9 423b 6f64 0a3c 2ae0 f13a
000000d0: 8134 073c 15ff 953c b911 343c 9dd3 253b
000000e0: 4e5e feba e0fc 6f3c 155f 8b3b 4f69 573a
000000f0: 47c6 14bc c2bc 9b3a ac37 88bb 76e6 bc3b
00000100: 8216 aa3b cfcf 3dbb 493c d3bb c950 bcbb
00000110: 5f81 c4ba ac2d 24bc 8124 013b d803 da3b
00000120: 1990 92bc 47bc 103c bf28 173b 9069 b0bc
00000130: 8aee 133c 8d35 cdbb 9669 82ba 0920 3d3b
00000140: 4ce1 43bb bace 0b3c d369 5c3c aa93 26bc
00000150: 707a a0ba fd37 d5bb 0eb8 cc3b 73a8 f93b
00000160: fdff db3a 5f49 a9bc 2bff 90b8 e669 953b
00000170: 179a 1bbc cc8e 47bc cb8d 0a3a 8612 75bb
00000180: 1147 9cbc 5d59 77bc 5c85 9139 d4d7 c3bb
00000190: a8ce 963b ba7e 233b 1823 b7ba cdd2 5fba
000001a0: bf88 06bc fc24 c2b9 e132 3fbb fc83 01ba
000001b0: 0685 163c 4718 1c3b 9716 a3bb 48fb 083c
000001c0: 01c1 2f3c eaaf f3ba 6790 833b f62d 3f3a
000001d0: 853b 903b 98d7 0c3b 4a99 243c 813d cdbb
0.010808333 -0.005841988 0.021002768 0.0016542143 -0.0023498698 -0.0062094517 0.002469083 8.037453e-05
0.0016345003 0.00016165341 -0.020585375 0.008802241 -0.0027544014 -0.0040077134 -0.0067429664 0.012883064
0.015581385 0.008053209 -0.015751494 0.003511653 -0.0012512006 -0.0005691854 0.008552353 -0.009510459
-0.0078072385 0.0010068379 -0.004101091 0.01434568 0.003305268 -0.0067555495 -0.004473073 -0.0055080345
-0.004590383 -0.01165667 -0.006105943 0.0062481835 -0.002034874 -0.0022785894 -0.0015283237 0.0068577984
-0.00676731 -0.011030096 0.0066339704 0.0011769783 0.0050673643 0.020398572 -0.00596559 0.011895947
0.003344071 0.0029740985 0.008446797 0.0018453647 0.008252264 0.01831011 0.010990554 0.0025303133
-0.0019406767 0.014647692 0.004253278 0.00082172913 -0.009080476 0.0011881816 -0.004157027 0.005764778
0.0051906714 -0.0028962975 -0.0064463955 -0.005746935 -0.0014992169 -0.010020655 0.0019705596 0.0066532902
-0.017890977 0.008833951 0.0023065058 -0.021534711 0.00902904 -0.0062624873 -0.000994968 0.0028858206
-0.0029888926 0.008533174 0.013452965 -0.010167042 -0.001224352 -0.0065069185 0.006247527 0.0076189577
0.0016784664 -0.020664869 -6.913984e-05 0.004559743 -0.009497187 -0.0121800415 0.0005285411 -0.0037395074
-0.019076856 -0.015096989 0.00027755916 -0.0059766565 0.004602272 0.002494736 -0.0013972251 -0.00085381867
-0.008211314 -0.0003703012 -0.0029174613 -0.00049406267 0.009186989 0.0023818181 -0.004977058 0.008360691
0.010727168 -0.0018591855 0.004015017 0.00072929205 0.0044016265 0.0021490809 0.010046313 -0.0062634354

weight f4 [120]
00000000: 3ae2 893f c8c3 873f 6d30 873f ef85 843f
00000010: b081 8c3f 4832 873f 7525 853f c911 733f
00000020: 43f0 873f 0215 803f 69c0 823f b333 913f
00000030: 1912 823f 5117 893f c67e 7f3f 4aec 8a3f
00000040: 5158 873f 7df0 893f 0437 823f 1b1b 8c3f
00000050: ffa4 823f 7e33 8a3f 9cbc 7c3f b1aa 833f
00000060: 8708 8b3f f112 813f 5b6d 883f a268 853f
00000070: 12cc 853f 6551 843f 1db3 853f dfec 8c3f
00000080: 8fe9 843f 6c17 833f 0cf4 8a3f 22d9 863f
00000090: bfb1 893f 6ea2 873f ae48 883f c5eb 873f
000000a0: 0f29 813f 197b 853f a8ff 853f fd02 793f
000000b0: 498a 823f 68c5 893f eb07 813f f89f 923f
000000c0: a1ca 853f ac7b 7f3f e32d 813f 8732 873f
000000d0: 9129 813f ce85 873f 5e98 843f 7e3b 863f
000000e0: 5432 8c3f fb00 853f be5c 8f3f c7d0 853f
000000f0: 00ce 893f e368 833f bcd9 843f e1f0 883f
00000100: f622 833f cf3b 8b3f fdb0 823f ed16 833f
00000110: bba5 7b3f e799 8d3f cde8 813f 187c 813f
00000120: 51c1 853f fb0f 813f 7157 853f 4281 873f
00000130: 4396 803f 1a07 873f 4ca8 903f 3868 873f
00000140: 2182 8b3f af6a 843f 1144 8e3f 239b 7b3f
00000150: cb86 883f 7292 823f f7b1 8a3f 2a4d 863f
00000160: 7f52 813f 0479 823f 33de 7b3f ce5f 823f
00000170: b80c 883f 75e5 8a3f d159 893f f797 7d3f
00000180: eac1 873f 2f4d 7b3f 4a81 803f 569d 863f
00000190: 74ae 853f f0d3 803f be6f 833f d92f 883f
000001a0: 5e5e 883f d9d4 803f ee5b 833f 9b87 8b3f
000001b0: ff2e 863f ae19 823f 4cc2 853f 8841 873f
000001c0: 6fe8 833f b303 843f abf9 823f 7ebb 863f
000001d0: ce5a 893f 50d8 823f 01d9 873f d32c 7d3f
1.0772164 1.0606623 1.0561653 1.0353373 1.0977077 1.056222 1.0402056 0.94949013
1.0620197 1.0006411 1.0214969 1.1343902 1.0161773 1.0710241 0.99802816 1.085336
1.0573827 1.0776516 1.017304 1.0945772 1.0206603 1.0796964 0.98725295 1.0286466
1.0861977 1.0083905 1.0658373 1.0422556 1.0452902 1.033734 1.0445286 1.1009787
1.0383776 1.0241523 1.0855727 1.0535014 1.0757369 1.0596445 1.064718 1.0618826
1.0090655 1.0428191 1.0468645 0.97270185 1.0198451 1.0763369 1.0080541 1.1455069
1.0452462 0.99798083 1.0092129 1.0562295 1.009081 1.0587709 1.0358999 1.0486906
1.0952859 1.0390924 1.1200178 1.0454339 1.0765991 1.0266384 1.0378947 1.069851
1.0245044 1.0877627 1.0210263 1.0241371 0.9829976 1.1062592 1.014917 1.0115995
1.044962 1.0083002 1.041731 1.0586321 1.0045856 1.0549042 1.130136 1.057868
1.0899087 1.0345057 1.1114522 0.98283595 1.0666136 1.0200942 1.083556 1.0492299
1.0103301 1.0193181 0.98385924 1.0185487 1.0628881 1.0851275 1.0730535 0.99060005
1.0606053 0.9816465 1.0039456 1.0516765 1.0443864 1.0064678 1.0268476 1.0639602
1.0653799 1.0064956 1.026243 1.0900759 1.0483092 1.0164087 1.044992 1.0566874
1.0305308 1.0313629 1.0232443 1.0525968 1.0730836 1.0222263 1.0613099 0.9889652

bias f4 [120]
00000000: bf78 01bc 37cb 833c 55b6 b2bc 6e7f 89bc
00000010: b25c e83c a27f 843c fa24 32bd bf5d 48bd
00000020: d05d b03b 1273 93bd a1f8 4fbd ced2 553d
00000030: 9637 6dbd 74aa 82bb 2494 2bbd d2eb 663d
00000040: 50b9 dbbc 2a6e 783d face 15bd d42c e73c
00000050: 04c0 49bd 822c 893c aaad 7cbc b929 2ebd
00000060: bdff 1cbd a904 56bd fff5 22bd 418a 71bb
00000070: b24f ce3c 9c9a bb3c 81cd 013d 7b4d 00bd
00000080: b663 943a 708b 94bc 15e2 5c3d 4e96 eb3c
00000090: cd69 51bc a39f 8d3b 0e94 5f3d c7df 9f3b
000000a0: 9801 56bc 3dfc dabc 7dc6 78bc 0dbf 51bd
000000b0: ca91 43bb b852 0e3c 25b9 3bbd b5f0 413c
000000c0: b035 98bb e260 883c fc30 dabc 3bf2 4c3b
000000d0: cfe0 cabc 438c 0abb 7085 843c e8e2 48bc
000000e0: dd28 47bc 77fe babc c625 083d 3147 873c
000000f0: 88ab 923c f3e3 40bd c955 d73a 915d f0bc
00000100: 7908 bcbc 31dd 123c 30cf 97bc 163c 59bc
00000110: 799e 10bc f6c4 33bc 532c 8dba 2253 acbc
00000120: d91e 1b3a 0994 8ebc fe7a 603b 4f5f 903b
00000130: 85b2 c7bc 4805 58bc f11a 503c e95b d43c
00000140: 8747 083c 4a7f 0b3d 095c 103c 0958 1fbd
00000150: 535c 10bd 4abd 54bb fcef 1e3c f1fb 14bb
00000160: cc3b 743b d33c ae3c f14d eabc 2c45 013b
00000170: aed0 4c3c cc0d 453d 89cc fc3c 5e64 5fbc
00000180: 4bd6 aebb 1876 5ebd fcf0 d5bc 3526 413c
00000190: 589e 09bc e9bb c8bb 63c6 9639 f2aa 373c
000001a0: cca1 07bd 298d 33bc 8a44 e43b a779 b9bb
000001b0: 2bfc d2bb 5897 1d3c b3fd 283b cdcc 453d
000001c0: aa34 c33b 672f afbb 999f 5c3b 1e76 693d
000001d0: 68aa 89bb 07ea 643b 1cd1 ddbc 202c 23bb
-0.007902323 0.016088111 -0.021815458 -0.016784396 0.028364513 0.016174141 -0.043492295 -0.04891753
0.005382277 -0.07199682 -0.05077422 0.052202992 -0.05791434 -0.0039876048 -0.041889325 0.05637724
-0.026821762 0.060651936 -0.03657434 0.028219618 -0.049255386 0.016744856 -0.015422264 -0.04252026
-0.03832983 -0.052250538 -0.03978538 -0.0036856087 0.025184486 0.022900872 0.031690124 -0.03132389
0.001132122 -0.018132895 0.053926546 0.028758194 -0.0127815725 0.0043220087 0.054584555 0.0048789713
-0.013061903 -0.026731605 -0.015184042 -0.05120759 -0.0029841536 0.008686714 -0.045830864 0.011837174
-0.004645072 0.01664776 -0.026634686 0.003127231 -0.0247654 -0.0021140731 0.01617691 -0.01226113
-0.012155739 -0.022826416 0.03323915 0.016513439 0.017904058 -0.04709239 0.0016428764 -0.029341491
-0.022953259 0.008963869 -0.018531412 -0.0132589545 -0.008826845 -0.010972252 -0.0010770656 -0.021035735
0.00059173774 -0.017404573 0.0034252997 0.004405893 -0.024377117 -0.013184853 0.012701736 0.025922732
0.008317835 0.03405694 0.008811005 -0.038902316 -0.035244297 -0.0032461458 0.009700771 -0.0022733177
0.0037267087 0.021269238 -0.028601618 0.0019725068 0.012500925 0.04810886 0.030859249 -0.013634769
-0.0053356043 -0.05431184 -0.026115887 0.011788894 -0.0083995685 -0.0061259163 0.0002875804 0.01121019
-0.033113286 -0.010958948 0.0069661783 -0.005660254 -0.006438752 0.009618603 0.0025785982 0.048291016
0.005957206 -0.005346227 0.0033664464 0.05699741 -0.004201222 0.003492953 -0.02707725 -0.0024898127

running_mean f4 [120]
00000000: a17a 94be 2202 b3be 86a8 2bbf e745 cebd
00000010: 0785 02bf 58bf 86bd 7391 b5bc 96a1 8abe
00000020: bd98 35be 27d6 2b3f 06ce c2be 2b50 d1be
00000030: 169a 4bbf 67a3 083e bbc5 973d 2447 2abe
00000040: 4bbf 40bf 1316 123f cc3e 04bf 6cdb 403c
00000050: 00e4 01bf 7dc4 b4be 3e78 30be 02c5 88be
00000060: 5eab 89be 085d 3cbf 1025 0b3e 2c4b 33be
00000070: f5f0 a4be 1069 00bf 9db8 3bbf d115 b93d
00000080: 38bc 11be 24ed 673e d913 25bf cd60 e5bd
00000090: 3e35 a43e 8912 37bf 753a a7be fd7a a5be
000000a0: 8e4c 11bf 1ba6 a6be 84b8 69be a832 fdbe
000000b0: fb29 19bf 92bc 2bbe ed3d 7b3f b767 3dbf
000000c0: e541 6c3e 5b11 143d 7da4 9ebd f995 8b3e
000000d0: 1fd6 9ebe 6e16 02be a447 20bf 9158 e9be
000000e0: 69fe dbbe 6b8a f5be 54a7 a1be c1e2 b3be
000000f0: c514 2d3d 8d5e 6ebe 1536 08be c6a3 bdbe
00000100: f02d 42be 10f7 8e3e ccf4 ef3b 2f2b ccbe
00000110: 6c95 2ebf cac9 52be 3bac 04bf 00f0 08bf
00000120: 6b63 3abf 9a8b 00bf 1284 d7be 0767 1ebf
00000130: 56b3 99bf 9e45 f03c d872 0dbf 6843 5ebe
00000140: 51c5 01be b7b6 69bf df64 053f b7d3 babe
00000150: 5338 d9be d8e2 a1be cd32 4dbf 123c f2bd
00000160: 3db9 07bf 30ff ddbe e78a 54be 1105 b03e
00000170: 323d dd3e 01cf 8cbd 561a cfbe c8cf f93e
00000180: 6a26 6cbd a50d 00bf ea12 353e 5ba0 a7be
00000190: 0ee9 a4bf 1866 853e bf7e 1abf 27fa e53e
000001a0: 32cc 05be 10fc 21bf f2a0 423f 8c5e 2e3e
000001b0: dd03 6bbe c00c 07be 81ca 19be 56cf f8be
000001c0: 76d4 cabe e54e c0bd 8b2b 0e3d 2790 18bd
000001d0: 23e0 ce3e b8d1 adbe cf2a 41bf 35e8 7cbf
-0.28999808 -0.34962565 -0.6705402 -0.100719266 -0.50984234 -0.06579465 -0.022164082 -0.27076405
-0.17734046 0.67123646 -0.38047808 -0.40881476 -0.7953199 0.13343583 0.07410761 -0.166287
-0.7529189 0.5706493 -0.5165832 0.011771064 -0.50738525 -0.3530616 -0.17233369 -0.26712805
-0.26888555 -0.73579454 0.13588357 -0.17509145 -0.32215086 -0.5016031 -0.7332857 0.09037364
-0.14231956 0.22649056 -0.6448341 -0.11200104 0.3207187 -0.7151266 -0.32661787 -0.32320395
-0.5675744 -0.32548603 -0.22824293 -0.4945271 -0.5982968 -0.16771153 0.98141366 -0.7398638
0.23072012 0.036149364 -0.077462174 0.27262858 -0.31022736 -0.12703869 -0.62609315 -0.45575383
-0.42967537 -0.47957167 -0.31572974 -0.35133937 0.042256135 -0.23278256 -0.1330188 -0.37039012
-0.18962836 0.2792287 0.0073228832 -0.39876696 -0.6819675 -0.20584789 -0.518253 -0.5349121
-0.7280795 -0.50213015 -0.4209295 -0.6187596 -1.2007854 0.029330071 -0.5525336 -0.21705401
-0.12672926 -0.91294426 0.5210704 -0.3648965 -0.42425784 -0.3161838 -0.8015564 -0.11827864
-0.53017026 -0.43358755 -0.20756112 0.34378865 0.4321075 -0.0687542 -0.4044978 0.48791337
-0.057653822 -0.5002082 0.17682996 -0.3273953 -1.2883623 0.26054454 -0.6034965 0.44917414
-0.13066176 -0.6327524 0.76026833 0.17028254 -0.22950692 -0.13188457 -0.15018655 -0.48595685
-0.3961522 -0.09390048 0.034709495 -0.03724685 0.40405378 -0.33949065 -0.75455946 -0.9879182

running_var f4 [120]
00000000: 82af 6e3e e075 bc3e ce42 463e 8109 8b3e
00000010: 6d13 633e b526 513e d4b6 b33e 0f9d 9a3e
00000020: 33ce 883e d411 fa3e 998a aa3e d07a c73e
00000030: 0cb7 a73e 4f26 cc3e a1aa 5c3e 5511 a23e
00000040: 90ba 8a3e f5d5 503e 2e1b 573e de75 603e
00000050: 5ace 333e 2b82 783e cccf 973e 36bd 623e
00000060: 02d6 7d3e d270 5e3e 2a85 893e d67a 2a3e
00000070: dc75 5d3e f4c6 db3e 6bd8 c83e 52bc 613e
00000080: 8e29 883e 0d6b 6d3e c587 ac3e abaf b93e
00000090: 3256 4c3e 53e2 b33e c9cd c03e 0704 a03e
000000a0: d815 9c3e 3ccf 803e 8fdd 513e 1b6d 3a3e
000000b0: b526 aa3e b0a5 5e3e d665 cb3e ea8e c03e
000000c0: f6f7 583e 1ee4 163e 13ef 5c3e 5924 853e
000000d0: 26a4 d43e e5dd ad3e 712e 913e b228 6d3e
000000e0: 2dc3 bf3e 07e9 8f3e 19ba a43e bee5 8f3e
000000f0: a693 963e 5458 d03e 4202 853e 337d 8e3e
00000100: 1763 513e 7976 a63e 2bda 643e e4a9 493e
00000110: 45f2 853e b8d1 583e 1d01 b33e ff14 4e3e
00000120: 955b 623e 7476 583e 1b8a 883e 328a 913e
00000130: b12b a43e be90 b13e 40b3 3b3e 265b 8b3e
00000140: 190a 5f3e 43e7 983e 0880 813e afa1 863e
00000150: 02f4 873e f492 5c3e e110 733e 2cf2 b33e
00000160: 7f09 6f3e 563b 7b3e 0866 703e b064 383e
00000170: 66b5 673e 563e 993e e898 a53e 122e 8c3e
00000180: cdf8 803e 06a1 783e fcf9 a43e 8b55 883e
00000190: 8c46 723e e6e2 d83e bbfa 6f3e 51be 3b3e
000001a0: 857d 933e 3135 6d3e 3bb9 c03e 0f85 7c3e
000001b0: 6269 563e dd80 b13e 83e9 0d3f eb58 203e
000001c0: 40ac 5a3e 6473 843e c9ca 0a3f 921c c33e
000001d0: d4ac 723e 77ba 903e c384 733e d18f a93e
0.23309138 0.3680868 0.19361421 0.27155688 0.22175379 0.20424922 0.35100424 0.3019795
0.26719818 0.48841727 0.33308867 0.38960886 0.3275684 0.39872977 0.21549465 0.31653848
0.2709546 0.20394118 0.21006462 0.21919963 0.17559186 0.24268405 0.29650724 0.2214249
0.24788669 0.21722725 0.2685941 0.1664842 0.21626991 0.42925227 0.39227614 0.22044495
0.26594204 0.23185368 0.33697334 0.36266837 0.19954756 0.3513361 0.37657002 0.31253073
0.30485415 0.25158107 0.20494674 0.18205683 0.33232656 0.21742892 0.39726132 0.37609035
0.2118834 0.14735457 0.21575575 0.26004294 0.41531485 0.33958355 0.28355744 0.23160055
0.37453595 0.28107473 0.3217323 0.28104967 0.29409522 0.4069239 0.25978285 0.27829894
0.20447956 0.32512262 0.2234885 0.19693714 0.261614 0.21173751 0.34961787 0.20125197
0.22105248 0.21138936 0.26667866 0.28425747 0.32064584 0.34680742 0.18330097 0.27217978
0.21781196 0.2986394 0.25292993 0.2629523 0.2655335 0.21540433 0.23736908 0.351457
0.23343466 0.24534354 0.23476422 0.18007159 0.22627792 0.2993037 0.3234322 0.273789
0.2518982 0.24280176 0.32221973 0.26627764 0.23659724 0.4236061 0.2343549 0.18334319
0.288067 0.23164822 0.3764132 0.24660133 0.20938638 0.34668627 0.55434436 0.1565892
0.2135477 0.25869286 0.54215676 0.38107735 0.23698741 0.2826726 0.23781113 0.33117536

weight f4 [84, 120]
00000000: b528 c73d e041 b0bd 80df 8f3d 282b 213e
00000010: 03b9 8e3d d651 0c3e ccdd ee3d 7f58 dfbd
00000020: ee97 cebc aac4 9cba 2fc9 413e 7c22 85be
00000030: 6015 04be 2396 18be 95f7 1cbe 29fd f9bc
00000040: 3172 c8bd 92cc ca3d fe98 a5ba 9305 adbd
00000050: 8be6 c73d 0841 87bd 6168 93bd 1052 37be
00000060: e15f 6c3d d1ec 3c3d fde0 07be 9d99 e13d
00000070: c8b3 423e d80e b13d 9810 113e 8822 37be
00000080: feaf 253e 37c6 c3bd 073a d63d 228d 1cbe
00000090: 180b f6bc 47ee 19be e299 39be aa5c e83d
000000a0: 8590 b03c 0a46 2d3b a611 8d3d 86b6 133e
000000b0: dcf9 123d 8834 de3d 72b9 493e 8ed7 49be
000000c0: f10d 0e3e 9c14 703c b88f b0bd 817f 2c3e
000000d0: 74c7 f43d db39 ea3c 9426 09be 6795 933d
000000e0: 7438 2cbe 3e18 493d bfb7 58be dda6 143d
000000f0: 8fc2 053e b954 873d 6892 933d 871a 2c3e
00000100: dfff a0bd 7fca 18be db2e 98bd 8975 943d
00000110: aeb9 bfbd 7f55 db3a 5351 db3c 09a2 a3bd
00000120: 7648 9cbd 05fe 26bc 96c6 4f3d 3194 a33d
00000130: 84b8 be3d 1fed 013e 155d 42ba c4a2 0abd
00000140: 19fc 463e c766 36be 879a 4bbe 72df 0a3e
00000150: f082 d9bd d3d5 08be 8ae3 853c 9df2 7bbe
00000160: 27d9 5a3d dcf1 2d3c cbcd 203e c3f8 033e
00000170: 6003 603e c6b0 2f3c 48d6 003e 7f32 a83d
00000180: 2f4c 063e 38c6 02bd 261f 2f3c ccf2 cc3d
00000190: f5a0 31be 1d94 023d db9a 0a3e 1888 e33d
000001a0: 5dab e2bd fe2f 0f3e eebf f93c 87f8 163c
000001b0: cf4a 86bd 008b 18be bf91 123e c642 ad3d
000001c0: a061 2b3d 1934 fa3d ee26 353d 6935 113e
000001d0: 310b b2bd 8341 2d3e 4b90 bfbd 4a40 0d3e
000001e0: 16ef b0bc 5ef7 e23c 72a0 f03d d4f3 1fbd
000001f0: 9559 ba3b a2d6 d2bd c690 1d3d 020d 26be
00000200: a299 95bd 2e3a 8e3d 1d83 a9bd b96e 083d
00000210: f21c 393d 9623 d13d 7152 443e 6c49 42bc
00000220: d3d4 07be dc13 e2bd 0ac5 52be 94a5 293e
00000230: 86a9 8ebd 1e06 f4bd d0e9 dc3d 1832 f93d
00000240: 63bd 6e3d 728b 49bc 7f7d a13d 507c 6cbd
00000250: 9b92 003e bab7 b53d dd04 093e fd67 a93d
00000260: ee77 063d be14 2f3d 8fed 3a3d 15ff 1d3e
00000270: 1343 98bd 152b 0bbd 513d 0abd 5098 283d
00000280: 3e96 1fbd 0eff be3d 471b 3b3c fd24 bebd
00000290: 0c5d b1bd 8d72 53bc 80eb d5bd 183f 2c3e
000002a0: bbcb c1bd 2cef 0dbe f747 8b3b ad6d 80bb
000002b0: 2529 383c 3fe2 6bbc 084f d83b 50f9 8b3c
000002c0: 2162 29be affc 733d b656 573d d55f 1cbd
000002d0: 92a2 34be b63e 50be 6ebd e6bc 7247 38be
000002e0: 5e1f d53a 1f93 f03d d28c 933d cf3d 373e
000002f0: 0138 bb3d 5b5b dfbc f101 eabd a29a 46be
00000300: 1eea f13d 282e db3c fa1a e23d 502a d3bd
00000310: fb21 0e3e 565a b2bd c249 2cbd 1817 3a3e
00000320: 70c4 adbc 57f0 543e a1ac 753c 4889 6c3d
00000330: 5f5b 6a3d 8ad9 d93d 0464 b93d 6f3f 003d
00000340: 1597 b93c aa86 05be b092 333e 6736 e43b
00000350: 9a17 0cbd b3e0 38be 47dd eebd a419 4c3d
00000360: 8c1a 3b3d fd91 483d e2c3 ea3d 8bb1 f0bd
00000370: 4462 80bd d2d0 103c b105 39bd 6393 ebbd
00000380: 79a0 1c3c da38 c8bd 27af 093e 1a1c 3ebe
00000390: 45ea 203e b7c0 df3d d4ed 003e 73ec e13d
000003a0: 233e 3b3c 5926 063e a5da ccbd ad71 54bb
000003b0: 795b cd3d ef38 8bbb 5175 7abc a379 953d
000003c0: b93c 00bd 791e 523d f424 dbbc 103a 513d
000003d0: fe26 41bd 15b2 44bd 2978 4abe 9b91 14be
000003e0: 3a5c 02be b964 46bd 935d 80bd 64ee 943d
000003f0: d04c 82bd ec45 113d e047 a73d 4084 04be
0.09724561 -0.08606315 0.07025051 0.15739119 0.06968882 0.13703093 0.11663398 -0.10905551
-0.02521893 -0.0011960466 0.18924402 -0.26002872 -0.12898779 -0.14901023 -0.1532882 -0.030516224
-0.09787405 0.099023 -0.0012634096 -0.08448329 0.097607695 -0.066042006 -0.07197643 -0.17902398
0.057708625 0.046124283 -0.1326942 0.110156275 0.19013894 0.08645409 0.14166486 -0.17884266
0.16180417 -0.09559291 0.104602866 -0.15288213 -0.030034587 -0.15032302 -0.18125108 0.11345799
0.021553287 0.0026439452 0.06888132 0.14425096 0.035882816 0.10849863 0.19699648 -0.19711134
0.13872506 0.014653351 -0.08621162 0.16845514 0.11952105 0.02859204 -0.13393623 0.072062306
-0.1681841 0.049095385 -0.21163844 0.036291946 0.130625 0.066079564 0.07205659 0.16806994
-0.078613035 -0.14920996 -0.07430812 0.072489806 -0.093615875 0.0016733854 0.026772177 -0.0798989
-0.07631008 -0.010192399 0.050726496 0.0798725 0.09312537 0.12688111 -0.0007414383 -0.03384663
0.19432105 -0.17812644 -0.19883166 0.135618 -0.106206775 -0.13362817 0.01634385 -0.24604268
0.05342975 0.010616746 0.15703504 0.12887864 0.21876287 0.010723298 0.12581742 0.08212756
0.13114999 -0.031927317 0.010688579 0.10007247 -0.17346556 0.031879533 0.13535635 0.11109942
-0.11067841 0.13983151 0.030487027 0.009214527 -0.06557237 -0.14896774 0.1431341 0.08460002
0.04184115 0.12216968 0.04422658 0.1418053 -0.08693541 0.16919522 -0.093536936 0.13794056
-0.02159838 0.027705844 0.117493525 -0.039050892 0.0056869485 -0.10294844 0.038468145 -0.162159
-0.07304694 0.06944691 -0.08276961 0.03330872 0.04519362 0.102118656 0.19172074 -0.011858325
-0.1326478 -0.11038944 -0.20582977 0.1656707 -0.06965928 -0.11915229 0.10786784 0.12167758
0.058286082 -0.012301313 0.078852646 -0.05773574 0.12555926 0.08872934 0.13380761 0.08271787
0.032829218 0.04274439 0.04563671 0.15429337 -0.074346684 -0.033976633 -0.033749882 0.04116088
-0.03896164 0.093259916 0.011420078 -0.09284399 -0.086603254 -0.012905729 -0.10445309 0.16820943
-0.09462687 -0.13860768 0.0042505222 -0.0039193244 0.011240278 -0.014397203 0.006601218 0.017086655
-0.1654134 0.05956715 0.05257293 -0.03817733 -0.1764014 -0.20336422 -0.028166499 -0.17996004
0.0016259959 0.11746811 0.07204594 0.17894672 0.09141541 -0.027265241 -0.114261515 -0.19394925
0.118122324 0.026755407 0.110403016 -0.10310805 0.1388015 -0.087086365 -0.04206253 0.18172872
-0.021211833 0.20794807 0.014994771 0.05774811 0.057216045 0.106371954 0.090522796 0.031310495
0.02265505 -0.13039652 0.17536426 0.006964493 -0.034202196 -0.18054466 -0.11663299 0.04982914
0.045679614 0.04896735 0.11463143 -0.11752614 -0.06268743 0.008838849 -0.045171443 -0.11502721
0.009559744 -0.097764686 0.13445722 -0.18565407 0.15714367 0.10925429 0.12590724 0.11031427
0.011428389 0.13100566 -0.10002641 -0.003241639 0.10027213 -0.0042487304 -0.0152867595 0.07298591
-0.03130791 0.051298592 -0.026751019 0.051080763 -0.047156326 -0.048021395 -0.197724 -0.14508669
-0.12730494 -0.0484359 -0.06267848 0.07272032 -0.06362307 0.035467073 0.08168006 -0.12941074

bias f4 [84]
00000000: dbc1 9a3a 0b3d a13c bc9c 4d3b 7861 ff39
00000010: 99d5 1b3c ae94 a13b 94ad 863c d32f 923c
00000020: aadc 333d 62d9 07bd 040d 4e3d a7b6 0abd
00000030: 02d7 bc3c a1eb c5bb b23c fe3b c4db b43c
00000040: c901 63bc def6 f03c 1368 2b3c 3bae 543c
00000050: 133f 53bc 5f9f b5bc 0591 d2bb cf15 533c
00000060: 215f ec3b 75ab ff3c 0e93 da3b 5c0c 3cbb
00000070: 9eca ba3b b845 a2bb 9c4f 033d f963 c43c
00000080: 2c6c 9f3c 9962 f43b 647d 26bc 9788 bb3b
00000090: 492c 163b 3f2a 43bc 0c8d dc3c cc17 ed3c
000000a0: 6dad 4dbb fd2f 1aba 4977 943c b8f9 283d
000000b0: 846d 87bc eb15 0f3c 6189 163b 84f4 aa3c
000000c0: a4ce b6bb ad35 273c 14e8 21bc e194 b2bc
000000d0: 46cb 003d 4f95 77bc b9a4 9b3c 0ecc a8bc
000000e0: 62b1 ad3b 8679 0b3d 0b38 eb3b 942d 94bc
000000f0: 0962 843c a667 2b3c 7b50 06ba 7346 2fbb
00000100: 3047 70bb c7a5 b0bb 62e1 49bb af44 a9bb
00000110: cb00 2dbd fcd6 393d 44c9 30bb db36 3fbc
00000120: df20 acbc 561a 6c3c 3b2a 503d 9f1c 803c
00000130: 0f6e 833c cd44 883c 7100 003d 07e5 143c
00000140: c84c cb3c 11eb 1c3d f049 ce3c 55fa b33c
0.0011807041 0.019682428 0.0031373939 0.0004871001 0.009511375 0.004931054 0.01644019 0.01784507
0.043911614 -0.033166297 0.05030538 -0.033865597 0.023051742 -0.006040052 0.0077587003 0.022077449
-0.013855406 0.02941459 0.010461825 0.012980993 -0.012893456 -0.02217072 -0.006425979 0.012883618
0.0072134887 0.031209687 0.0066703623 -0.002869389 0.0057004234 -0.004952159 0.032058343 0.023973452
0.01946076 0.007458043 -0.010161731 0.00572307 0.002291458 -0.011911928 0.026922725 0.028942011
-0.0031383887 -0.00058817846 0.018123286 0.041253775 -0.016531713 0.008733253 0.0022970068 0.020868547
-0.0055788327 0.010205668 -0.009881992 -0.021799507 0.031443857 -0.015111282 0.018999444 -0.020605113
0.0053006867 0.03405144 0.0071783117 -0.01808814 0.016160028 0.010461723 -0.0005123687 -0.0026744872
-0.0036663525 -0.005390856 -0.0030804505 -0.0051656584 -0.042237084 0.04537104 -0.0026975432 -0.011670793
-0.021011768 0.014410576 0.050821524 0.015638648 0.016043691 0.01663437 0.03125042 0.0090878075
0.024816886 0.038310114 0.02518174 0.021969954
