model1/model/top.pt (torch, 276631 bytes, 22 tensors)

weight f4 [6, 3, 5, 5]
0	0x3ce02980	0.027363539
1	0xbd9cb13f	-0.076509945
2	0xbd419eef	-0.04727071
3	0x3cf9663d	0.030444259
4	0xbdc7f445	-0.097633876
5	0x3d41dbab	0.047328632
6	0xbd7bcd33	-0.06147499
7	0xbe046401	-0.12928773
8	0xbd0b1e57	-0.03396448
9	0xbe224652	-0.15847138
10	0xbd8ebbab	-0.069693886
11	0x3cdd8694	0.02704171
12	0x3a916c9d	0.0011094991
13	0xbd083916	-0.033257566
14	0x3e1ac573	0.15114383
15	0xbc46db61	-0.012137265
16	0xbdea1617	-0.114299946
17	0xbda84b9f	-0.082175486
18	0x3e200f27	0.1563078
19	0x3d4a7f61	0.049437884
20	0xbe155ee4	-0.14586979
21	0x3db57a38	0.08861202
22	0x3df82da0	0.12118077
23	0xbcb2c3dd	-0.02182191
24	0xbcd1b1f2	-0.025597546
25	0x3c59330d	0.0132568
26	0x3d9ee6d9	0.077588744
27	0x3d170098	0.0368658
28	0xbe7c74a5	-0.24653871
29	0xbd9a2587	-0.07526689
30	0x3c62377e	0.013807176
31	0xbe614763	-0.21999888
32	0x38f86466	0.00011844262
33	0xbe1022d3	-0.14075784
34	0xbd9f19e6	-0.077686116
35	0x3c679556	0.014134726
36	0x3dd409a5	0.10353402
37	0xbe312a81	-0.1730137
38	0xbe49cf05	-0.19707878
39	0xbc83be05	-0.01608182
40	0xbdbd560f	-0.0924493
41	0x3a49892c	0.00076879817
42	0xbcc385cb	-0.023867508
43	0xbda7e817	-0.081985645
44	0xbd046a53	-0.03232796
45	0xbd7c3ecd	-0.06158333
46	0xbc087dc8	-0.00833077
47	0xbe315959	-0.1731924
48	0xbe06ca12	-0.13163021
49	0xbdd289a8	-0.10280162
50	0x3b132e37	0.0022457966
51	0x3c8204ea	0.015871484
52	0xbe44681a	-0.19180337
53	0xbcf3ac09	-0.029745119
54	0xbdd7ea86	-0.10542779
55	0x3dc28319	0.09497661
56	0x3d5a6155	0.05331548
57	0x3dcaa892	0.098954335
58	0xbe519126	-0.20465526
59	0x3d21ecf3	0.039532613
60	0xbe2d6f6f	-0.1693704
61	0xbd5a5a2f	-0.053308662
62	0x3dc26248	0.09491402
63	0x3d9ec72c	0.07752833
64	0xbd99e1c6	-0.07513766
65	0xbe0525b8	-0.1300267
66	0xbe2c22f4	-0.16810209
67	0x3d5eab88	0.054362804
68	0xbdd5d420	-0.1044085
69	0xbc175e87	-0.009238846
70	0xbdf1825e	-0.11792444
71	0xbdec0539	-0.11524434
72	0xbc815b1b	-0.015790513
73	0x3dab0194	0.083499104
74	0xbdd02f4c	-0.10165271
75	0xbd33dc14	-0.043911055
76	0x3ccfa37b	0.025346508
77	0x3db3af5f	0.08773684
78	0x3dc32679	0.095288225
79	0x3beefd5f	0.007293388
80	0xbcceea55	-0.025258223
81	0x3e2d8298	0.16944349
82	0xbd52db04	-0.0514784
83	0xbd1024f5	-0.035191495
84	0x3d4340bc	0.047669157
85	0x3da246fa	0.07923694
86	0x3d06688d	0.03281455
87	0xbdc45180	-0.095858574
88	0x3e0fe00c	0.14050311
89	0x3c9b6ab8	0.018971786
90	0x3c955280	0.018227816
91	0x3d959615	0.073040165
92	0xbd0faba9	-0.035075817
93	0x3dbc7b2b	0.0920318
94	0xbe586e60	-0.21135855
95	0x3cef13e4	0.02918429
96	0x3e356de2	0.17717698
97	0x3d73b26e	0.059496336
98	0xbd858107	-0.06518751
99	0xbe3a8e2c	-0.18218297
100	0x3dc5a8c4	0.0965133
101	0x3ce8c77f	0.02841544
102	0x3e29db55	0.16587575
103	0xbce172fc	-0.02752065
104	0x3dc75246	0.09732489
105	0xbdecfe22	-0.115719095
106	0xbe1b3520	-0.15156984
107	0x3d2b4403	0.041812908
108	0x3deb34d1	0.11484683
109	0x3d10dcd9	0.035366867
110	0x3c806ead	0.015677774
111	0x3d46b720	0.048514485
112	0x3d4205b7	0.04736873
113	0xbdf9e1ae	-0.12201248
114	0x3d0300a9	0.03198305
115	0x3c9b974d	0.018993044
116	0xb9f3ae61	-0.00046478494
117	0xbe37e1e4	-0.17957264
118	0xbd621cf4	-0.055203393
119	0xbe44abda	-0.19206181
120	0x3d8d79b2	0.06907977
121	0x3db51c56	0.08843295
122	0xbde5f085	-0.11227516
123	0xbc2f7033	-0.010707903
124	0x3cd12b87	0.02553345
125	0x3e0a923a	0.13532344
126	0x3e653b92	0.22386006
127	0x3e83345d	0.25625888
128	0x3dbf5204	0.09341815
129	0xbdfea1df	-0.12433218
130	0x3d34d216	0.044145666
131	0x3e8755ed	0.26432744
132	0x3d9c7e70	0.076413035
133	0xbdfc9fe8	-0.12335187
134	0xbdcc9729	-0.09989769
135	0x3dbc60c6	0.091981456
136	0x3db171b0	0.08664262
137	0xbcc4f7de	-0.024043974
138	0xbcdd4ddf	-0.02701467
139	0xbe2f5392	-0.17121723
140	0x3d28eed9	0.041243408
141	0x3df81193	0.12112727
142	0x3d90f99a	0.07078858
143	0x3b355a17	0.0027672106
144	0xbe49cc1a	-0.19706765
145	0x3da7f4a3	0.082009576
146	0x3e0bd4d9	0.13655414
147	0xbe07ccc7	-0.1326171
148	0x3d4819f4	0.048852876
149	0xbd51e593	-0.05124433
150	0x3d82c061	0.063843496
151	0xbd48d199	-0.049028013
152	0xbc633999	-0.013868713
153	0xbe0808a4	-0.13284546
154	0x3dc85572	0.097819224
155	0x3e46aa92	0.19401005
156	0x3dabad04	0.083826095
157	0xbd29c5f1	-0.041448537
158	0xbd90d99d	-0.070727564
159	0x3e0859dd	0.1331553
160	0x3d540197	0.05175933
161	0xbd54ab30	-0.05192107
162	0xbe1e9156	-0.15485129
163	0xbdb11958	-0.08647412
164	0x3ccd1907	0.025036348
165	0x3d8892ee	0.066686496
166	0xbe0c8a5b	-0.13724653
167	0x3d329c2b	0.043605965
168	0xbe6034e1	-0.21895172
169	0xbd4b9c77	-0.049709763
170	0x3dbfe737	0.093702726
171	0x3c8f4168	0.017487243
172	0xbdb777c2	-0.08958389
173	0x3decd8d9	0.11564798
174	0x3de9c042	0.114136234
175	0xbdd56217	-0.104191
176	0x3d984de6	0.07436733
177	0xbc0e2672	-0.008676158
178	0x3dfa544e	0.12223111
179	0x3cf3c16f	0.029755322
180	0x3e500391	0.2031386
181	0xbd92a5e9	-0.07160551
182	0x3df7bc78	0.120964944
183	0x3b27f8c0	0.0025630444
184	0x3e4ab038	0.19793785
185	0x3e376339	0.17908944
186	0xbdde5813	-0.108566426
187	0xbe47d091	-0.19513156
188	0xbd3e0283	-0.046389114
189	0x3c898e43	0.016791468
190	0xbd789bab	-0.06069533
191	0xbe00cddf	-0.12578534
192	0xbe266b01	-0.16251756
193	0x3c60437b	0.013687964
194	0xbdd19023	-0.1023257
195	0xbdb861ad	-0.09003005
196	0xbd849c43	-0.06475117
197	0x3e0b614b	0.13611333
198	0x3e178d35	0.1479996
199	0xbdd437b6	-0.103621885
200	0x3e1b2fea	0.15154997
201	0xbe34d6ca	-0.1766006
202	0x3dd3a63c	0.10334441
203	0x3c871633	0.016490078
204	0x3e1fdd8a	0.15611854
205	0x3e00c9b5	0.12576945
206	0xbc5de289	-0.01354278
207	0xbc7ee668	-0.015557863
208	0xbe3189a3	-0.1733766
209	0xbd544752	-0.05182583
210	0x3db701a0	0.08935857
211	0xbe07bfa6	-0.13256702
212	0xbdd6712c	-0.104708046
213	0xbe3ee96e	-0.18643734
214	0x3e2ddfbd	0.1697988
215	0xbcf8abc5	-0.030355344
216	0x3c613547	0.013745612
217	0x3de0a40c	0.109687895
218	0xbd880191	-0.06640924
219	0xbd9da41c	-0.07697317
220	0x3e17b737	0.14815985
221	0xbe11beaa	-0.14232889
222	0x3d6169f4	0.055032685
223	0xbda5253b	-0.08063742
224	0x3dd155ec	0.102214664
225	0x3df47193	0.11935725
226	0xbc66dd5f	-0.014090865
227	0x3d527f9f	0.05139124
228	0xbe3f205d	-0.1866469
229	0xbe18cb98	-0.14921415
230	0x3dd034b5	0.10166303
231	0x3dcc0010	0.099609494
232	0x3d279f0d	0.040923167
233	0xbd99223c	-0.07477233
234	0xbdf167bf	-0.11787366
235	0x3a2fbc81	0.00067038095
236	0x3dccb6ee	0.099958286
237	0xbe341c7c	-0.17588991
238	0x3ddc10ff	0.10745429
239	0xbe32c59d	-0.17458196
240	0x3de6c191	0.112673886
241	0xbd296ab1	-0.041361514
242	0xbdaab42d	-0.08335147
243	0xbce0217a	-0.027359713
244	0x3e101de0	0.14073896
245	0x3d59cafd	0.0531721
246	0xbdc8ae90	-0.0979892
247	0x3d030571	0.03198761
248	0x3df05b2c	0.1173614
249	0xbdb9502e	-0.09048496
250	0x3e2ece30	0.17070842
251	0x3d446ac6	0.04795339
252	0x3d76d78f	0.060264166
253	0xbe1aa881	-0.15103342
254	0xbe74cfc3	-0.2390738
255	0xbdad0da1	-0.08449865

bias f4 [6]
0	0xbbbffe30	-0.005859159
1	0xba32cc86	-0.00068206375
2	0x3c72e5ed	0.014825326
3	0x3cff8e24	0.031195708
4	0xbcae23e2	-0.021257345
5	0xbc483220	-0.012218982

weight f4 [6]
0	0x3f6f6e36	0.93527544
1	0x3f45a05e	0.77197826
2	0x3f7a042d	0.9766262
3	0x3f91ddd2	1.1395819
4	0x3f717c1a	0.9432999
5	0x3f8de14b	1.1084379

bias f4 [6]
0	0xbe7a23f9	-0.24427785
1	0xbe37f0d5	-0.17962964
2	0xbd9acf09	-0.0755902
3	0xbe9238af	-0.2855887
4	0xbeb4cd10	-0.353127
5	0xbe7c3fc3	-0.24633698

running_mean f4 [6]
0	0x3f8b5d50	1.0887852
1	0xbedca6eb	-0.43096098
2	0xbc3b452d	-0.011430067
3	0x3e95275a	0.29131585
4	0x3ec2ef1c	0.3807305
5	0x3e8ba321	0.27272895

running_var f4 [6]
0	0x404a8c77	3.1648233
1	0x3f64c6ac	0.8936565
2	0x3e048fd3	0.1294549
3	0x3ed7f1b5	0.42176595
4	0x3f2caed4	0.67454267
5	0x3ed95777	0.42449543

weight f4 [16, 6, 5, 5]
0	0x3d57e8cc	0.052712247
1	0x3c457c5a	0.0120535735
2	0xbb1e9f0b	-0.0024203684
3	0xbda641ff	-0.081180565
4	0x3d0571c6	0.032579206
5	0x3e0d98e9	0.13827862
6	0x3d87d171	0.06631745
7	0xbd220e9d	-0.039564718
8	0x3ce95db9	0.028487073
9	0xbd411f82	-0.04714919
10	0x3dcdd622	0.10050608
11	0xbd172228	-0.03689781
12	0xbdc6d868	-0.09709245
13	0x3b34b122	0.00275714
14	0x3d90fa80	0.07079029
15	0xbb91c94b	-0.004449045
16	0x3d8257c2	0.06364395
17	0x3d94b3e4	0.07260874
18	0x3d957508	0.072977126
19	0xbdb81779	-0.08988852
20	0xbc11d4f1	-0.008900867
21	0x3c574710	0.013139501
22	0xbd482642	-0.04886461
23	0x3bd961e6	0.006633985
24	0x3bc82d89	0.006108944
25	0xbcec87e3	-0.02887339
26	0xbd080e5a	-0.03321681
27	0x3d1b7e31	0.037962142
28	0x3cc32cf1	0.02382514
29	0xbd1d8d33	-0.038464736
30	0xbda2a91d	-0.07942412
31	0x3d84715d	0.06466935
32	0xbde27354	-0.11057153
33	0x3d2d11f1	0.04225344
34	0xbd1f5709	-0.038901363
35	0xbdb8e7b9	-0.090285726
36	0x3cd46a1e	0.025929507
37	0x3d04cb96	0.032420717
38	0xbd3e3173	-0.046433877
39	0x3e008248	0.12549698
40	0x3da14904	0.07875255
41	0x3d8a5f36	0.06756441
42	0x3da713eb	0.08158096
43	0xbc988769	-0.018619256
44	0x3c7e935c	0.015538063
45	0x3c1df09e	0.009639887
46	0xbcdd60d3	-0.027023708
47	0x3c97ff46	0.018554341
48	0xbd22d07b	-0.039749604
49	0xbd7b2936	-0.0613186
50	0x3cbca1fe	0.023026463
51	0x3e04bd7d	0.12962909
52	0x3e12e831	0.14346386
53	0x3db4ef65	0.088347234
54	0x3e21db82	0.15806392
55	0xbe077a40	-0.13230228
56	0xbca64494	-0.020296372
57	0xbe0af548	-0.1357013
58	0xbdc61417	-0.096718006
59	0xbd74e941	-0.05979276
60	0xbd852562	-0.06501271
61	0xbe05f61a	-0.13082162
62	0xbddc609c	-0.10760614
63	0xbc32e08a	-0.010917792
64	0xbe0932e3	-0.13398318
65	0x3d002d53	0.031293225
66	0x3d93b658	0.07212514
67	0x3d67b6ee	0.05657094
68	0x3d0622b7	0.03274795
69	0xbcfd60b2	-0.030929897
70	0x3cf33ca5	0.029692004
71	0x3d0680bf	0.032837626
72	0xbc29704c	-0.010341715
73	0x3d7761c6	0.06039598
74	0xbd3026af	-0.04300564
75	0xbd83e32c	-0.06439814
76	0xbd6b0f08	-0.05738738
77	0xbd69b1d0	-0.05705434
78	0xbd188f5e	-0.0372461
79	0xbdfa0af8	-0.122091234
80	0x3db6072f	0.08888089
81	0x3d9e01ad	0.077151634
82	0x3e0d49f8	0.13797748
83	0xbcea4712	-0.028598342
84	0x3d98f13d	0.074678876
85	0x3d9185b0	0.07105577
86	0xbdc237a6	-0.0948327
87	0x3bfa17fd	0.007632254
88	0x3d19cdc4	0.03754975
89	0x3d7196b4	0.058981612
90	0xbdd41a0c	-0.103565305
91	0xbdcff96f	-0.101549976
92	0xbd2a447b	-0.041569214
93	0xbd42699c	-0.047464
94	0xbd1699d1	-0.036767785
95	0x3ce400bd	0.027832383
96	0x3dabe14b	0.083925806
97	0xbd8d85b3	-0.06910267
98	0xbd080820	-0.033210874
99	0xbe35fed4	-0.1777299
100	0x3c5a5b91	0.013327495
101	0xbd26ea31	-0.040750686
102	0x3c2222de	0.009896008
103	0xbd1cec55	-0.03831132
104	0x3d1a7ddf	0.037717696
105	0x3d121071	0.03566021
106	0x3db6e6da	0.0893075
107	0x3ddf56ad	0.10905204
108	0x3dcfbdca	0.10143621
109	0x3da1c2dd	0.07898495
110	0x3d368de9	0.04456893
111	0x3c703815	0.0146618085
112	0xbceea978	-0.029133543
113	0x3d8a300c	0.067474455
114	0x3dabac99	0.0838253
115	0xbdd99c0f	-0.10625469
116	0xbd5bba0d	-0.05364423
117	0xbd8611a8	-0.065463364
118	0xbce3234b	-0.02772679
119	0xbd5ccd57	-0.053906765
120	0xbd85ede9	-0.065395184
121	0x3dce86d2	0.10084309
122	0x3aed3e44	0.0018100222
123	0x3cdd328b	0.02700164
124	0xbd6cfb73	-0.05785699
125	0xbe784ca6	-0.24247989
126	0xbd98bc2d	-0.07457767
127	0xbd99871d	-0.07496474
128	0xbdcd6ee7	-0.100309186
129	0x3de12f03	0.10995295
130	0xbc1d3950	-0.009596184
131	0x3c01330b	0.007885705
132	0xbcb993b5	-0.02265344
133	0x3dee41af	0.11633622
134	0x3e197b13	0.14988355
135	0xbcea419d	-0.02859574
136	0x3db67996	0.089099094
137	0xbd940d90	-0.07229149
138	0xbdf79197	-0.12088316
139	0xbd28b959	-0.041192386
140	0xbdcd59e9	-0.100269146
141	0x3c249ca3	0.010047111
142	0xbe03dc7e	-0.1287708
143	0xbdc39bee	-0.095512256
144	0xbc3abdc5	-0.011397784
145	0x3d7214a5	0.05910172
146	0xbd89e000	-0.06732178
147	0x3d9ee160	0.077578306
148	0x3d148fdb	0.036270004
149	0x3d4638a7	0.04839387
150	0xbd37444b	-0.044742864
151	0xbd8d8b24	-0.069113046
152	0xbd81189b	-0.06303521
153	0x3d5aeb20	0.05344689
154	0xbdb93668	-0.0904358
155	0xbd4c6fc4	-0.049911276
156	0x3d170fe6	0.036880396
157	0x3e05e53f	0.13075732
158	0x3ce08859	0.027408766
159	0xbd904bd5	-0.07045714
160	0x3cf0edcf	0.029410271
161	0x396d3c1c	0.00022624474
162	0x3d778edb	0.060438972
163	0xbc1d3e15	-0.009597321
164	0xbda6e210	-0.08148587
165	0x3dc80b10	0.09767735
166	0xbb6ee585	-0.0036452722
167	0x3e104119	0.14087333
168	0x3dde38ed	0.108507015
169	0xbb50daea	-0.0031868764
170	0x3e53bd4a	0.20677677
171	0x3b4d07e4	0.003128522
172	0x3dc73ad1	0.09728015
173	0x3ddb4512	0.107065335
174	0xbd435022	-0.047683842
175	0x3dd210a0	0.10257077
176	0x3beaab2e	0.0071615195
177	0xbda2c636	-0.07947962
178	0x3aa07ac7	0.0012243622
179	0x3d935720	0.07194352
180	0x3dc62f83	0.09677031
181	0x3dde8b48	0.108664095
182	0xbc38e8ac	-0.011285942
183	0xbd876289	-0.06610591
184	0x3cd89acd	0.026441002
185	0xbc92c997	-0.017918391
186	0xbda3a614	-0.07990661
187	0x3c9b1901	0.018932821
188	0x3d18e477	0.037327256
189	0x3d5f458c	0.054509684
190	0xbdceb478	-0.100930154
191	0xbd0e962b	-0.03481118
192	0x3ca2e70e	0.019885566
193	0xbc004b7d	-0.007830498
194	0xbd8e6807	-0.069534354
195	0xbd4ced62	-0.050031073
196	0xbca80128	-0.020508364
197	0xbd8ba443	-0.0681844
198	0xbc41b7e0	-0.011823624
199	0x3d4bba6f	0.049738344
200	0xbc9d721a	-0.019219447
201	0xbdcce8a7	-0.100053124
202	0x3e000a77	0.12503992
203	0x3d5f3229	0.054491196
204	0xbe294dcd	-0.16533585
205	0x3d9fb8d9	0.07798929
206	0xbdd51a35	-0.10405389
207	0x3d81b505	0.06333355
208	0x3d99f0dd	0.07516644
209	0xbdaed72b	-0.08537134
210	0xbc1102a2	-0.008850725
211	0x3d86c87e	0.065812096
212	0x3d4f3bfa	0.050594307
213	0x3da9b62a	0.08286698
214	0x3d2fd9ce	0.042932324
215	0xbd54ab30	-0.05192107
216	0xbd94235c	-0.07233307
217	0xbd166375	-0.036715943
218	0xbd77d0a8	-0.060501724
219	0xbc3ca1df	-0.011513202
220	0x3e41a535	0.18910678
221	0x3e0fcea8	0.14043677
222	0xbcb1b475	-0.021692494
223	0xbc257d16	-0.010100624
224	0xbdb37b8b	-0.08763798
225	0xbe052a69	-0.1300446
226	0x3be66c64	0.007031964
227	0x3b82166a	0.003969957
228	0xbe1b4965	-0.15164717
229	0xbe2a2c7c	-0.16618532
230	0xbd7129f2	-0.058877893
231	0xbdb2acd8	-0.087243736
232	0xbd05fb1b	-0.032710176
233	0x3d8dae32	0.06917991
234	0xbccaec63	-0.024770921
235	0x3cc0d5d1	0.023539456
236	0xbd968847	-0.073502116
237	0x3cea70f2	0.02861831
238	0xbdcd5d71	-0.10027588
239	0xbcc84dbc	-0.02445113
240	0x3cc5be9b	0.02413874
241	0x3d9b34be	0.07578419
242	0xbd97ccf0	-0.074121356
243	0x3cdb1d31	0.026747318
244	0xbd36789f	-0.044548627
245	0xbccd6854	-0.025074162
246	0xbdf1e0e7	-0.11810475
247	0xbe01c41d	-0.12672468
248	0xbd6a71a3	-0.05723728
249	0x3d57ca73	0.052683305
250	0xbdd61f24	-0.10455158
251	0xbd9b9ccb	-0.07598265
252	0xbca3553d	-0.019938106
253	0x3c7fdcc8	0.015616603
254	0xbd8551a8	-0.06509715
255	0x3cc39893	0.023876464

bias f4 [16]
0	0x3d3519f5	0.044214208
1	0x3d0d88e6	0.034554385
2	0xbd0cae17	-0.034345713
3	0xbc41b935	-0.011823942
4	0xbd1405e2	-0.036138423
5	0x3cd81ee7	0.026381923
6	0xbd0348b3	-0.032051753
7	0x3ca23ef6	0.019805413
8	0x3d2dbd23	0.042416703
9	0x3c7a2257	0.015266976
10	0x3d7e538f	0.062091406
11	0xbc062619	-0.008187794
12	0xbca77cfd	-0.020445341
13	0xbc44bcbd	-0.012007889
14	0xbcd5fbec	-0.026121102
15	0x3be251e8	0.0069067366

weight f4 [16]
0	0x3f8b249c	1.0870547
1	0x3f74f311	0.9568339
2	0x3f856a3d	1.0423046
3	0x3f3b2909	0.7310949
4	0x3f803244	1.001534
5	0x3f7df045	0.9919475
6	0x3f59f8f2	0.85145485
7	0x3f8dd03c	1.1079173
8	0x3f8b2ec6	1.0873649
9	0x3f824025	1.0175825
10	0x3f82b9ee	1.0212991
11	0x3f805e7f	1.0028838
12	0x3f6ddfdc	0.9291971
13	0x3f814996	1.0100582
14	0x3f762b54	0.96159863
15	0x3f7ab994	0.9793942

bias f4 [16]
0	0xbe342555	-0.17592366
1	0xbcdd0d3b	-0.026983848
2	0xbd36bf7f	-0.04461622
3	0xbe9d8cb1	-0.30771402
4	0xbe401844	-0.18759257
5	0xbe4027b1	-0.18765141
6	0xbec3b38f	-0.3822293
7	0x3ca5b0be	0.020225879
8	0x3d90d2d3	0.070714615
9	0xbdf0cf7c	-0.117583245
10	0x3c3fb468	0.011700727
11	0x3c0cc2f6	0.008591404
12	0xbe09c567	-0.1345421
13	0xbd2e8bad	-0.042613674
14	0xbe389eb8	-0.18029296
15	0xbe50714b	-0.20355718

running_mean f4 [16]
0	0xbdfee950	-0.124468446
1	0xbe402bfa	-0.18766776
2	0xbecced22	-0.40024668
3	0x3e9a701f	0.30163667
4	0xbe01299a	-0.12613526
5	0x3e0267cb	0.12734906
6	0x3f223288	0.63358355
7	0xbc0f18f2	-0.008733975
8	0xbe655c3d	-0.22398467
9	0xbd7d801e	-0.06188976
10	0xbe621293	-0.22077398
11	0xbdc57e67	-0.0964325
12	0xbe524110	-0.20532632
13	0xbdab6274	-0.08368388
14	0xbe2bf722	-0.16793492
15	0xbe1b6e9b	-0.15178911

running_var f4 [16]
0	0x3e0f6d4b	0.14006536
1	0x3e8996ef	0.26872966
2	0x3e6dca74	0.23221761
3	0x3e063389	0.13105597
4	0x3e36d93b	0.17856304
5	0x3dda26a0	0.106518984
6	0x3ec6ce0e	0.38829082
7	0x3ded4834	0.11586037
8	0x3e89c322	0.26906687
9	0x3db17a42	0.08665897
10	0x3ea7a86d	0.32745686
11	0x3dcf8af0	0.10133922
12	0x3e333e0d	0.17504139
13	0x3e0973ca	0.13423076
14	0x3dfa00a6	0.12207155
15	0x3e0dbd06	0.13841638

weight f4 [120, 16, 5, 5]
0	0xbd2f4a59	-0.042795513
1	0x3df56102	0.119813934
2	0x3dae1327	0.08499747
3	0xbd06584e	-0.032799058
4	0xbe0035fd	-0.12520595
5	0xbda39544	-0.079874545
6	0xbd1b8f48	-0.03797844
7	0xbdb9b39b	-0.0906746
8	0xbd14dc22	-0.036342748
9	0xbcfdb641	-0.030970694
10	0x3c820725	0.015872547
11	0x3d4b3505	0.04961111
12	0x3d87c40a	0.06629188
13	0x3cc28fc9	0.023750203
14	0xbcb4264e	-0.021990921
15	0x3d45fd8d	0.048337508
16	0x3bf88e62	0.0075853327
17	0xbc95fda7	-0.018309427
18	0x3cc735e4	0.02431769
19	0x3d9228e9	0.07136709
20	0xbdd6a6d5	-0.104810394
21	0xbd10ddee	-0.0353679
22	0xbb12dd0d	-0.0022409589
23	0xbc979ac6	-0.018506419
24	0xbdcdabd2	-0.10042538
25	0x3d19cc0d	0.037548114
26	0xbc2415fb	-0.010015006
27	0x3dcd0626	0.10010938
28	0x3caa97af	0.020824281
29	0x3d0fe014	0.035125807
30	0xbb079b9d	-0.0020692118
31	0x3b8d2d40	0.0043083727
32	0x3da56a96	0.0807697
33	0x3cf8b4df	0.030359684
34	0xbba5d406	-0.0050606756
35	0xbc28a675	-0.010293593
36	0xbccbc9ac	-0.024876438
37	0xbd1b612a	-0.03793446
38	0xbccdeeae	-0.025138225
39	0x3c30f14f	0.01079972
40	0x3d00a860	0.031410575
41	0xbd3d04f7	-0.046147313
42	0xbd80336c	-0.06259808
43	0xbcabf5eb	-0.020991286
44	0xbc982516	-0.018572371
45	0x3d2cf356	0.04222425
46	0xbc32eaba	-0.010920221
47	0xbc0e55ce	-0.00868745
48	0xbc77ff5b	-0.015136565
49	0xbe1b833e	-0.15186784
50	0x3cf74503	0.030184275
51	0xbd252a82	-0.04032374
52	0xbc71b70b	-0.0147531135
53	0x3b8b4135	0.0042497166
54	0xbd1fb208	-0.038988143
55	0xbd3677b1	-0.04454774
56	0x3d0e5cfe	0.034756653
57	0x3b6472fd	0.0034858577
58	0x3de53959	0.11192579
59	0xbd1855ca	-0.03719119
60	0xbbebf093	-0.0072003095
61	0xbd18e475	-0.03732725
62	0x3d41cacf	0.047312554
63	0x3cc9266a	0.02455445
64	0xbd352668	-0.04422608
65	0x3d55eca6	0.05222764
66	0x3d891ec2	0.0669532
67	0x3d7856e3	0.060629737
68	0xba4db00b	-0.0007846362
69	0xbd1f60b9	-0.0389106
70	0x3c8e53fd	0.017374033
71	0xbc528cdc	-0.012850966
72	0x3d5184a9	0.051151905
73	0xbd241e7d	-0.04006814
74	0x3d44a680	0.04801035
75	0xba9f7299	-0.001216489
76	0x3d27ff82	0.041015156
77	0xbd11d486	-0.03560307
78	0xbcd3bcf0	-0.025846928
79	0xbd406354	-0.046969727
80	0x3d037e3b	0.032102805
81	0xbc581e5e	-0.013190834
82	0x3d4c7216	0.04991349
83	0xbcc3af1b	-0.023887208
84	0xbcf592d4	-0.02997724
85	0x3bcae07e	0.0061913123
86	0xbd1ca5f1	-0.03824419
87	0xbc25a2c4	-0.010109607
88	0x3c445705	0.011983638
89	0x3b9d4505	0.0047994875
90	0xbd2130fd	-0.03935336
91	0x3bc9a749	0.006153975
92	0xbceb53d4	-0.028726496
93	0x3cc0516b	0.023476323
94	0x39ca2b43	0.00038560675
95	0xbcacda19	-0.02110009
96	0x3b0fd8ea	0.002194936
97	0xbb1ec0bd	-0.0024223768
98	0xbcf210f1	-0.029549094
99	0x3d36d8a9	0.044640217
100	0xbd8236d3	-0.06358113
101	0xbd817db9	-0.06322808
102	0xbd4d780c	-0.050163314
103	0x3d67633c	0.05649112
104	0x3c932571	0.01796219
105	0x3d1b4da5	0.037915844
106	0xbc8dcd62	-0.017309848
107	0xbd0fae9f	-0.03507864
108	0xbc7d2457	-0.015450559
109	0xbcc9a43e	-0.02461445
110	0x3d926eeb	0.07150062
111	0x3cee356e	0.029078212
112	0xbd283dcb	-0.041074555
113	0x3c60815c	0.013702717
114	0x3c57201f	0.013130217
115	0x3d0f7834	0.035026744
116	0x3caf475c	0.021396331
117	0xbd1656fe	-0.036704056
118	0x3db9d18f	0.09073173
119	0xbc9379be	-0.018002387
120	0xbd0481f2	-0.032350488
121	0x3ca02f80	0.0195539
122	0x3b829691	0.003985234
123	0x3d7f8593	0.062383246
124	0x3cf88115	0.030334989
125	0x3c665960	0.014059395
126	0x3c0ff52d	0.008786482
127	0x3d0db481	0.03459597
128	0xbc23f1ce	-0.010006381
129	0xbb55a925	-0.0032602039
130	0xbc9ec72c	-0.019382082
131	0xbd729fcb	-0.05923442
132	0xbdb2875f	-0.08717226
133	0xbddf458a	-0.109019354
134	0xbdcebb67	-0.10094338
135	0x3b61a9ae	0.0034433412
136	0xbd6b27e8	-0.057411104
137	0x3b3b1cb5	0.0028551046
138	0x3a7d92ce	0.00096730597
139	0xbc75446a	-0.014969924
140	0x3d278cb7	0.04090568
141	0xbd278340	-0.040896654
142	0xbcea7428	-0.02861984
143	0x3cab7c31	0.020933243
144	0xbdb1f0f8	-0.08688539
145	0xbd551be2	-0.052028544
146	0xbd46e0ba	-0.04855416
147	0xbd5c5af2	-0.05379767
148	0xbd7960cb	-0.060883325
149	0xbdb75ac2	-0.089528576
150	0xbcc01ba9	-0.02345069
151	0x3cd465f5	0.025927523
152	0x3d21837e	0.03943204
153	0xbbc16564	-0.0059019793
154	0xbcbf5987	-0.02335812
155	0xbcbd72d7	-0.023126049
156	0xbd8d0279	-0.06885237
157	0xbd9de4d7	-0.07709663
158	0xbd52ddb5	-0.051480968
159	0xbca9fb6b	-0.020749768
160	0xbd1c12b6	-0.03810378
161	0x3c1019db	0.008795227
162	0xbd3728a6	-0.0447165
163	0xbd00515f	-0.0313276
164	0x3ce3931d	0.02778011
165	0x3d1c5743	0.038169157
166	0xbb5da1f4	-0.0033818455
167	0xbb6ca866	-0.0036111115
168	0x3c363578	0.011121146
169	0xbb54fa0a	-0.0032497668
170	0xb975bee1	-0.00023436129
171	0x3bd39dc1	0.0064580147
172	0xbc69e838	-0.014276557
173	0x3d6990d3	0.05702288
174	0xbc8563f0	-0.016283005
175	0x3da15e1a	0.078792766
176	0xbd75f507	-0.06004813
177	0xbd7f9afd	-0.062403668
178	0xbdaab775	-0.08335773
179	0xbdc27af2	-0.09496106
180	0xbc8dc16e	-0.017304149
181	0x3c9e600e	0.019332912
182	0xbd8bba59	-0.06822652
183	0x3d73197c	0.059350476
184	0xbc46f8d0	-0.012144282
185	0x3d2c38d2	0.042046376
186	0xbcf06ca1	-0.029348673
187	0x3c09912a	0.008396426
188	0x3d5333f0	0.051563203
189	0xbda410cf	-0.080110185
190	0x3c396590	0.011315718
191	0x3d4bbc72	0.049740262
192	0x3db3f3bf	0.08786725
193	0x3d20bb44	0.03924109
194	0xbc5232e0	-0.012829512
195	0x3b21dbf5	0.0024697755
196	0x3abc94d4	0.0014387616
197	0x3c9fb050	0.019493252
198	0x3ddff8a5	0.10936097
199	0x3c863baf	0.016385881
200	0x3ced57c4	0.028972514
201	0x3cf78350	0.030213982
202	0x3d88953b	0.066690885
203	0xbc8bd63a	-0.017069925
204	0x3cdfd807	0.02732469
205	0x3c6744dd	0.014115539
206	0x3c139108	0.009006746
207	0x3af569e8	0.0018723579
208	0xbbaddcde	-0.0053058704
209	0xbdc4e2cd	-0.09613571
210	0x3c1b7bb4	0.009489942
211	0x3d139542	0.036031015
212	0x3d2914e6	0.041279696
213	0xbc922794	-0.017841138
214	0x3d3e7b31	0.046504203
215	0x3c04cb8c	0.00810517
216	0x3d14d800	0.036338806
217	0x3d5449d4	0.05182822
218	0x3d015512	0.03157527
219	0x3d24b4dd	0.040211547
220	0x3cba185e	0.022716697
221	0x3d8342e4	0.06409243
222	0xbd5d6fdd	-0.05406176
223	0xbce7dbea	-0.028303105
224	0xbd025721	-0.031821374
225	0x3d7cb00f	0.06169134
226	0x3c9975b8	0.01873289
227	0xbd981708	-0.07426268
228	0xbd66c6fe	-0.056342117
229	0x3b5b347b	0.003344803
230	0x3b9338f2	0.0044928724
231	0x3b298596	0.0025866977
232	0x3b375234	0.002797258
233	0x3c09dc72	0.008414375
234	0xbd0f8d34	-0.03504677
235	0xbc5fbc5e	-0.01365575
236	0xbd98a50f	-0.074533574
237	0xbd8af2a7	-0.067845635
238	0xbccdf86b	-0.025142869
239	0x3d182a3f	0.037149664
240	0xbd83c2ae	-0.064336166
241	0x3d338eec	0.043837473
242	0x3cf442c3	0.02981699
243	0x3cf48762	0.029849712
244	0x3d300208	0.042970687
245	0x3c17756b	0.009244303
246	0xbb3bb10a	-0.002863946
247	0xbc309b5d	-0.010779229
248	0xbd2cffa1	-0.042235974
249	0x3d5c9046	0.053848527
250	0xbc07037f	-0.00824058
251	0x37209a52	9.572674e-06
252	0x3cd6b841	0.026210906
253	0xbd335555	-0.04378255
254	0x3d899b4c	0.06719074
255	0xbd3333d1	-0.043750588

bias f4 [120]
0	0xbbef6df8	-0.0073068105
1	0x3c2dd39e	0.0106095355
2	0xb904f306	-0.00012679034
3	0xbc0ff27f	-0.008785843
4	0x3c26119c	0.010136034
5	0x3c5e51c3	0.013569298
6	0xbb16b046	-0.002299325
7	0xbb88bb9b	-0.004172755
8	0x3c061a11	0.008184926
9	0x3c0a96bc	0.008458789
10	0xbac10a4e	-0.0014727802
11	0x3bf4e24f	0.007473267
12	0x3c3d7922	0.011564525
13	0x3bbb19d3	0.0057098656
14	0x3bc8215d	0.006107493
15	0xb9e8bd90	-0.00044391723
16	0x3b0fd4d5	0.0021946926
17	0x3aae28e4	0.0013287333
18	0xbc1aebaf	-0.009455605
19	0xbc233ffe	-0.009963987
20	0x3ccb532b	0.024819931
21	0x3c6e921a	0.0145612005
22	0xbbb84a85	-0.005624118
23	0xbb922aff	-0.004460692
24	0xbc15605b	-0.009117211
25	0xbc4491c6	-0.011997646
26	0xbbe0718c	-0.0068494733
27	0x3bf1288d	0.0073595704
28	0xbb977f45	-0.004623326
29	0xbc80e126	-0.01573236
30	0x3aca62dc	0.0015440839
31	0x3b959c9b	0.004565788
32	0x3ac2c996	0.0014861103
33	0x3b106689	0.0022033772
34	0xbbf1c77f	-0.007378518
35	0x3b3a1ff9	0.0028400405
36	0xbb78aa19	-0.0037943183
37	0xbbdffe84	-0.0068357605
38	0xbc22a506	-0.00992704
39	0xbc3cea6e	-0.011530502
40	0x3be75988	0.0070602335
41	0x39144033	0.00014138296
42	0xbb6a0391	-0.0035707692
43	0x3b794733	0.0038036823
44	0x3b92ab19	0.004475963
45	0x3c863674	0.016383387
46	0x3b94285f	0.004521414
47	0x3adb7b96	0.0016745206
48	0x3c281955	0.010259946
49	0x390949e8	0.0001309287
50	0x3bb095df	0.00538896
51	0x3c36a3bc	0.011147436
52	0x3b379c1d	0.0028016635
53	0xbb6b8f35	-0.0035943512
54	0xbbf88f21	-0.0075854217
55	0x3ba62e54	0.0050714407
56	0xb9376c44	-0.00017492572
57	0xb9f4d8c1	-0.000467008
58	0x3bb90286	0.005646053
59	0x3a919412	0.001110675
60	0x39aef25b	0.00033368435
61	0x3b848974	0.004044706
62	0xbb50e941	-0.0031877311
63	0x3b7b2a2e	0.0038324702
64	0xbb391183	-0.0028239198
65	0x3a4222f5	0.00074057217
66	0xbc1ba0bc	-0.009498771
67	0x3b7198c5	0.003686474
68	0xbbf91c59	-0.0076022563
69	0xbb8e124d	-0.0043356777
70	0x3aa5b1a7	0.0012641446
71	0xbbc1f278	-0.005918797
72	0xbb340917	-0.0027471238
73	0x3c8e6b1a	0.017385054
74	0x3c32eff7	0.01092147
75	0xb9ef23b3	-0.0004561223
76	0xbb4cefb6	-0.0031270809
77	0xbb7be652	-0.0038436842
78	0x3be22521	0.0069013988
79	0x3a67ff5e	0.00088500034
80	0xbc72980a	-0.014806757
81	0xbbfd6c79	-0.007733878
82	0x3bd7cca9	0.0065856767
83	0x3ab10e2f	0.0013508255
84	0xbabc42bb	-0.0014363149
85	0x3a000910	0.0004884163
86	0x3af7ae9c	0.0018896642
87	0x3c5cd359	0.013478124
88	0xbc4486d9	-0.011995041
89	0x3bddb750	0.0067662373
90	0xba90d41a	-0.0011049539
91	0x39db91d7	0.00041879594
92	0x3b2f22f6	0.002672372
93	0xbb8e55e0	-0.004343733
94	0x3c1b3e36	0.009475281
95	0xbb3cd9d4	-0.002881636
96	0x3bd830a2	0.0065975944
97	0xbb824673	-0.0039756834
98	0xbb1e8b82	-0.002419204
99	0x3c09e9aa	0.008417526
100	0x3bd69dd7	0.0065495777
101	0xbb2baea7	-0.002619663
102	0x3be1571e	0.0068768403
103	0x3b03626e	0.0020047682
104	0xbc118d75	-0.008883824
105	0x3bf3250d	0.0074201883
106	0x3a7a1164	0.00095393346
107	0x372c5775	1.0272362e-05
108	0x3ad1afaa	0.0015997787
109	0x3c305188	0.010761626
110	0xbc10f706	-0.0088479575
111	0x3c1b1ace	0.00946684
112	0xbbf77cb2	-0.0075527066
113	0xbc505a59	-0.012716853
114	0xbc1b62d3	-0.009484011
115	0x3b80533e	0.0039161732
116	0x3b1f95c1	0.0024350735
117	0x3c414599	0.0117963785
118	0xbb1396ec	-0.0022520376
119	0xbac6bc6f	-0.0015162359

weight f4 [120]
0	0x3f83dfdd	1.0302693
1	0x3f8370ab	1.0268759
2	0x3f873818	1.0563993
3	0x3f7c3b2e	0.985278
4	0x3f80bbe3	1.0057338
5	0x3f863d61	1.0487481
6	0x3f816327	1.0108384
7	0x3f83cdd5	1.029719
8	0x3f82b8dd	1.0212666
9	0x3f7b7bff	0.9823608
10	0x3f83480c	1.0256362
11	0x3f88e45f	1.0694693
12	0x3f89f62b	1.077825
13	0x3f82f28a	1.0230267
14	0x3f883789	1.0641948
15	0x3f842ab8	1.0325537
16	0x3f8abf48	1.0839624
17	0x3f8209d5	1.015925
18	0x3f8a6e5b	1.0814928
19	0x3f7e210a	0.99269164
20	0x3f8642e4	1.0489163
21	0x3f8270cc	1.0190673
22	0x3f84e9f4	1.0383897
23	0x3f864bba	1.049186
24	0x3f8e7f06	1.1132514
25	0x3f867725	1.050511
26	0x3f8deeb6	1.1088474
27	0x3f7698ef	0.9632711
28	0x3f789f37	0.9711794
29	0x3f8bcd52	1.0922034
30	0x3f82c9cf	1.0217837
31	0x3f8fd42e	1.1236627
32	0x3f83ab3d	1.0286633
33	0x3f8564e5	1.0421416
34	0x3f80802d	1.0039116
35	0x3f85aee4	1.0443997
36	0x3f81f909	1.0154124
37	0x3f8818e9	1.0632602
38	0x3f873676	1.0563495
39	0x3f8496dc	1.0358539
40	0x3f7f0481	0.9961625
41	0x3f814117	1.0097989
42	0x3f8b6583	1.0890354
43	0x3f838ef2	1.0277998
44	0x3f8b251d	1.0870701
45	0x3f8787eb	1.0588354
46	0x3f869feb	1.0517553
47	0x3f81e50b	1.0148023
48	0x3f879013	1.0590843
49	0x3f851e8f	1.0399951
50	0x3f826ac4	1.0188832
51	0x3f8c48a8	1.0959673
52	0x3f7d0a95	0.9884427
53	0x3f843acb	1.0330442
54	0x3f8a0749	1.0783473
55	0x3f89de49	1.0770961
56	0x3f8b1901	1.0867006
57	0x3f89037a	1.0704186
58	0x3f8c334b	1.0953153
59	0x3f825e72	1.0185072
60	0x3f81c0fc	1.0137019
61	0x3f66b63d	0.90121824
62	0x3f80260b	1.001161
63	0x3f86dfe9	1.0537082
64	0x3f79efc1	0.9763146
65	0x3f82ad0a	1.0209057
66	0x3f8e9bda	1.1141312
67	0x3f8973ea	1.0738499
68	0x3f8ad068	1.084485
69	0x3f85f0bd	1.0464092
70	0x3f862973	1.0481399
71	0x3f825bed	1.0184304
72	0x3f8896e2	1.0671046
73	0x3f87a997	1.059863
74	0x3f7c79d2	0.98623383
75	0x3f87b05c	1.0600696
76	0x3f8590eb	1.043485
77	0x3f80c443	1.0059894
78	0x3f8019a1	1.0007821
79	0x3f89e743	1.07737
80	0x3f7ef96a	0.99599326
81	0x3f84e7a1	1.0383188
82	0x3f82263b	1.0167917
83	0x3f80469f	1.0021552
84	0x3f8a2a18	1.0794096
85	0x3f814cb8	1.0101538
86	0x3f81f2a6	1.0152175
87	0x3f80eebf	1.007286
88	0x3f82e709	1.0226756
89	0x3f808688	1.0041056
90	0x3f83c2fa	1.0293877
91	0x3f7edaf1	0.9955283
92	0x3f811bb9	1.0086585
93	0x3f84f6a7	1.0387772
94	0x3f82db18	1.0223112
95	0x3f80e5f2	1.0070174
96	0x3f806bdc	1.0032916
97	0x3f82168f	1.0163134
98	0x3f87a428	1.0596972
99	0x3f822bcd	1.0169617
100	0x3f7feabd	0.9996756
101	0x3f86beea	1.0527012
102	0x3f883e91	1.0644094
103	0x3f8db785	1.1071631
104	0x3f82cec5	1.0219351
105	0x3f8f60e2	1.1201441
106	0x3f829493	1.0201591
107	0x3f812eec	1.0092444
108	0x3f80b6e4	1.0055814
109	0x3f81d5fd	1.0143429
110	0x3f8362c2	1.0264513
111	0x3f7e0aa3	0.9923498
112	0x3f843a1f	1.0330237
113	0x3f8d2772	1.1027663
114	0x3f864bee	1.0491922
115	0x3f810693	1.0080131
116	0x3f7d0b59	0.9884544
117	0x3f7e0487	0.9922566
118	0x3f8941f2	1.072325
119	0x3f757942	0.9588815

bias f4 [120]
0	0xbd0ecf15	-0.034865458
1	0x3a8dbaa6	0.0010813072
2	0x3d1ca705	0.03824522
3	0xbd0ab197	-0.03386077
4	0xbd0d6dc0	-0.034528494
5	0x3c9727aa	0.01845153
6	0xbd41db43	-0.047328245
7	0xbda93d07	-0.08263593
8	0xbc4afeb0	-0.012389824
9	0xbd975cb0	-0.073907256
10	0xbd921e1b	-0.071346484
11	0x3d1a774d	0.03771143
12	0xbbc7b6af	-0.0060947756
13	0xbcc7de9c	-0.02439814
14	0xbcf20ccf	-0.029547123
15	0xbbfb2b90	-0.007665105
16	0x3a9feb97	0.0012200949
17	0x3c6744de	0.01411554
18	0x3d486c45	0.04893138
19	0xbd9356f8	-0.07194322
20	0xbccc8178	-0.02496408
21	0x3c5d6ac7	0.013514227
22	0xbbab2db3	-0.0052239536
23	0xbc841b7b	-0.016126385
24	0x3d3b5104	0.04573156
25	0xbc9fe9c9	-0.019520657
26	0x3c632730	0.0138643235
27	0xbdd0b34a	-0.10190447
28	0x3c4c76ea	0.012479523
29	0x3d0204d9	0.031742904
30	0xbce0eda0	-0.027457058
31	0xbce00875	-0.027347783
32	0x3c21a75a	0.00986656
33	0x3cfe0ede	0.031012949
34	0xbd12f6cf	-0.035879906
35	0xbc386770	-0.01125513
36	0xbc4d6029	-0.012535133
37	0x3c871234	0.016488172
38	0x3d3e1366	0.04640522
39	0xbcd06882	-0.025440458
40	0x3c796bc5	0.015223448
41	0xbd1e1572	-0.03859467
42	0xbd3175c3	-0.043325197
43	0xbcfae474	-0.030626513
44	0x3d0e5a22	0.034753926
45	0x3d11efec	0.035629198
46	0x3d367937	0.044549193
47	0x3a84acb8	0.0010122275
48	0xb8c94a0e	-9.598221e-05
49	0x3d1a2809	0.037635837
50	0xbc6af413	-0.014340418
51	0x3c9c8c2f	0.019109813
52	0xbc02955d	-0.007970181
53	0x3a700def	0.00091573497
54	0x3ca427b6	0.020038467
55	0x3cc51fba	0.02406298
56	0x3cb45547	0.02201332
57	0x3c6e1c88	0.01453317
58	0xbc3bedd4	-0.011470277
59	0xbd039906	-0.032128356
60	0xbc13aef7	-0.009013883
61	0xbdcf6656	-0.10126941
62	0xbc84f592	-0.016230378
63	0xbc6308af	-0.013857051
64	0xbcdcd1ac	-0.026955448
65	0xbc854ed3	-0.016272938
66	0x3cf2d2f1	0.0296416
67	0x3d440b8b	0.04786257
68	0xb9c8d1b9	-0.00038303228
69	0x3cec0fa7	0.028816057
70	0x3c05ac7d	0.0081588
71	0x3cdf490c	0.027256511
72	0xbc218ed5	-0.009860714
73	0x3cef8615	0.02923874
74	0xbc848cbc	-0.016180389
75	0xbd21f568	-0.03954068
76	0x3d1a02af	0.037600216
77	0x3c7933fd	0.015210149
78	0xbb72f861	-0.0037074315
79	0x3d006cae	0.031353645
80	0xbd357bdf	-0.044307586
81	0xbd070dbf	-0.032972094
82	0xbcd79c3a	-0.026319612
83	0x3cbde328	0.023179606
84	0x3da348af	0.07972848
85	0xbcc975e6	-0.024592351
86	0xbc11d17c	-0.008900043
87	0xbd396680	-0.045263767
88	0xbcc5df7f	-0.024154423
89	0xbc2a7ae9	-0.010405281
90	0x3c869162	0.016426746
91	0xbd2ea696	-0.042639337
92	0x396d3da9	0.00022625051
93	0x3d09913b	0.03358577
94	0xbc42a4e1	-0.0118801305
95	0x39c74d0d	0.00038013645
96	0xbc9d9c94	-0.019239701
97	0xbcf13640	-0.029444814
98	0xbc89857f	-0.016787289
99	0xbc475ccf	-0.012168123
100	0x3bca8155	0.0061799684
101	0xbc94bd45	-0.018156657
102	0x3a31678b	0.0006767443
103	0x3d221db8	0.039579123
104	0xbb86f1cb	-0.0041181794
105	0xbd06f4ca	-0.032948293
106	0xbd68d45e	-0.056843154
107	0xbca1665d	-0.01970213
108	0xbab160c3	-0.0013532866
109	0x3c0b23f2	0.008492457
110	0xbd0aefa9	-0.033919964
111	0xbcdfe004	-0.027328499
112	0x3caae395	0.020860473
113	0x3d80d7ba	0.062911466
114	0xbc0bff33	-0.008544731
115	0x3a262bd3	0.0006338928
116	0xbcc6c751	-0.024264963
117	0xbcfe1304	-0.031014927
118	0x3cc24560	0.023714721
119	0xbd9a809f	-0.07544064

running_mean f4 [120]
0	0xbec31e8f	-0.38109252
1	0xbf1b522b	-0.60672253
2	0x3fa19d86	1.2626197
3	0xbe9a0736	-0.30083627
4	0xbedf4d72	-0.43613774
5	0xbedde4e5	-0.43338695
6	0xbf4d9abc	-0.8031423
7	0x3d2ce810	0.0422135
8	0xbded947e	-0.11600588
9	0x3f64ca24	0.8937094
10	0xbfdcca73	-1.7249283
11	0xbe554f1d	-0.2083096
12	0xbf3ee149	-0.7456251
13	0x3e193518	0.1496166
14	0x3ea3f48d	0.32022515
15	0x3f0b25bb	0.5435445
16	0xbef70d39	-0.48252276
17	0x3e874b23	0.26424512
18	0xbf64b866	-0.8934387
19	0xbe8b213f	-0.27173802
20	0x3f038b88	0.5138478
21	0x3f3e2101	0.7426911
22	0xbe9bd774	-0.30437815
23	0x3f8ca821	1.0988809
24	0x3f2a69a7	0.6656746
25	0x3e2ba6ef	0.16762899
26	0xbf20887c	-0.6270826
27	0xbf04d05a	-0.5188042
28	0xbf3f9cf8	-0.7484889
29	0xbf627406	-0.8845829
30	0xbee0d818	-0.43914866
31	0x3e710fa0	0.23541117
32	0x3e96330f	0.2933583
33	0x3e8f72c2	0.2801724
34	0xbedf91f6	-0.43666047
35	0xbef55cf4	-0.4792248
36	0xbe4e9b64	-0.20176464
37	0x3db200d0	0.08691561
38	0xbf5a08c8	-0.8516965
39	0xbe90d74a	-0.28289253
40	0xbfa45330	-1.2837887
41	0x3becf01a	0.007230771
42	0x3e027012	0.12738064
43	0xbef5ca7e	-0.48006052
44	0x3f0caa40	0.5494728
45	0xbe062713	-0.13100843
46	0xbf35c95d	-0.7101038
47	0xbf33c159	-0.702169
48	0x3e90eb86	0.2830469
49	0xbde43123	-0.111421846
50	0x3fe7575c	1.8073535
51	0xbdcf15bd	-0.10111568
52	0xbf2282de	-0.6348094
53	0xbfdd6acb	-1.7298216
54	0x3ed48168	0.4150498
55	0xbe1d162e	-0.15340492
56	0x3e2b46dd	0.16726251
57	0x3ea760c7	0.32691023
58	0xbf4af785	-0.79283935
59	0x3ea02adf	0.31282708
60	0x3f7b55b2	0.98177636
61	0x3e052eb6	0.130061
62	0xbf25b828	-0.64734125
63	0xbe2c8f75	-0.168516
64	0xbee39c86	-0.44455355
65	0xbcbad664	-0.022807308
66	0xbee954e2	-0.45572573
67	0x3e8b1f48	0.27172303
68	0xbe9d98c8	-0.30780625
69	0xbec98d3b	-0.39365563
70	0x3f8145d2	1.0099432
71	0x3ee892ba	0.45424443
72	0xbda9f478	-0.08298582
73	0xbdbc2a79	-0.091877885
74	0x3eecbf63	0.46239766
75	0x3e451f27	0.19250165
76	0x3d146d0e	0.036236815
77	0xbe94ec26	-0.29086417
78	0x3f00139c	0.5002992
79	0xbe9536f5	-0.2914349
80	0xbdc07c50	-0.09398711
81	0xbe31a567	-0.17348252
82	0xbd22a035	-0.039703567
83	0x3f320e46	0.6955303
84	0xbedd77d6	-0.4325549
85	0x3f15d6e2	0.5853101
86	0xbedaad8c	-0.4271053
87	0x3f0f8054	0.5605519
88	0xbea3320d	-0.31874123
89	0xbd9ac43e	-0.075569615
90	0xbebe5046	-0.3717062
91	0x3f30516c	0.6887424
92	0xbcf836f1	-0.030299636
93	0xbe70f14d	-0.23529549
94	0x3d5cd277	0.053911652
95	0x3dba6499	0.09101219
96	0x3f15d255	0.58524066
97	0xbe43b6e2	-0.19112733
98	0x3e4cdf8f	0.20007156
99	0xbeefd024	-0.46838486
100	0x3d2b0311	0.04175097
101	0xbf06481e	-0.5245379
102	0xbe0e5d85	-0.13902862
103	0x3e0bf1cb	0.13666455
104	0xbf0da2da	-0.55326617
105	0xbdac2eaa	-0.08407338
106	0x3ee9ded6	0.45677823
107	0xbec37ade	-0.38179678
108	0xbf0c2c24	-0.54754853
109	0x3ed2c8e5	0.41168895
110	0xbed64305	-0.41848007
111	0x3e33851d	0.17531247
112	0xbf2c5f7e	-0.6733321
113	0xbe229b9b	-0.15879671
114	0xbf3a6af5	-0.72819453
115	0xbe65907b	-0.22418396
116	0x3f02e1d6	0.5112585
117	0xbf1cac10	-0.61200047
118	0xbe82e231	-0.25563195
119	0x3f5e6632	0.8687469

running_var f4 [120]
0	0x3e28aeca	0.16472927
1	0x3e2eb693	0.17061834
2	0x3ea4ad7b	0.32163605
3	0x3e89f198	0.26942134
4	0x3e6fbe52	0.23412445
5	0x3e77ab35	0.24186404
6	0x3eab42a3	0.33449277
7	0x3e518289	0.20459951
8	0x3e9379da	0.28803903
9	0x3eb49098	0.35266566
10	0x3eb4c8d0	0.35309458
11	0x3e88049c	0.26566017
12	0x3e8cada1	0.27476218
13	0x3f12127c	0.57059455
14	0x3eb24d76	0.34824723
15	0x3ec011c4	0.37513554
16	0x3e7ef7cc	0.24899215
17	0x3e372097	0.17883526
18	0x3e64eb25	0.22355326
19	0x3e6138b8	0.21994293
20	0x3e34712a	0.17621294
21	0x3e80ac8b	0.2513164
22	0x3e218d8e	0.15776655
23	0x3ea5a615	0.32353273
24	0x3ec889f3	0.39167747
25	0x3e770b67	0.24125443
26	0x3e6c0d2a	0.23051897
27	0x3e68307a	0.22674742
28	0x3e64a962	0.2233024
29	0x3ea410e3	0.32044134
30	0x3edc97f7	0.4308469
31	0x3e7da4e6	0.24769935
32	0x3e0f6b9d	0.14005895
33	0x3e9494b4	0.290197
34	0x3ea3446b	0.31888136
35	0x3e4ebdb6	0.20189556
36	0x3e9ea79f	0.3098726
37	0x3e0d21c5	0.13782413
38	0x3e3dba79	0.18528165
39	0x3e2746f1	0.16335656
40	0x3eb1cca1	0.34726432
41	0x3e3c84ec	0.1841008
42	0x3e604467	0.21901093
43	0x3e89e01b	0.2692879
44	0x3e806c5c	0.25082672
45	0x3edd69a8	0.43244672
46	0x3e754ebe	0.23955819
47	0x3e9eca67	0.31013796
48	0x3e893613	0.26799068
49	0x3eb3c4a0	0.3511095
50	0x3ebb96d7	0.3663852
51	0x3e244b40	0.1604433
52	0x3e946df8	0.2899015
53	0x3e8d5624	0.27604783
54	0x3e7ac7b2	0.2449024
55	0x3e4cde49	0.2000667
56	0x3e67c0f1	0.22632195
57	0x3eb5e650	0.35527277
58	0x3e7a348f	0.24434112
59	0x3e4004e1	0.18751861
60	0x3e95b3b0	0.29238653
61	0x3e81e2ec	0.2536844
62	0x3e7c1e8f	0.24621032
63	0x3e23a08c	0.15979213
64	0x3e9988ee	0.29987282
65	0x3e1097c6	0.14120397
66	0x3e67bae1	0.22629882
67	0x3e77b048	0.2418834
68	0x3e87a2b3	0.26491317
69	0x3e939bac	0.28829706
70	0x3e8f032e	0.27932113
71	0x3ed356fc	0.412773
72	0x3e9f7062	0.3114043
73	0x3e3d7445	0.18501385
74	0x3e81484b	0.25250468
75	0x3e43b546	0.19112119
76	0x3e5d7a12	0.21628597
77	0x3e5b90fc	0.21442026
78	0x3e458426	0.19288692
79	0x3ea02367	0.3127701
80	0x3e876fe5	0.26452556
81	0x3e73a015	0.23791535
82	0x3e56e595	0.20986016
83	0x3ebbdc7b	0.3669165
84	0x3e7091b4	0.23493081
85	0x3e5e5b17	0.21714436
86	0x3ed54bc7	0.41659376
87	0x3e37394e	0.17892954
88	0x3e8f2eb5	0.27965322
89	0x3effb0cf	0.49939582
90	0x3e8f914b	0.28040537
91	0x3e8465d4	0.2585894
92	0x3e988918	0.29792094
93	0x3e6ab5c8	0.22920907
94	0x3e82ce69	0.25548103
95	0x3e81c8ac	0.25348413
96	0x3ea54dec	0.32286012
97	0x3e801343	0.25014696
98	0x3e95338c	0.2914089
99	0x3e9e52aa	0.30922443
100	0x3e5339ff	0.20627593
101	0x3e98e8e1	0.29865173
102	0x3e336dbb	0.17522328
103	0x3e8d6c63	0.27621755
104	0x3e8cea9c	0.27522743
105	0x3e615a90	0.22007203
106	0x3e240604	0.1601792
107	0x3e45b8ee	0.19308826
108	0x3e787bbf	0.24265955
109	0x3e9c3256	0.30507153
110	0x3e5663c4	0.20936495
111	0x3e8a943c	0.2706622
112	0x3e918c98	0.28427577
113	0x3e4bf985	0.19919403
114	0x3e2e64fa	0.17030707
115	0x3e65d2df	0.22443722
116	0x3e4abf2a	0.19799486
117	0x3e51d636	0.20491871
118	0x3e57e550	0.2108357
119	0x3f2430dc	0.64137053

weight f4 [84, 120]
0	0x3e45df5d	0.19323488
1	0xbda963e6	-0.08271007
2	0xbd7038db	-0.05864797
3	0xbd0419d8	-0.03225121
4	0xbd1fb2d3	-0.0389889
5	0xbcb7b0c5	-0.022423157
6	0x3e1d97a4	0.15389878
7	0x3dbb2c0a	0.09139259
8	0xbe007f26	-0.12548503
9	0xbbd58d76	-0.0065171076
10	0xbcb96447	-0.022630824
11	0xbd37e354	-0.04489453
12	0xbd5ab338	-0.053393573
13	0x3dfafff3	0.1225585
14	0x3d8f2c95	0.06990925
15	0x3e130a7b	0.14359467
16	0xbd955c77	-0.07293027
17	0x3ca4f155	0.020134607
18	0x3dd0390b	0.1016713
19	0xbde9a763	-0.114088796
20	0x3d8ccfcf	0.06875574
21	0x3cdeb10f	0.027184037
22	0x3e2de0c2	0.1698027
23	0x3c9e65b4	0.019335605
24	0xbd28dbfe	-0.041225426
25	0x3e046624	0.12929589
26	0xbe0ce759	-0.13760127
27	0xbdbf6bf3	-0.093467616
28	0x3e0348fb	0.12820809
29	0x3e559760	0.20858526
30	0xbd903d94	-0.07042995
31	0x3e36f099	0.17865218
32	0xbd5bf773	-0.053702783
33	0x3c429515	0.011876364
34	0x3d3f649e	0.046726815
35	0x3db9c782	0.09071256
36	0xbe2f90ad	-0.17145033
37	0xbdffeb99	-0.124961086
38	0xbd8e3bd0	-0.06945002
39	0x3db79ff7	0.08966058
40	0x3d90a983	0.07063582
41	0x3da192b4	0.078893095
42	0xbe574400	-0.21022034
43	0x3d4883ca	0.04895381
44	0x3e2ae2c7	0.16688071
45	0x3a9a56b7	0.0011775111
46	0x3e03e93c	0.1288194
47	0x3c73a08a	0.014869818
48	0x3d342eee	0.04399007
49	0xbe3617de	-0.17782542
50	0x3df4cdfb	0.1195335
51	0x3d499af4	0.04922004
52	0xbdcf6225	-0.101261415
53	0x3dcfd9e3	0.101489805
54	0x3e0f5341	0.13996603
55	0x3e589d0e	0.21153662
56	0xbe0e5fda	-0.13903752
57	0x3e1b63eb	0.15174834
58	0x3e2066bf	0.15664195
59	0xbe1062fb	-0.14100258
60	0xbce30040	-0.02771008
61	0x3e2f5498	0.17122114
62	0xbdaf63dd	-0.08563969
63	0x3d9dd433	0.077064894
64	0xbdbcae97	-0.09212988
65	0x3d038682	0.0321107
66	0xbdeed270	-0.116612315
67	0x3d6d127b	0.057878952
68	0xbdefef44	-0.11715558
69	0xbe1ce643	-0.15322213
70	0x3df2d52c	0.118570656
71	0x3d9f9f80	0.07794094
72	0xbe3a8fa7	-0.18218862
73	0x3e12c8ac	0.14334363
74	0x3e19090f	0.14944862
75	0xbe1f068b	-0.1552984
76	0xbd28b23f	-0.041185614
77	0x3ccf1494	0.025278367
78	0xbdaef8b4	-0.0854353
79	0x3d980c9f	0.07424282
80	0xbe2f33a5	-0.17109545
81	0x3d6b3d4d	0.057431508
82	0x3dba2a14	0.09090057
83	0x3e4e9326	0.2017332
84	0x3e2a2964	0.16617352
85	0xbb660718	-0.0035099443
86	0x3daf17b9	0.085494466
87	0x3e41e149	0.18933596
88	0x3dfc07c3	0.12306168
89	0xbd868307	-0.0656796
90	0x3de045b8	0.10950798
91	0x3e26714b	0.16254155
92	0x3cc1d979	0.02366327
93	0xbc0a5d20	-0.008445054
94	0x3d3b05e6	0.045659922
95	0xbd8fdea9	-0.07024891
96	0x3cba1a66	0.022717666
97	0x3c54d176	0.0129893925
98	0x3cfc5008	0.03079988
99	0x3ce02e2d	0.027365768
100	0xbe0d0652	-0.13771942
101	0x3da242f5	0.07922927
102	0xbd66ece5	-0.056378264
103	0xbd334dc3	-0.04377533
104	0xbde6e7db	-0.11274692
105	0x3e566d9e	0.20940253
106	0x3d7f4f96	0.06233176
107	0xbdf7bdd3	-0.12096753
108	0xbdbb7381	-0.0915289
109	0x3dc2c08f	0.09509384
110	0x3d201fa2	0.039092667
111	0x3d31672a	0.043311276
112	0x3e34a00d	0.1763918
113	0x3e2e9414	0.17048675
114	0xbdf44544	-0.11927274
115	0xbc7db99e	-0.015486149
116	0xbc8a7320	-0.016900599
117	0x3de8adc8	0.11361271
118	0x3c464fa7	0.012103952
119	0xbdd03c6d	-0.10167775
120	0xbd8c9910	-0.06865132
121	0x3e345b8d	0.17613049
122	0xbde68206	-0.11255269
123	0xbde7cd6e	-0.113184795
124	0xbe0a001d	-0.13476606
125	0x3db2b440	0.08725786
126	0x3ca3cea3	0.019995993
127	0x3e0b873c	0.13625807
128	0x3d3315f6	0.043722115
129	0xbdb9da2b	-0.09074815
130	0x3d82ac87	0.06380563
131	0x3e177421	0.14790393
132	0x3d4a1406	0.049335502
133	0xbdd37371	-0.10324753
134	0xbd8bea2b	-0.06831773
135	0xbe3812be	-0.179759
136	0x3e4b291b	0.19839899
137	0xbe382180	-0.17981529
138	0x3e55bcea	0.20872846
139	0x3da05f21	0.078306444
140	0x3cb5fe8e	0.022216108
141	0x3cc1c9bf	0.02365577
142	0xbc0bb478	-0.008526914
143	0x3e0e15b7	0.13875471
144	0x3e50a512	0.2037547
145	0x3e3b3878	0.1828326
146	0x3e3069c2	0.17227843
147	0xbe09532b	-0.13410632
148	0x3d95c0bd	0.073121525
149	0xbdf05e58	-0.11736745
150	0x3d5b982f	0.05361193
151	0xbe22d951	-0.15903212
152	0xbe120b61	-0.14262153
153	0x3d06e0b8	0.032929152
154	0xbe0ec327	-0.13941632
155	0x3df18796	0.11793439
156	0x3dac32c6	0.08408122
157	0x3d8a1daa	0.06743939
158	0x3d238845	0.03992488
159	0xbe02bbd4	-0.12766963
160	0x3c1ee3e2	0.009697886
161	0x3dfad175	0.12246982
162	0x3d266f94	0.040633753
163	0x3dff4b15	0.12465493
164	0xbcd33096	-0.025780004
165	0xbdc2f6db	-0.0951974
166	0x3db18a15	0.08668915
167	0x3e497af1	0.19675805
168	0x3daa2d5f	0.08309435
169	0x3d0be0bb	0.034149867
170	0xbd37efae	-0.04490631
171	0x3c1f6c94	0.009730477
172	0xbd00d4cf	-0.03145295
173	0x3e3447aa	0.17605463
174	0x3e08daac	0.13364667
175	0xbe18da86	-0.1492711
176	0xbd9338d9	-0.07188577
177	0x3dcd5dea	0.10027678
178	0xbe0ce7c2	-0.13760284
179	0x3da7bc95	0.08190266
180	0xbc08f556	-0.008359274
181	0x3cea87e9	0.02862926
182	0x3df9094c	0.12159976
183	0xbd66b186	-0.056321643
184	0x3dcc4590	0.099742055
185	0xbe1f01bf	-0.1552801
186	0xbd004471	-0.03131527
187	0x3db4e091	0.08831895
188	0x3df14201	0.11780167
189	0x3dca1c6f	0.098687045
190	0xbe30626a	-0.17225042
191	0xbde7d36e	-0.11319624
192	0x3ddf24c1	0.10895682
193	0x3d82e70c	0.06391725
194	0xbd846b5a	-0.06465788
195	0xbcc895c8	-0.024485484
196	0xbe50d50b	-0.2039377
197	0xbc57a861	-0.013162703
198	0xbe0feedc	-0.14055961
199	0xbd042707	-0.032263782
200	0xbdc20d83	-0.094752334
201	0x3d2b9f26	0.041899823
202	0xbcc862bc	-0.024461143
203	0x3e057375	0.13032325
204	0xbd520e07	-0.05128291
205	0x3d8745a4	0.0660508
206	0xbcdd3a4b	-0.027005335
207	0x3d861445	0.06546835
208	0xbe13993e	-0.14413926
209	0xbe289df4	-0.16466504
210	0xbdcd53a1	-0.100257166
211	0x3d8884a8	0.06665927
212	0xbcd1e2c1	-0.02562082
213	0x3d2486da	0.040167667
214	0xbe436e03	-0.19084935
215	0xbe35a5e2	-0.1773906
216	0x3d758f6b	0.059951227
217	0x3d37b1b7	0.044847216
218	0x3e168dcd	0.1470253
219	0x3d8b7fdf	0.06811499
220	0xbdd75dea	-0.105159596
221	0x3dc515eb	0.09623321
222	0x3d68a85d	0.05680119
223	0x3d9ab1c9	0.07553441
224	0xbc9691be	-0.018380042
225	0x3d70c58a	0.058782138
226	0xbddd012c	-0.10791239
227	0x3dfb3a9c	0.12267038
228	0x3cf302e5	0.029664466
229	0xbd99f437	-0.075172834
230	0xbe18082f	-0.14846872
231	0x3cb0091d	0.02148872
232	0xbdb0cfe0	-0.08633399
233	0x3deb52a9	0.114903755
234	0xbd110108	-0.035401374
235	0x3e0f9cfd	0.1402473
236	0x3dcea375	0.10089771
237	0x3d975600	0.0738945
238	0x3c2814b1	0.0102588395
239	0x3d6b23c4	0.057407156
240	0xbe6e45f8	-0.23268878
241	0x3e0f3ce2	0.13988069
242	0x3d238213	0.03991897
243	0xbdf8b74b	-0.12144335
244	0x3e21dca9	0.15806831
245	0xbb00f345	-0.001967625
246	0x3dd927e8	0.10603315
247	0xbdb08e49	-0.08620889
248	0xbe2d2e60	-0.16912222
249	0xbe259d6b	-0.16173331
250	0xbd33f15b	-0.043931346
251	0x3e3aa76e	0.18227932
252	0x3e4281d2	0.18994835
253	0x3e2fff2d	0.17187186
254	0x3df07ec3	0.11742928
255	0x3d335db9	0.043790553

bias f4 [84]
0	0x3c42a402	0.011879923
1	0x3c14afa8	0.009075083
2	0x3bf1c131	0.0073777665
3	0x3cb7f88d	0.022457385
4	0x3b7b5cd8	0.00383549
5	0x3c10f29f	0.008846908
6	0xbbaae01f	-0.0052147056
7	0xbc755094	-0.014972825
8	0xbc9dba89	-0.019253986
9	0xbd1672a2	-0.036730416
10	0x3ae5f331	0.001754379
11	0xbccdf7fb	-0.02514266
12	0x3d53697d	0.051614273
13	0x3bb17c31	0.005416416
14	0x3c8a9512	0.016916785
15	0x3d068e21	0.03285039
16	0x3ccda46a	0.025102813
17	0x3c60a366	0.013710832
18	0xbcab34f4	-0.020899273
19	0x3c4651a0	0.012104422
20	0xbc7ee24a	-0.015556881
21	0x3b6bc55b	0.0035975787
22	0xbbc2cab5	-0.0059445747
23	0x3d9d1100	0.07669258
24	0x3c9b21a3	0.018936938
25	0xbba3d9de	-0.005000337
26	0x3c8a587f	0.016887901
27	0x3c413e5e	0.011794655
28	0x3ca25807	0.019817365
29	0x3bc285d3	0.0059363632
30	0x3d1befb2	0.03807039
31	0xbc421f95	-0.01184835
32	0x3c2306f7	0.009950391
33	0x3d296930	0.04136008
34	0x3ca0d84a	0.019634385
35	0x3cd50ee0	0.02600807
36	0x3cfb478d	0.030673767
37	0xbc6c2b86	-0.014414674
38	0x3cdf7d03	0.02728129
39	0xbcd36f2e	-0.02580985
40	0x3c8e788e	0.01739147
41	0xbcd65f4c	-0.026168488
42	0x3ce77b62	0.028257076
43	0xba47f3e6	-0.0007627591
44	0x3c90adff	0.017661093
45	0x3aa29ba9	0.001240601
46	0x3c4a15fc	0.012334343
47	0x3c50d1d0	0.012745336
48	0x3ccad397	0.024759097
49	0x3b5d3d32	0.00337584
50	0x3d0f268d	0.034948874
51	0xbca0ab64	-0.019612975
52	0xbc21f215	-0.009884377
53	0x3c9960e6	0.018722963
54	0x3c3f4a37	0.011675409
55	0xbbbb9684	-0.00572473
56	0xbbbe62d5	-0.0058101215
57	0xbbd4ce66	-0.006494331
58	0x3c0c9b8d	0.008582008
59	0x3ca8bf85	0.020599136
60	0xbc66c96c	-0.014086109
61	0x3a38eb81	0.0007054136
62	0x3d2c14ab	0.042011898
63	0x3c262d19	0.010142588
64	0x3b0894b3	0.0020840585
65	0xbcb41e93	-0.021987235
66	0x3c8a907c	0.016914599
67	0xbacdd881	-0.0015704782
68	0x3bbc1d65	0.005740809
69	0x3c4b65b5	0.012414386
70	0x3ba51c82	0.005038799
71	0x3bb25621	0.0054423963
72	0x3c96a511	0.018389257
73	0x3c8ee3af	0.017442552
74	0xbb06ac7b	-0.0020549584
75	0x3c54f019	0.012996697
76	0x3cdc5a2b	0.026898464
77	0x3c551b7d	0.013007042
78	0x3b4f3211	0.0031615535
79	0x3d37d0a6	0.044876717
80	0x3cb40de6	0.021979284
81	0x3cd71115	0.026253263
82	0xbbb4dd02	-0.0055195102
83	0xbc245639	-0.010030323
